ML/models/conv1d_angle_toro_ossaba/seed9_20260116_234517_187/model_int8.tflite (tflite, 99296 bytes, 6 tensors)

tfl.pseudo_qconst1 i1 [1, 64] scale=0.0024848438 zero_point=0
00000000: 0398 e9da b2c0 6f21 c52d 5db5 aea1 5caf
00000010: b3ba edab 0d9d e5ee 5863 d264 e453 e167
00000020: 5093 f3c5 7f47 cfd0 23c3 c975 d54c 5a6f
00000030: 6fd9 c531 37e7 24bf 5b3f b3a8 9cd4 2ab7
0.0074545313 -0.25842375 -0.057151407 -0.09442407 -0.19381782 -0.15903 0.27581766 0.081999846
-0.14660579 0.11181797 0.23109047 -0.1863633 -0.2037572 -0.23606016 0.22860563 -0.20127235
-0.19133298 -0.17393906 -0.047212034 -0.21121173 0.03230297 -0.24599954 -0.06709079 -0.044727188
0.21866626 0.24599954 -0.114302814 0.24848439 -0.06957563 0.20624204 -0.07703016 0.25593892
0.19878751 -0.27084798 -0.03230297 -0.14660579 0.31557515 0.1764239 -0.12175735 -0.1192725
0.08696953 -0.15157548 -0.13666642 0.29072672 -0.106848285 0.18884814 0.22363594 0.27581766
0.27581766 -0.09690891 -0.14660579 0.12175735 0.13666642 -0.062121097 0.089454375 -0.16151485
0.22612078 0.15654516 -0.19133298 -0.21866626 -0.24848439 -0.10933313 0.10436344 -0.1813936

tfl.pseudo_qconst3 i1 [64, 128]
00000000: 6317 e503 5061 8122 e05b 1fe1 d622 7122
00000010: 5bd3 05c6 abba a29a 4020 f2c9 1dd6 ff07
00000020: 6901 e0dd 18d0 f3f6 28fa b410 b0ed e849
00000030: a7e6 5fb0 1cc1 0faa dc3e d54f 6434 ef2b
00000040: c1bc 595f 41af f0bf adfe b9e5 31cf 62b0
00000050: f160 55e4 b93d a73f 16b4 1bdc c423 c803
00000060: ecd1 3927 cda8 e5b1 ba01 ce49 1029 0cc5
00000070: b048 69f6 4c34 2e6d de18 d346 05d9 e42a
00000080: 3214 3934 39d3 e6de ef36 04ea 4060 9d97
00000090: e26a 96ea 04e5 6b1a 3991 f906 b8e9 c620
000000a0: 0f43 941b c612 268c 9ee7 8c02 b90e 61f4
000000b0: 04b2 b917 5add a16f 1516 57b3 a2a2 a2ac
000000c0: 6ee3 04fb 3aec 388b 2cc0 eee7 e826 fe65
000000d0: 6060 e9c3 dc4f 721f 5fe1 4f11 3e4b 64be
000000e0: 0d36 6fcc c0e7 1f20 81ba 0ce2 1f5c 79b1
000000f0: ee62 5331 828d 41bf b224 c7af 270a 8d45
99 23 -27 3 80 97 -127 34
-32 91 31 -31 -42 34 113 34
91 -45 5 -58 -85 -70 -94 -102
64 32 -14 -55 29 -42 -1 7
105 1 -32 -35 24 -48 -13 -10
40 -6 -76 16 -80 -19 -24 73
-89 -26 95 -80 28 -63 15 -86
-36 62 -43 79 100 52 -17 43
-63 -68 89 95 65 -81 -16 -65
-83 -2 -71 -27 49 -49 98 -80
-15 96 85 -28 -71 61 -89 63
22 -76 27 -36 -60 35 -56 3
-20 -47 57 39 -51 -88 -27 -79
-70 1 -50 73 16 41 12 -59
-80 72 105 -10 76 52 46 109
-34 24 -45 70 5 -39 -28 42
50 20 57 52 57 -45 -26 -34
-17 54 4 -22 64 96 -99 -105
-30 106 -106 -22 4 -27 107 26
57 -111 -7 6 -72 -23 -58 32
15 67 -108 27 -58 18 38 -116
-98 -25 -116 2 -71 14 97 -12
4 -78 -71 23 90 -35 -95 111
21 22 87 -77 -94 -94 -94 -84
110 -29 4 -5 58 -20 56 -117
44 -64 -18 -25 -24 38 -2 101
96 96 -23 -61 -36 79 114 31
95 -31 79 17 62 75 100 -66
13 54 111 -52 -64 -25 31 32
-127 -70 12 -30 31 92 121 -79
-18 98 83 49 -126 -115 65 -65
-78 36 -57 -81 39 10 -115 69

tfl.pseudo_qconst5 i1 [128, 128]
00000000: de29 be8b b60b fc44 2c27 c79f 049f d80a
00000010: af11 1b07 c38b 4edc b61a ba39 b2bc c998
00000020: 6a3a 72ae 1c19 abda 56c1 1ae4 6a5b 451a
00000030: 868e 45b9 ab5a 5fdf 89b7 9ea7 5e30 db06
00000040: d240 a904 e615 d0c9 36b6 8135 f3ee 6158
00000050: c7a3 74bf 9087 e5ce b995 5fff 69b4 2ae6
00000060: 8fc0 3fde 31f5 d853 d3e5 771b d148 4982
00000070: 569e 2b09 c4e2 4331 a1cc a8a8 d0ec 323a
00000080: dfb1 7065 ebd1 d19e 8591 c6e7 bf1b 26ff
00000090: 3793 3515 2310 f3bc 9249 1826 5ece 5162
000000a0: 9f5d 7188 1550 a881 2181 53e1 91ff 5ddf
000000b0: 2156 4461 05d6 3a3f 96b4 5437 3806 32c5
000000c0: 8ff6 b6b3 f424 8786 a628 8c4e ffd0 e242
000000d0: ecd5 4726 68b4 bcb9 b2e0 f4c3 f572 1341
000000e0: 4518 d3fa 8ec1 3546 ba6f 7013 c654 d22f
000000f0: 37ee 8f09 3d85 3a2a a606 feea e4d1 4e23
-34 41 -66 -117 -74 11 -4 68
44 39 -57 -97 4 -97 -40 10
-81 17 27 7 -61 -117 78 -36
-74 26 -70 57 -78 -68 -55 -104
106 58 114 -82 28 25 -85 -38
86 -63 26 -28 106 91 69 26
-122 -114 69 -71 -85 90 95 -33
-119 -73 -98 -89 94 48 -37 6
-46 64 -87 4 -26 21 -48 -55
54 -74 -127 53 -13 -18 97 88
-57 -93 116 -65 -112 -121 -27 -50
-71 -107 95 -1 105 -76 42 -26
-113 -64 63 -34 49 -11 -40 83
-45 -27 119 27 -47 72 73 -126
86 -98 43 9 -60 -30 67 49
-95 -52 -88 -88 -48 -20 50 58
-33 -79 112 101 -21 -47 -47 -98
-123 -111 -58 -25 -65 27 38 -1
55 -109 53 21 35 16 -13 -68
-110 73 24 38 94 -50 81 98
-97 93 113 -120 21 80 -88 -127
33 -127 83 -31 -111 -1 93 -33
33 86 68 97 5 -42 58 63
-106 -76 84 55 56 6 50 -59
-113 -10 -74 -77 -12 36 -121 -122
-90 40 -116 78 -1 -48 -30 66
-20 -43 71 38 104 -76 -68 -71
-78 -32 -12 -61 -11 114 19 65
69 24 -45 -6 -114 -63 53 70
-70 111 112 19 -58 84 -46 47
55 -18 -113 9 61 -123 58 42
-90 6 -2 -22 -28 -47 78 35

tfl.pseudo_qconst7 i1 [128, 1, 5, 64]
00000000: 2028 4023 dc36 e13b ae12 ccc8 12cf c01a
00000010: bc08 1e45 ba34 3614 5f0c 0bf5 3ecd e71f
00000020: 0c1c 403b dd0d 083f e626 e804 b8df d9e3
00000030: 54ee d7aa bb2d ff38 103d 22f6 16ee f93e
00000040: d9d2 01d0 bfe6 f4da 1915 26ca b927 1263
00000050: a8f6 9d4f f70f 0635 549e e009 fa38 181f
00000060: 262c 50f5 a833 1f4a f8fc d432 bebc 15a4
00000070: d7b4 a2c5 1924 f8b6 f8b3 c2b5 4cbf 5c17
00000080: 2629 8121 9a04 d3b4 abfc ed00 97e2 6f5e
00000090: c8a5 f619 51ac b2b5 fd31 1aeb 1325 1a2b
000000a0: b2cd 0abb 2c2c 5c37 cc5d 0e0f a959 c325
000000b0: 57f2 1014 f0d7 e90a a7a7 18c5 fbfe cf04
000000c0: 003f 9c0b f9ad 22c4 39fa ac18 c416 52f5
000000d0: 1f23 c61d 32de fbcc cb4a 9ff3 f307 05f2
000000e0: f510 fecd c119 17c2 bab8 0b01 462b 4b9e
000000f0: 5ec9 2014 da02 fdef 300d f7b5 3283 21de
32 40 64 35 -36 54 -31 59
-82 18 -52 -56 18 -49 -64 26
-68 8 30 69 -70 52 54 20
95 12 11 -11 62 -51 -25 31
12 28 64 59 -35 13 8 63
-26 38 -24 4 -72 -33 -39 -29
84 -18 -41 -86 -69 45 -1 56
16 61 34 -10 22 -18 -7 62
-39 -46 1 -48 -65 -26 -12 -38
25 21 38 -54 -71 39 18 99
-88 -10 -99 79 -9 15 6 53
84 -98 -32 9 -6 56 24 31
38 44 80 -11 -88 51 31 74
-8 -4 -44 50 -66 -68 21 -92
-41 -76 -94 -59 25 36 -8 -74
-8 -77 -62 -75 76 -65 92 23
38 41 -127 33 -102 4 -45 -76
-85 -4 -19 0 -105 -30 111 94
-56 -91 -10 25 81 -84 -78 -75
-3 49 26 -21 19 37 26 43
-78 -51 10 -69 44 44 92 55
-52 93 14 15 -87 89 -61 37
87 -14 16 20 -16 -41 -23 10
-89 -89 24 -59 -5 -2 -49 4
0 63 -100 11 -7 -83 34 -60
57 -6 -84 24 -60 22 82 -11
31 35 -58 29 50 -34 -5 -52
-53 74 -97 -13 -13 7 5 -14
-11 16 -2 -51 -63 25 23 -62
-70 -72 11 1 70 43 75 -98
94 -55 32 20 -38 2 -3 -17
48 13 -9 -75 50 -125 33 -34

tfl.pseudo_qconst9 i1 [64, 1, 7, 32]
00000000: a5dc e97f f9bf e600 d0ed ddf2 61f5 b465
00000010: fb06 fba7 161e b819 aa0b e1be a804 e214
00000020: e103 d30d a5dc f119 d9b5 e8dd eff9 271e
00000030: 3ff9 c100 3c11 38ac a1de 00fc 0f37 e8b5
00000040: e94a dd11 0cc5 3af6 bce1 070d 03f9 d617
00000050: e5af cfdd ce4e fcf8 b4d1 132e 3efa e227
00000060: 2203 0cff eceb 0049 1422 eec3 3806 2afc
00000070: 34c6 21d2 2646 2f11 c2c9 283e d0e4 1ad4
00000080: e2f7 26f0 01c1 fcce 3545 de11 d252 00ff
00000090: a622 1a12 013c e233 2a33 07e0 46ee 41dc
000000a0: 50d2 b311 5451 0bdf 2e09 ccda dce1 3335
000000b0: e6ca e91f 3e4f 344b e640 1463 07ff 516d
000000c0: 2b05 abd1 e157 2055 04e1 2106 0c4d 0c2b
000000d0: 1e24 ddb9 1d1b da31 e42b fe59 3e0d 2e4f
000000e0: e427 ca06 b736 212d c801 de01 ea15 06fd
000000f0: 06e5 ead3 297e e64e e905 fee3 e724 f5f1
-91 -36 -23 127 -7 -65 -26 0
-48 -19 -35 -14 97 -11 -76 101
-5 6 -5 -89 22 30 -72 25
-86 11 -31 -66 -88 4 -30 20
-31 3 -45 13 -91 -36 -15 25
-39 -75 -24 -35 -17 -7 39 30
63 -7 -63 0 60 17 56 -84
-95 -34 0 -4 15 55 -24 -75
-23 74 -35 17 12 -59 58 -10
-68 -31 7 13 3 -7 -42 23
-27 -81 -49 -35 -50 78 -4 -8
-76 -47 19 46 62 -6 -30 39
34 3 12 -1 -20 -21 0 73
20 34 -18 -61 56 6 42 -4
52 -58 33 -46 38 70 47 17
-62 -55 40 62 -48 -28 26 -44
-30 -9 38 -16 1 -63 -4 -50
53 69 -34 17 -46 82 0 -1
-90 34 26 18 1 60 -30 51
42 51 7 -32 70 -18 65 -36
80 -46 -77 17 84 81 11 -33
46 9 -52 -38 -36 -31 51 53
-26 -54 -23 31 62 79 52 75
-26 64 20 99 7 -1 81 109
43 5 -85 -47 -31 87 32 85
4 -31 33 6 12 77 12 43
30 36 -35 -71 29 27 -38 49
-28 43 -2 89 62 13 46 79
-28 39 -54 6 -73 54 33 45
-56 1 -34 1 -22 21 6 -3
6 -27 -22 -45 41 126 -26 78
-23 5 -2 -29 -25 36 -11 -15

tfl.pseudo_qconst11 i1 [32, 1, 9, 3]
00000000: fac1 44e8 df00 3828 5510 32c6 0c16 ccc4
00000010: cfe4 461e bbff 3281 badc e6ae ab8c 5955
00000020: 8b14 3246 818d 2a2e 3cb7 bcdf 0131 526b
00000030: 201b fa31 f575 2123 b9cd 44b2 b3f2 b7e5
00000040: 0caa 26c3 5efe eb1f 3317 3c2b 0800 eacd
00000050: 7f9d c1c9 e823 1660 1c5c c6c9 4e2c 1814
00000060: a23d 1681 14bf 0ce1 0b29 d98b 1407 2dec
00000070: 47a0 eb41 16c4 e6f9 5547 a8f7 b9ec c92f
00000080: 3738 f22e 10c6 7f17 d837 63c1 dfec 4263
00000090: be17 7f1f 08c1 e791 75f5 c4ee 0ce2 e4ea
000000a0: 8b22 ddaf 5b3a 70cf f8d2 b92f c581 33cd
000000b0: 4cb7 4fa2 ccc0 b5e5 52bb 3c16 2daa b743
000000c0: e47f e3e2 f443 621c ee1f d19a d03c ba9a
000000d0: ea02 f501 29da e16e a2c8 e709 b876 5242
000000e0: 10d4 c5bf 52a1 f105 5f50 9e81 f640 6299
000000f0: 4329 75de 14c2 5017 b824 a1d2 a658 48ce
-6 -63 68 -24 -33 0 56 40
85 16 50 -58 12 22 -52 -60
-49 -28 70 30 -69 -1 50 -127
-70 -36 -26 -82 -85 -116 89 85
-117 20 50 70 -127 -115 42 46
60 -73 -68 -33 1 49 82 107
32 27 -6 49 -11 117 33 35
-71 -51 68 -78 -77 -14 -73 -27
12 -86 38 -61 94 -2 -21 31
51 23 60 43 8 0 -22 -51
127 -99 -63 -55 -24 35 22 96
28 92 -58 -55 78 44 24 20
-94 61 22 -127 20 -65 12 -31
11 41 -39 -117 20 7 45 -20
71 -96 -21 65 22 -60 -26 -7
85 71 -88 -9 -71 -20 -55 47
55 56 -14 46 16 -58 127 23
-40 55 99 -63 -33 -20 66 99
-66 23 127 31 8 -63 -25 -111
117 -11 -60 -18 12 -30 -28 -22
-117 34 -35 -81 91 58 112 -49
-8 -46 -71 47 -59 -127 51 -51
76 -73 79 -94 -52 -64 -75 -27
82 -69 60 22 45 -86 -73 67
-28 127 -29 -30 -12 67 98 28
-18 31 -47 -102 -48 60 -70 -102
-22 2 -11 1 41 -38 -31 110
-94 -56 -25 9 -72 118 82 66
16 -44 -59 -65 82 -95 -15 5
95 80 -98 -127 -10 64 98 -103
67 41 117 -34 20 -62 80 23
-72 36 -95 -46 -90 88 72 -50
