ML/models/conv1d_angle_toro_ossaba/20260116_194317/model.tflite (tflite, 96000 bytes, 11 tensors)

arith.constant2 f4 [1, 64]
000000 59 9c 82 3e e2 1b aa 3c be 0f 38 3e 85 36 84 3e
       0.2550991 0.020765249 0.17974755 0.25822845
000010 f7 47 43 be cc 69 22 be f3 4c 47 3e 09 8a 10 be
       -0.19070421 -0.15860671 0.19462948 -0.14115156
000020 3e 38 9a 3d 7e a1 75 3e 3f 6b 78 3e 4f 4e fc bd
       0.075302586 0.23987386 0.24259661 -0.12319624
000030 5a 1e 09 3e d6 2e 93 3d b2 9a 83 be f7 82 39 3e
       0.13390484 0.071866676 -0.2570396 0.18116365
000040 b6 d2 bb 3d 96 a6 55 ba 4a 14 94 be 55 c9 4d 3d
       0.09171049 -0.00081501284 -0.2892173 0.050240833
000050 fb 6e 45 3e a2 ef 77 be 9a ce 84 3e f5 4e 3c 3e
       0.19280617 -0.24212506 0.25938874 0.18389495
000060 8b 0c 2f 3e 4c c4 26 be 84 d1 44 bd 73 92 6a 3b
       0.17094629 -0.16285819 -0.048051372 0.0035792857
000070 3b 00 89 3e 93 b1 8d 3e cb 5d 78 3e 75 22 42 3e
       0.26757988 0.2767454 0.24254529 0.18958457
000080 5c e6 7e 3d 81 9f 73 3d f2 58 39 be 1e 1f 44 3e
       0.062231407 0.059478287 -0.18100336 0.19152495
000090 0e d5 91 bd 7a f7 f3 3c ee 19 3b 3e bd 71 91 3d
       -0.07120715 0.029781092 0.1827161 0.07101772
0000a0 9c 0e de bd 60 3e 79 be 31 7c 6e be 7d 6a 79 bd
       -0.1084263 -0.243402 -0.23289563 -0.06089257
0000b0 35 dc 7c 3d f6 58 c9 bd 9c fd c7 3d 85 d6 ee 3d
       0.061733443 -0.09831421 0.09765169 0.1166201
0000c0 15 60 37 3c c5 0c 4f be c3 2d 59 3e b8 6b 7e be
       0.011192341 -0.20219715 0.21208863 -0.24845779
0000d0 ce d0 a6 bd fb c6 13 bd f6 8c 91 be 72 90 90 be
       -0.08145295 -0.036078434 -0.28427857 -0.28235203
0000e0 37 20 34 3e 76 53 31 be 79 f3 4a be 99 52 49 be
       0.17590414 -0.17316994 -0.1981944 -0.19660415
0000f0 76 da 9c 3d 37 19 1d be 16 a2 43 be a4 0c 41 3e
       0.076588556 -0.1534165 -0.191048 0.18852478

arith.constant7 f4 [128]
000000 c0 cd fb 3a c3 7e d1 ba b7 17 cd bb 99 a8 9b bc
       0.0019211099 -0.0015983213 -0.0062589305 -0.019001292
000010 8d 9c 22 bc 33 ea 03 bc 32 14 ee bb cb 17 e0 ba
       -0.00992502 -0.008051443 -0.007265591 -0.0017096935
000020 db 8f 27 bc 7b 85 44 bb e4 4e 22 3a fd ce 0f bc
       -0.010227169 -0.0029986787 0.0006191565 -0.008777377
000030 20 4c 1e bc 65 f9 2f 3a 89 e6 cc bb 0d 25 0d bc
       -0.009661704 0.0006712883 -0.006253068 -0.008614791
000040 ef a2 bc bc 3f c0 3a bb d0 26 95 bc af 1e 51 bc
       -0.023026912 -0.0028495935 -0.018206984 -0.012763663
000050 60 84 9e bc 08 8e 18 bb 27 7c 96 bc 65 91 4e bc
       -0.01935023 -0.0023278017 -0.018369747 -0.012607907
000060 a5 66 c0 b9 43 9c f2 bb 8e 74 0e bc c2 7a 62 bc
       -0.0003669757 -0.0074038818 -0.008694781 -0.013823213
000070 9b 04 fb bb 48 79 27 3c f6 3d 8a bc 4e 06 f2 bb
       -0.007660461 0.010221787 -0.016875248 -0.0073860055
000080 6f 41 06 bc 5b d0 2a bb 00 00 00 00 dc ce 3b bb
       -0.0081943115 -0.002606413 0.0 -0.0028657233
000090 a7 57 10 bc fd 6e 79 bc 14 4e a9 3a 63 ac 0e bd
       -0.00880996 -0.015224216 0.0012916946 -0.03483237
0000a0 7c 3a 37 3c ee d1 11 3b a9 4d 95 bb 03 a2 64 bc
       0.011183377 0.0022250372 -0.004556377 -0.013954642
0000b0 5a 91 dd ba ec db 9b bb 05 3b 03 bc d6 dd 98 39
       -0.001690428 -0.0047564413 -0.008009677 0.0002915698
0000c0 17 13 26 bc cf cf 43 bb e3 21 f3 3a 07 81 a5 bc
       -0.010136387 -0.0029878502 0.0018549528 -0.020203127
0000d0 58 42 86 b9 97 a0 74 bc db e2 07 bc 3b c4 6c bc
       -0.00025607902 -0.014930866 -0.008293833 -0.014451082
0000e0 e4 eb 5c bc 0e 8e b7 bc 29 e2 fe bb 62 a2 da bc
       -0.013483975 -0.022406604 -0.0077784252 -0.026688758
0000f0 d4 40 91 bc 15 b2 a9 bb 8d 71 5d 3c 7b 14 03 bc
       -0.017731108 -0.0051786997 0.013515842 -0.008000488
000100 f8 58 cf bb 6f db 2c bc 29 7a 30 bc e3 cd be bc
       -0.0063277446 -0.010550364 -0.010771313 -0.023291534
000110 dc aa 8c bc 3b d1 28 bc be cc dc bc 8b 1d f2 bc
       -0.017171316 -0.010303791 -0.026953097 -0.029555103
000120 32 53 a0 bc e2 c3 4c bc e8 40 c9 bb 78 90 2d bb
       -0.01957092 -0.012497874 -0.0061417706 -0.0026483815
000130 58 db cb bb c8 5f 97 3c 62 19 98 bc 4b 25 88 3b
       -0.006221216 0.01847829 -0.018566791 0.0041548363
000140 7b fa 07 bd 02 74 4c bc e0 8b fc bb cd 73 6f bc
       -0.03319786 -0.01247883 -0.007707104 -0.014615011
000150 62 5e ff bb b9 8e 4d bb 88 8a 1b bc d9 f4 ca 3b
       -0.0077932337 -0.0031365587 -0.009493478 0.006193739
000160 96 bc 0b 3d 43 95 a5 bc 17 39 b8 bb 4d 48 b3 bc
       0.034115396 -0.020212775 -0.00562204 -0.021885062
000170 2d e8 26 bb 4b af 3d bc 2c 74 dd bc ba 7b 5c bb
       -0.0025467977 -0.011577438 -0.027032934 -0.0033643083
000180 f3 bc f7 ba 5e 4d 61 bc c1 a9 a2 bb fa c4 a1 bc
       -0.0018900916 -0.013751356 -0.004964084 -0.019747246
000190 37 20 89 3c 2b 43 1c bc 53 cd b3 bc 98 ca c4 3a
       0.016738994 -0.0095374985 -0.021948492 0.0015013991
0001a0 c3 37 3f bc fc 19 9c bc 4c 1f 04 bc f3 2b 5b bc
       -0.0116710095 -0.019055359 -0.008064102 -0.0133771775
0001b0 4d 27 db bb 80 ce d0 bc 23 8e 1a bc 0f 73 95 bc
       -0.0066880346 -0.025489092 -0.009433302 -0.01824334
0001c0 94 30 9d 3b e3 82 22 bc 6c 74 b8 3c 55 e1 08 3c
       0.0047970507 -0.009918901 0.022516452 0.008354505
0001d0 a7 8d 23 bc 3c 79 8a bc 42 82 35 bc ff d1 ab bb
       -0.009982503 -0.016903512 -0.011078419 -0.0052435393
0001e0 86 22 d5 bb 5c 1c 0e bc f8 62 c4 bb 50 be e5 bb
       -0.0065043597 -0.008673754 -0.0059932433 -0.0070112124
0001f0 fb b9 fe bb 3b e3 9d bb 0b ef 24 bc 2b 24 bb bc
       -0.0077736354 -0.0048183477 -0.010066758 -0.022844395

arith.constant8 f4 [64]
000000 2e 67 b8 bb e2 89 95 bd 65 37 0d bb d1 50 31 3d
       -0.0056275344 -0.0730169 -0.002154791 0.043289963
000010 81 41 50 3c d6 46 4b bc e1 49 4f 3c 76 c0 79 3c
       0.01271093 -0.012407025 0.012651891 0.01524364
000020 0b ea f3 3b 05 7e 7f 3c 34 ab 30 bd 9e 76 14 bc
       0.0074436716 0.01559401 -0.043132022 -0.009061484
000030 25 6e 41 3c 46 74 a6 3c e3 b8 f2 3b b7 b4 f6 ba
       0.011806046 0.020319115 0.007407294 -0.0018822168
000040 dd 17 bc 3c 1a e0 76 bd 87 e2 3d 3d 87 67 bb 3c
       0.022960598 -0.060272314 0.04635861 0.022876514
000050 c4 09 95 bb b4 0d 06 3c 8c cb 20 3d 92 93 33 3b
       -0.0045482833 0.008181978 0.039256617 0.0027401191
000060 b2 e4 52 3d d9 40 10 3d 80 2d 1e bc 5b 4b 7d bd
       0.051487632 0.035218094 -0.009654403 -0.061839443
000070 fc 6c 47 3d 75 2f 16 3d 3c fb ed 3c e2 ab 04 bc
       0.04868792 0.036666352 0.029050462 -0.008097621
000080 07 02 1e bd 27 dc 94 bb ba b0 22 3c 35 17 ec 3c
       -0.038576152 -0.0045428458 0.00992983 0.02881966
000090 14 72 c9 3c 93 09 43 bd 7d 30 a1 3c b3 4b c7 bc
       0.02459053 -0.047616553 0.019676441 -0.024328088
0000a0 77 c4 57 3c ed 04 2e 3d 8f 23 40 3d 81 30 04 3d
       0.013169399 0.042485166 0.04690891 0.03227282
0000b0 7f b1 16 3d 25 ba d0 3c cd e4 6f 3d e2 6d a2 3c
       0.036790367 0.025479386 0.05856781 0.019827787
0000c0 e9 3f 76 bd e2 f8 bf 39 18 5d 1a 3c 98 eb 30 3d
       -0.060119543 0.0003661579 0.009421609 0.04319343
0000d0 99 e9 20 3d 28 4d 3a bb 5d 68 39 3d 47 a5 c7 3c
       0.039285276 -0.0028427336 0.045265544 0.024370803
0000e0 5f 89 b9 3c 20 df 97 39 52 e2 03 3d 23 9f 66 3c
       0.022648511 0.00028967205 0.032198258 0.014076027
0000f0 af cc da 3b 45 e2 e4 3c 02 6e 2c 3d e9 df 89 3b
       0.006677232 0.027939925 0.0420971 0.0042076004

arith.constant9 f4 [32, 1, 9, 3]
000000 f6 14 1e 3f 1a a1 c0 bf 23 a3 a2 3e 30 b6 bd 3f
       0.61750734 -1.5049164 0.31765088 1.4821224
000010 27 5d be 3e 22 c9 22 c0 7d ab 9e 3f eb 11 8c bf
       0.37180445 -2.5435262 1.2396084 -1.0942968
000020 d5 5d a1 bf b1 1d 11 c0 85 34 23 c0 26 eb 1d 40
       -1.260676 -2.2674372 -2.5500805 2.4674773
000030 17 43 8c bf 3f 7b ae 3e d5 c6 03 bf bc 79 be bf
       -1.0957974 0.34078404 -0.5147527 -1.48809
000040 46 07 7e 3f fc 95 9c 3f 5e b6 af bf 76 d0 01 40
       0.9922985 1.2233272 -1.3727529 2.0283484
000050 b1 6a 44 bf b4 c7 23 40 aa 43 08 c0 47 a2 2e 40
       -0.767253 2.559064 -2.12913 2.7286546
000060 b8 3f d6 3f a5 eb e8 3e 9d ff 6c 3f 49 87 41 3f
       1.6738195 0.45492283 0.92577535 0.75597054
000070 a0 12 31 c0 6c 39 20 40 f1 06 20 c0 89 1e 05 40
       -2.7667618 2.5035048 -2.5004237 2.0799887
000080 4b ad ed 3f 3d 06 40 c0 f5 e9 b4 3e 70 07 76 3f
       1.856851 -3.0003808 0.35334745 0.961051
000090 82 13 46 40 40 09 bd 3f 33 68 19 40 5b f2 23 3e
       3.0949407 1.4768448 2.3969848 0.1601042
0000a0 23 c7 9d 3f 10 71 7f 3f 5d 73 ea 3e 35 de 07 c0
       1.2326397 0.99781895 0.4579114 -2.1229374
0000b0 62 48 9a bf 2d b1 3b 3f f9 ac 94 bf e4 d4 61 c0
       -1.205334 0.73317224 -1.1615287 -3.5286188
0000c0 b1 32 e9 3f 4c 6c 5f 3e 9c 8f 2b c0 4d e3 ac bf
       1.8218595 0.21818656 -2.6806402 -1.3506867
0000d0 a0 7e 99 3f 8f a0 11 c0 fe 17 2d 3f b9 13 44 bf
       1.1991768 -2.2754247 0.67614734 -0.76592594
0000e0 c9 8c 19 3e e9 5e 00 3f a2 52 5c bf 38 cf 76 3e
       0.14995112 0.5014482 -0.8606359 0.24102485
0000f0 a3 1b 52 3e cd 10 49 bf ae 84 64 3f cc 0d 54 bf
       0.20518355 -0.7854126 0.89264953 -0.8283355
000100 91 5c 2c 3f aa 40 1a 3f e0 44 27 3f 8c 5f 24 3f
       0.67328745 0.6025492 0.6533947 0.6420829
000110 5c ca ea b8 5e c7 e4 3e c2 7f 18 bf 9d 4b b0 3f
       -0.00011195682 0.44683355 -0.5956994 1.3773075
000120 d3 16 fb be 4e cf 6b bf d0 3d ad 3e 80 30 87 3e
       -0.4904085 -0.92113197 0.33836222 0.2640419
000130 c5 37 54 bf 6c 6d 8a be bb 0c 5a 3e 4d ca 52 be
       -0.828976 -0.27036607 0.21293919 -0.20584984
000140 c4 e7 b2 3c d1 39 d9 bf 1f c3 1e 3f 92 3c 54 40
       0.02183903 -1.6970769 0.6201648 3.316197
000150 00 b4 93 3f f7 8a 0c bf 23 a1 9e 3f 39 a8 8f bf
       1.1539307 -0.54899544 1.2392925 -1.1223212
000160 b8 c6 d7 bf a3 0c ae 3f fe 0f e5 3f 8e 6e ec bf
       -1.6857519 1.3597606 1.7895505 -1.8471239
000170 66 d2 c2 bf 16 59 b8 bf d1 b0 1f 40 3d 5c e5 3d
       -1.5220459 -1.4402187 2.495167 0.11199234
000180 6e 02 c6 3f 67 5a ef be 4c 6f f6 3e d1 82 66 3e
       1.5469491 -0.4674866 0.48131788 0.2251084
000190 be 5f 3d bf 7d 67 e4 bf b9 e9 00 3f d2 24 da bf
       -0.73974216 -1.7844082 0.5035663 -1.7042487
0001a0 87 60 21 c0 08 ee 0b 3e 3a 5c ff 3f 22 87 39 c0
       -2.5215166 0.1366502 1.995002 -2.8988729
0001b0 d4 75 df be 2d 07 5f 40 4f a5 8b c0 c0 6d f9 3e
       -0.43644583 3.484813 -4.3639293 0.48716545
0001c0 f1 a5 7c bf 4b 56 02 c0 8a 1d 25 c0 93 58 af 3f
       -0.98690706 -2.036517 -2.579928 1.3698906
0001d0 1c 2a 4e c0 40 8d 0c 40 b9 05 96 bf c2 09 86 3f
       -3.2213202 2.1961212 -1.1720496 1.0471728
0001e0 ff 08 c3 3f 11 68 47 3f eb ab 1a 3f 34 b1 05 c0
       1.523712 0.7789317 0.60418576 -2.0889406
0001f0 00 f1 8c be 30 93 36 40 5e 35 21 c0 ef 18 01 c0
       -0.27527618 2.8527336 -2.5188823 -2.0171468
000200 20 03 80 3e 1a db 68 40 a5 e9 17 c0 9d b9 fa 3f
       0.25002384 3.638373 -2.3736355 1.9587895
000210 41 ca 9c be bd c0 94 3f d8 e4 6d 40 ec f2 ac be
       -0.30623057 1.1621319 3.7170925 -0.33779085
000220 e0 ff 89 be ba 2e 0f bf b9 f7 d1 be 77 52 51 bd
       -0.2695303 -0.55930674 -0.4100931 -0.051104035
000230 a1 ad 8f be 71 dd 15 bf dc b1 9e 3e a2 e4 d4 be
       -0.28062156 -0.5854102 0.3099507 -0.41580683
000240 d8 f6 0d bf c9 3b 76 3e 60 1e 71 be 8b ef c2 be
       -0.5545478 0.24046244 -0.23546743 -0.38073382
000250 8d 00 d4 3e 95 49 d4 be 04 39 0d be b3 6a 01 bf
       0.4140667 -0.4146239 -0.13791281 -0.50553435
000260 25 96 63 bf 40 f5 16 3f 40 60 ab 3e 0e f7 6b bf
       -0.8890098 0.5896797 0.3347187 -0.9217385
000270 34 c6 87 be 24 e0 ee be 46 90 16 be 9c 80 5a bd
       -0.26518404 -0.4665538 -0.14703473 -0.053345308
000280 6d 17 4a be 45 57 a7 bc 33 63 82 3f 84 fb 01 3f
       -0.19735499 -0.020427356 1.0186523 0.5077441
000290 d4 32 d1 3e e1 c8 8c bf a2 18 44 40 13 6b 0c 40
       0.4085909 -1.0998803 3.0640035 2.1940353
0002a0 c2 af d8 3f 45 b3 10 c0 58 c2 b7 bf 8f 36 d3 bf
       1.6928637 -2.2609417 -1.4356184 -1.6501025
0002b0 54 b5 ae 3e 99 da 1d c0 d3 84 e3 3e 81 2b 29 3d
       0.34122717 -2.4664671 0.44437274 0.041301254
0002c0 72 c0 0a 40 dd 69 04 c0 94 c1 b2 bf d1 72 11 c0
       2.167996 -2.0689614 -1.3965325 -2.2726328
0002d0 d6 28 63 3f b9 da f1 3f ac a4 52 bf 3e 0f 32 40
       0.88734186 1.8894874 -0.8228252 2.7821803
0002e0 b9 ca 03 3e 5e 0f cd 3f 29 39 8c 3f 59 f8 e7 3f
       0.12870301 1.6020315 1.0954944 1.8122665
0002f0 9a 72 31 40 2d 8a 01 be e4 31 85 bf e5 76 5d bf
       2.7726197 -0.12650366 -1.040585 -0.86509544
000300 51 32 4c 3f 48 9a 22 3f dd f3 4f 3f 30 a4 b3 be
       0.79764277 0.63516665 0.8123148 -0.35086203
000310 f8 47 a3 3f 32 66 a3 bf 58 0d 86 3f 22 17 d1 3f
       1.2756338 -1.2765563 1.0472822 1.6335185
000320 35 c7 60 3f 07 d2 90 3f 27 21 1a 3f 10 51 16 bd
       0.87803966 1.1314095 0.60206836 -0.0366984
000330 a9 e0 0a 3f 88 a6 3c 3f 2b 38 de ba 6a dd 75 bf
       0.54249054 0.73691607 -0.0016953995 -0.96040976
000340 cc d8 32 c0 43 ad 63 3e 62 eb c3 bd 18 77 f6 bf
       -2.7944822 0.22234063 -0.0956638 -1.9255095
000350 1c 55 84 3f ac 71 18 3e 45 28 1e c0 57 c6 ec 3f
       1.0338473 0.14887112 -2.4712079 1.8498029
000360 73 54 9c 3f f8 0f 59 3f cb 65 eb be 3e 74 b2 bf
       1.2213272 0.8478999 -0.459761 -1.3941724
000370 3f 9a de 3e 6c e7 a8 bf 4f d9 45 bf 96 a0 9a 3e
       0.43477055 -1.3195624 -0.7728471 0.30200642
000380 47 3a 03 3e 4e 97 2d 3e 5b 83 d3 bf 84 d6 31 3f
       0.128152 0.1695225 -1.6524462 0.6946795
000390 74 39 d6 3f 91 e4 e3 bf c0 83 f0 3f f6 1f e6 3f
       1.6736283 -1.7804128 1.8790207 1.7978504
0003a0 53 3b ae bd 4a e5 32 40 bd 73 9f be b2 96 bd bf
       -0.08507409 2.7952447 -0.3114299 -1.4811614
0003b0 03 5b e5 bf 4a 13 42 3f f0 a4 b6 3f 3f 0a e6 3f
       -1.79184 0.7581068 1.4269085 1.7971877
0003c0 d7 0d bd bf af a4 45 3f a9 7e 48 bf e6 43 63 3f
       -1.4769849 0.7720441 -0.7831827 0.8877548
0003d0 0f a2 63 3e 19 84 3b 3f 80 c0 66 3f 4d 1f 7a bf
       0.22229789 0.7324844 0.9013748 -0.9770401
0003e0 d0 d5 0b 3f cd 14 01 bf 80 f5 e4 be 57 75 12 bf
       0.54623127 -0.50422364 -0.44718552 -0.57210296
0003f0 31 35 69 3e e5 3f a2 be 88 2e a8 3e 08 f0 b0 bf
       0.22774197 -0.31689373 0.32848 -1.3823252

arith.constant10 f4 [128]
000000 c7 37 14 bf 3f c7 84 bf 87 90 e7 3f 67 f0 24 3f
       -0.5789761 -1.0373305 1.8090981 0.64429325
000010 f5 f6 47 bf 82 fb 8a 3f 7a da 00 3f 55 f2 86 3f
       -0.781112 1.0858004 0.5033337 1.0542704
000020 b9 1a dd 3c 1f a2 03 bf 36 e5 44 3f d0 68 88 be
       0.026990281 -0.5141925 0.7691225 -0.26642466
000030 26 82 48 3f 6e 88 44 3f 62 7b 6e 3f ca ff d7 be
       0.7832359 0.76770675 0.9315702 -0.4218734
000040 5f 3b 0b 3f 4e 0e b1 3f b5 70 31 3f bc 1a 4c 3f
       0.5438747 1.383249 0.693126 0.79728293
000050 51 a5 b9 3f bf 17 0f 3f cf 17 47 3e e2 8e fb bd
       1.4503576 0.5589561 0.19442676 -0.12283112
000060 d7 2a df 3d d3 1f 55 3f 7d 21 35 be 40 c5 e9 3d
       0.10896843 0.83251685 -0.17688556 0.114145756
000070 53 f5 84 bf 0d 82 6f be 14 3f b1 bd 34 0d 4c 3f
       -1.0387367 -0.23389454 -0.08654609 0.79707646
000080 95 10 40 3f 19 85 0f 3f 6d 0c 82 3f d8 ea f2 bd
       0.750253 0.56062466 1.0160042 -0.11861199
000090 76 02 58 bd 03 fb c6 be 6a 04 5e 3f fa 17 89 be
       -0.052736722 -0.38863382 0.86725485 -0.26776105
0000a0 0c ae 27 3e 59 3d 58 3f 01 4d 15 3f dd 81 71 3f
       0.16374987 0.8446861 0.58320624 0.9433878
0000b0 cb 44 49 3f 88 5d d2 be 54 72 b0 3e 8b 2f f2 be
       0.78620595 -0.41086984 0.34462225 -0.47301897
0000c0 61 6e ae 3f 64 8a 17 3f ee 6b 9b be e0 c4 36 3d
       1.3627435 0.5919554 -0.3035578 0.04462135
0000d0 51 bb 51 3f 4a 67 be 3e 15 ea fe 3e 5d 9a 35 3f
       0.8192645 0.37188178 0.49787965 0.70938665
0000e0 d7 4e 20 bd b7 c1 ab 3f 1a 32 23 bf dd 90 7f bf
       -0.039137688 1.3418492 -0.63748324 -0.9983042
0000f0 08 92 54 bd e2 87 32 3f 37 44 18 3f 0a 8a 7a 3f
       -0.05189708 0.6973859 0.5947909 0.9786688
000100 8d 5f d1 be 22 80 00 40 96 20 bf 3e 9d 82 bb 3f
       -0.40893212 2.0078206 0.3732955 1.4649235
000110 5f f3 c4 3e 8f 6d 0d bf cc e9 c6 be f2 d6 ad 3d
       0.38466927 -0.552453 -0.38850248 0.08488263
000120 43 93 4d 3f 88 08 0c 3d 78 73 b7 3e cd 86 76 be
       0.8030283 0.034187824 0.35830283 -0.2407486
000130 2d 7f 92 3f bf 1a 80 3e 48 62 b4 3f 04 af 98 3e
       1.1445061 0.25020406 1.4092493 0.29821026
000140 09 29 9a bd aa 8d 43 bf 52 30 b7 3e 80 4d a8 3e
       -0.07527358 -0.7638804 0.35779053 0.32871628
000150 53 11 ac 3d 1c 5d cc 3c 2f 21 55 3f 17 c3 bb bf
       0.08401742 0.024946742 0.8325376 -1.4668912
000160 25 78 05 bf e5 d8 a4 3e 4b f1 da 3f cf d0 09 be
       -0.5213645 0.32196727 1.7104887 -0.1345856
000170 7f c3 11 3f 24 4e fd be 9a 91 ae 3f 65 f5 a3 be
       0.5693893 -0.4947368 1.3638184 -0.3202316
000180 7e 4c 13 3e c8 ab 09 be 57 49 08 be 10 96 5e 3f
       0.14384648 -0.13444436 -0.13309227 0.8694773
000190 1c 04 a0 be c6 c3 85 3f d9 08 19 3f e0 55 73 3f
       -0.31253135 1.045037 0.59779125 0.9505291
0001a0 b7 bf 27 be 22 31 69 bf bd 3c c8 3e b3 52 b7 3f
       -0.16381727 -0.91090596 0.3910884 1.4322113
0001b0 45 46 bd be 22 3e b4 be 6b 0c 8c 3e cf 88 85 3f
       -0.36967674 -0.35203654 0.27353224 1.0432376
0001c0 3c f6 a5 3f 85 16 74 3f d8 01 72 be 77 a4 70 3f
       1.296577 0.9534686 -0.23633516 0.94000953
0001d0 00 85 93 3f 28 61 bd 3c 29 27 e2 3f 93 49 89 3d
       1.1524963 0.023117617 1.7668201 0.06703486
0001e0 a0 5f 0a bf ec d2 08 bf cc 74 c4 3c 71 5b 40 3e
       -0.5405216 -0.5344684 0.023981474 0.18784882
0001f0 d2 ef eb be 58 21 82 3f 12 aa ac 3f a9 c6 ed 3f
       -0.46081406 1.0166426 1.3489401 1.8576251

arith.constant11 f4 [64]
000000 56 b2 35 bf 82 92 6b bf 1c cd 96 3f cc c5 80 3e
       -0.70975244 -0.9202043 1.1781344 0.25150907
000010 ed bd 2a 3f 49 dc 7d 3f 63 fe 85 3f 7b 7a d1 3e
       0.66696054 0.99164253 1.0468258 0.40913758
000020 31 11 24 be b5 49 c0 3f d5 c9 23 3f f0 67 1a bf
       -0.16022183 1.5022494 0.63979846 -0.60314846
000030 72 fa 51 bf 85 7b 10 bf f0 71 c0 bf 9d fa 6a bf
       -0.82022774 -0.56438476 -1.5034771 -0.91788656
000040 83 ea a4 3e 33 9d 9c 3e 0b 20 42 bf 8e 56 24 3f
       0.32210168 0.30588683 -0.75830144 0.6419457
000050 8f 65 9e 3e 08 7e 40 bf 29 07 8b 3e ea e1 41 be
       0.30936858 -0.7519231 0.271539 -0.18933836
000060 12 f4 ab be 69 1d 0c 3f da ff 4f bf de eb a0 3e
       -0.33584648 0.54732376 -0.81249774 0.31429952
000070 4c 16 d9 bf 80 3f 3e 3e ff 10 c2 bd e2 20 ee 3e
       -1.695993 0.18578911 -0.09475898 0.46509463
000080 71 8d e5 be 3a f9 67 bf 77 0f 7e 3d 95 d2 bc 3e
       -0.44834474 -0.90614665 0.062026467 0.3687941
000090 fc 18 9b 3d 51 26 33 3f 8d 2e e2 3e cc ea bd 3e
       0.07573125 0.6998034 0.4417614 0.37093198
0000a0 44 74 b7 bf e9 0a 1a 3f 98 27 38 3e 18 00 da be
       -1.4332356 0.601729 0.17983854 -0.42578197
0000b0 01 5c 95 be eb 01 24 bf ea 51 dc 3e fe 22 ea be
       -0.29171756 -0.64065427 0.43031245 -0.45729822
0000c0 c7 b1 33 bf 94 dc d2 bf d1 26 26 3f c1 e0 f8 be
       -0.7019314 -1.6473565 0.6490298 -0.48608974
0000d0 aa 90 18 3d 10 b1 90 3f b6 9e 11 3f 99 08 87 3e
       0.037247337 1.1304035 0.568828 0.26373747
0000e0 7c d2 11 3e d4 d3 82 3f 81 e4 b5 3e cc 72 a5 3f
       0.1424045 1.0220895 0.35525897 1.2925658
0000f0 07 61 09 bf 7e d7 eb 3e 87 66 71 3f 9e 15 39 bf
       -0.53663677 0.46062845 0.9429707 -0.7229861

arith.constant12 f4 [32]
000000 0f f3 99 bf 0d a2 d3 3e 52 00 c6 bf 06 e9 70 3f
       -1.2027301 0.41334572 -1.5468848 0.94105566
000010 e4 80 b9 be fc a4 de 3f b6 9b b7 bf bc fc a3 bf
       -0.36231148 1.7394099 -1.4344394 -1.2811503
000020 cc 0d cf bf 9e fb c5 3f 0c a4 b2 3f 84 28 fd 3e
       -1.6176085 1.5467412 1.3956313 0.49444973
000030 31 26 3b bf 81 f8 cc bf e8 66 c5 3d c7 53 88 3d
       -0.7310515 -1.6013337 0.096387684 0.06656604
000040 58 95 93 3f 44 d9 b7 bf 0e 52 dc bf 87 ad 98 3f
       1.1529951 -1.4363179 -1.7212541 1.1927956
000050 bc ad 04 3f 90 cb c2 3f 86 4d d8 bf 79 28 f7 3f
       0.518276 1.5218372 -1.6898658 1.9309226
000060 20 4c cf 3f 7d bb ca 3f f9 2a 43 3f ec ed 3a bf
       1.6195107 1.5838467 0.76237446 -0.7301929
000070 39 16 95 3f ff df d6 bf c1 96 c1 bf d0 f1 2b bf
       1.1647407 -1.6787108 -1.5124131 -0.6716585

tfl.pseudo_qconst i1 [128, 1, 5, 64]
000000 ce f6 32 2f 0a 2e 46 e4 5d 40 0d 6c 41 41 e2 ac
       -50 -10 50 47 10 46 70 -28 93 64 13 108 65 65 -30 -84
000010 ed 2e 29 d3 13 e0 2c 32 17 14 f1 08 24 da b1 bb
       -19 46 41 -45 19 -32 44 50 23 20 -15 8 36 -38 -79 -69
000020 d5 33 b4 32 52 d1 04 26 41 e1 19 f8 35 bf 20 f5
       -43 51 -76 50 82 -47 4 38 65 -31 25 -8 53 -65 32 -11
000030 2b e2 3e 1d 25 6a bd e1 13 e3 2c c0 32 1d f9 f3
       43 -30 62 29 37 106 -67 -31 19 -29 44 -64 50 29 -7 -13
000040 e9 eb 33 0b 9b 32 07 0b 25 fa 17 10 f2 63 71 eb
       -23 -21 51 11 -101 50 7 11 37 -6 23 16 -14 99 113 -21
000050 3c 4c 50 69 34 08 36 2e db bf d1 c7 f5 ee f9 a1
       60 76 80 105 52 8 54 46 -37 -65 -47 -57 -11 -18 -7 -95
000060 dd 2b 30 38 3b df 04 5b 59 bd 2e 13 21 33 d4 f1
       -35 43 48 56 59 -33 4 91 89 -67 46 19 33 51 -44 -15
000070 ce 07 4a 1f 02 d0 1b d9 4b 18 03 cc c6 db 11 04
       -50 7 74 31 2 -48 27 -39 75 24 3 -52 -58 -37 17 4
000080 ae ff 12 2c b4 41 10 20 09 33 f9 55 18 f5 f7 38
       -82 -1 18 44 -76 65 16 32 9 51 -7 85 24 -11 -9 56
000090 c8 f1 ed 5a 2b 31 fb cd 12 df 01 14 64 2b 10 17
       -56 -15 -19 90 43 49 -5 -51 18 -33 1 20 100 43 16 23
0000a0 e3 16 03 30 43 d9 ff 1d e1 1f e5 2a e0 db 33 21
       -29 22 3 48 67 -39 -1 29 -31 31 -27 42 -32 -37 51 33
0000b0 cc 1f e7 d0 e9 e5 16 14 ea a9 35 f5 b6 c4 f1 42
       -52 31 -25 -48 -23 -27 22 20 -22 -87 53 -11 -74 -60 -15 66
0000c0 be 35 e7 3b 23 47 38 42 47 33 e2 e9 21 e0 41 4e
       -66 53 -25 59 35 71 56 66 71 51 -30 -23 33 -32 65 78
0000d0 c7 61 07 45 38 f8 39 b2 27 ac d4 ce 72 f0 e6 ba
       -57 97 7 69 56 -8 57 -78 39 -84 -44 -50 114 -16 -26 -70
0000e0 02 26 1b de dd 94 08 14 d6 16 f6 55 47 05 fd cf
       2 38 27 -34 -35 -108 8 20 -42 22 -10 85 71 5 -3 -49
0000f0 f1 30 fc 2c 37 06 10 1c e2 ad 20 f5 46 44 eb 2e
       -15 48 -4 44 55 6 16 28 -30 -83 32 -11 70 68 -21 46

tfl.pseudo_qconst1 i1 [64, 1, 7, 32]
000000 02 fa 19 ca 0a 35 d4 14 c4 36 25 32 39 ee c1 d8
       2 -6 25 -54 10 53 -44 20 -60 54 37 50 57 -18 -63 -40
000010 e6 e6 d8 db eb cc 42 31 ed 18 d8 34 c7 d2 06 f0
       -26 -26 -40 -37 -21 -52 66 49 -19 24 -40 52 -57 -46 6 -16
000020 2a 2b e3 ba 32 3b 14 36 21 b6 18 ea 33 13 f5 21
       42 43 -29 -70 50 59 20 54 33 -74 24 -22 51 19 -11 33
000030 c8 fb e2 bc 2d 1d e4 2a 30 16 d5 18 01 14 17 10
       -56 -5 -30 -68 45 29 -28 42 48 22 -43 24 1 20 23 16
000040 28 e4 10 b6 5e 37 3f 1a ce 30 1f 15 c9 47 13 c9
       40 -28 16 -74 94 55 63 26 -50 48 31 21 -55 71 19 -55
000050 f9 ef 29 f6 c5 28 fb 21 cc 38 25 e4 26 d1 f0 df
       -7 -17 41 -10 -59 40 -5 33 -52 56 37 -28 38 -47 -16 -33
000060 2e 4a 1a 3f 3d f5 da 12 35 f9 d4 44 50 f7 63 c6
       46 74 26 63 61 -11 -38 18 53 -7 -44 68 80 -9 99 -58
000070 e9 e3 32 ec 14 b9 d3 ce d0 2c 3e ea b9 15 08 03
       -23 -29 50 -20 20 -71 -45 -50 -48 44 62 -22 -71 21 8 3
000080 14 47 04 fc 70 de 08 ee 40 e8 0e 1a 3d 54 52 0f
       20 71 4 -4 112 -34 8 -18 64 -24 14 26 61 84 82 15
000090 b7 03 18 ed 02 d7 ea 02 02 05 da f2 01 02 0c 47
       -73 3 24 -19 2 -41 -22 2 2 5 -38 -14 1 2 12 71
0000a0 de e9 38 4f 4a 1c f0 3e d6 ec 1c e8 f3 ea 10 14
       -34 -23 56 79 74 28 -16 62 -42 -20 28 -24 -13 -22 16 20
0000b0 e7 e5 32 fc f3 4a 02 34 30 ef 45 f9 dc 56 5d 2c
       -25 -27 50 -4 -13 74 2 52 48 -17 69 -7 -36 86 93 44
0000c0 eb 2d d7 44 7f f6 49 e1 ff fc 2c 3e ef 22 29 df
       -21 45 -41 68 127 -10 73 -31 -1 -4 44 62 -17 34 41 -33
0000d0 07 30 55 d7 15 b7 0b d0 0c f5 d0 f2 b7 07 05 1c
       7 48 85 -41 21 -73 11 -48 12 -11 -48 -14 -73 7 5 28
0000e0 40 23 6c 0e cc eb 21 72 f0 21 2a 14 d0 4a 3d e4
       64 35 108 14 -52 -21 33 114 -16 33 42 20 -48 74 61 -28
0000f0 06 f4 42 11 1b 6c af 34 12 3b 31 0e 1f 53 28 23
       6 -12 66 17 27 108 -81 52 18 59 49 14 31 83 40 35

tfl.pseudo_qconst2 i1 [64, 128]
000000 27 cc 23 3c 20 2a b7 46 10 c2 09 3d 58 39 f7 3d
       39 -52 35 60 32 42 -73 70 16 -62 9 61 88 57 -9 61
000010 3b 3e 59 15 45 c4 f7 08 c7 fe fb 11 df be 0a 52
       59 62 89 21 69 -60 -9 8 -57 -2 -5 17 -33 -66 10 82
000020 df 03 36 a4 f0 b8 0f cf 7f c6 bb 5a 2e ea df 50
       -33 3 54 -92 -16 -72 15 -49 127 -58 -69 90 46 -22 -33 80
000030 bd c9 a2 60 26 1e 25 0f b1 e5 f5 41 f5 2c a3 b7
       -67 -55 -94 96 38 30 37 15 -79 -27 -11 65 -11 44 -93 -73
000040 0c e6 9a 05 b6 2a 98 0e 31 c3 e6 0b 18 af 2c f3
       12 -26 -102 5 -74 42 -104 14 49 -61 -26 11 24 -81 44 -13
000050 3a a9 c0 38 dc 08 aa b7 d1 ae d9 3a be 5c b3 ca
       58 -87 -64 56 -36 8 -86 -73 -47 -82 -39 58 -66 92 -77 -54
000060 a3 2c b5 36 ca 2c b2 8d 10 06 3d de 31 9f 24 99
       -93 44 -75 54 -54 44 -78 -115 16 6 61 -34 49 -97 36 -103
000070 d1 b3 08 ef 58 b1 3c 0c 08 b8 42 d2 af d9 94 fe
       -47 -77 8 -17 88 -79 60 12 8 -72 66 -46 -81 -39 -108 -2
000080 26 24 fc 00 e9 54 67 93 b3 99 2c 41 62 e7 1b 78
       38 36 -4 0 -23 84 103 -109 -77 -103 44 65 98 -25 27 120
000090 8e 3f 67 d4 f7 b9 d8 32 a9 fc cb 9c 75 4a 0f db
       -114 63 103 -44 -9 -71 -40 50 -87 -4 -53 -100 117 74 15 -37
0000a0 78 10 2f d7 c6 f4 2b 61 dd cf 55 26 58 fd da 52
       120 16 47 -41 -58 -12 43 97 -35 -49 85 38 88 -3 -38 82
0000b0 af 1e 3f ab be c2 a5 30 b7 35 d6 a7 de dc d9 f9
       -81 30 63 -85 -66 -62 -91 48 -73 53 -42 -89 -34 -36 -39 -7
0000c0 6c 26 bf 21 f2 2a d9 98 08 ec c1 bd 49 53 1f b6
       108 38 -65 33 -14 42 -39 -104 8 -20 -63 -67 73 83 31 -74
0000d0 33 3e 16 a2 35 09 c2 1a cd b3 55 54 e9 f8 94 a1
       51 62 22 -94 53 9 -62 26 -51 -77 85 84 -23 -8 -108 -95
0000e0 5d 12 d1 e1 5e b2 59 18 53 10 48 a9 e2 aa a5 29
       93 18 -47 -31 94 -78 89 24 83 16 72 -87 -30 -86 -91 41
0000f0 32 90 fd d0 d3 15 d7 3c 23 d8 fb 81 41 e4 a7 3a
       50 -112 -3 -48 -45 21 -41 60 35 -40 -5 -127 65 -28 -89 58

tfl.pseudo_qconst3 i1 [128, 128]
000000 e1 3a 3a c6 0d 37 2f 32 a3 cb 52 f9 51 3f db b0
       -31 58 58 -58 13 55 47 50 -93 -53 82 -7 81 63 -37 -80
000010 17 29 4d b3 c8 21 81 00 0f 17 01 4d 3b 11 a5 b1
       23 41 77 -77 -56 33 -127 0 15 23 1 77 59 17 -91 -79
000020 c0 e7 de ab 19 b3 06 ea 06 02 26 22 cb 47 c6 f0
       -64 -25 -34 -85 25 -77 6 -22 6 2 38 34 -53 71 -58 -16
000030 dd 42 b2 49 a6 c6 1a 3c a4 35 ee 24 31 e0 34 b2
       -35 66 -78 73 -90 -58 26 60 -92 53 -18 36 49 -32 52 -78
000040 29 ff fd 1e 42 f7 2f 22 af e9 b3 cc 01 0f f7 de
       41 -1 -3 30 66 -9 47 34 -81 -23 -77 -52 1 15 -9 -34
000050 f7 e6 4f 23 13 89 06 00 ac b0 34 cc d6 a7 45 1e
       -9 -26 79 35 19 -119 6 0 -84 -80 52 -52 -42 -89 69 30
000060 cb 99 cb 42 d3 17 cd ba 15 10 a0 02 1c a9 18 50
       -53 -103 -53 66 -45 23 -51 -70 21 16 -96 2 28 -87 24 80
000070 c0 e4 8b f3 24 f3 d7 cb b4 43 d8 e4 e9 f8 04 dd
       -64 -28 -117 -13 36 -13 -41 -53 -76 67 -40 -28 -23 -8 4 -35
000080 a1 d6 a7 ce 4d ca dc 4f 29 ab e0 90 33 fe 40 5c
       -95 -42 -89 -50 77 -54 -36 79 41 -85 -32 -112 51 -2 64 92
000090 1f 33 44 cb ba af f3 39 0e 30 ef 09 a5 b2 d6 06
       31 51 68 -53 -70 -81 -13 57 14 48 -17 9 -91 -78 -42 6
0000a0 b8 c6 4e d6 b6 3a b6 ce 3f 5a 17 97 c3 3f 12 2b
       -72 -58 78 -42 -74 58 -74 -50 63 90 23 -105 -61 63 18 43
0000b0 26 48 bc c6 df 10 0a 0c f8 3e 42 d4 cf e9 99 52
       38 72 -68 -58 -33 16 10 12 -8 62 66 -44 -49 -23 -103 82
0000c0 41 ff d6 24 95 ea 28 50 a2 13 44 02 04 f2 1b 01
       65 -1 -42 36 -107 -22 40 80 -94 19 68 2 4 -14 27 1
0000d0 c0 48 ad c3 1b 81 02 cc d5 05 fb 40 fe f4 cf b4
       -64 72 -83 -61 27 -127 2 -52 -43 5 -5 64 -2 -12 -49 -76
0000e0 3a 34 f3 48 e2 c1 16 c7 d2 fe bd fd 9f eb b7 32
       58 52 -13 72 -30 -63 22 -57 -46 -2 -67 -3 -97 -21 -73 50
0000f0 8e ad a1 27 0f f1 b9 db eb a0 af bf 08 30 4e c0
       -114 -83 -95 39 15 -15 -71 -37 -21 -96 -81 -65 8 48 78 -64
