ML/models/conv1d_angle/model.tflite (tflite, 94848 bytes, 11 tensors)

arith.constant2 f4 [1, 64]
0	0xbe2d6a15	-0.16934998
1	0x3ef54faa	0.4791234
2	0x3cb88acb	0.02252712
3	0x3ed43e3f	0.4145374
4	0xbe90589b	-0.281926
5	0xbeb630aa	-0.35584003
6	0xbecaa775	-0.39580885
7	0xbe1cd061	-0.15313865
8	0xbec05937	-0.37568066
9	0x3d3c9f08	0.0460501
10	0xbea47e1b	-0.3212746
11	0xbe90f54d	-0.2831215
12	0x3ea3187b	0.31854615
13	0x3eeb9431	0.460115
14	0x3e75d211	0.24005915
15	0xbe657469	-0.22407688
16	0x3de15f83	0.110045455
17	0xbd41c0cf	-0.047303017
18	0x3ea4cebf	0.32188985
19	0xbec6266b	-0.38701186
20	0xbce86b7f	-0.02837157
21	0xbda54552	-0.080698624
22	0xbef973f2	-0.48721272
23	0x3ebb6126	0.36597556
24	0xbe0c5349	-0.13703646
25	0xbebeb682	-0.37248617
26	0xbed233d2	-0.4105516
27	0x3e75199f	0.23935555
28	0x3dcb6241	0.0993085
29	0xbec556b3	-0.3854271
30	0xbf107b5a	-0.5643822
31	0x3e0211f4	0.12702161
32	0xbe127fd6	-0.14306578
33	0xbe644fca	-0.22296062
34	0xbd60576e	-0.05477088
35	0xbd9273df	-0.07151007
36	0x3e6144b2	0.21998861
37	0xbd9e378b	-0.07725438
38	0x3e910c1c	0.2832955
39	0xbe86b116	-0.2630698
40	0x3ed05c44	0.40695393
41	0xbe2d807d	-0.16943546
42	0x3db3bdb6	0.08776419
43	0xbe95da58	-0.29268146
44	0x3eac3f87	0.33642218
45	0xbe5b4f9e	-0.2141709
46	0x3df260df	0.11834883
47	0xbecc7156	-0.39930218
48	0xbe41a141	-0.1890917
49	0x3ee7aac4	0.4524747
50	0x3e2fef3a	0.17181101
51	0x3ed89bd9	0.42306402
52	0x3f118e11	0.568574
53	0x3db558a0	0.088547945
54	0xbec491a5	-0.38392368
55	0x3ec77b62	0.3896132
56	0xbed334d3	-0.4125124
57	0xbd5580c0	-0.05212474
58	0xbeab1004	-0.33410656
59	0x3e99dcc6	0.3005125
60	0xbd42a6aa	-0.047522224
61	0x3ea75adc	0.32686508
62	0x3cba3910	0.022732288
63	0x3d866765	0.0656269

arith.constant7 f4 [128]
0	0xbcb49182	-0.02204204
1	0xbc5cca45	-0.013475959
2	0x3cbead4c	0.023275994
3	0xbd40cff2	-0.047073312
4	0xbc01dcd9	-0.007926189
5	0xbc63b050	-0.013897017
6	0xbc5f149d	-0.013615754
7	0xbcb291ed	-0.021798098
8	0x3ce74cc5	0.028234849
9	0x3d178a78	0.03699729
10	0x3cb8a3f6	0.02253912
11	0xbcb5c102	-0.02218676
12	0xbcf21697	-0.029551787
13	0x3d31eca7	0.04343858
14	0xbcd97394	-0.02654437
15	0xbc497585	-0.012296085
16	0xbbb94077	-0.0056534368
17	0xbcb820ca	-0.022476573
18	0xbc6beb97	-0.014399431
19	0xbc9c97d4	-0.019115366
20	0xbcafcb79	-0.021459328
21	0xbc9acc60	-0.018896282
22	0xbb70cdb8	-0.0036743712
23	0xbcd98c02	-0.026556019
24	0xbd4106e3	-0.04712571
25	0xbca4e0c4	-0.020126708
26	0xbca09025	-0.019599983
27	0xbd198852	-0.03748352
28	0xbe1c318b	-0.15253274
29	0xbd2bc795	-0.041938383
30	0xbd35b1bd	-0.044358958
31	0xbce01396	-0.02735309
32	0xbcbaee3b	-0.022818675
33	0xbc6f9b98	-0.014624499
34	0x3c765909	0.015035876
35	0xbd182a69	-0.03714982
36	0xbd236c68	-0.039898306
37	0xbd20a897	-0.03922328
38	0xbd124773	-0.03571267
39	0xbd2e30cb	-0.042527
40	0xbd13a7c9	-0.036048684
41	0x3d4261de	0.047456615
42	0x00000000	0.0
43	0x3c9cfd26	0.01916368
44	0xbd414080	-0.047180653
45	0xbca4b696	-0.020106595
46	0x3c40fdc4	0.011779252
47	0xbd012afd	-0.031535137
48	0x3c5f49e2	0.013628455
49	0xbcbd359b	-0.02309685
50	0xbcc3b6a5	-0.023890803
51	0x3d7def6f	0.06199592
52	0x3c977cd2	0.018492136
53	0x3d293b53	0.04131634
54	0x3d002624	0.031286374
55	0xbcef52ba	-0.029214252
56	0xbcb5988e	-0.02216747
57	0x3bb21378	0.0054344498
58	0x3cf049db	0.029332092
59	0xbc0fe267	-0.008782006
60	0x3d3fccf7	0.04682633
61	0xbcffebf2	-0.031240437
62	0xbcb1603e	-0.021652337
63	0xbca7027b	-0.020386925
64	0x3bf2512d	0.007394931
65	0xbc9cdd9e	-0.019148644
66	0xbcb3f970	-0.021969527
67	0x3c8768bb	0.016529432
68	0xbcc053a9	-0.023477392
69	0xbc986975	-0.018604973
70	0xbd306b93	-0.04307134
71	0xbbeaf790	-0.007170625
72	0x3c343bfe	0.011000631
73	0xbd1f022e	-0.038820438
74	0xbcae4a51	-0.021275671
75	0x3b86adc8	0.004110072
76	0xbc0e0670	-0.008668527
77	0xbce8f88f	-0.028438834
78	0xbd11a7f4	-0.035560563
79	0xbcc37998	-0.023861691
80	0x3ce5f600	0.028071404
81	0xbd2d2823	-0.042274605
82	0xbd1f8dde	-0.038953654
83	0x3b8d3015	0.0043087103
84	0x3cee3a76	0.02908061
85	0x3cf25c23	0.02958495
86	0xbcbfe2f8	-0.023423657
87	0x3d0f5144	0.03498961
88	0xbcf80b3a	-0.03027879
89	0xbca613f8	-0.020273194
90	0xbc665629	-0.014058628
91	0x3c210827	0.009828604
92	0xbcc29cda	-0.023756433
93	0x3d7d9c2f	0.061916526
94	0xbc882887	-0.016620887
95	0xbd07d285	-0.03315975
96	0x3c833ce4	0.016020246
97	0x3c471236	0.012150338
98	0xbba63a1d	-0.0050728456
99	0xbc5ef56c	-0.013608318
100	0xbc4d5e1e	-0.012534646
101	0xbc8a1d0e	-0.016859557
102	0xbcb453b2	-0.022012565
103	0xbcddf193	-0.02709273
104	0xbbb7456c	-0.0055929925
105	0xbce425d6	-0.027850073
106	0x3cd00ffb	0.025398245
107	0xbc950d8c	-0.018194936
108	0xbc10a5c6	-0.008828586
109	0x3d3584e7	0.0443162
110	0x3d3df190	0.04637295
111	0xbcf1c729	-0.029513912
112	0xbca314ed	-0.01990744
113	0xbc909676	-0.01764987
114	0xbd0b98d6	-0.034081303
115	0x3c689a64	0.014196966
116	0xbd084c85	-0.0332761
117	0xbb79ec2d	-0.0038135157
118	0x3ca476fa	0.020076264
119	0xbc59e5fa	-0.01329946
120	0x3c32cadc	0.010912623
121	0x3acb21bc	0.0015497725
122	0xbc8518bd	-0.016247148
123	0xbc8ed5dd	-0.017435962
124	0x3cdf0aa3	0.027226752
125	0xbd02e8bd	-0.031960238
126	0xbc0f0175	-0.008728375
127	0xbcccbd39	-0.024992572

arith.constant8 f4 [64]
0	0x3e089d3b	0.13341229
1	0x3e2d3ad8	0.16916978
2	0x3c706a20	0.01467374
3	0x3e981f40	0.29711342
4	0xbc848ae0	-0.016179502
5	0x3e1c1bec	0.15245026
6	0x3d44f0e3	0.04808129
7	0x3d3d33ea	0.046192087
8	0xbd13fc67	-0.03612938
9	0xbda67d16	-0.08129327
10	0x3e58f5de	0.21187541
11	0xbc3c3163	-0.011486384
12	0x3e4f46ef	0.20241903
13	0x3e6786a7	0.2260996
14	0x3d8c0446	0.068367526
15	0xbd87aa4e	-0.0662428
16	0x3db41efc	0.08794972
17	0x3df470c3	0.1193557
18	0x3cfd9b3c	0.03095781
19	0x3d259d9d	0.040433515
20	0x3bd14336	0.006386186
21	0xbd05839a	-0.03259621
22	0xbebde717	-0.3709037
23	0x3e766812	0.24063137
24	0x3d8e23b1	0.06940401
25	0xbeb6c83d	-0.35699645
26	0x3e08334f	0.13300823
27	0x3d986bdf	0.0744245
28	0xbe83843e	-0.2568683
29	0x3daca10e	0.08429156
30	0x3e3757f4	0.17904645
31	0xbe2078af	-0.15671037
32	0x3e4607bd	0.1933889
33	0x3e1c3efb	0.152584
34	0x3c4a07ba	0.012330944
35	0x3d5b6288	0.053560764
36	0x3d1676b3	0.036734294
37	0x3e3860ec	0.18005723
38	0x3e323198	0.17401731
39	0x3e0e0d0e	0.13872167
40	0x3e48b918	0.19601858
41	0xbc81b68b	-0.015834114
42	0xbe4be3cf	-0.19911121
43	0x3e25e124	0.16199166
44	0x3e7a6a42	0.24454597
45	0xbd075377	-0.033038583
46	0xbe465d1f	-0.1937146
47	0x3e70c819	0.23513831
48	0x3e6992ac	0.22809857
49	0x3e5d3f09	0.21606077
50	0xbea0fce6	-0.31442946
51	0x3e07a19b	0.13245241
52	0xbee71e6a	-0.45140392
53	0x3d90a86d	0.07063375
54	0xbe74c722	-0.23904088
55	0x3d655445	0.05598857
56	0x3df96acb	0.12178572
57	0x3de3ec6c	0.11129078
58	0x3e3c3e1c	0.18383068
59	0xbdba4f88	-0.09097201
60	0xbbff0e4b	-0.0077836863
61	0x3e0662f4	0.13123685
62	0x3d23411d	0.03985702
63	0xbd4a05f4	-0.049322084

arith.constant9 f4 [32, 1, 9, 2]
0	0xbd0078c4	-0.03136517
1	0x3e96ad47	0.29429075
2	0x3da5fbd1	0.08104671
3	0x3f0f40df	0.5595836
4	0x3f11b190	0.56911564
5	0x3dc22f7f	0.094817154
6	0xbeee1c52	-0.46505982
7	0xbdd44b6b	-0.10365947
8	0x3ea7a3e9	0.3274224
9	0xbe0a646b	-0.13514869
10	0x3df76d3d	0.120813824
11	0x3d293eb2	0.041319557
12	0xbd3a2771	-0.04544777
13	0x3dc7ef13	0.09762397
14	0xbebe963e	-0.37224
15	0xbe88ff48	-0.26757264
16	0x3e4751f2	0.19464853
17	0xbf1a0d43	-0.60176486
18	0x3e863024	0.26208603
19	0xbe8dff8b	-0.27734026
20	0x3e73f596	0.23824152
21	0x3def6fdd	0.11691258
22	0x3df43719	0.119245715
23	0x3e409a60	0.1880889
24	0x3ba9cb48	0.0051817037
25	0x3e54ee65	0.20794065
26	0x3ee3504c	0.443972
27	0x3dbdbf4d	0.09265003
28	0xbe292955	-0.16519673
29	0x3e374430	0.17897105
30	0xbbbba5d5	-0.005726556
31	0xbe621753	-0.2207921
32	0xbccadefa	-0.024764527
33	0xbd6aa261	-0.057283763
34	0x3d6f2b93	0.058391165
35	0xbda35022	-0.079742685
36	0x3d0b8c63	0.03406943
37	0xbf0c4290	-0.54789066
38	0xbf036b5c	-0.5133569
39	0x3f401cd9	0.7504402
40	0x3ec6dd81	0.3884087
41	0xbedb6440	-0.42849922
42	0x3ea86f85	0.32897583
43	0xbf2ba95f	-0.67055315
44	0xbea8b963	-0.3295394
45	0x3cf01dda	0.02931111
46	0x3f7dc977	0.99135536
47	0x3e80778e	0.25091213
48	0xbeeba365	-0.46023098
49	0x3f440b4f	0.76579756
50	0xbedea5ae	-0.4348578
51	0xbd18ba14	-0.037286833
52	0x3e5e5890	0.21713471
53	0xbe3d2b83	-0.1847363
54	0xbe303f38	-0.17211616
55	0xbe242f7b	-0.16033737
56	0xbd627d06	-0.055295013
57	0x3ea65002	0.32482916
58	0xbdd6a65c	-0.10480949
59	0x3e370035	0.17871173
60	0x3df7cb52	0.12099327
61	0x3eb04a8b	0.34431872
62	0x3e17e4ec	0.1483342
63	0x3d1a2adc	0.03763853
64	0xbe667b5f	-0.22508
65	0xbc44f6aa	-0.0120217
66	0x3ed54e82	0.4166146
67	0x3ec54580	0.38529587
68	0xbddddb12	-0.108328
69	0xbec6dbb3	-0.38839492
70	0xbe0ee4aa	-0.13954416
71	0xbea56b45	-0.32308403
72	0xbeb05f88	-0.34447885
73	0x3db0af52	0.0862719
74	0xbe1c729c	-0.15278095
75	0x3d889e64	0.066708356
76	0xbe9961d0	-0.29957438
77	0xbeaa60c1	-0.33276942
78	0x3f198db1	0.5998183
79	0xbeb5a01d	-0.3547372
80	0xbec1166a	-0.37712413
81	0x3d04c164	0.032410994
82	0xbcb04827	-0.02151878
83	0x3cc3ab6b	0.02388545
84	0x3e554bbe	0.20829675
85	0xbcca1d4c	-0.024672173
86	0xbe16305e	-0.14666888
87	0x3dce8bf6	0.10085289
88	0x3f109cf6	0.56489503
89	0xbe110dda	-0.1416544
90	0x3e28753e	0.16450974
91	0xbb054e05	-0.0020340693
92	0xbeafce5b	-0.34337124
93	0xbe02d12e	-0.12775108
94	0xbeb8c444	-0.3608724
95	0x3f234a30	0.63785076
96	0x3e5840cc	0.21118468
97	0xbf10b141	-0.5652047
98	0xbf317436	-0.6931795
99	0x3f0f0001	0.5585938
100	0x3ea67eb8	0.32518554
101	0x3e3e8586	0.18605623
102	0x3f064b20	0.5245838
103	0xbf36119b	-0.71120614
104	0x3eb3af05	0.35094467
105	0x3eaca462	0.33719164
106	0xbe0d882f	-0.13821481
107	0xbe6087f2	-0.21926859
108	0xbf28947e	-0.6585158
109	0x3e996a74	0.2996403
110	0xbe6814f0	-0.22664237
111	0xbe3c5928	-0.18393385
112	0x3e571987	0.21005832
113	0xbd750adf	-0.05982482
114	0x3e8cf67f	0.27531812
115	0xbe9cecc4	-0.30649388
116	0xbe58abf8	-0.21159351
117	0x3eb6a7bd	0.3567485
118	0xbed6a7f4	-0.41925013
119	0xbd0c58e7	-0.03426447
120	0x3e954961	0.29157546
121	0xbd5ce1c1	-0.053926233
122	0x3f07f2e5	0.53105
123	0xbda665a1	-0.08124853
124	0x3e7f8ef4	0.24956876
125	0x3d19d88f	0.037560042
126	0x3f67d7d2	0.9056369
127	0x3ebcc2eb	0.3686746
128	0xbf774b61	-0.96599394
129	0xbe872bca	-0.26400596
130	0x3f2ce3ea	0.6753527
131	0xbe2c8d28	-0.16850722
132	0x3c328525	0.010896002
133	0x3e98b122	0.29822642
134	0x3e869420	0.26284885
135	0xbe033491	-0.12813021
136	0xbe3e0bcb	-0.18559186
137	0xbea1ed58	-0.3162639
138	0xbe333148	-0.17499268
139	0x3f0433b1	0.51641375
140	0xbe4d75c4	-0.20064455
141	0xbe35f1e3	-0.17768054
142	0x3e5b4884	0.21414381
143	0x3ead5aa0	0.33858204
144	0x3eb32fa9	0.349973
145	0xbf1664e7	-0.58747715
146	0xbf9ee7fe	-1.2414548
147	0x3f9c64d0	1.2218266
148	0x3ff0187b	1.8757471
149	0xc0085f92	-2.1308331
150	0xc0222fc3	-2.5341651
151	0x40108e8d	2.2587006
152	0x4024b06e	2.5732684
153	0xbfe37637	-1.7770451
154	0xc004e54c	-2.0764952
155	0x3fa59876	1.2937152
156	0x3f9cde60	1.2255363
157	0xbea2ee31	-0.3182235
158	0xbf5d3334	-0.86406255
159	0xbc9dd28f	-0.019265441
160	0x3f21bcb0	0.6317854
161	0x3d0cd21b	0.03438006
162	0xbed2dc38	-0.4118364
163	0xbecd08ae	-0.40045685
164	0xbd5e0707	-0.05420592
165	0xbe022d74	-0.12712651
166	0xbedbc79d	-0.4292573
167	0xbe3fefbd	-0.18743797
168	0x3eddb8bf	0.43305013
169	0xbe3465e4	-0.17616993
170	0xbf2132dc	-0.6296823
171	0x3e7257b6	0.23666272
172	0x3e3033f9	0.17207326
173	0x3ecf412e	0.40479416
174	0x3e876a0a	0.2644809
175	0xbedd1155	-0.43177286
176	0xbebd1dbd	-0.3693675
177	0x3e93720e	0.28797954
178	0x3d3b70d2	0.04576189
179	0xbe56bece	-0.20971224
180	0xbf107abb	-0.5643727
181	0xbe778884	-0.2417317
182	0x3cf3280f	0.029682187
183	0xbe2bdd77	-0.16783701
184	0x3e409228	0.18805754
185	0xbf035d08	-0.5131383
186	0x3d1d3346	0.038378976
187	0x3e204ce0	0.15654325
188	0xbefc73da	-0.49307138
189	0x3c249edc	0.010047641
190	0xbbcd897d	-0.0062724934
191	0xbf0ba6ef	-0.54551595
192	0x3ea3d84a	0.32000953
193	0x3ee09b0b	0.43868288
194	0xbe23e55a	-0.1600546
195	0x3e828e1c	0.25499046
196	0x3f3094a3	0.689768
197	0x3eeea76f	0.46612117
198	0x3ec38171	0.38184693
199	0x3eaec9cc	0.34138334
200	0x3ea87a03	0.32905588
201	0xbe39c1d2	-0.18140343
202	0xbf5ef15f	-0.87087053
203	0xbf1691e7	-0.5881638
204	0xbde14be4	-0.11000803
205	0x3cff01df	0.031128822
206	0x3ea80a77	0.32820484
207	0x3ea3b752	0.319758
208	0x3ee25118	0.44202495
209	0x3e9dfef7	0.30858585
210	0xbeb89067	-0.3604767
211	0x3c63a24a	0.013893673
212	0xbedb4176	-0.4282338
213	0xbec3e7fe	-0.38262933
214	0x3e1390f3	0.14410762
215	0x3f17b395	0.59258395
216	0x3ceedfd9	0.029159473
217	0x3d88ed91	0.06685937
218	0xbf0ae5b9	-0.5425678
219	0x3e49ec1c	0.19718975
220	0xbece96c0	-0.40349388
221	0x3f0308eb	0.5118548
222	0x3f3b717f	0.73220056
223	0xbf16c349	-0.5889173
224	0x3f041850	0.515996
225	0xbe659067	-0.22418366
226	0x3ee42ee6	0.4456703
227	0xbedd1a7a	-0.43184263
228	0xbe917d7f	-0.28416058
229	0x3dcd1ebd	0.100156285
230	0xbf220db5	-0.63302165
231	0x3f1268a2	0.57190907
232	0x3ddcafc9	0.10775716
233	0xbdaf003e	-0.08544968
234	0xbe921fab	-0.28539786
235	0xbd173eff	-0.036925312
236	0x3e2fa126	0.17151317
237	0xbe0d1cdd	-0.13780542
238	0xbdaad063	-0.08340528
239	0x3d3ff7c7	0.04686716
240	0xbeafddf4	-0.34349024
241	0x3ef4f5ba	0.47843724
242	0xbe15315b	-0.14569609
243	0xbe58d1ac	-0.21173733
244	0xbe832e1c	-0.25621116
245	0x3dcd2f26	0.100187585
246	0xbe5af2fe	-0.21381757
247	0x3d82e335	0.063909926
248	0x3f23e659	0.6402336
249	0xbe767176	-0.2406672
250	0x3f0f9506	0.56086767
251	0xbca2c3f1	-0.019868823
252	0x3f19a7e6	0.6002182
253	0xbed8fa3a	-0.42378408
254	0xbd811c22	-0.06304194
255	0x3f2b625e	0.6694697

arith.constant10 f4 [128]
0	0xbdac03aa	-0.08399136
1	0x3f0a497f	0.54018396
2	0x3ed8f430	0.423738
3	0x3f1e6441	0.61871725
4	0x3ee46484	0.44607937
5	0x3e852ec9	0.26012257
6	0x3eb23f37	0.34813854
7	0x3cf640e3	0.030060237
8	0xbccbdbbd	-0.024885053
9	0x3f132957	0.57484955
10	0x3ed37869	0.41302803
11	0x3d58c718	0.052924246
12	0x3e9c15a9	0.30485275
13	0x3dfff3cf	0.12497675
14	0x3d1e8ae3	0.03870667
15	0xbe43e00a	-0.19128433
16	0xbecbc1bf	-0.39796254
17	0xbe6ce698	-0.2313484
18	0x3ee6c23e	0.4507007
19	0x3f629507	0.8850865
20	0x3f054f11	0.5207377
21	0x3f5630e9	0.8366838
22	0xbe1474a6	-0.14497623
23	0x3dc61cb1	0.09673441
24	0x3ed4de70	0.41575956
25	0x3f489052	0.78345215
26	0x3f335a1c	0.7005937
27	0x3f4f5c2a	0.81000006
28	0x3ea35b07	0.31905386
29	0xbd9d2302	-0.07672693
30	0x3e3e5562	0.18587258
31	0xbf13bd9a	-0.57711184
32	0x3f171044	0.59009194
33	0x3ce498b6	0.02790485
34	0x3ed583b4	0.41702044
35	0x3e7829ac	0.24234647
36	0x3e6d5c02	0.2317963
37	0x3f272091	0.6528407
38	0x3dee7260	0.11642909
39	0x3ed486bb	0.4150904
40	0x3e1f5035	0.1555794
41	0x3f376aa0	0.7164707
42	0x3ce1bd9c	0.027556233
43	0x3f1c4407	0.610413
44	0x3f0ae56b	0.54256314
45	0x3f3f9c37	0.7484774
46	0x3f088d32	0.53340447
47	0xbeff91ad	-0.4991583
48	0x3e84e9d0	0.25959635
49	0xbe68d2d2	-0.22736672
50	0xbe24aebc	-0.16082281
51	0x3f302271	0.68802553
52	0x3f5c9d97	0.86177963
53	0x3f11b4d6	0.5691656
54	0x3ee3a498	0.44461513
55	0x3f0fc744	0.5616343
56	0x3ec2676b	0.37969527
57	0x3ecc1050	0.39856195
58	0xbf676527	-0.9038872
59	0x3f305b28	0.68889093
60	0x3ed4e767	0.41582796
61	0x3e494472	0.19655016
62	0x3f8961bb	1.073295
63	0x3ed30b2b	0.41219458
64	0x3f332245	0.69974166
65	0x3eaacbf8	0.3335874
66	0x3d47af78	0.048751324
67	0xbf084edc	-0.5324533
68	0xbbc4f813	-0.006011018
69	0x3efd5eaf	0.494863
70	0x3e8d9792	0.276547
71	0x3f4d11bf	0.80105203
72	0x3e8f525c	0.27992523
73	0x3ef38a5a	0.4756649
74	0x3eca782f	0.39544818
75	0x3f00e9dd	0.5035685
76	0xbec99471	-0.39371064
77	0x3ed0e3d1	0.4079881
78	0xbdf043eb	-0.11731704
79	0x3ecb9fa4	0.39770234
80	0x3f2c1528	0.6721978
81	0xbe59e4d4	-0.21278697
82	0xbc8712cd	-0.016488457
83	0x3f088432	0.53326714
84	0xbbb5c698	-0.005547356
85	0x3eaff4fc	0.34366596
86	0xbe1ff525	-0.15620859
87	0x3e6e89e8	0.23294795
88	0x3f64d2d5	0.89384204
89	0x3eb33907	0.35004446
90	0xbeb3a4ce	-0.35086673
91	0x3d2a10fa	0.041520096
92	0x3ea315bb	0.31852517
93	0x3ed8beae	0.42332977
94	0xbef7b61b	-0.48381123
95	0x3f27602e	0.65381134
96	0x3e27fc8b	0.16404931
97	0x3f292a47	0.66080135
98	0x3da31c32	0.07964362
99	0xbf86efdb	-1.0541948
100	0x3dec9f27	0.115537934
101	0x3e2b266f	0.1671388
102	0x3e47a0d3	0.19494943
103	0x3f2382d9	0.6387153
104	0xbe85ee6d	-0.26158467
105	0xbe61a947	-0.2203723
106	0x3eada46e	0.33914512
107	0x3e8be024	0.27319443
108	0xbdfec2b7	-0.12439483
109	0xbe17f981	-0.14841272
110	0xbe3aec83	-0.18254285
111	0x3e1a5085	0.15069778
112	0x3ed5acdd	0.41733447
113	0x3f049e97	0.5180449
114	0xbebcd294	-0.36879408
115	0x3e95c890	0.2925458
116	0xbd36712d	-0.044541527
117	0x3f1f906b	0.6232974
118	0x3f1c00cb	0.6093871
119	0xbd9687c5	-0.07350115
120	0xbd8a105d	-0.06741402
121	0x3e8d5e1b	0.2761086
122	0x3cb7892a	0.022404272
123	0x3f25f798	0.64830923
124	0xbc8e76f4	-0.017390706
125	0x3f14b561	0.5808926
126	0x3f37b34b	0.71757954
127	0x3f2bf5bb	0.6717183

arith.constant11 f4 [64]
0	0x3e330c36	0.17485127
1	0xbd07c35a	-0.033145286
2	0x3e5a4ef7	0.21319185
3	0xbdbfe6bf	-0.09370183
4	0x3e7c49a1	0.24637462
5	0x3cc2feca	0.023803134
6	0x3d391ebe	0.045195334
7	0x3e82cac9	0.25545338
8	0x3e3a8099	0.18213119
9	0xbf00d0c7	-0.5031857
10	0x3da5e9b1	0.08101214
11	0xbd75fdce	-0.0600565
12	0xbe4ca203	-0.19983678
13	0x3e3531f8	0.17694843
14	0xbf039ec1	-0.51414114
15	0x3d132dc7	0.03593233
16	0x3ed0a5ac	0.40751398
17	0xbcda2f35	-0.026633838
18	0x3bab2b96	0.0052237017
19	0x3d48fada	0.049067356
20	0xbd4ee44d	-0.050510693
21	0xbcf04d08	-0.029333606
22	0xbf964724	-1.174046
23	0x3bfb1e7a	0.007663545
24	0x3d0d65e0	0.034520984
25	0x3c4994ad	0.0123035135
26	0x3de3a132	0.1111473
27	0x3cda4436	0.026643854
28	0xbe0ab2ad	-0.13544722
29	0x3e93b777	0.2885091
30	0x3e07e389	0.13270392
31	0x3e183b61	0.14866401
32	0x3e375b77	0.17905985
33	0x3d8f0662	0.06983639
34	0x3dc8f300	0.098119736
35	0x3e963724	0.29338944
36	0xbd6cd869	-0.057823572
37	0x3e4e8cbf	0.20170878
38	0x3d22d47f	0.039753433
39	0x3e174a0a	0.14774337
40	0x3e69f7f3	0.22848491
41	0xbdbf2aaf	-0.09334313
42	0x3e5235f8	0.205284
43	0x3e4a7999	0.19772948
44	0xbd1e6c03	-0.038677227
45	0xbda229a5	-0.07918099
46	0x3e134c32	0.14384535
47	0xbc18d222	-0.009327443
48	0x3da2a1e3	0.07941034
49	0x3d9c8cc9	0.0764404
50	0x3e855384	0.2604028
51	0x3e88024a	0.26564246
52	0x3dc58aa7	0.096455865
53	0x3d3dc0fb	0.04632662
54	0xbe998281	-0.2998238
55	0xbd82cf08	-0.06387144
56	0x3db651f2	0.089023486
57	0xbdd73ecf	-0.10510027
58	0x3e427edb	0.18993704
59	0xbd488ca8	-0.048962265
60	0x3e433fbc	0.19067281
61	0xbd1c1102	-0.038102157
62	0xbcb683f3	-0.022279715
63	0x3e8c3c4e	0.2738976

arith.constant12 f4 [32]
0	0xbec2aa16	-0.3802039
1	0xbeb31371	-0.3497577
2	0xbe865640	-0.2623768
3	0xbe876ffe	-0.2645263
4	0xbe8444d7	-0.2583377
5	0xbe5a57d9	-0.21322574
6	0xbe5bef52	-0.21478012
7	0xbecea6d8	-0.40361667
8	0xbea85425	-0.32876697
9	0xbedf6af2	-0.4363628
10	0xbd7a59a5	-0.061120648
11	0xbe51e094	-0.20495826
12	0xbe491e2d	-0.19640417
13	0xbe2940db	-0.16528647
14	0xbeadd718	-0.33953166
15	0xbe938d4c	-0.28818738
16	0xbe102469	-0.1407639
17	0xbea0c22a	-0.31398135
18	0xbf0ef6cc	-0.5584533
19	0xbec696b9	-0.38786867
20	0xbeae00cf	-0.33984992
21	0xbeb0211a	-0.34400254
22	0xbe80a4e6	-0.25125808
23	0xbe8052ef	-0.25063273
24	0xbe8be271	-0.273212
25	0xbe80fee8	-0.25194478
26	0xbe964d85	-0.29356018
27	0xbef3d9d5	-0.4762713
28	0xbe898838	-0.2686174
29	0xbebfbf0d	-0.37450448
30	0xbed6ec0a	-0.4197696
31	0xbe6f95b8	-0.23396957

tfl.pseudo_qconst i1 [128, 1, 5, 64]
0	0x07	7
1	0xd3	-45
2	0x08	8
3	0x2d	45
4	0xba	-70
5	0xd1	-47
6	0x18	24
7	0x47	71
8	0x39	57
9	0x0e	14
10	0x06	6
11	0xda	-38
12	0x04	4
13	0xf9	-7
14	0xf5	-11
15	0xe1	-31
16	0x24	36
17	0xc9	-55
18	0xfd	-3
19	0x06	6
20	0xc8	-56
21	0x35	53
22	0x2f	47
23	0x81	-127
24	0x3c	60
25	0xb9	-71
26	0xd7	-41
27	0x06	6
28	0x00	0
29	0x3e	62
30	0xc9	-55
31	0x5e	94
32	0x2d	45
33	0x1d	29
34	0xde	-34
35	0x1d	29
36	0x02	2
37	0x13	19
38	0x37	55
39	0xf0	-16
40	0x1c	28
41	0xc0	-64
42	0x21	33
43	0x48	72
44	0x15	21
45	0xb1	-79
46	0x43	67
47	0xbf	-65
48	0x36	54
49	0x3b	59
50	0x10	16
51	0xea	-22
52	0x00	0
53	0x0c	12
54	0xde	-34
55	0x09	9
56	0xb0	-80
57	0x0a	10
58	0x18	24
59	0xd4	-44
60	0xd8	-40
61	0xf4	-12
62	0xf2	-14
63	0x24	36
64	0xf1	-15
65	0xba	-70
66	0xe2	-30
67	0x20	32
68	0xd9	-39
69	0xc4	-60
70	0xe6	-26
71	0x39	57
72	0x02	2
73	0xe9	-23
74	0x16	22
75	0xab	-85
76	0xed	-19
77	0x01	1
78	0xe3	-29
79	0xbf	-65
80	0x2d	45
81	0xc5	-59
82	0x17	23
83	0x12	18
84	0xc5	-59
85	0x29	41
86	0x01	1
87	0xba	-70
88	0xeb	-21
89	0xc4	-60
90	0xba	-70
91	0xd5	-43
92	0xab	-85
93	0x19	25
94	0xbc	-68
95	0x1b	27
96	0x1e	30
97	0x4d	77
98	0xfd	-3
99	0x16	22
100	0x14	20
101	0xe8	-24
102	0x1d	29
103	0xf7	-9
104	0xf5	-11
105	0xfb	-5
106	0xfe	-2
107	0x29	41
108	0x4a	74
109	0x16	22
110	0x13	19
111	0xac	-84
112	0x02	2
113	0xff	-1
114	0xfc	-4
115	0xed	-19
116	0xdb	-37
117	0x2c	44
118	0xba	-70
119	0xe4	-28
120	0xd2	-46
121	0xe7	-25
122	0x08	8
123	0xfc	-4
124	0xe3	-29
125	0x13	19
126	0xea	-22
127	0x12	18
128	0xfa	-6
129	0xd3	-45
130	0xc6	-58
131	0x34	52
132	0xc8	-56
133	0xc6	-58
134	0xff	-1
135	0x20	32
136	0xf9	-7
137	0xf7	-9
138	0x12	18
139	0xb6	-74
140	0xed	-19
141	0x43	67
142	0xef	-17
143	0xc6	-58
144	0x25	37
145	0x06	6
146	0x35	53
147	0x0f	15
148	0xee	-18
149	0xed	-19
150	0xd7	-41
151	0xef	-17
152	0xef	-17
153	0xf8	-8
154	0xc4	-60
155	0x0f	15
156	0xdd	-35
157	0x23	35
158	0xd0	-48
159	0xf3	-13
160	0x1d	29
161	0x02	2
162	0x26	38
163	0xf8	-8
164	0x15	21
165	0x01	1
166	0xe4	-28
167	0xf0	-16
168	0x22	34
169	0xef	-17
170	0xe6	-26
171	0x13	19
172	0x06	6
173	0x2a	42
174	0x33	51
175	0xfe	-2
176	0x20	32
177	0xe0	-32
178	0x00	0
179	0x30	48
180	0xfe	-2
181	0xfe	-2
182	0xcd	-51
183	0xf6	-10
184	0xfa	-6
185	0xcf	-49
186	0x05	5
187	0xfd	-3
188	0xd7	-41
189	0xee	-18
190	0xe7	-25
191	0xfb	-5
192	0x55	85
193	0x9b	-101
194	0x34	52
195	0xe9	-23
196	0x0c	12
197	0xd6	-42
198	0xec	-20
199	0x3f	63
200	0x42	66
201	0x09	9
202	0x08	8
203	0x99	-103
204	0xcb	-53
205	0x34	52
206	0xfa	-6
207	0x45	69
208	0x07	7
209	0x0a	10
210	0x56	86
211	0xf8	-8
212	0x3a	58
213	0x3e	62
214	0x0f	15
215	0xfb	-5
216	0xe4	-28
217	0x17	23
218	0xbe	-66
219	0x10	16
220	0xfd	-3
221	0x28	40
222	0x2c	44
223	0xe9	-23
224	0x15	21
225	0xe3	-29
226	0x2d	45
227	0xd5	-43
228	0x2a	42
229	0x0f	15
230	0xe4	-28
231	0x62	98
232	0xe5	-27
233	0x23	35
234	0x1b	27
235	0x15	21
236	0x11	17
237	0x45	69
238	0x0e	14
239	0xa7	-89
240	0xf6	-10
241	0xf7	-9
242	0x0c	12
243	0x50	80
244	0xd4	-44
245	0x15	21
246	0x28	40
247	0xe3	-29
248	0x3d	61
249	0xd3	-45
250	0x03	3
251	0x0a	10
252	0xda	-38
253	0x04	4
254	0x04	4
255	0x03	3

tfl.pseudo_qconst1 i1 [64, 1, 7, 32]
0	0x11	17
1	0xf5	-11
2	0x81	-127
3	0x06	6
4	0x0c	12
5	0xef	-17
6	0x15	21
7	0xf3	-13
8	0xb9	-71
9	0xec	-20
10	0x09	9
11	0xdc	-36
12	0x10	16
13	0xfe	-2
14	0x9b	-101
15	0x12	18
16	0xf0	-16
17	0x1e	30
18	0xdf	-33
19	0xfb	-5
20	0x03	3
21	0x24	36
22	0x13	19
23	0x04	4
24	0xdb	-37
25	0xd7	-41
26	0x1b	27
27	0xd8	-40
28	0xf2	-14
29	0x05	5
30	0xd8	-40
31	0x0d	13
32	0x07	7
33	0x07	7
34	0x06	6
35	0x09	9
36	0x32	50
37	0xf3	-13
38	0x05	5
39	0xd2	-46
40	0xf4	-12
41	0xe6	-26
42	0x17	23
43	0x02	2
44	0x05	5
45	0xed	-19
46	0xf4	-12
47	0x23	35
48	0xf3	-13
49	0x2c	44
50	0xfe	-2
51	0x1a	26
52	0xe2	-30
53	0xf8	-8
54	0x08	8
55	0x3e	62
56	0xf3	-13
57	0xf0	-16
58	0x09	9
59	0x20	32
60	0xcb	-53
61	0xfd	-3
62	0xab	-85
63	0x00	0
64	0xec	-20
65	0xf7	-9
66	0x08	8
67	0x18	24
68	0xec	-20
69	0x0b	11
70	0xf0	-16
71	0x22	34
72	0xc5	-59
73	0xf9	-7
74	0x12	18
75	0x06	6
76	0x01	1
77	0xf7	-9
78	0xbd	-67
79	0xf6	-10
80	0x17	23
81	0x1a	26
82	0x16	22
83	0x09	9
84	0x04	4
85	0x1a	26
86	0x0c	12
87	0x06	6
88	0x08	8
89	0xe4	-28
90	0x16	22
91	0xf2	-14
92	0xc2	-62
93	0x07	7
94	0xe2	-30
95	0x1c	28
96	0x1c	28
97	0xfd	-3
98	0xfb	-5
99	0x0e	14
100	0xf0	-16
101	0xe1	-31
102	0x05	5
103	0x15	21
104	0x0f	15
105	0xcd	-51
106	0x00	0
107	0x18	24
108	0x0c	12
109	0x0a	10
110	0xfd	-3
111	0xfb	-5
112	0x10	16
113	0x0e	14
114	0xf4	-12
115	0x27	39
116	0xef	-17
117	0xeb	-21
118	0x02	2
119	0x21	33
120	0x02	2
121	0x04	4
122	0x16	22
123	0x24	36
124	0x06	6
125	0x08	8
126	0xcb	-53
127	0x09	9
128	0x04	4
129	0xfa	-6
130	0xff	-1
131	0xfd	-3
132	0xe5	-27
133	0xfa	-6
134	0x07	7
135	0xf4	-12
136	0xbb	-69
137	0xeb	-21
138	0xf6	-10
139	0xd3	-45
140	0x00	0
141	0xcc	-52
142	0x09	9
143	0xee	-18
144	0xee	-18
145	0xfc	-4
146	0x11	17
147	0xfc	-4
148	0xfc	-4
149	0xdf	-33
150	0xfd	-3
151	0xee	-18
152	0xf5	-11
153	0xf8	-8
154	0x36	54
155	0x0e	14
156	0xe0	-32
157	0x26	38
158	0x03	3
159	0xf2	-14
160	0x00	0
161	0x1c	28
162	0x15	21
163	0xee	-18
164	0xf3	-13
165	0xde	-34
166	0xb4	-76
167	0x9c	-100
168	0xc1	-63
169	0xce	-50
170	0xae	-82
171	0xfe	-2
172	0x0e	14
173	0x04	4
174	0xfb	-5
175	0xda	-38
176	0xaa	-86
177	0x13	19
178	0x30	48
179	0x1a	26
180	0xbc	-68
181	0xe9	-23
182	0x22	34
183	0x17	23
184	0x18	24
185	0xd2	-46
186	0x1b	27
187	0x28	40
188	0xe7	-25
189	0x00	0
190	0xc5	-59
191	0xfc	-4
192	0xf9	-7
193	0x17	23
194	0x0d	13
195	0xfc	-4
196	0x10	16
197	0xfe	-2
198	0xfd	-3
199	0x0d	13
200	0xc7	-57
201	0xed	-19
202	0xec	-20
203	0xd6	-42
204	0xfb	-5
205	0xc9	-55
206	0xde	-34
207	0xf7	-9
208	0xdd	-35
209	0x94	-108
210	0x26	38
211	0x1b	27
212	0x10	16
213	0xed	-19
214	0x1d	29
215	0x10	16
216	0x1b	27
217	0xc9	-55
218	0x12	18
219	0xfa	-6
220	0x03	3
221	0xf7	-9
222	0xcc	-52
223	0x0f	15
224	0xe3	-29
225	0x0a	10
226	0x0b	11
227	0x0b	11
228	0x09	9
229	0x16	22
230	0x11	17
231	0xea	-22
232	0x03	3
233	0x05	5
234	0xed	-19
235	0x28	40
236	0x20	32
237	0x17	23
238	0x1f	31
239	0xc5	-59
240	0x21	33
241	0xff	-1
242	0xf4	-12
243	0x1e	30
244	0x01	1
245	0x1a	26
246	0x08	8
247	0x19	25
248	0xfe	-2
249	0x0c	12
250	0x0b	11
251	0xd9	-39
252	0xf9	-7
253	0x20	32
254	0xf3	-13
255	0x20	32

tfl.pseudo_qconst2 i1 [64, 128]
0	0x07	7
1	0x02	2
2	0xe9	-23
3	0x34	52
4	0x1e	30
5	0xda	-38
6	0xa7	-89
7	0xd9	-39
8	0xed	-19
9	0xfd	-3
10	0xd8	-40
11	0xe8	-24
12	0x11	17
13	0xbe	-66
14	0x24	36
15	0x05	5
16	0x34	52
17	0xdd	-35
18	0x1b	27
19	0x27	39
20	0x16	22
21	0x28	40
22	0xd5	-43
23	0xee	-18
24	0x07	7
25	0xa2	-94
26	0xe0	-32
27	0xef	-17
28	0x08	8
29	0x3a	58
30	0xe3	-29
31	0xda	-38
32	0x0c	12
33	0xec	-20
34	0xfa	-6
35	0xf0	-16
36	0xfa	-6
37	0x26	38
38	0x20	32
39	0xe0	-32
40	0x12	18
41	0xf1	-15
42	0xea	-22
43	0xe1	-31
44	0x01	1
45	0x21	33
46	0xf1	-15
47	0x17	23
48	0xc5	-59
49	0x14	20
50	0xed	-19
51	0xdc	-36
52	0xab	-85
53	0x04	4
54	0x05	5
55	0x1a	26
56	0x18	24
57	0x41	65
58	0xa0	-96
59	0x32	50
60	0x0e	14
61	0xe7	-25
62	0xff	-1
63	0x01	1
64	0xf4	-12
65	0x8f	-113
66	0x2a	42
67	0x04	4
68	0xe0	-32
69	0x0b	11
70	0x13	19
71	0x7f	127
72	0xdc	-36
73	0xf4	-12
74	0xfc	-4
75	0xb6	-74
76	0xfe	-2
77	0x53	83
78	0x09	9
79	0xc6	-58
80	0xe1	-31
81	0xd4	-44
82	0xd6	-42
83	0xd8	-40
84	0x1c	28
85	0xff	-1
86	0x01	1
87	0x04	4
88	0x04	4
89	0x10	16
90	0x24	36
91	0xe2	-30
92	0x13	19
93	0xbd	-67
94	0x1c	28
95	0xee	-18
96	0x2f	47
97	0x11	17
98	0xd9	-39
99	0x0d	13
100	0x22	34
101	0x2c	44
102	0xd5	-43
103	0x08	8
104	0xb5	-75
105	0xfb	-5
106	0xfb	-5
107	0xfa	-6
108	0x2a	42
109	0x23	35
110	0xe2	-30
111	0x12	18
112	0xed	-19
113	0x03	3
114	0xfd	-3
115	0x1c	28
116	0xe7	-25
117	0xe5	-27
118	0x23	35
119	0x19	25
120	0xf0	-16
121	0xea	-22
122	0x19	25
123	0x1a	26
124	0xcf	-49
125	0xf2	-14
126	0x26	38
127	0x18	24
128	0x9f	-97
129	0xf3	-13
130	0x96	-106
131	0xd4	-44
132	0xa1	-95
133	0x19	25
134	0xa9	-87
135	0xd9	-39
136	0xfe	-2
137	0x18	24
138	0x2f	47
139	0xfe	-2
140	0x0e	14
141	0x24	36
142	0x04	4
143	0x81	-127
144	0xf7	-9
145	0xf0	-16
146	0x22	34
147	0xff	-1
148	0x21	33
149	0x24	36
150	0xe1	-31
151	0xec	-20
152	0xbc	-68
153	0xb6	-74
154	0x0e	14
155	0xae	-82
156	0x01	1
157	0xe0	-32
158	0xcb	-53
159	0xe6	-26
160	0xfc	-4
161	0xef	-17
162	0x21	33
163	0x8a	-118
164	0x09	9
165	0x01	1
166	0x08	8
167	0xa8	-88
168	0x9d	-99
169	0x0b	11
170	0x20	32
171	0x10	16
172	0xfe	-2
173	0xc8	-56
174	0x1c	28
175	0xf3	-13
176	0x1f	31
177	0x10	16
178	0x19	25
179	0xde	-34
180	0xee	-18
181	0x18	24
182	0xa7	-89
183	0x23	35
184	0xfd	-3
185	0x04	4
186	0xfc	-4
187	0x1b	27
188	0x1b	27
189	0x07	7
190	0x0e	14
191	0x11	17
192	0xf4	-12
193	0xf3	-13
194	0x0a	10
195	0xed	-19
196	0x10	16
197	0x17	23
198	0x22	34
199	0x0e	14
200	0x28	40
201	0x12	18
202	0x13	19
203	0xed	-19
204	0x14	20
205	0xce	-50
206	0xaa	-86
207	0xaa	-86
208	0x2e	46
209	0xfc	-4
210	0x9b	-101
211	0xf7	-9
212	0xb1	-79
213	0x14	20
214	0xef	-17
215	0x19	25
216	0x1c	28
217	0x19	25
218	0x1a	26
219	0x12	18
220	0xed	-19
221	0x12	18
222	0xdf	-33
223	0xa7	-89
224	0x24	36
225	0xa9	-87
226	0x1d	29
227	0x0e	14
228	0x16	22
229	0x0f	15
230	0xe5	-27
231	0xfa	-6
232	0xd6	-42
233	0xce	-50
234	0xd3	-45
235	0xe0	-32
236	0xb7	-73
237	0x2b	43
238	0x14	20
239	0xfa	-6
240	0xe1	-31
241	0xe1	-31
242	0xed	-19
243	0xf6	-10
244	0xcb	-53
245	0x22	34
246	0xd0	-48
247	0xf0	-16
248	0x1d	29
249	0xd0	-48
250	0xa3	-93
251	0xc4	-60
252	0x0f	15
253	0x15	21
254	0x26	38
255	0x1a	26

tfl.pseudo_qconst3 i1 [128, 128]
0	0x73	115
1	0xc8	-56
2	0xe1	-31
3	0x45	69
4	0x03	3
5	0xf6	-10
6	0x33	51
7	0xcd	-51
8	0x4c	76
9	0x05	5
10	0x36	54
11	0x14	20
12	0xea	-22
13	0xf5	-11
14	0x10	16
15	0x06	6
16	0x10	16
17	0x40	64
18	0xfe	-2
19	0xcc	-52
20	0x59	89
21	0x13	19
22	0x0c	12
23	0xbf	-65
24	0x29	41
25	0x15	21
26	0x3c	60
27	0x39	57
28	0x86	-122
29	0x48	72
30	0x32	50
31	0x35	53
32	0xa5	-91
33	0xe7	-25
34	0x30	48
35	0x30	48
36	0xa4	-92
37	0x2b	43
38	0x47	71
39	0x04	4
40	0x1a	26
41	0x26	38
42	0xe9	-23
43	0x11	17
44	0xcb	-53
45	0x50	80
46	0x1f	31
47	0x50	80
48	0x0e	14
49	0xe8	-24
50	0x10	16
51	0xd1	-47
52	0xea	-22
53	0x31	49
54	0xc3	-61
55	0x26	38
56	0xc7	-57
57	0x00	0
58	0xfa	-6
59	0xe7	-25
60	0xcd	-51
61	0x4a	74
62	0xb3	-77
63	0x75	117
64	0x96	-106
65	0xd3	-45
66	0xbe	-66
67	0x4f	79
68	0xb0	-80
69	0xeb	-21
70	0xe5	-27
71	0x3a	58
72	0xce	-50
73	0xdc	-36
74	0x05	5
75	0x75	117
76	0xc6	-58
77	0xaf	-81
78	0x0a	10
79	0xec	-20
80	0xca	-54
81	0x2a	42
82	0x5e	94
83	0xf4	-12
84	0x2c	44
85	0x91	-111
86	0x7f	127
87	0xe0	-32
88	0x0f	15
89	0xb7	-73
90	0xab	-85
91	0x9c	-100
92	0xf6	-10
93	0xe2	-30
94	0xe9	-23
95	0x13	19
96	0xda	-38
97	0x26	38
98	0x31	49
99	0x2e	46
100	0xfd	-3
101	0x5f	95
102	0xb6	-74
103	0xcd	-51
104	0x9c	-100
105	0xcc	-52
106	0x3f	63
107	0x9f	-97
108	0xc9	-55
109	0x31	49
110	0xc7	-57
111	0xc7	-57
112	0x15	21
113	0xa0	-96
114	0xfd	-3
115	0xf8	-8
116	0x14	20
117	0x19	25
118	0xe5	-27
119	0x3d	61
120	0x0a	10
121	0x1d	29
122	0x1b	27
123	0x3c	60
124	0xbd	-67
125	0xce	-50
126	0x3f	63
127	0x50	80
128	0xe0	-32
129	0x20	32
130	0x2a	42
131	0xce	-50
132	0xef	-17
133	0xfc	-4
134	0xc1	-63
135	0xaf	-81
136	0x38	56
137	0x32	50
138	0x1d	29
139	0xd0	-48
140	0x8b	-117
141	0x4e	78
142	0x81	-127
143	0x23	35
144	0x61	97
145	0xa1	-95
146	0x3f	63
147	0x23	35
148	0x0e	14
149	0xde	-34
150	0xc4	-60
151	0xc9	-55
152	0x07	7
153	0x23	35
154	0xec	-20
155	0xfd	-3
156	0x02	2
157	0xf1	-15
158	0x35	53
159	0x09	9
160	0x16	22
161	0xa0	-96
162	0x21	33
163	0xf4	-12
164	0x54	84
165	0xf3	-13
166	0x18	24
167	0x50	80
168	0x05	5
169	0xde	-34
170	0x97	-105
171	0x41	65
172	0x37	55
173	0x2c	44
174	0xc3	-61
175	0x13	19
176	0x39	57
177	0x3a	58
178	0x8d	-115
179	0x20	32
180	0x65	101
181	0x30	48
182	0xac	-84
183	0xd1	-47
184	0x6b	107
185	0x1b	27
186	0xe5	-27
187	0xc3	-61
188	0xfe	-2
189	0x17	23
190	0x17	23
191	0xc0	-64
192	0x13	19
193	0x3a	58
194	0x07	7
195	0xcc	-52
196	0x4e	78
197	0x1e	30
198	0x0f	15
199	0xed	-19
200	0x93	-109
201	0x02	2
202	0xa7	-89
203	0xfc	-4
204	0xd8	-40
205	0x03	3
206	0xde	-34
207	0xe1	-31
208	0x51	81
209	0x2e	46
210	0xfd	-3
211	0xfe	-2
212	0xe7	-25
213	0xe6	-26
214	0xd8	-40
215	0x35	53
216	0x2f	47
217	0xf4	-12
218	0xfb	-5
219	0xf5	-11
220	0x95	-107
221	0xf6	-10
222	0x10	16
223	0x21	33
224	0xb7	-73
225	0x02	2
226	0x2c	44
227	0xbc	-68
228	0x35	53
229	0xf0	-16
230	0xcb	-53
231	0xed	-19
232	0x3f	63
233	0x49	73
234	0xec	-20
235	0x3a	58
236	0x48	72
237	0xcd	-51
238	0xcc	-52
239	0x44	68
240	0xd2	-46
241	0xf2	-14
242	0xcd	-51
243	0x04	4
244	0xe4	-28
245	0x0b	11
246	0xd2	-46
247	0xf9	-7
248	0xc7	-57
249	0x41	65
250	0xbb	-69
251	0xeb	-21
252	0xd7	-41
253	0xb5	-75
254	0x34	52
255	0xe4	-28
