ML/models/conv1d_angle_toro_ossaba/seed4_20260117_045953_626/model.tflite (tflite, 96000 bytes, 11 tensors)

arith.constant2 f4 [1, 64]
-0.07338272 0.03284025 0.046644222 0.19465648 0.23960312 0.19133103 -0.15855066 -0.20270523
-0.24930619 -0.21734796 -0.27630913 0.19074374 0.2647747 -0.07797568 -0.40658158 -0.085821584
-0.15778679 0.23530501 -0.18965282 0.16932762 -0.008619886 0.13724281 0.20733681 0.23236614
-0.02570847 -0.027716009 -0.07604092 -0.06919323 -0.009207156 -0.23012841 -0.07643088 -0.02469118
0.13479513 0.460043 0.09046613 0.25926837 0.07283057 0.14547741 0.040023614 -0.160093
0.059864625 0.13656995 0.094165154 -0.09765154 0.10994319 0.192842 0.08420838 -0.04470287
0.10270907 0.096100435 -0.05360288 -0.10473293 -0.25216097 0.119932115 0.43880633 0.15328205
-0.08727614 0.13317162 0.12698527 0.11927294 -0.1630632 0.15181705 -0.4339034 0.5279407
00000000: ae49 96bd 7f83 063d 030e 3f3d 0754 473e
00000010: 855a 753e 48ec 433e 1b5b 22be f691 4fbe
00000020: 1f4a 7fbe 7790 5ebe 6478 8dbe 5452 433e
00000030: 8d90 873e b7b1 9fbd 762b d0be 3ac3 afbd
00000040: dc92 21be ccf3 703e 5934 42be 3864 2d3e
00000050: 6c3a 0dbc 6189 0c3e 1a50 543e 64f1 6d3e
00000060: 929a d2bc af0c e3bc 58bb 9bbd 2eb5 8dbd
00000070: 9cd9 16bc c8a6 6bbe cb87 9cbd 2845 cabc
00000080: bc07 0a3e c28a eb3e 4e46 b93d d3be 843e
00000090: 3228 953d 08f8 143e cdef 233d 6bef 23be
000000a0: 9c34 753d fed8 0b3e a9d9 c03d 88fd c7bd
000000b0: e529 e13d 6078 453e 7175 ac3d 5b1a 37bd
000000c0: 2259 d23d 4ed0 c43d b28e 5bbd 387e d6bd
000000d0: 3e1b 81be f89e f53d 39ab e03e f8f5 1c3e
000000e0: d5bd b2bd 245e 083e 6d08 023e 5f45 f43d
000000f0: 0afa 26be ee75 1b3e 9628 debe 1f27 073f

arith.constant7 f4 [128]
0.028795969 0.071320154 0.031171186 0.0028740654 -0.001964365 -0.026326427 -0.04187458 -0.013835289
0.0711734 6.8958696e-05 -0.016498486 -0.013431032 -0.021444747 -0.048236206 0.031620998 -0.016746627
0.06831299 0.024587568 0.058087442 0.09026303 -0.030844498 0.04686902 0.04421842 0.012352113
-0.035009038 0.06502851 0.040311128 0.004935435 0.013285176 0.03331917 -0.008820083 0.0024168957
0.005693929 -0.002753817 -0.029011376 -0.012130855 -0.033146255 -0.035020575 -0.016386934 0.057098206
-0.03083105 -0.02211338 -0.020842727 -0.018977402 0.023001278 -0.03410068 0.045593873 -0.02854124
0.034048013 0.044348877 -0.009107353 0.018999714 0.085898355 0.023544779 -0.015028983 0.035902336
-0.023549384 0.02088683 0.08146307 -0.009988587 0.032435708 -0.030912472 0.038845487 -0.02233502
-0.009757027 0.0465297 0.020011721 -0.030978799 0.018355617 -0.028164135 0.005897127 -0.027718902
-0.020372877 -0.038135346 -0.033077516 -0.010262974 -0.023971476 0.008757536 0.030745054 -0.004812658
-0.023835111 -0.00588175 0.038949322 -0.0038111813 -0.011868427 0.016034702 -0.015960073 0.044697247
-0.016342577 -0.03473815 -0.018427644 0.010324102 0.087528735 -0.020668043 -0.029423088 -0.015397116
0.11123865 0.041275732 -0.011554769 -0.0068250974 0.0030983097 -0.02101658 0.07248935 0.009677859
-0.009191404 0.01968528 0.008190115 0.08741341 -0.0006327106 -0.026531832 0.074971594 0.046667308
-0.031155953 0.048236907 -0.015133565 0.05126321 -0.025200889 -0.022371907 0.066725925 -0.017541355
0.06619311 0.02942964 -0.063772455 0.009591958 -0.02313323 -0.04340379 -0.0027574156 -0.025877176
00000000: 86e5 eb3c 4d10 923d b75a ff3c d15a 3c3b
00000010: 93bc 00bb 85aa d7bc ae84 2bbd 68ad 62bc
00000020: 5cc3 913d eb9d 9038 d527 87bc d50d 5cbc
00000030: e5ac afbc 5493 45bd 0585 013d 3930 89bc
00000040: aee7 8b3d de6b c93c 19ed 6d3d d3db b83d
00000050: 9aad fcbc bbf9 3f3d 601e 353d 8460 4a3c
00000060: a365 0fbd ab2d 853d 481d 253d 6eb9 a13b
00000070: 11aa 593c af79 083d 1c82 10bc c864 1e3b
00000080: 2394 ba3b 6279 34bb 44a9 edbc 7ec0 46bc
00000090: 5ec4 07bd bc71 0fbd e43d 86bc cfdf 693d
000000a0: 6691 fcbc 1e27 b5bc 5ebe aabc 7f76 9bbc
000000b0: 2d6d bc3c 28ad 0bbd a4c0 3a3d 52cf e9bc
000000c0: ee75 0b3d 2ba7 353d 0237 15bc 4aa5 9b3c
000000d0: 7aeb af3d fbe0 c03c 203c 76bc 540e 133d
000000e0: a3ea c0bc db1a ab3c 1cd6 a63d 2ca7 23bc
000000f0: 4edb 043d 273c fdbc 721c 1f3d eff7 b6bc
00000100: f0db 1fbc ed95 3e3d 9fef a33c 40c7 fdbc
00000110: 855e 963c 79b8 e6bc b03c c13b c012 e3bc
00000120: 05e5 a6bc cf33 1cbd 4a7c 07bd 0826 28bc
00000130: d45f c4bc c57b 0f3c 0ddd fb3c 80b3 9dbb
00000140: da41 c3bc b2bb c0bb 5389 1f3d 03c5 79bb
00000150: ca73 42bc 355b 833c b3be 82bc 7614 373d
00000160: dee0 85bc 9749 0ebd 92f5 96bc 6c26 293c
00000170: 4442 b33d 0750 a9bc b008 f1bc 2f44 7cbc
00000180: 17d1 e33d be10 293d 3750 3dbc 11a5 dfbb
00000190: 030d 4b3b f62a acbc 4c75 943d e28f 1e3c
000001a0: 8b97 16bc 0643 a13c d52f 063c cd05 b33d
000001b0: 7ddc 25ba 4959 d9bc b58a 993d 3826 3f3d
000001c0: c53a ffbc 1094 453d c6f2 77bc 5ff9 513d
000001d0: 1872 cebc 4a45 b7bc 9aa7 883d e3b2 8fbc
000001e0: 4190 873d 6e16 f13c 229b 82bd 9627 1d3c
000001f0: e681 bdbc 2cc8 31bd c2b5 34bb 5ffc d3bc

arith.constant8 f4 [64]
0.052651588 -0.13227014 0.01692489 0.019745475 0.06850994 -0.012232269 0.03353209 0.061974913
-0.04120082 0.08323047 0.011316697 0.013509602 0.10824902 0.10268711 0.15121356 -0.012004228
0.09009541 0.0062047597 0.05354366 0.0066116946 -0.0135652395 0.10321154 0.042191595 0.06791266
-0.07298499 0.018825868 -0.1484036 0.13189407 -0.02149795 0.071907416 0.05666931 -0.05626968
-0.018214202 0.1051229 0.0042417916 -0.023031445 0.024040263 0.040042177 -0.14279172 0.06774295
0.016012192 0.038158543 -0.0810194 0.08702451 -0.004584655 -0.0011132844 -0.09423367 -0.01615928
-0.040945955 0.033434093 0.035582945 0.021249246 0.045313984 -0.14340663 0.0028750664 -0.036498796
-0.0049152235 0.06333399 0.031200478 0.08967839 0.020311607 -0.016895566 0.045161404 0.015364162
00000000: 31a9 573d d371 07be 11a6 8a3c 43c1 a13c
00000010: f04e 8c3d db69 48bc f258 093d 68d9 7d3d
00000020: 31c2 28bd bd74 aa3d ab69 393c 6157 5d3c
00000030: aab1 dd3d 9f4d d23d bad7 1a3e 62ad 44bc
00000040: f183 b83d 4c51 cb3b 9950 5b3d eaa6 d83b
00000050: bd40 5ebc 9260 d33d 18d1 2c3d cb15 8b3d
00000060: 2879 95bd b538 9a3c 1df7 17be 3d0f 073e
00000070: 781c b0bc 3244 933d 141e 683d 097b 66bd
00000080: f335 95bc ad4a d73d bafe 8a3b 71ac bcbc
00000090: 16f0 c43c 4403 243d fe37 12be d1bc 8a3d
000000a0: 002c 833c 224c 1c3d 80ed a5bd e839 b23d
000000b0: e03a 96bb a0eb 91ba 95fd c0bd 7760 84bc
000000c0: f2b6 27bd 30f2 083d 6cbf 113d e612 ae3c
000000d0: 289b 393d 30d9 12be 9c6b 3c3b c37f 15bd
000000e0: e20f a1bb 40b5 813d 2598 ff3c 4ea9 b73d
000000f0: 8764 a63c 9268 8abc 2afb 383d f7b9 7b3c

arith.constant9 f4 [32, 1, 9, 3]
-0.2526066 0.5485204 -0.97450876 -0.5908674 0.7632739 -1.5108343 -0.649616 0.385555
-0.006399028 0.2112544 0.32326615 -0.53000456 0.40154347 0.4601828 1.3733959 0.9224767
0.59828866 1.6550378 -0.12386083 0.18780637 1.5761843 0.29260394 -0.44670472 1.8241941
-0.7307463 0.018199064 -0.22566274 0.7548284 -1.0286894 -0.46893862 1.1272632 -1.5106163
0.15494609 0.81767553 0.25388822 -0.13219093 -0.0617977 -0.5642955 1.007486 0.36836514
0.15324503 0.5873287 -0.45306727 0.20335674 1.5662465 -0.43441746 0.34959176 -0.10966833
0.7621104 -0.08370439 -0.31887522 -1.1682231 0.69537175 0.27988303 -0.44133168 -0.8391416
2.486705 -0.51047295 0.656741 0.36767042 -1.4293282 0.99145055 0.013367117 0.9673412
-0.04081152 1.4112126 1.1403544 -0.0016770596 0.09463431 0.11881373 0.83571863 -1.1634052
0.34638205 -1.0959779 -1.7048187 -0.30295122 -0.14465359 -2.6209776 0.1577552 1.1507739
-1.6198972 -0.033360686 0.19116496 -0.2001629 -0.23848128 0.081096895 -0.5699947 -0.049294107
0.011270349 -0.21529649 0.10907975 0.32441145 -0.9109003 0.043926902 0.11853604 -0.14025834
-0.0029188918 0.06559521 -0.46184587 0.18075867 -0.22962312 -0.25745 -0.135506 0.07379379
-0.5908914 -0.010181122 0.333797 -0.22194898 0.31478935 -0.9228868 0.27414164 0.04220373
-1.3059431 -0.11460667 -0.35107693 -0.8233348 -0.44636777 0.4386597 -0.102488846 -0.026432835
-0.64560515 -0.5206669 0.7745213 0.5270806 -0.7585214 0.055055268 0.30421305 -0.0042735906
0.54836506 -0.37963754 -0.8606388 0.4105103 0.7873224 -0.33845747 1.4822742 -0.36358157
1.2537357 0.10272261 -1.4625412 0.78302664 -0.5403571 0.1581851 1.4595877 -0.2926126
-0.008597257 1.0429497 -0.74338907 -0.6344763 1.0389152 -0.2358369 -1.3489062 1.0210254
-0.36826253 -1.1589946 0.90270054 0.15477249 -0.2731547 0.14114726 0.16744265 -1.3278308
0.41480917 0.021349508 -0.39386746 -1.0714387 0.87637573 -0.21461229 0.5572838 0.17005292
0.7385234 -0.31713402 0.9104748 0.33828962 -1.0109159 0.8124592 0.039430875 0.32354572
-1.207649 0.71163756 0.4536541 -0.32889283 -1.200185 0.7147204 -0.658819 0.4190791
-0.67352766 -1.1398143 -0.41617227 0.36409476 -2.3191557 0.21352102 0.5350566 0.3360897
-0.15238471 -0.42144245 0.70183164 -0.29748598 -0.24719891 -0.7019432 0.6903062 0.37105703
-0.83392245 0.61529183 0.20563355 -0.78955275 -0.6115732 -0.19085889 -0.49692312 -1.2556008
0.49910346 -0.2852304 -0.54661304 0.7789361 -0.17048536 -1.5297502 0.8338216 -0.54614335
0.021069184 0.40264788 -0.1788093 0.06629639 0.0660651 -0.16947074 -0.40301177 -0.3441573
-0.4081679 0.19610173 0.40931088 -0.18756397 -0.18374681 -0.40377212 -0.13825417 0.2726108
-0.13585198 -0.19215898 0.10809215 0.38865077 1.2350138 -0.077032015 0.18474999 1.3795723
-0.1898318 -0.050634343 2.2056816 -1.0335798 -0.51185685 0.96321875 0.50255764 -0.87889665
1.1973209 0.34484982 -0.9127661 -0.93380404 -0.6269612 -0.23041265 -0.84885174 0.98488563
00000000: a755 81be d56b 0c3f 6879 79bf 1643 17bf
00000010: eb65 433f 0563 c1bf 3c4d 26bf 7767 c53e
00000020: f0ae d1bb 1353 583e 2483 a53e 61ae 07bf
00000030: 1b97 cd3e 149d eb3e 70cb af3f 6f27 6c3f
00000040: 7229 193f 47d8 d33f bfaa fdbd 5050 403e
00000050: 68c0 c93f 2fd0 953e 7bb6 e4be 317f e93f
00000060: 3112 3bbf 3416 953c 2214 67be 6f3c 413f
00000070: 18ac 83bf b918 f0be 294a 903f e05b c1bf
00000080: 30aa 1e3e 2f53 513f a3fd 813e 0f5d 07be
00000090: 961f 7dbd ab75 10bf 4df5 803f 5b9a bc3e
000000a0: 44ec 1c3e 2c5b 163f 6ff8 e7be c03c 503e
000000b0: c47a c83f f76b debe b1fd b23e ca99 e0bd
000000c0: ab19 433f 356d abbd 9d43 a3be 5688 95bf
000000d0: e203 323f d44c 8f3e 3af6 e1be fcd1 56bf
000000e0: 2d26 1f40 5bae 02bf 2e20 283f 4c3f bc3e
000000f0: 3af4 b6bf b4cf 7d3f c101 5b3c aca3 773f
00000100: fb29 27bd 9da2 b43f 22f7 913f c8d0 dbba
00000110: a2cf c13d 9d54 f33d a8f1 553f 76ea 94bf
00000120: fd58 b13e 0149 8cbf 8037 dabf 6c1c 9bbe
00000130: 1220 14be 19be 27c0 948a 213e 8f4c 933f
00000140: cb58 cfbf 37a5 08bd bfc0 433e 81f7 4cbe
00000150: 7034 74be 2116 a63d 2ceb 11bf 9ee8 49bd
00000160: 45a7 383c af76 5cbe 3465 df3d 4219 a63e
00000170: c330 69bf b2ec 333d 06c3 f23d e29f 0fbe
00000180: e14a 3fbb c856 863d 1077 ecbe cd18 393e
00000190: 5322 6bbe 7dd0 83be 16c2 0abe 3321 973d
000001a0: a944 17bf b9ce 26bc 71e7 aa3e 9846 63be
000001b0: 122c a13e 4f42 6cbf 4b5c 8c3e d2dd 2c3d
000001c0: 2529 a7bf e7b6 eabd 5bc0 b3be 12c6 52bf
000001d0: 518a e4be 0198 e03e ace5 d1bd ac89 d8bc
000001e0: 6146 25bf 6d4a 05bf 0747 463f c1ee 063f
000001f0: 752e 42bf a281 613d d0c1 9b3e 7a09 8cbb
00000200: a761 0c3f da5f c2be d352 5cbf 682e d23e
00000210: f68d 493f 4c4a adbe 29bb bd3f 5d27 babe
00000220: 697a a03f 3b60 d23d 8d34 bbbf 6f74 483f
00000230: d854 0abf 46fb 213e c5d3 ba3f 52d1 95be
00000240: 82db 0cbc 607f 853f bf4e 3ebf 0a6d 22bf
00000250: 2cfb 843f 3a7f 71be f5a8 acbf f6b0 823f
00000260: e88c bcbe ef59 94bf 6217 673f ae7c 1e3e
00000270: efda 8bbe e888 103e 1676 2b3e 5cf6 a9bf
00000280: de61 d43e 2ae5 ae3c ffa8 c9be e724 89bf
00000290: 295a 603f 53c3 5bbe 27aa 0e3f 5a22 2e3e
000002a0: df0f 3d3f 645f a2be e014 693f 4c34 ad3e
000002b0: b165 81bf 53fd 4f3f 4582 213d c9a7 a53e
000002c0: 3e94 9abf e12d 363f 5a45 e83e a464 a8be
000002d0: a99f 99bf ebf7 363f 5da8 28bf 8991 d63e
000002e0: 4f6c 2cbf 6fe5 91bf 8814 d5be a16a ba3e
000002f0: 0c6d 14c0 41a5 5a3e 78f9 083f f313 ac3e
00000300: bd0a 1cbe 4ec7 d7be 3dab 333f 1550 98be
00000310: b621 7dbe 8db2 33bf e8b7 303f 30fb bd3e
00000320: f17b 55bf c483 1d3f 9a91 523e 2120 4abf
00000330: 1090 1cbf 8370 43be b56c febe 87b7 a0bf
00000340: 7d8a ff3e b809 92be d5ee 0bbf 5b68 473f
00000350: b793 2ebe dbce c3bf 5575 553f 0dd0 0bbf
00000360: 4899 ac3c dd27 ce3e c919 37be 67c6 873d
00000370: 244d 873d bd89 2dbe 8f57 cebe 6335 b0be
00000380: 62fb d0be e4ce 483e 3291 d13e c510 40be
00000390: 2028 3cbe 38bb cebe 8092 0dbe a593 8b3e
000003a0: c81c 0bbe 53c5 44be 6b5f dd3d 3cfd c63e
000003b0: ef14 9e3f f6c2 9dbd 1a2f 3d3e d395 b03f
000003c0: 4463 42be f565 4fbd e329 0d40 584c 84bf
000003d0: 0d09 03bf 8195 763f 9ea7 003f 5fff 60bf
000003e0: d041 993f 2890 b03e 0aab 69bf c80d 6fbf
000003f0: 8780 20bf 4bf1 6bbe 594e 59bf 7721 7c3f

arith.constant10 f4 [128]
-0.3331495 1.5218724 -0.6159653 2.1370678 2.6507397 0.3635223 2.3464427 0.67200613
1.0331507 0.27261132 0.67613095 0.9789798 -1.2492387 0.46190163 -0.44818714 1.1659836
0.11225841 -0.26043683 0.51846826 0.2632697 0.49598572 1.4807599 -0.31736597 0.15087976
0.43158165 2.020797 0.062065966 0.03884239 0.16145839 -0.8951379 0.015054664 0.35619393
1.3024236 0.69413936 1.9488906 1.3751457 1.7131891 -0.9154204 0.8007579 2.1985946
0.03668459 0.110583976 1.9734253 0.6635257 1.2301697 0.8853864 0.6663321 -0.78722274
0.08474408 2.2715898 0.24073334 0.014367034 0.6002427 1.0559282 -0.033581235 0.45473206
0.3157876 0.7208166 1.1440126 -0.2624233 0.47146702 0.86222476 0.5684022 0.5711853
-0.25018173 1.3969437 -1.5683137 -0.33159015 0.24595426 0.6448839 -0.045341562 0.12646079
0.7632431 0.067894846 0.065626144 2.4097614 0.71313846 0.71189785 0.2241942 1.038079
0.87680185 0.18712036 1.69528 0.13831234 0.13414897 -0.39909762 0.5238033 2.6053433
1.0466001 2.7127051 2.3653197 0.052658778 1.6175454 1.060713 0.31364262 -0.47509822
-0.5382463 0.8350583 1.7087675 -0.09107821 0.27551565 0.038589038 0.9839285 2.1780221
-0.04828733 0.9151822 2.6832256 -0.6498318 0.5823402 0.43006855 2.0529382 1.0321609
2.0408423 0.687192 0.9428398 -0.5054616 1.0933597 1.1928673 0.06844236 -0.22191027
0.9073759 0.18156706 0.16447623 0.981489 2.495457 0.40723097 0.7619042 0.30030566
00000000: 9292 aabe b7cc c23f e7af 1dbf b8c5 0840
00000010: b8a5 2940 981f ba3e 1e2c 1640 9808 2c3f
00000020: 483e 843f b693 8b3e eb16 2d3f 6c9e 7a3f
00000030: 0ee7 9fbf 5f7e ec3e c978 e5be f33e 953f
00000040: bde7 e53d fa57 85be 56ba 043f 49cb 863e
00000050: d7f1 fd3e 8a89 bd3f cb7d a2be 3980 1a3e
00000060: 45f8 dc3e bd54 0140 e238 7e3d 3319 1f3d
00000070: 5955 253e c227 65bf d6a7 763c 0d5f b63e
00000080: d1b5 a63f 1eb3 313f 3f75 f93f c604 b03f
00000090: c849 db3f fe58 6abf 78fe 4c3f c6b5 0c40
000000a0: 9542 163d da79 e23d 3399 fc3f d2dc 293f
000000b0: 3376 9d3f afa8 623f be94 2a3f 6e87 49bf
000000c0: 4e8e ad3d ba61 1140 cd82 763e b563 6b3c
000000d0: 81a9 193f a828 873f 7a8c 09bd a4d2 e83e
000000e0: eaae a13e 7087 383f 016f 923f 595c 86be
000000f0: 2064 f13e c3ba 5c3f ce82 113f 3339 123f
00000100: d217 80be 0dcf b23f 81be c8bf 2fc6 a9be
00000110: 6fdb 7b3e 1c17 253f 13b8 39bd f07e 013e
00000120: e663 433f 740c 8b3d 0067 863d 8839 1a40
00000130: 3e90 363f f03e 363f 2a93 653e c6df 843f
00000140: 1676 603f 7b9c 3f3e effe d83f c0a1 0d3e
00000150: 595e 093e 8656 ccbe f917 063f f2bd 2640
00000160: fef6 853f f69c 2d40 6661 1740 bbb0 573d
00000170: ba0b cf3f 72c5 873f c495 a03e 1340 f3be
00000180: 82ca 09bf 61c6 553f e5b8 da3f 3687 babd
00000190: 6310 8d3e 8a0f 1e3d bde2 7b3f b764 0b40
000001a0: efc8 45bd 6149 6a3f f8b9 2b40 605b 26bf
000001b0: 3f14 153f f231 dc3e 5763 0340 d91d 843f
000001c0: 299d 0240 d1eb 2f3f f35d 713f ee65 01bf
000001d0: 36f3 8b3f e0af 983f 822b 8c3d 723c 63be
000001e0: c949 683f b7ec 393e 756c 283e dd42 7b3f
000001f0: 91b5 1f40 9480 d03e 270c 433f aac1 993e

arith.constant11 f4 [64]
-1.0175917 0.25419566 0.013850128 -0.10232082 -1.6286001 0.16581981 -0.11660883 0.69860584
0.585554 0.18090586 0.14738147 -0.15247698 0.37989655 -0.123417795 -1.5323951 0.74280643
0.034377486 0.23809102 -1.2765357 -0.34842783 0.27595103 0.6518701 0.0886536 0.71295786
-0.190544 0.46468586 0.10080722 0.19539246 0.7321814 -1.1280415 -0.21657474 -0.2098229
0.24111351 0.19251898 0.46649322 -1.51811 -1.7323785 -0.17541592 0.85858625 -0.27804607
0.1914741 0.49996495 -0.19677393 -0.30174223 0.11352118 0.25666273 0.3379681 -1.8722254
0.13036479 0.20088758 0.266568 -0.02549391 -0.21183237 -1.15281 0.07219129 0.5308309
0.3526828 -0.59335977 -0.1106672 -1.7748923 0.09400409 -0.3031008 0.28288257 0.27460814
00000000: 7240 82bf ef25 823e a6eb 623c 948d d1bd
00000010: f875 d0bf abcc 293e 9cd0 eebd d5d7 323f
00000020: dee6 153f 633f 393e 2beb 163e ed22 1cbe
00000030: cd81 c23e 78c2 fcbd 8625 c4bf 9028 3e3f
00000040: 68cf 0c3d 22ce 733e 8665 a3bf 2265 b2be
00000050: 7449 8d3e f5e0 263f 0590 b53d 6884 363f
00000060: f71d 43be 4eeb ed3e 0474 ce3d f614 483e
00000070: 3d70 3b3f aa63 90bf c5c5 5dbe d0db 56be
00000080: 76e6 763e b223 453e 33d8 ee3e 6e51 c2bf
00000090: 94be ddbf 3ba0 33be 4fcc 5b3f 0e5c 8ebe
000000a0: c911 443e 68fb ff3e 1b7f 49be f57d 9abe
000000b0: cb7d e83d 4c69 833e 280a ad3e 15a5 efbf
000000c0: 597e 053e 79b5 4d3e 9a7b 883e 9bd8 d0bc
000000d0: 96ea 58be 478f 93bf 07d9 933d 89e4 073f
000000e0: d792 b43e 6de6 17bf 7ca5 e2bd ac2f e3bf
000000f0: 3785 c03d 0730 9bbe fcd5 903e 7099 8c3e

arith.constant12 f4 [32]
-1.551876 -2.2009149 0.6856543 1.282 -1.2672093 0.44403595 0.48981673 0.93741083
-1.9966736 0.9119143 1.6091008 0.33941454 0.75492656 -0.6732818 -1.6402216 -1.9726716
-1.6172783 -0.9675141 -1.9575398 0.11586322 -1.134438 -2.031893 0.21838725 -0.93586427
0.9334042 1.3368393 1.4275144 0.5900447 -0.16097547 -1.4969941 -1.1551306 0.9189556
00000000: dfa3 c6bf cadb 0cc0 0a87 2f3f 9318 a43f
00000010: ea33 a2bf ae58 e33e 42c9 fa3e 28fa 6f3f
00000020: 0093 ffbf 3773 693f 04f7 cd3f bec7 ad3e
00000030: de42 413f 325c 2cbf c8f2 d1bf 8180 fcbf
00000040: fa02 cfbf 01af 77bf aa90 fabf b249 ed3d
00000050: 4435 91bf 890a 02c0 e8a0 5f3e cd94 6fbf
00000060: 94f3 6e3f 8d1d ab3f cbb8 b63f 2b0d 173f
00000070: c1d6 24be 819d bfbf 52db 93bf ad40 6b3f

tfl.pseudo_qconst i1 [128, 1, 5, 64]
25 57 24 41 68 -7 42 -50
0 4 42 6 -8 -1 55 -127
7 32 53 -28 -34 -68 18 29
32 -77 31 71 7 -6 13 -9
61 56 -36 30 37 28 -24 17
44 -20 52 -6 53 -93 -7 46
-5 37 43 -7 19 23 9 10
38 2 11 64 15 39 -17 27
92 73 42 48 45 65 42 -63
3 27 69 19 26 18 86 -33
4 19 40 33 32 10 14 3
13 -10 34 22 5 52 20 31
54 52 -26 89 18 0 -26 31
36 28 -10 11 53 -69 0 66
39 24 -4 30 47 60 17 -11
23 12 57 22 -19 12 11 55
71 49 32 15 91 41 42 -8
18 37 34 14 6 13 45 -96
35 39 41 8 -4 -31 38 50
11 -14 -7 56 -12 45 26 45
32 2 -37 114 41 -6 -25 42
12 37 3 17 35 -95 16 -15
3 34 37 12 58 37 27 -17
28 -12 11 46 -4 31 -10 55
38 -44 -5 81 41 -43 -1 -60
-7 41 -44 39 -37 52 51 -113
-12 14 58 20 -15 -91 63 16
33 -77 34 5 -23 16 65 44
12 5 -109 61 39 3 -42 4
40 18 1 -15 63 -65 -5 20
-23 22 19 6 19 18 46 5
-2 26 -4 -39 -1 74 -3 48
00000000: 1939 1829 44f9 2ace 0004 2a06 f8ff 3781
00000010: 0720 35e4 debc 121d 20b3 1f47 07fa 0df7
00000020: 3d38 dc1e 251c e811 2cec 34fa 35a3 f92e
00000030: fb25 2bf9 1317 090a 2602 0b40 0f27 ef1b
00000040: 5c49 2a30 2d41 2ac1 031b 4513 1a12 56df
00000050: 0413 2821 200a 0e03 0df6 2216 0534 141f
00000060: 3634 e659 1200 e61f 241c f60b 35bb 0042
00000070: 2718 fc1e 2f3c 11f5 170c 3916 ed0c 0b37
00000080: 4731 200f 5b29 2af8 1225 220e 060d 2da0
00000090: 2327 2908 fce1 2632 0bf2 f938 f42d 1a2d
000000a0: 2002 db72 29fa e72a 0c25 0311 23a1 10f1
000000b0: 0322 250c 3a25 1bef 1cf4 0b2e fc1f f637
000000c0: 26d4 fb51 29d5 ffc4 f929 d427 db34 338f
000000d0: f40e 3a14 f1a5 3f10 21b3 2205 e910 412c
000000e0: 0c05 933d 2703 d604 2812 01f1 3fbf fb14
000000f0: e916 1306 1312 2e05 fe1a fcd9 ff4a fd30

tfl.pseudo_qconst1 i1 [64, 1, 7, 32]
-6 12 -10 -26 -20 0 7 11
25 8 -6 -27 36 -13 5 26
6 47 25 35 2 17 -125 4
-14 -20 23 -23 2 -8 -12 -22
2 1 -7 26 3 -18 21 4
11 23 -9 15 25 4 25 0
14 18 35 -4 -8 23 -127 3
-17 -8 -22 -1 -52 12 -26 -7
-20 1 -15 -6 13 20 22 8
12 54 -4 -14 16 -31 -8 26
12 20 26 -9 6 20 -88 15
22 33 31 -28 -10 16 9 -26
-3 13 25 29 38 8 36 31
34 11 49 29 -16 27 1 39
26 -5 33 40 25 -4 -36 45
16 -22 52 -10 0 -20 15 36
18 20 40 51 -4 -15 50 28
12 12 29 47 4 27 -19 40
23 -26 25 67 2 12 0 34
11 58 16 33 -37 18 26 21
19 36 -2 10 7 8 22 -1
38 35 38 34 38 86 21 19
45 -37 -1 86 18 33 -28 65
15 42 5 29 -40 34 64 47
12 26 -17 -41 19 -21 16 -40
23 -20 -48 -5 16 71 13 54
50 -7 38 63 32 38 -41 62
-11 16 -47 -14 -55 20 64 -3
2 -32 -63 -34 8 -9 48 -36
-48 -17 -47 13 -27 -116 -41 -37
-87 127 -5 -126 -109 -5 18 -88
-49 -28 -33 -21 7 -36 -105 -63
00000000: fa0c f6e6 ec00 070b 1908 fae5 24f3 051a
00000010: 062f 1923 0211 8304 f2ec 17e9 02f8 f4ea
00000020: 0201 f91a 03ee 1504 0b17 f70f 1904 1900
00000030: 0e12 23fc f817 8103 eff8 eaff cc0c e6f9
00000040: ec01 f1fa 0d14 1608 0c36 fcf2 10e1 f81a
00000050: 0c14 1af7 0614 a80f 1621 1fe4 f610 09e6
00000060: fd0d 191d 2608 241f 220b 311d f01b 0127
00000070: 1afb 2128 19fc dc2d 10ea 34f6 00ec 0f24
00000080: 1214 2833 fcf1 321c 0c0c 1d2f 041b ed28
00000090: 17e6 1943 020c 0022 0b3a 1021 db12 1a15
000000a0: 1324 fe0a 0708 16ff 2623 2622 2656 1513
000000b0: 2ddb ff56 1221 e441 0f2a 051d d822 402f
000000c0: 0c1a efd7 13eb 10d8 17ec d0fb 1047 0d36
000000d0: 32f9 263f 2026 d73e f510 d1f2 c914 40fd
000000e0: 02e0 c1de 08f7 30dc d0ef d10d e58c d7db
000000f0: a97f fb82 93fb 12a8 cfe4 dfeb 07dc 97c1

tfl.pseudo_qconst2 i1 [64, 128]
27 42 -10 -23 -83 -9 91 -48
2 -48 6 37 19 32 -3 -29
-4 -6 -37 -60 52 -1 31 36
-10 -17 -29 2 64 20 38 -13
8 -15 18 -22 -32 -20 43 -15
-23 46 16 33 -28 21 -15 -24
-57 -10 25 -38 -69 -15 -11 17
24 -37 -67 -12 -57 21 -6 9
11 -49 -31 -7 -9 29 -4 -25
22 32 43 6 49 -17 -12 -11
-16 -16 37 27 19 -13 -30 -14
-28 25 -34 39 -127 -28 14 -5
55 20 -24 -24 -12 25 31 -55
22 16 -11 -75 -1 18 36 8
-40 31 -33 14 48 -19 24 -22
37 -1 12 1 -40 37 -45 -46
79 -22 70 35 -48 7 -32 -34
-11 37 44 -22 -65 -87 -7 43
41 11 69 -51 -8 26 -14 -31
78 17 64 -13 -5 55 7 -50
34 -20 55 78 -63 15 59 66
29 34 69 -38 -29 2 -83 -39
44 70 -5 -27 -29 -11 -44 6
1 5 58 -59 -9 -2 36 -18
11 -15 -73 61 -30 63 9 -18
-30 -52 -55 -65 -52 11 -12 -47
-3 -78 32 19 80 -94 -68 -29
-46 -86 -4 -50 -18 27 -31 -38
-29 21 -17 -121 -82 -31 69 70
14 39 25 -16 43 58 -30 -51
26 56 13 -49 -31 57 12 38
27 53 66 -113 9 127 -75 -64
00000000: 1b2a f6e9 adf7 5bd0 02d0 0625 1320 fde3
00000010: fcfa dbc4 34ff 1f24 f6ef e302 4014 26f3
00000020: 08f1 12ea e0ec 2bf1 e92e 1021 e415 f1e8
00000030: c7f6 19da bbf1 f511 18db bdf4 c715 fa09
00000040: 0bcf e1f9 f71d fce7 1620 2b06 31ef f4f5
00000050: f0f0 251b 13f3 e2f2 e419 de27 81e4 0efb
00000060: 3714 e8e8 f419 1fc9 1610 f5b5 ff12 2408
00000070: d81f df0e 30ed 18ea 25ff 0c01 d825 d3d2
00000080: 4fea 4623 d007 e0de f525 2cea bfa9 f92b
00000090: 290b 45cd f81a f2e1 4e11 40f3 fb37 07ce
000000a0: 22ec 374e c10f 3b42 1d22 45da e302 add9
000000b0: 2c46 fbe5 e3f5 d406 0105 3ac5 f7fe 24ee
000000c0: 0bf1 b73d e23f 09ee e2cc c9bf cc0b f4d1
000000d0: fdb2 2013 50a2 bce3 d2aa fcce ee1b e1da
000000e0: e315 ef87 aee1 4546 0e27 19f0 2b3a e2cd
000000f0: 1a38 0dcf e139 0c26 1b35 428f 097f b5c0

tfl.pseudo_qconst3 i1 [128, 128]
-28 47 -36 -12 48 -16 -41 13
28 20 47 -59 -48 24 15 -45
67 28 -7 -3 -9 80 -29 -109
-33 -39 -19 0 98 5 -23 -42
-47 -44 -76 19 -48 28 -30 -26
127 10 -72 -32 -64 22 -50 53
-86 -45 -91 69 -48 -14 -2 45
36 95 13 11 -36 70 54 -9
104 28 61 -86 -70 -74 -42 37
-122 -23 80 -60 85 27 39 66
-70 27 -38 -41 33 65 -74 40
-4 58 55 -43 34 -23 42 29
-18 -15 62 31 5 -107 -34 64
-83 -7 -74 -42 -79 38 -50 50
-54 24 -53 5 68 -60 25 -24
50 -22 88 -28 90 -33 67 2
-20 -5 32 25 15 -94 -40 -22
-52 -17 25 0 -10 -22 -18 -47
-84 -1 -5 -31 -85 26 33 -44
-37 27 -44 -69 -12 11 -27 19
-11 -38 -42 -8 55 -3 7 1
36 -23 -24 -11 -59 -29 -36 23
-11 -9 33 7 26 -13 -1 -24
15 -35 21 35 27 -26 8 -88
5 -18 -58 1 3 -3 9 1
35 19 30 -5 10 5 -5 -1
31 20 -13 22 22 12 50 13
18 -32 -37 -28 -7 3 5 -41
-36 19 -39 31 -127 -29 -29 6
4 44 -21 13 32 -46 4 30
-22 -69 -9 -5 2 18 -35 3
-18 30 20 27 -16 8 2 -54
00000000: e42f dcf4 30f0 d70d 1c14 2fc5 d018 0fd3
00000010: 431c f9fd f750 e393 dfd9 ed00 6205 e9d6
00000020: d1d4 b413 d01c e2e6 7f0a b8e0 c016 ce35
00000030: aad3 a545 d0f2 fe2d 245f 0d0b dc46 36f7
00000040: 681c 3daa bab6 d625 86e9 50c4 551b 2742
00000050: ba1b dad7 2141 b628 fc3a 37d5 22e9 2a1d
00000060: eef1 3e1f 0595 de40 adf9 b6d6 b126 ce32
00000070: ca18 cb05 44c4 19e8 32ea 58e4 5adf 4302
00000080: ecfb 2019 0fa2 d8ea ccef 1900 f6ea eed1
00000090: acff fbe1 ab1a 21d4 db1b d4bb f40b e513
000000a0: f5da d6f8 37fd 0701 24e9 e8f5 c5e3 dc17
000000b0: f5f7 2107 1af3 ffe8 0fdd 1523 1be6 08a8
000000c0: 05ee c601 03fd 0901 2313 1efb 0a05 fbff
000000d0: 1f14 f316 160c 320d 12e0 dbe4 f903 05d7
000000e0: dc13 d91f 81e3 e306 042c eb0d 20d2 041e
000000f0: eabb f7fb 0212 dd03 ee1e 141b f008 02ca
