ML/models/conv1d_angle_toro_ossaba/seed4_20260117_045953_626/model_int8.tflite (tflite, 99296 bytes, 6 tensors)

tfl.pseudo_qconst1 i1 [1, 64] scale=0.0041570133 zero_point=0
0	0xee	-0.07482624
1	0x08	0.033256106
2	0x0b	0.045727145
3	0x2f	0.19537963
4	0x3a	0.24110676
5	0x2e	0.19122261
6	0xda	-0.15796651
7	0xcf	-0.20369364
8	0xc4	-0.24942079
9	0xcc	-0.2161647
10	0xbe	-0.27436286
11	0x2e	0.19122261
12	0x40	0.26604885
13	0xed	-0.078983255
14	0x9e	-0.4073873
15	0xeb	-0.087297276
16	0xda	-0.15796651
17	0x39	0.23694976
18	0xd2	-0.19122261
19	0x29	0.17043754
20	0xfe	-0.0083140265
21	0x21	0.13718143
22	0x32	0.20785066
23	0x38	0.23279274
24	0xfa	-0.02494208
25	0xf9	-0.029099092
26	0xee	-0.07482624
27	0xef	-0.07066923
28	0xfe	-0.0083140265
29	0xc9	-0.22863573
30	0xee	-0.07482624
31	0xfa	-0.02494208
32	0x20	0.13302442
33	0x6f	0.46142846
34	0x16	0.09145429
35	0x3e	0.25773484
36	0x12	0.07482624
37	0x23	0.14549546
38	0x0a	0.041570134
39	0xd9	-0.16212352
40	0x0e	0.058198184
41	0x21	0.13718143
42	0x17	0.095611304
43	0xe9	-0.095611304
44	0x1a	0.10808235
45	0x2e	0.19122261
46	0x14	0.08314027
47	0xf5	-0.045727145
48	0x19	0.10392533
49	0x17	0.095611304
50	0xf3	-0.054041173
51	0xe7	-0.10392533
52	0xc3	-0.2535778
53	0x1d	0.12055338
54	0x6a	0.4406434
55	0x25	0.15380949
56	0xeb	-0.087297276
57	0x20	0.13302442
58	0x1f	0.12886742
59	0x1d	0.12055338
60	0xd9	-0.16212352
61	0x25	0.15380949
62	0x98	-0.4323294
63	0x7f	0.5279407

tfl.pseudo_qconst3 i1 [64, 128]
0	0x1b	27
1	0x2a	42
2	0xf6	-10
3	0xe9	-23
4	0xad	-83
5	0xf7	-9
6	0x5b	91
7	0xd0	-48
8	0x02	2
9	0xd0	-48
10	0x06	6
11	0x25	37
12	0x13	19
13	0x20	32
14	0xfd	-3
15	0xe3	-29
16	0xfc	-4
17	0xfa	-6
18	0xdb	-37
19	0xc4	-60
20	0x34	52
21	0xff	-1
22	0x1f	31
23	0x24	36
24	0xf6	-10
25	0xef	-17
26	0xe3	-29
27	0x02	2
28	0x40	64
29	0x14	20
30	0x26	38
31	0xf3	-13
32	0x08	8
33	0xf1	-15
34	0x12	18
35	0xea	-22
36	0xe0	-32
37	0xec	-20
38	0x2b	43
39	0xf1	-15
40	0xe9	-23
41	0x2e	46
42	0x10	16
43	0x21	33
44	0xe4	-28
45	0x15	21
46	0xf1	-15
47	0xe8	-24
48	0xc7	-57
49	0xf6	-10
50	0x19	25
51	0xda	-38
52	0xbb	-69
53	0xf1	-15
54	0xf5	-11
55	0x11	17
56	0x18	24
57	0xdb	-37
58	0xbd	-67
59	0xf4	-12
60	0xc7	-57
61	0x15	21
62	0xfa	-6
63	0x09	9
64	0x0b	11
65	0xcf	-49
66	0xe1	-31
67	0xf9	-7
68	0xf7	-9
69	0x1d	29
70	0xfc	-4
71	0xe7	-25
72	0x16	22
73	0x20	32
74	0x2b	43
75	0x06	6
76	0x31	49
77	0xef	-17
78	0xf4	-12
79	0xf5	-11
80	0xf0	-16
81	0xf0	-16
82	0x25	37
83	0x1b	27
84	0x13	19
85	0xf3	-13
86	0xe2	-30
87	0xf2	-14
88	0xe4	-28
89	0x19	25
90	0xde	-34
91	0x27	39
92	0x81	-127
93	0xe4	-28
94	0x0e	14
95	0xfb	-5
96	0x37	55
97	0x14	20
98	0xe8	-24
99	0xe8	-24
100	0xf4	-12
101	0x19	25
102	0x1f	31
103	0xc9	-55
104	0x16	22
105	0x10	16
106	0xf5	-11
107	0xb5	-75
108	0xff	-1
109	0x12	18
110	0x24	36
111	0x08	8
112	0xd8	-40
113	0x1f	31
114	0xdf	-33
115	0x0e	14
116	0x30	48
117	0xed	-19
118	0x18	24
119	0xea	-22
120	0x25	37
121	0xff	-1
122	0x0c	12
123	0x01	1
124	0xd8	-40
125	0x25	37
126	0xd3	-45
127	0xd2	-46
128	0x4f	79
129	0xea	-22
130	0x46	70
131	0x23	35
132	0xd0	-48
133	0x07	7
134	0xe0	-32
135	0xde	-34
136	0xf5	-11
137	0x25	37
138	0x2c	44
139	0xea	-22
140	0xbf	-65
141	0xa9	-87
142	0xf9	-7
143	0x2b	43
144	0x29	41
145	0x0b	11
146	0x45	69
147	0xcd	-51
148	0xf8	-8
149	0x1a	26
150	0xf2	-14
151	0xe1	-31
152	0x4e	78
153	0x11	17
154	0x40	64
155	0xf3	-13
156	0xfb	-5
157	0x37	55
158	0x07	7
159	0xce	-50
160	0x22	34
161	0xec	-20
162	0x37	55
163	0x4e	78
164	0xc1	-63
165	0x0f	15
166	0x3b	59
167	0x42	66
168	0x1d	29
169	0x22	34
170	0x45	69
171	0xda	-38
172	0xe3	-29
173	0x02	2
174	0xad	-83
175	0xd9	-39
176	0x2c	44
177	0x46	70
178	0xfb	-5
179	0xe5	-27
180	0xe3	-29
181	0xf5	-11
182	0xd4	-44
183	0x06	6
184	0x01	1
185	0x05	5
186	0x3a	58
187	0xc5	-59
188	0xf7	-9
189	0xfe	-2
190	0x24	36
191	0xee	-18
192	0x0b	11
193	0xf1	-15
194	0xb7	-73
195	0x3d	61
196	0xe2	-30
197	0x3f	63
198	0x09	9
199	0xee	-18
200	0xe2	-30
201	0xcc	-52
202	0xc9	-55
203	0xbf	-65
204	0xcc	-52
205	0x0b	11
206	0xf4	-12
207	0xd1	-47
208	0xfd	-3
209	0xb2	-78
210	0x20	32
211	0x13	19
212	0x50	80
213	0xa2	-94
214	0xbc	-68
215	0xe3	-29
216	0xd2	-46
217	0xaa	-86
218	0xfc	-4
219	0xce	-50
220	0xee	-18
221	0x1b	27
222	0xe1	-31
223	0xda	-38
224	0xe3	-29
225	0x15	21
226	0xef	-17
227	0x87	-121
228	0xae	-82
229	0xe1	-31
230	0x45	69
231	0x46	70
232	0x0e	14
233	0x27	39
234	0x19	25
235	0xf0	-16
236	0x2b	43
237	0x3a	58
238	0xe2	-30
239	0xcd	-51
240	0x1a	26
241	0x38	56
242	0x0d	13
243	0xcf	-49
244	0xe1	-31
245	0x39	57
246	0x0c	12
247	0x26	38
248	0x1b	27
249	0x35	53
250	0x42	66
251	0x8f	-113
252	0x09	9
253	0x7f	127
254	0xb5	-75
255	0xc0	-64

tfl.pseudo_qconst5 i1 [128, 128]
0	0xe4	-28
1	0x2f	47
2	0xdc	-36
3	0xf4	-12
4	0x30	48
5	0xf0	-16
6	0xd7	-41
7	0x0d	13
8	0x1c	28
9	0x14	20
10	0x2f	47
11	0xc5	-59
12	0xd0	-48
13	0x18	24
14	0x0f	15
15	0xd3	-45
16	0x43	67
17	0x1c	28
18	0xf9	-7
19	0xfd	-3
20	0xf7	-9
21	0x50	80
22	0xe3	-29
23	0x93	-109
24	0xdf	-33
25	0xd9	-39
26	0xed	-19
27	0x00	0
28	0x62	98
29	0x05	5
30	0xe9	-23
31	0xd6	-42
32	0xd1	-47
33	0xd4	-44
34	0xb4	-76
35	0x13	19
36	0xd0	-48
37	0x1c	28
38	0xe2	-30
39	0xe6	-26
40	0x7f	127
41	0x0a	10
42	0xb8	-72
43	0xe0	-32
44	0xc0	-64
45	0x16	22
46	0xce	-50
47	0x35	53
48	0xaa	-86
49	0xd3	-45
50	0xa5	-91
51	0x45	69
52	0xd0	-48
53	0xf2	-14
54	0xfe	-2
55	0x2d	45
56	0x24	36
57	0x5f	95
58	0x0d	13
59	0x0b	11
60	0xdc	-36
61	0x46	70
62	0x36	54
63	0xf7	-9
64	0x68	104
65	0x1c	28
66	0x3d	61
67	0xaa	-86
68	0xba	-70
69	0xb6	-74
70	0xd6	-42
71	0x25	37
72	0x86	-122
73	0xe9	-23
74	0x50	80
75	0xc4	-60
76	0x55	85
77	0x1b	27
78	0x27	39
79	0x42	66
80	0xba	-70
81	0x1b	27
82	0xda	-38
83	0xd7	-41
84	0x21	33
85	0x41	65
86	0xb6	-74
87	0x28	40
88	0xfc	-4
89	0x3a	58
90	0x37	55
91	0xd5	-43
92	0x22	34
93	0xe9	-23
94	0x2a	42
95	0x1d	29
96	0xee	-18
97	0xf1	-15
98	0x3e	62
99	0x1f	31
100	0x05	5
101	0x95	-107
102	0xde	-34
103	0x40	64
104	0xad	-83
105	0xf9	-7
106	0xb6	-74
107	0xd6	-42
108	0xb1	-79
109	0x26	38
110	0xce	-50
111	0x32	50
112	0xca	-54
113	0x18	24
114	0xcb	-53
115	0x05	5
116	0x44	68
117	0xc4	-60
118	0x19	25
119	0xe8	-24
120	0x32	50
121	0xea	-22
122	0x58	88
123	0xe4	-28
124	0x5a	90
125	0xdf	-33
126	0x43	67
127	0x02	2
128	0xec	-20
129	0xfb	-5
130	0x20	32
131	0x19	25
132	0x0f	15
133	0xa2	-94
134	0xd8	-40
135	0xea	-22
136	0xcc	-52
137	0xef	-17
138	0x19	25
139	0x00	0
140	0xf6	-10
141	0xea	-22
142	0xee	-18
143	0xd1	-47
144	0xac	-84
145	0xff	-1
146	0xfb	-5
147	0xe1	-31
148	0xab	-85
149	0x1a	26
150	0x21	33
151	0xd4	-44
152	0xdb	-37
153	0x1b	27
154	0xd4	-44
155	0xbb	-69
156	0xf4	-12
157	0x0b	11
158	0xe5	-27
159	0x13	19
160	0xf5	-11
161	0xda	-38
162	0xd6	-42
163	0xf8	-8
164	0x37	55
165	0xfd	-3
166	0x07	7
167	0x01	1
168	0x24	36
169	0xe9	-23
170	0xe8	-24
171	0xf5	-11
172	0xc5	-59
173	0xe3	-29
174	0xdc	-36
175	0x17	23
176	0xf5	-11
177	0xf7	-9
178	0x21	33
179	0x07	7
180	0x1a	26
181	0xf3	-13
182	0xff	-1
183	0xe8	-24
184	0x0f	15
185	0xdd	-35
186	0x15	21
187	0x23	35
188	0x1b	27
189	0xe6	-26
190	0x08	8
191	0xa8	-88
192	0x05	5
193	0xee	-18
194	0xc6	-58
195	0x01	1
196	0x03	3
197	0xfd	-3
198	0x09	9
199	0x01	1
200	0x23	35
201	0x13	19
202	0x1e	30
203	0xfb	-5
204	0x0a	10
205	0x05	5
206	0xfb	-5
207	0xff	-1
208	0x1f	31
209	0x14	20
210	0xf3	-13
211	0x16	22
212	0x16	22
213	0x0c	12
214	0x32	50
215	0x0d	13
216	0x12	18
217	0xe0	-32
218	0xdb	-37
219	0xe4	-28
220	0xf9	-7
221	0x03	3
222	0x05	5
223	0xd7	-41
224	0xdc	-36
225	0x13	19
226	0xd9	-39
227	0x1f	31
228	0x81	-127
229	0xe3	-29
230	0xe3	-29
231	0x06	6
232	0x04	4
233	0x2c	44
234	0xeb	-21
235	0x0d	13
236	0x20	32
237	0xd2	-46
238	0x04	4
239	0x1e	30
240	0xea	-22
241	0xbb	-69
242	0xf7	-9
243	0xfb	-5
244	0x02	2
245	0x12	18
246	0xdd	-35
247	0x03	3
248	0xee	-18
249	0x1e	30
250	0x14	20
251	0x1b	27
252	0xf0	-16
253	0x08	8
254	0x02	2
255	0xca	-54

tfl.pseudo_qconst7 i1 [128, 1, 5, 64]
0	0x19	25
1	0x39	57
2	0x18	24
3	0x29	41
4	0x44	68
5	0xf9	-7
6	0x2a	42
7	0xce	-50
8	0x00	0
9	0x04	4
10	0x2a	42
11	0x06	6
12	0xf8	-8
13	0xff	-1
14	0x37	55
15	0x81	-127
16	0x07	7
17	0x20	32
18	0x35	53
19	0xe4	-28
20	0xde	-34
21	0xbc	-68
22	0x12	18
23	0x1d	29
24	0x20	32
25	0xb3	-77
26	0x1f	31
27	0x47	71
28	0x07	7
29	0xfa	-6
30	0x0d	13
31	0xf7	-9
32	0x3d	61
33	0x38	56
34	0xdc	-36
35	0x1e	30
36	0x25	37
37	0x1c	28
38	0xe8	-24
39	0x11	17
40	0x2c	44
41	0xec	-20
42	0x34	52
43	0xfa	-6
44	0x35	53
45	0xa3	-93
46	0xf9	-7
47	0x2e	46
48	0xfb	-5
49	0x25	37
50	0x2b	43
51	0xf9	-7
52	0x13	19
53	0x17	23
54	0x09	9
55	0x0a	10
56	0x26	38
57	0x02	2
58	0x0b	11
59	0x40	64
60	0x0f	15
61	0x27	39
62	0xef	-17
63	0x1b	27
64	0x5c	92
65	0x49	73
66	0x2a	42
67	0x30	48
68	0x2d	45
69	0x41	65
70	0x2a	42
71	0xc1	-63
72	0x03	3
73	0x1b	27
74	0x45	69
75	0x13	19
76	0x1a	26
77	0x12	18
78	0x56	86
79	0xdf	-33
80	0x04	4
81	0x13	19
82	0x28	40
83	0x21	33
84	0x20	32
85	0x0a	10
86	0x0e	14
87	0x03	3
88	0x0d	13
89	0xf6	-10
90	0x22	34
91	0x16	22
92	0x05	5
93	0x34	52
94	0x14	20
95	0x1f	31
96	0x36	54
97	0x34	52
98	0xe6	-26
99	0x59	89
100	0x12	18
101	0x00	0
102	0xe6	-26
103	0x1f	31
104	0x24	36
105	0x1c	28
106	0xf6	-10
107	0x0b	11
108	0x35	53
109	0xbb	-69
110	0x00	0
111	0x42	66
112	0x27	39
113	0x18	24
114	0xfc	-4
115	0x1e	30
116	0x2f	47
117	0x3c	60
118	0x11	17
119	0xf5	-11
120	0x17	23
121	0x0c	12
122	0x39	57
123	0x16	22
124	0xed	-19
125	0x0c	12
126	0x0b	11
127	0x37	55
128	0x47	71
129	0x31	49
130	0x20	32
131	0x0f	15
132	0x5b	91
133	0x29	41
134	0x2a	42
135	0xf8	-8
136	0x12	18
137	0x25	37
138	0x22	34
139	0x0e	14
140	0x06	6
141	0x0d	13
142	0x2d	45
143	0xa0	-96
144	0x23	35
145	0x27	39
146	0x29	41
147	0x08	8
148	0xfc	-4
149	0xe1	-31
150	0x26	38
151	0x32	50
152	0x0b	11
153	0xf2	-14
154	0xf9	-7
155	0x38	56
156	0xf4	-12
157	0x2d	45
158	0x1a	26
159	0x2d	45
160	0x20	32
161	0x02	2
162	0xdb	-37
163	0x72	114
164	0x29	41
165	0xfa	-6
166	0xe7	-25
167	0x2a	42
168	0x0c	12
169	0x25	37
170	0x03	3
171	0x11	17
172	0x23	35
173	0xa1	-95
174	0x10	16
175	0xf1	-15
176	0x03	3
177	0x22	34
178	0x25	37
179	0x0c	12
180	0x3a	58
181	0x25	37
182	0x1b	27
183	0xef	-17
184	0x1c	28
185	0xf4	-12
186	0x0b	11
187	0x2e	46
188	0xfc	-4
189	0x1f	31
190	0xf6	-10
191	0x37	55
192	0x26	38
193	0xd4	-44
194	0xfb	-5
195	0x51	81
196	0x29	41
197	0xd5	-43
198	0xff	-1
199	0xc4	-60
200	0xf9	-7
201	0x29	41
202	0xd4	-44
203	0x27	39
204	0xdb	-37
205	0x34	52
206	0x33	51
207	0x8f	-113
208	0xf4	-12
209	0x0e	14
210	0x3a	58
211	0x14	20
212	0xf1	-15
213	0xa5	-91
214	0x3f	63
215	0x10	16
216	0x21	33
217	0xb3	-77
218	0x22	34
219	0x05	5
220	0xe9	-23
221	0x10	16
222	0x41	65
223	0x2c	44
224	0x0c	12
225	0x05	5
226	0x93	-109
227	0x3d	61
228	0x27	39
229	0x03	3
230	0xd6	-42
231	0x04	4
232	0x28	40
233	0x12	18
234	0x01	1
235	0xf1	-15
236	0x3f	63
237	0xbf	-65
238	0xfb	-5
239	0x14	20
240	0xe9	-23
241	0x16	22
242	0x13	19
243	0x06	6
244	0x13	19
245	0x12	18
246	0x2e	46
247	0x05	5
248	0xfe	-2
249	0x1a	26
250	0xfc	-4
251	0xd9	-39
252	0xff	-1
253	0x4a	74
254	0xfd	-3
255	0x30	48

tfl.pseudo_qconst9 i1 [64, 1, 7, 32]
0	0xfa	-6
1	0x0c	12
2	0xf6	-10
3	0xe6	-26
4	0xec	-20
5	0x00	0
6	0x07	7
7	0x0b	11
8	0x19	25
9	0x08	8
10	0xfa	-6
11	0xe5	-27
12	0x24	36
13	0xf3	-13
14	0x05	5
15	0x1a	26
16	0x06	6
17	0x2f	47
18	0x19	25
19	0x23	35
20	0x02	2
21	0x11	17
22	0x83	-125
23	0x04	4
24	0xf2	-14
25	0xec	-20
26	0x17	23
27	0xe9	-23
28	0x02	2
29	0xf8	-8
30	0xf4	-12
31	0xea	-22
32	0x02	2
33	0x01	1
34	0xf9	-7
35	0x1a	26
36	0x03	3
37	0xee	-18
38	0x15	21
39	0x04	4
40	0x0b	11
41	0x17	23
42	0xf7	-9
43	0x0f	15
44	0x19	25
45	0x04	4
46	0x19	25
47	0x00	0
48	0x0e	14
49	0x12	18
50	0x23	35
51	0xfc	-4
52	0xf8	-8
53	0x17	23
54	0x81	-127
55	0x03	3
56	0xef	-17
57	0xf8	-8
58	0xea	-22
59	0xff	-1
60	0xcc	-52
61	0x0c	12
62	0xe6	-26
63	0xf9	-7
64	0xec	-20
65	0x01	1
66	0xf1	-15
67	0xfa	-6
68	0x0d	13
69	0x14	20
70	0x16	22
71	0x08	8
72	0x0c	12
73	0x36	54
74	0xfc	-4
75	0xf2	-14
76	0x10	16
77	0xe1	-31
78	0xf8	-8
79	0x1a	26
80	0x0c	12
81	0x14	20
82	0x1a	26
83	0xf7	-9
84	0x06	6
85	0x14	20
86	0xa8	-88
87	0x0f	15
88	0x16	22
89	0x21	33
90	0x1f	31
91	0xe4	-28
92	0xf6	-10
93	0x10	16
94	0x09	9
95	0xe6	-26
96	0xfd	-3
97	0x0d	13
98	0x19	25
99	0x1d	29
100	0x26	38
101	0x08	8
102	0x24	36
103	0x1f	31
104	0x22	34
105	0x0b	11
106	0x31	49
107	0x1d	29
108	0xf0	-16
109	0x1b	27
110	0x01	1
111	0x27	39
112	0x1a	26
113	0xfb	-5
114	0x21	33
115	0x28	40
116	0x19	25
117	0xfc	-4
118	0xdc	-36
119	0x2d	45
120	0x10	16
121	0xea	-22
122	0x34	52
123	0xf6	-10
124	0x00	0
125	0xec	-20
126	0x0f	15
127	0x24	36
128	0x12	18
129	0x14	20
130	0x28	40
131	0x33	51
132	0xfc	-4
133	0xf1	-15
134	0x32	50
135	0x1c	28
136	0x0c	12
137	0x0c	12
138	0x1d	29
139	0x2f	47
140	0x04	4
141	0x1b	27
142	0xed	-19
143	0x28	40
144	0x17	23
145	0xe6	-26
146	0x19	25
147	0x43	67
148	0x02	2
149	0x0c	12
150	0x00	0
151	0x22	34
152	0x0b	11
153	0x3a	58
154	0x10	16
155	0x21	33
156	0xdb	-37
157	0x12	18
158	0x1a	26
159	0x15	21
160	0x13	19
161	0x24	36
162	0xfe	-2
163	0x0a	10
164	0x07	7
165	0x08	8
166	0x16	22
167	0xff	-1
168	0x26	38
169	0x23	35
170	0x26	38
171	0x22	34
172	0x26	38
173	0x56	86
174	0x15	21
175	0x13	19
176	0x2d	45
177	0xdb	-37
178	0xff	-1
179	0x56	86
180	0x12	18
181	0x21	33
182	0xe4	-28
183	0x41	65
184	0x0f	15
185	0x2a	42
186	0x05	5
187	0x1d	29
188	0xd8	-40
189	0x22	34
190	0x40	64
191	0x2f	47
192	0x0c	12
193	0x1a	26
194	0xef	-17
195	0xd7	-41
196	0x13	19
197	0xeb	-21
198	0x10	16
199	0xd8	-40
200	0x17	23
201	0xec	-20
202	0xd0	-48
203	0xfb	-5
204	0x10	16
205	0x47	71
206	0x0d	13
207	0x36	54
208	0x32	50
209	0xf9	-7
210	0x26	38
211	0x3f	63
212	0x20	32
213	0x26	38
214	0xd7	-41
215	0x3e	62
216	0xf5	-11
217	0x10	16
218	0xd1	-47
219	0xf2	-14
220	0xc9	-55
221	0x14	20
222	0x40	64
223	0xfd	-3
224	0x02	2
225	0xe0	-32
226	0xc1	-63
227	0xde	-34
228	0x08	8
229	0xf7	-9
230	0x30	48
231	0xdc	-36
232	0xd0	-48
233	0xef	-17
234	0xd1	-47
235	0x0d	13
236	0xe5	-27
237	0x8c	-116
238	0xd7	-41
239	0xdb	-37
240	0xa9	-87
241	0x7f	127
242	0xfb	-5
243	0x82	-126
244	0x93	-109
245	0xfb	-5
246	0x12	18
247	0xa8	-88
248	0xcf	-49
249	0xe4	-28
250	0xdf	-33
251	0xeb	-21
252	0x07	7
253	0xdc	-36
254	0x97	-105
255	0xc1	-63

tfl.pseudo_qconst11 i1 [32, 1, 9, 3]
0	0xee	-18
1	0x26	38
2	0xbc	-68
3	0xd7	-41
4	0x35	53
5	0x97	-105
6	0xd3	-45
7	0x1b	27
8	0x00	0
9	0x0f	15
10	0x17	23
11	0xdb	-37
12	0x1c	28
13	0x20	32
14	0x60	96
15	0x40	64
16	0x2a	42
17	0x73	115
18	0xf7	-9
19	0x0d	13
20	0x6e	110
21	0x14	20
22	0xe1	-31
23	0x7f	127
24	0xcd	-51
25	0x01	1
26	0xf0	-16
27	0x3d	61
28	0xad	-83
29	0xda	-38
30	0x5b	91
31	0x86	-122
32	0x0d	13
33	0x42	66
34	0x15	21
35	0xf5	-11
36	0xfb	-5
37	0xd2	-46
38	0x52	82
39	0x1e	30
40	0x0c	12
41	0x30	48
42	0xdb	-37
43	0x10	16
44	0x7f	127
45	0xdd	-35
46	0x1c	28
47	0xf7	-9
48	0x3e	62
49	0xf9	-7
50	0xe6	-26
51	0xa1	-95
52	0x38	56
53	0x17	23
54	0xeb	-21
55	0xd7	-41
56	0x78	120
57	0xe7	-25
58	0x20	32
59	0x12	18
60	0xbb	-69
61	0x30	48
62	0x01	1
63	0x2f	47
64	0xfe	-2
65	0x44	68
66	0x37	55
67	0x00	0
68	0x05	5
69	0x06	6
70	0x28	40
71	0xc8	-56
72	0x11	17
73	0xcb	-53
74	0xad	-83
75	0xf1	-15
76	0xf9	-7
77	0x81	-127
78	0x08	8
79	0x38	56
80	0xb2	-78
81	0xfb	-5
82	0x1b	27
83	0xe4	-28
84	0xdf	-33
85	0x0b	11
86	0xb1	-79
87	0xf9	-7
88	0x02	2
89	0xe2	-30
90	0x0f	15
91	0x2d	45
92	0x81	-127
93	0x06	6
94	0x11	17
95	0xec	-20
96	0x00	0
97	0x09	9
98	0xc0	-64
99	0x19	25
100	0xe0	-32
101	0xdc	-36
102	0xed	-19
103	0x0a	10
104	0xae	-82
105	0xff	-1
106	0x2f	47
107	0xe1	-31
108	0x1b	27
109	0xb1	-79
110	0x17	23
111	0x04	4
112	0x90	-112
113	0xf6	-10
114	0xe2	-30
115	0xb9	-71
116	0xda	-38
117	0x26	38
118	0xf7	-9
119	0xfe	-2
120	0xc9	-55
121	0xd3	-45
122	0x42	66
123	0x2d	45
124	0xbf	-65
125	0x05	5
126	0x1a	26
127	0x00	0
128	0x2f	47
129	0xdf	-33
130	0xb6	-74
131	0x23	35
132	0x43	67
133	0xe3	-29
134	0x7f	127
135	0xe0	-32
136	0x6d	109
137	0x09	9
138	0x81	-127
139	0x44	68
140	0xd1	-47
141	0x0e	14
142	0x7f	127
143	0xe7	-25
144	0xff	-1
145	0x5b	91
146	0xbf	-65
147	0xc9	-55
148	0x5a	90
149	0xec	-20
150	0x8b	-117
151	0x59	89
152	0xe0	-32
153	0x9b	-101
154	0x4e	78
155	0x0d	13
156	0xe8	-24
157	0x0c	12
158	0x0f	15
159	0x8d	-115
160	0x24	36
161	0x02	2
162	0xea	-22
163	0xc5	-59
164	0x30	48
165	0xf4	-12
166	0x1f	31
167	0x09	9
168	0x28	40
169	0xef	-17
170	0x32	50
171	0x13	19
172	0xc9	-55
173	0x2c	44
174	0x02	2
175	0x12	18
176	0xbe	-66
177	0x27	39
178	0x19	25
179	0xee	-18
180	0xbe	-66
181	0x27	39
182	0xdc	-36
183	0x17	23
184	0xdb	-37
185	0xc2	-62
186	0xe9	-23
187	0x14	20
188	0x81	-127
189	0x12	18
190	0x2c	44
191	0x1c	28
192	0xf3	-13
193	0xdd	-35
194	0x3a	58
195	0xe7	-25
196	0xeb	-21
197	0xc6	-58
198	0x39	57
199	0x1f	31
200	0xbb	-69
201	0x33	51
202	0x11	17
203	0xbe	-66
204	0xcd	-51
205	0xf0	-16
206	0xd7	-41
207	0x98	-104
208	0x29	41
209	0xe8	-24
210	0xd3	-45
211	0x41	65
212	0xf2	-14
213	0x81	-127
214	0x45	69
215	0xd3	-45
216	0x01	1
217	0x17	23
218	0xf6	-10
219	0x04	4
220	0x04	4
221	0xf6	-10
222	0xe9	-23
223	0xec	-20
224	0xe8	-24
225	0x0b	11
226	0x18	24
227	0xf5	-11
228	0xf5	-11
229	0xe9	-23
230	0xf8	-8
231	0x10	16
232	0xf8	-8
233	0xf5	-11
234	0x06	6
235	0x16	22
236	0x47	71
237	0xfc	-4
238	0x0b	11
239	0x4f	79
240	0xf5	-11
241	0xfd	-3
242	0x7f	127
243	0xb4	-76
244	0xdb	-37
245	0x47	71
246	0x25	37
247	0xc0	-64
248	0x58	88
249	0x19	25
250	0xbd	-67
251	0xbc	-68
252	0xd2	-46
253	0xef	-17
254	0xc2	-62
255	0x48	72
