ML/models/conv1d_angle_toro_ossaba/seed10_20260116_234517_196/model.tflite (tflite, 96000 bytes, 11 tensors)

arith.constant2 f4 [1, 64]
000000 48 a4 07 3e d6 83 22 3e 02 98 19 be 49 fd ef bd
       0.13246262 0.15870604 -0.14999393 -0.11718232
000010 af f5 39 bd 9c 51 f5 3d 9f 2f d7 3d 76 ae 1b 3e
       -0.045400318 0.119784564 0.1050713 0.1520327
000020 d2 c7 a7 bd 5a 13 d6 bd 15 63 89 be ee 38 bf 3d
       -0.081924096 -0.1045291 -0.26833406 0.0933703
000030 2e 73 64 3e 8d a7 30 be 62 8d e6 bc 3f e4 18 3e
       0.22309563 -0.17251416 -0.028143588 0.14930819
000040 6d d7 4a 3e 08 d4 27 be 33 76 0b 3e 0c 47 21 3c
       0.19808741 -0.16389477 0.13619308 0.009843599
000050 96 cd 5f 3d de 3a a4 3d 00 c0 3d 3e cb f8 80 3e
       0.05463942 0.080190405 0.18530273 0.25189814
000060 e5 cf dc bd c4 78 88 3d 6c 91 c2 3c ed af 12 bd
       -0.1078184 0.06663659 0.023750983 -0.035812307
000070 04 39 8b be 1a 9b 06 be bd fb ad bd 2f e9 71 3e
       -0.27191937 -0.13145104 -0.08495281 0.23624109
000080 11 3f 72 3e 69 b7 0b 3e c7 90 8b 3d e6 9d 66 3e
       0.2365687 0.13644184 0.068147235 0.22521171
000090 0c a5 17 3d 9b 80 53 3d 2b 90 1f 3e f7 b5 64 be
       0.037022635 0.05163632 0.1558234 -0.22335039
0000a0 98 dd 31 3d 11 4a 57 3d ca d3 95 bd a0 85 f8 3d
       0.04342422 0.05256087 -0.07315786 0.12134862
0000b0 83 07 c9 3d 84 f7 76 be 2a 7c 6b be ba ff 36 be
       0.09815886 -0.24117857 -0.22996584 -0.1787099
0000c0 5b 0d c7 3d b3 46 2a be d9 eb 1d 3e 07 82 79 3e
       0.09719344 -0.16628532 0.15422 0.24366008
0000d0 2a ae 56 3e 13 4a 28 3e f7 69 a5 3d 4e 85 9d 3d
       0.20964876 0.16434507 0.08076852 0.076914415
0000e0 af d1 75 3d 6e d6 51 3e e0 49 e3 3d e7 0d 50 3e
       0.060014423 0.20491955 0.11098075 0.20317803
0000f0 42 2d ec bd 84 24 2b 3e 15 20 89 bd bb 36 20 3e
       -0.1153207 0.16713148 -0.06695572 0.15645878

arith.constant7 f4 [128]
000000 80 64 57 bc 76 c4 08 bb 23 0a 74 3a 10 80 14 bc
       -0.01314652 -0.0020869053 0.0009309372 -0.009063736
000010 5d bd 93 3b 70 92 50 bc ec b3 f4 bb 8f ef 9a bc
       0.004508658 -0.012730226 -0.0074677374 -0.018913059
000020 8e 16 4f bb 00 e4 d2 bb a9 ae d9 bb 82 cd 93 bb
       -0.0031599137 -0.006435871 -0.0066431356 -0.0045105824
000030 64 9a d5 bb 02 ec 49 3c 11 0d 28 3c 0a 69 d1 ba
       -0.006518649 0.012324335 0.0102570215 -0.0015976739
000040 bb d2 2a 3b 0d d5 5b bb 96 11 93 bc 73 54 68 bc
       0.0026065547 -0.0033543736 -0.017952722 -0.0141802905
000050 92 be 30 bc 8f 81 ae bc 94 6b c6 bb 62 ae 84 bc
       -0.010787623 -0.021302013 -0.006055305 -0.016196433
000060 b4 52 23 3c 04 6c 06 3b a2 e8 b4 bb 2a df c5 bb
       0.009968448 0.002051116 -0.005520896 -0.006038566
000070 5d d4 4f ba 6c 49 4c ba 82 7c 54 bc 58 d5 3a 3c
       -0.0007928068 -0.0007792923 -0.012969138 0.011403404
000080 7f 78 92 bb 15 b7 60 3c b5 c7 67 bc 88 5f 25 bc
       -0.0044699307 0.013715525 -0.014146735 -0.010093577
000090 f6 c8 a2 bb 8a 9c 6a bc 4b 9e 54 bc 9c e8 e4 bb
       -0.004967804 -0.014319548 -0.012977193 -0.006985737
0000a0 90 24 34 bb 7a d1 7c bc cf 1d 4f bc d0 94 d6 ba
       -0.0027487613 -0.0154308025 -0.012641384 -0.0016371254
0000b0 cf 04 92 bc 7f 19 20 bb 35 0b ff bb f1 a4 a6 39
       -0.017824559 -0.002442926 -0.0077833184 0.00031784878
0000c0 22 1a 0e bc 3b 83 df 3b 0e d3 df bb cb bd a3 bb
       -0.008673223 0.006821064 -0.0068305796 -0.0049969903
0000d0 2f 6d 44 3b e4 9f 6c bc 3a ee 5a 3b 9f 3e 90 bb
       0.0029972305 -0.014442418 0.0033406154 -0.0044019963
0000e0 3a a8 13 bc 72 cc 9d bc 05 d9 96 3b 0c c2 13 bc
       -0.009012276 -0.019262526 0.0046035075 -0.009018432
0000f0 5a 1b 91 ba 50 05 17 39 58 01 cb 38 54 b6 ca 3c
       -0.0011070773 0.00014402461 9.6800446e-05 0.024745144
000100 b0 e9 f5 bb 14 0e dd 3b f6 0a a9 bb c6 9e 47 bb
       -0.0075046644 0.006746063 -0.0051587773 -0.0030459627
000110 dd 6e ca ba df b1 ea bc 44 77 d7 3b 23 af ca bb
       -0.0015444417 -0.028649269 0.006575497 -0.0061854287
000120 44 ad 2f bc 1a 62 4c 3b 38 8b 6b 3c 93 7a a4 3c
       -0.010722462 0.0031186403 0.014376454 0.02007798
000130 91 7c d6 b9 14 4b e5 3b 94 85 81 bb e1 f6 74 bb
       -0.0004091007 0.0069974754 -0.0039526913 -0.0037378597
000140 6b c4 87 bb 11 66 a1 3b d9 6b 96 ba 1c d1 5f bc
       -0.004143288 0.0049254973 -0.0011476233 -0.013660695
000150 91 35 ca bc 57 be 34 bc 70 fc 27 bc 02 3d da bb
       -0.024683746 -0.011031709 -0.010253057 -0.0066601047
000160 de 6b 40 bc 81 9b 33 bc 8c 6f 80 3a f0 67 b6 bb
       -0.011744468 -0.010962368 0.0009798869 -0.0055665895
000170 8e 4a f7 bc c5 da 7e 3c f4 17 19 3c 89 ce 97 bc
       -0.030186918 0.015555088 0.00934409 -0.0185311
000180 c3 f8 ba b9 e0 a6 0c 3a 24 22 c1 3b 8a 97 7a bc
       -0.00035662026 0.00053654425 0.0058939625 -0.015294919
000190 27 49 12 bc 21 da 85 bc b5 d4 4c bc 8c 37 62 ba
       -0.008928574 -0.016339364 -0.012501885 -0.0008629493
0001a0 66 9e c1 3b 1b f6 99 3a a3 cc 27 3c a0 62 10 bc
       0.005908775 0.0011746319 0.01024166 -0.0088125765
0001b0 d0 35 82 bc c1 e0 3a 3c 81 bd ae bc 27 1e 3f bc
       -0.0158948 0.011406125 -0.021330597 -0.011664904
0001c0 6f 8b cc 3b 64 bc 82 bc c4 d4 2c 3a 61 5b 23 bc
       0.0062422077 -0.015958972 0.0006592984 -0.009970517
0001d0 1b 1f 42 bc d7 91 2e bc f0 8d 20 bc 13 c1 fe bb
       -0.011848236 -0.010654888 -0.009799466 -0.007774481
0001e0 e1 ad a6 3a ea 9b 8f bc d4 c0 ef bb 32 df 6b 3b
       0.0012716615 -0.0175304 -0.007316688 0.003599119
0001f0 b2 bb 6d ba 0a 86 5b bc 08 3d 2e bc ff 67 f3 ba
       -0.00090688013 -0.013398657 -0.010634668 -0.0018570422

arith.constant8 f4 [64]
000000 a0 4d 1f 3c e6 c2 52 3b e9 55 94 3d 1f 3a 60 3d
       0.009723097 0.0032159626 0.072429486 0.05474293
000010 f7 c9 9a 3b 5e 38 8c 3d e2 6f 72 bd ab 99 a0 3c
       0.004723783 0.06846689 -0.05918873 0.019604525
000020 2a 87 58 bb a7 21 21 3d 1e 4b 56 3d 62 66 4a 3d
       -0.0033039548 0.039338734 0.05231773 0.049414046
000030 88 5c f1 3c 72 c5 02 3d 31 1b 49 bb 29 e5 24 3d
       0.029463068 0.03192658 -0.0030686373 0.040257607
000040 63 8c 95 3c ce 59 f6 3c 8a 69 9b 3d 53 96 82 bd
       0.018255418 0.03007212 0.07588489 -0.06376328
000050 4e 20 94 3c 45 db 17 3d 06 d7 d4 3c 95 14 4e bd
       0.01808181 0.037074346 0.025981437 -0.050312597
000060 a0 5e 80 3d da 4e 5a 3b 04 e2 24 bd 55 db fb bc
       0.06268048 0.003331116 -0.040254608 -0.030744234
000070 43 54 86 3d 6e 9d 9a 3d 37 3c 4a 3d bb 9a d9 bc
       0.065590404 0.075495586 0.04937383 -0.026563039
000080 de 39 ae bb 7c fd 26 bd bd 10 09 bc 00 1e 95 3d
       -0.005316957 -0.040769085 -0.008365807 0.07281113
000090 cf d5 00 bc 7c 25 ea bc 8a 78 af 3d c4 fe 48 3d
       -0.007863476 -0.028582327 0.08567913 0.04907109
0000a0 1e 36 3e bd 58 64 69 bb 1e 3b f8 3b f5 18 0f 3d
       -0.04643833 -0.0035612788 0.0075754067 0.03493591
0000b0 59 2c e8 bc 1f f5 30 3d b8 6b 22 3d 33 e8 bb 3c
       -0.02834146 0.043202516 0.03965351 0.02293787
0000c0 f6 14 96 3c 1b a3 e8 3c 0a 8c fb 3c cb e9 5e bd
       0.018320542 0.028398087 0.030706424 -0.05442218
0000d0 c2 26 bb 3d 73 9e a7 3c 49 f6 e8 3c 1c 36 3f bd
       0.09138252 0.020461297 0.02843775 -0.046682462
0000e0 65 b5 a5 3c 7d 90 47 bb 56 3f 37 3c 4c 06 b9 3c
       0.020228097 -0.0030451112 0.011184534 0.02258601
0000f0 f5 88 c7 3c bd e6 17 3d 00 35 d8 3c da e6 a9 3d
       0.024357298 0.037085284 0.02639246 0.082959846

arith.constant9 f4 [32, 1, 9, 3]
000000 a6 76 dc bf 4a fa 43 c0 bb e3 38 bf b4 64 06 40
       -1.7223709 -3.0621514 -0.7222249 2.0998964
000010 84 0c cc 3f 94 64 7c 3f 0d a3 8c bf c4 e8 24 3f
       1.594132 0.9859097 -1.0987259 0.6441767
000020 03 17 da 3f 75 cc 4b bd 0f eb 60 3f 67 19 b0 3f
       1.7038273 -0.049755532 0.8785867 1.3757752
000030 0a 2d 3a 40 12 96 a3 3f bb 90 3f c0 40 5b ab be
       2.908999 1.2780173 -2.9932086 -0.33468056
000040 08 44 2f c0 cd 2f 1e c0 8c 8d bb 3f 46 f8 d2 3f
       -2.7385273 -2.4716675 1.4652572 1.6482017
000050 11 d8 cf 3f f7 42 74 3d 72 92 f2 be 1b 9e 2b 3f
       1.6237813 0.059634175 -0.47377354 0.67038125
000060 38 a8 1a bf 5e 87 c2 bf fd c3 04 40 0d 57 6e 3f
       -0.6041293 -1.5197561 2.0744622 0.9310158
000070 3b b0 8e 3e 26 e3 5f 3f 17 19 e2 bf 2c 53 df 3d
       0.27868828 0.87455976 -1.7663907 0.10904536
000080 52 f6 de bf 93 8f 8a bf 1d c1 78 be af 2c 0a 3f
       -1.7418921 -1.0825065 -0.24292417 0.5397443
000090 aa 43 41 bf 73 36 91 be 29 8c e0 bf 92 21 6d 3d
       -0.7549387 -0.28361854 -1.7542773 0.057893343
0000a0 b4 71 3d 3f 8b 45 01 3f 29 32 24 3e 2f 99 4a 3f
       0.7400162 0.5049674 0.1603476 0.7913999
0000b0 cf 33 c1 3e e9 21 8e bf fb 5c 4c 3f ca 95 31 bb
       0.3773484 -1.1104099 0.79829377 -0.0027097338
0000c0 c9 57 2e bf 21 17 8c 3f a8 d8 53 bf 81 51 eb bf
       -0.681027 1.0944558 -0.82752466 -1.8384248
0000d0 f7 f6 0f bf b9 5b 19 bf 0b 87 e2 3f 85 40 bc 3f
       -0.56236213 -0.5990558 1.7697462 1.470719
0000e0 ea af dc 3f b0 ad 35 c0 9e 25 b6 3f 01 0f 68 c0
       1.7241185 -2.838726 1.423023 -3.6259158
0000f0 dd fc 1f 40 45 d3 2f c0 66 25 08 bf 57 e1 28 40
       2.4998085 -2.7472699 -0.53182065 2.6387537
000100 78 4f 20 40 a0 33 0d c0 08 71 5d be 66 09 08 40
       2.5048504 -2.206276 -0.21625149 2.1255736
000110 38 52 0e c0 ea a6 08 c0 65 fa 04 c0 9c 6b 76 3f
       -2.2237682 -2.1351876 -2.0777829 0.9625795
000120 bb f0 d9 bf 11 d8 b5 3f d8 1c 22 40 d7 8a 16 bf
       -1.702659 1.4206563 2.5330105 -0.588056
000130 4d 41 8c 3d e9 9e 0c 40 12 f3 d5 3e 5f 66 3d 3e
       0.06848393 2.197199 0.4178701 0.18496083
000140 5b 0e 3e 40 96 e0 85 3f 49 45 5d 3e 1a 5a de bf
       2.9696262 1.0459163 0.21608461 -1.7371247
000150 af 52 98 3d 92 54 ab 3f 37 dd 15 3f ce b5 0c c0
       0.07437646 1.3385184 0.5854067 -2.1985965
000160 29 07 9b bf 2c e5 dc bf e4 cc 81 be 70 9c 9c 3e
       -1.211156 -1.7257438 -0.25351632 0.30588102
000170 76 03 e2 be d6 10 6f 3e 62 0c 4d 3f b5 b9 65 be
       -0.44143265 0.23346266 0.8009702 -0.22434123
000180 d2 9a aa 3f 18 a7 76 3f 3c 44 f8 3f 24 9f f9 3f
       1.3328497 0.96348715 1.9395823 1.9501691
000190 76 62 b1 3f 83 9b e2 3f 42 f4 cf 3f ec 49 8a bf
       1.3858173 1.7703708 1.6246417 -1.0803809
0001a0 5d cd 33 be df 7b b8 bf 06 d0 69 3f 25 4b 3c 40
       -0.17558809 -1.4412802 0.91333044 2.9420865
0001b0 28 af 07 40 6d b8 8d 3e 82 9e 19 40 92 b3 22 c0
       2.1200657 0.27679768 2.4002995 -2.54221
0001c0 1d b6 0c 3f c0 69 76 bf 86 db 35 40 c7 f9 c8 bf
       0.5496538 -0.9625511 2.8415236 -1.5701226
0001d0 69 d6 29 c0 53 a7 df 3f 33 cb 15 40 d1 86 39 40
       -2.6537116 1.7472938 2.3405273 2.8988535
0001e0 20 82 4d be 51 25 e8 bf b0 7c 65 3f 3a 1a 0a 3e
       -0.2006917 -1.8136388 0.89643383 0.13486567
0001f0 45 1e 1d bc 96 2e 39 c0 b5 c6 7d bf 78 fa 9c 3e
       -0.009589736 -2.8934684 -0.9913133 0.30659842
000200 71 94 10 c0 29 19 c7 3f dd f2 de 3e a0 49 96 bf
       -2.2590601 1.5554553 0.43544665 -1.1741219
000210 64 20 32 3f 3a 62 29 40 50 49 0e 40 a7 89 1b c0
       0.69580674 2.6466203 2.2232246 -2.4302766
000220 37 81 16 be 1a 3e 90 c0 16 d7 64 3f c2 6c 1f be
       -0.14697729 -4.5075808 0.89390695 -0.15568832
000230 ab 5a 0a c0 71 f2 1b 40 8d 3b af bf e9 c8 c3 bf
       -2.161784 2.4366724 -1.3690048 -1.5295688
000240 26 b5 99 bf a6 1b d2 bf d2 c8 5a 3e b6 a3 08 40
       -1.2008407 -1.6414688 0.2136567 2.1349921
000250 0c 84 76 3f 38 58 3a 40 e2 05 c4 be 7a 1c 09 3f
       0.9629524 2.9116344 -0.38285738 0.53559077
000260 1c 8e 8f bd ae 1e ed 3f 9e 8d 04 40 2d 46 dd 3f
       -0.07009527 1.8524988 2.0711436 1.7287041
000270 6b e5 70 bf 87 fb 8d 3d 9b a7 8f 40 91 6c 04 c0
       -0.94100064 0.06932741 4.4892097 -2.0691264
000280 42 bf 1b c0 e0 66 1e be 18 7b c2 bf 53 2a 1b bf
       -2.4335485 -0.15468931 -1.5193815 -0.60611457
000290 77 83 25 c0 ce a4 d6 3f 9b 5a f0 be 16 2f 07 bd
       -2.586149 1.6769044 -0.46944126 -0.03300389
0002a0 58 3a 6b bf 89 2a 18 3f 3d a3 4d 3e 6c 6e 5c bf
       -0.918859 0.59439903 0.20081802 -0.8610599
0002b0 69 66 a5 3e 30 0c 11 bf ce 35 9c be 16 90 af 3f
       0.32304695 -0.5665922 -0.305098 1.3715847
0002c0 6c e2 65 3f 88 4e fa 3e 2c 36 40 3f b8 41 04 40
       0.8979862 0.4888804 0.7508266 2.0665112
0002d0 60 4f de bd 6a 8e 06 3f 34 92 b2 3f d6 e5 75 3f
       -0.10854983 0.52561057 1.3950868 0.96053827
0002e0 2b 38 5c 3f b6 b2 91 3f 7a e2 08 3f 87 ba 1a bf
       0.86023206 1.1382663 0.53470576 -0.6044087
0002f0 60 12 5d 3f d6 7b 6d 3e a1 18 b8 be 7b 5f 80 3f
       0.86356163 0.23191771 -0.3595629 1.0029138
000300 e3 98 e0 be df bb 3e c0 13 3a ee 3e ac f7 aa 3f
       -0.43866643 -2.9802167 0.46528682 1.3356833
000310 50 22 d3 3e 73 1d 2a c0 6a 61 b9 3f a4 4b 07 bf
       0.41237116 -2.6580474 1.4482853 -0.52849793
000320 d4 9e f9 bf 85 72 28 3d 52 d5 7d bf 37 2b 10 3e
       -1.9501595 0.04112484 -0.99153626 0.14078985
000330 bf 4a 2f c0 10 f6 ee 3f d2 1e d0 bd c9 22 3a c0
       -2.7389371 1.8668842 -0.101621285 -2.908373
000340 e4 63 c7 bf 10 07 c6 3e 72 41 9f 3f 49 c8 0c c0
       -1.5577359 0.38677263 1.2441847 -2.1997244
000350 f7 35 0c 40 c9 78 a8 bd 33 3a 06 40 48 77 2a c0
       2.1907938 -0.08226163 2.0973022 -2.6635303
000360 22 85 88 3e 68 94 8b bf 6d 60 7f bd 60 56 f5 be
       0.26664072 -1.0904665 -0.06234782 -0.4791746
000370 51 14 bc 3d 74 5c 95 be d2 14 ef 3e 0f ed 23 3f
       0.091835625 -0.291721 0.46695572 0.640336
000380 19 d4 3e be ba 31 7b bf be 67 b6 be e0 df 4d 3f
       -0.18635596 -0.9812275 -0.35626024 0.8041973
000390 0e 60 60 be 6d d4 38 3f 79 d5 4b bf 33 8a 79 3e
       -0.21911642 0.72199136 -0.7962261 0.24369125
0003a0 19 d0 f1 3e 10 ce 08 3e 83 9d 91 3e 86 8b 09 3f
       0.47229078 0.13359857 0.28440484 0.5372852
0003b0 7b 12 ac bf 98 38 27 3f 2e b2 29 bf 0f 74 d3 bf
       -1.344314 0.6532073 -0.66287506 -1.6519793
0003c0 71 34 9f be ba 15 7a be d0 be ce be 4a 34 e7 be
       -0.31094697 -0.2442235 -0.40379953 -0.4515708
0003d0 f6 3b ac 3f 1f cc 26 c0 4f 15 ee 3e 48 39 0e bf
       1.3455799 -2.6062086 0.46500632 -0.55556154
0003e0 34 8e e0 3e f7 07 ad 3e 46 f9 24 3f e9 d9 07 c0
       0.43858492 0.3379514 0.6444286 -2.1226752
0003f0 03 cd 77 bf db 87 d7 bf 8d c7 0d bf 80 90 00 c0
       -0.967972 -1.6838335 -0.55382615 -2.0088196

arith.constant10 f4 [128]
000000 39 b8 28 be 90 ad 10 be 1e a2 91 3f 1d 07 c6 3e
       -0.16476525 -0.14128709 1.1377599 0.38677302
000010 1b b5 84 3f 74 03 01 3d 70 78 3d 3f 6e df 3a 3e
       1.0367769 0.031497434 0.740119 0.18249294
000020 c3 88 08 3e 9b 94 34 be 14 0b 66 be ba e5 32 3f
       0.1333342 -0.17634813 -0.22465163 0.69881785
000030 ef 52 8a bd 8b 85 eb bd a3 30 15 3f 25 36 28 3f
       -0.067540996 -0.11500081 0.5827734 0.6570762
000040 39 89 e7 3e 01 c7 7e 3f 39 37 8d 3f 81 44 9e bb
       0.4522188 0.99522406 1.1032478 -0.0048299436
000050 44 4b 7b be 06 34 22 3f 61 9c d9 be 64 ea b8 be
       -0.2454043 0.6336063 -0.4250212 -0.36116326
000060 3e c5 c1 3f 65 bf 01 40 6f 1c c9 3e 46 5f c5 3f
       1.5138319 2.0273068 0.39279506 1.54197
000070 bd c7 a1 3f 7b 87 be 3f 86 9d 40 3f b1 15 6b 3f
       1.263908 1.4885095 0.7524036 0.91829973
000080 e3 60 a3 3e 0e c3 ea 3f 12 66 e9 bd 40 61 78 be
       0.31909856 1.8340776 -0.113964215 -0.24255848
000090 ff a7 ec 3e e3 37 58 3f 8f e7 80 bd 69 d2 13 40
       0.4622192 0.84460276 -0.06294166 2.3097174
0000a0 0d 24 75 3e d1 4b 4a 3e da 90 95 3e ea 61 6b be
       0.23939534 0.19755484 0.29212075 -0.2298657
0000b0 b0 b0 81 bf c2 60 3e 3e ef 3e cc 3e b6 f0 21 3f
       -1.0132046 0.18591598 0.39891765 0.6325792
0000c0 3e 2a b4 be 0c 49 a4 bd 4b 1f 96 3f 84 dd 0e bd
       -0.35188478 -0.08021745 1.17283 -0.034879223
0000d0 0c 34 65 3f 6e 2d eb bd 11 2b 8d bf ef 75 21 3f
       0.8953254 -0.114832744 -1.1028768 0.6307058
0000e0 e7 f7 70 3c 15 63 ee bd 3e 4b 73 3f b9 0d cc 3e
       0.014707542 -0.11639992 0.95036685 0.3985422
0000f0 99 be 2d 3f 53 e7 21 bf 83 68 03 40 6e 12 7b be
       0.67868954 -0.632436 2.053254 -0.24518749
000100 b7 f2 1c 3e dd 9e 95 3f 04 5a 2b be 1f ab 3e 3f
       0.15326963 1.1689106 -0.16733557 0.7447986
000110 40 0e e1 be 13 5b fb bd c4 eb 02 bf 86 ff c2 3e
       -0.43956184 -0.122732304 -0.51141 0.38085574
000120 eb c1 91 be e7 0c 3f 3f b2 3f 54 3f cb 69 1a 3f
       -0.2846826 0.7462906 0.8290969 0.6031768
000130 dc 99 5d be de ff 29 3f 86 68 cc be 93 a2 5d bf
       -0.21640724 0.6640605 -0.39923495 -0.86576194
000140 5e 4a 52 3f d4 d4 c3 3e 14 3a 3d 3f 3a c4 b9 3f
       0.82144725 0.38248312 0.73916745 1.4513009
000150 33 24 0b bd 3c 6f a5 3e 08 54 d3 3f bc 6b 45 3e
       -0.03397007 0.32311428 1.6510019 0.19279379
000160 da 9b 09 3f 4b 75 db 3e 2f 4b 70 bf 38 61 36 3f
       0.53753436 0.42862925 -0.9386472 0.71242094
000170 c9 7c 43 3f 42 06 86 3f 0e 38 86 bd fd 94 1d 3e
       0.7636228 1.047066 -0.0655366 0.15388866
000180 71 0c 97 be eb b7 81 be ec f3 16 bf 71 2e c2 3f
       -0.2950168 -0.2533563 -0.58965945 1.5170423
000190 e9 30 b2 3e 1e 8b 24 3f 81 bc 99 be 96 0a 4f 3e
       0.3480294 0.64274776 -0.3002663 0.20218882
0001a0 38 32 99 3f 58 c4 14 be b6 c4 c5 be 7c 98 61 be
       1.196845 -0.14528024 -0.3862664 -0.22030824
0001b0 ec e9 08 3e fe bf 3d bf f3 e6 b1 3f da 30 29 bf
       0.13370484 -0.7412108 1.3898605 -0.66090167
0001c0 e7 2a fc bd 06 da dc bd 08 da 6d bd 9e d9 ad 3e
       -0.123128705 -0.10783772 -0.05806926 0.3395509
0001d0 c8 0d 42 3f 7b ed 77 3f f2 b4 f8 3d ed 6e 9f bd
       0.7580228 0.9684674 0.121438876 -0.07784829
0001e0 26 eb 94 3e 3c 92 79 3f 7e b6 ce 3e a8 f6 8c 3f
       0.29085654 0.9748876 0.40373605 1.1012774
0001f0 fe ef 65 3f 90 36 1d 3f 8a 9d bc 3f 6c 42 fd be
       0.89819324 0.6141138 1.4735577 -0.49464738

arith.constant11 f4 [64]
000000 6e ef 9e bf 83 88 4f 3f 14 8a e6 3d 05 dc 48 3f
       -1.2416818 0.81067675 0.11256805 0.78460723
000010 b9 b1 39 3f b7 f5 db be d6 b8 81 bf 45 05 10 3d
       0.7253681 -0.42960903 -1.0134532 0.035161275
000020 ba 5b e2 bd c6 fb 7e 3f 47 e6 fd 3e 9c 29 9d bf
       -0.11052652 0.99602926 0.4958975 -1.2278323
000030 56 81 c6 3d 92 5c bd bf 16 d1 9a be 3b d3 80 bf
       0.096926376 -1.4793875 -0.30237645 -1.0064462
000040 10 49 49 bf 11 f3 98 3c 66 dd 4c 3f 76 e5 46 be
       -0.7862711 0.01867059 0.8002533 -0.1942347
000050 50 20 3a be b4 a5 b7 be 82 a8 26 3f ab cb 0d 3f
       -0.18176389 -0.3586861 0.6510087 0.553889
000060 c2 b4 22 3f c5 4d 56 3f b3 df 6d bf 97 84 5d be
       0.63557065 0.83712417 -0.9291946 -0.2163261
000070 05 b4 ae be c2 9c 12 3f 66 1b 78 bf f7 4f 44 bf
       -0.3412172 0.57270443 -0.96916807 -0.76684517
000080 58 84 2a 3f 5f f1 24 bf 08 ea 76 3f 6e 8e 88 3e
       0.6660819 -0.64430803 0.96450853 0.26671165
000090 20 36 e3 3e fc a9 11 bf 07 09 e8 3d 03 93 a1 bf
       0.44377232 -0.569 0.11329847 -1.262299
0000a0 34 b5 12 3f 43 9f 15 3f 48 20 c4 3c 94 ad f6 3e
       0.57307744 0.5844614 0.023941174 0.48179305
0000b0 24 b1 2e bf b6 7e a1 3e 21 24 92 3e 7b e7 a9 bf
       -0.68239045 0.31541985 0.2854319 -1.3273767
0000c0 5b a5 08 3f 12 6c 82 bf e0 d4 53 3f 81 55 34 3f
       0.5337731 -1.018923 0.82746696 0.7044297
0000d0 28 d8 bb bf 4c 17 5b bf da 70 0e 3f b7 a5 99 bf
       -1.4675341 -0.85582423 0.5564095 -1.2003697
0000e0 24 b7 91 3e 95 37 65 3f ce 83 91 be c9 ce bf be
       0.28460038 0.89537936 -0.28420871 -0.37462452
0000f0 3c 2f 3e 3f 38 0a 96 3f 70 1a a3 3e de d2 92 3e
       0.74290824 1.1721869 0.31856108 0.28676504

arith.constant12 f4 [32]
000000 14 c2 9a bf 80 3c ad 3f 23 a8 90 bf 21 03 ed bf
       -1.2090478 1.3534088 -1.1301311 -1.851658
000010 61 41 30 3e 36 d4 da be 70 2d db bf 50 c9 e9 3f
       0.1721244 -0.4274003 -1.7123241 1.8264561
000020 f8 a8 ce 3f e6 3c 9d bf 5d 45 ce bf 61 18 3e 3e
       1.6145315 -1.228421 -1.6114918 0.18563987
000030 7a de 02 bf ba 29 f3 bf 8e 79 95 3f 9f 63 b4 3f
       -0.5112072 -1.8997109 1.167772 1.4092902
000040 57 3e c8 3e d2 02 de 3f 5e a7 dd 3f 18 9c e3 3e
       0.39110062 1.7344611 1.7316701 0.44455028
000050 cc 7b 95 bf 7f 81 c9 3f c9 4f db bf 44 80 af bf
       -1.1678405 1.5742644 -1.7133723 -1.3711019
000060 07 c9 dc 3f 94 4f 38 bf 0f 58 57 be 46 bd 32 bf
       1.7248849 -0.71996427 -0.21029685 -0.6982006
000070 8a c7 c1 bf 15 70 49 3f 2d 51 52 3f 88 7a f3 bf
       -1.513902 0.7868665 0.82155114 -1.9021769

tfl.pseudo_qconst i1 [128, 1, 5, 64]
000000 c5 c4 d0 98 1f dd 3a 23 bf b1 af 5c ba 0c ff c2
       -59 -60 -48 -104 31 -35 58 35 -65 -79 -81 92 -70 12 -1 -62
000010 38 54 01 bd ed 4e 41 3c bf dc 0e dc 5a 07 a7 20
       56 84 1 -67 -19 78 65 60 -65 -36 14 -36 90 7 -89 32
000020 ad ea 15 a5 fa b9 b1 cb 22 08 df dd 36 bf ae 3d
       -83 -22 21 -91 -6 -71 -79 -53 34 8 -33 -35 54 -65 -82 61
000030 0f 39 14 3f f8 b4 21 18 0c 30 11 1d e5 b0 a0 10
       15 57 20 63 -8 -76 33 24 12 48 17 29 -27 -80 -96 16
000040 e2 b3 51 99 38 3f 49 2c 5b a8 ef 0f 0e 17 06 37
       -30 -77 81 -103 56 63 73 44 91 -88 -17 15 14 23 6 55
000050 ed c9 40 2c 0e 33 f2 25 bc 24 2e b4 e2 29 2a 39
       -19 -55 64 44 14 51 -14 37 -68 36 46 -76 -30 41 42 57
000060 ea f8 2b 30 48 d1 d4 24 05 e5 2d bf 07 f3 f4 c3
       -22 -8 43 48 72 -47 -44 36 5 -27 45 -65 7 -13 -12 -61
000070 f8 da 2d 10 13 4e fe 18 1a c9 d8 5c da f3 34 3a
       -8 -38 45 16 19 78 -2 24 26 -55 -40 92 -38 -13 52 58
000080 d2 2c cd 40 ec 5b b7 eb 40 e8 a8 0a da fe ff 41
       -46 44 -51 64 -20 91 -73 -21 64 -24 -88 10 -38 -2 -1 65
000090 09 18 30 23 17 af 26 e1 bb bb 54 99 d4 e3 34 e9
       9 24 48 35 23 -81 38 -31 -69 -69 84 -103 -44 -29 52 -23
0000a0 2f e6 18 36 d0 4a 54 fd b7 cc c7 19 fe 42 fa c1
       47 -26 24 54 -48 74 84 -3 -73 -52 -57 25 -2 66 -6 -63
0000b0 b2 52 f7 e4 1e 0d e6 43 a9 36 1f 34 f2 ca c2 f7
       -78 82 -9 -28 30 13 -26 67 -87 54 31 52 -14 -54 -62 -9
0000c0 5d 39 41 f9 08 23 2f dc dc ba b9 7b 04 46 68 4d
       93 57 65 -7 8 35 47 -36 -36 -70 -71 123 4 70 104 77
0000d0 bc d2 a3 7e 60 fd f7 35 bd d5 f2 01 f5 44 dd 76
       -68 -46 -93 126 96 -3 -9 53 -67 -43 -14 1 -11 68 -35 118
0000e0 bd e8 a1 de 4c f2 07 1a fd f3 35 e7 ce 49 da 0b
       -67 -24 -95 -34 76 -14 7 26 -3 -13 53 -25 -50 73 -38 11
0000f0 20 58 ed f1 7f e9 1f f0 ad cb 0b e2 ef 16 ed 3f
       32 88 -19 -15 127 -23 31 -16 -83 -53 11 -30 -17 22 -19 63

tfl.pseudo_qconst1 i1 [64, 1, 7, 32]
000000 3f 4f 06 3c 14 d7 59 f9 eb 4f e6 3a df 1e 3a 13
       63 79 6 60 20 -41 89 -7 -21 79 -26 58 -33 30 58 19
000010 df dc 38 d7 0d 1c 52 6c ca 0d 28 e7 de 42 34 0a
       -33 -36 56 -41 13 28 82 108 -54 13 40 -25 -34 66 52 10
000020 da d9 10 eb 17 31 28 3b 5e 31 13 4f 16 2c 10 2d
       -38 -39 16 -21 23 49 40 59 94 49 19 79 22 44 16 45
000030 dd 25 47 12 64 5f 5b 44 e1 f9 c7 ec 31 ee bc 59
       -35 37 71 18 100 95 91 68 -31 -7 -57 -20 49 -18 -68 89
000040 17 ed f5 24 cb 1d c5 17 5b db 54 d4 3e 07 ec dd
       23 -19 -11 36 -53 29 -59 23 91 -37 84 -44 62 7 -20 -35
000050 46 3c d4 c8 4e 5d ea 4d d0 4e b3 56 4f d1 d5 18
       70 60 -44 -56 78 93 -22 77 -48 78 -77 86 79 -47 -43 24
000060 5e 48 e7 d7 56 64 ef 37 ce 17 48 d3 54 04 43 11
       94 72 -25 -41 86 100 -17 55 -50 23 72 -45 84 4 67 17
000070 4d e5 e3 3c 12 ff b9 3f 12 54 e0 4c 4f ed 05 33
       77 -27 -29 60 18 -1 -71 63 18 84 -32 76 79 -19 5 51
000080 b8 4f d8 0e 0f 5a bf f6 ef e1 02 f6 c3 40 27 e8
       -72 79 -40 14 15 90 -65 -10 -17 -31 2 -10 -61 64 39 -24
000090 2d 55 ce f6 4a d4 dc 28 da 7f 0f 02 2e fd 44 26
       45 85 -50 -10 74 -44 -36 40 -38 127 15 2 46 -3 68 38
0000a0 0a 2a f5 ba c8 ed 29 0f 3b fd 32 e0 fe d0 15 20
       10 42 -11 -70 -56 -19 41 15 59 -3 50 -32 -2 -48 21 32
0000b0 d4 fd e9 12 0a 33 23 e1 0c 1d 1d f5 bb 2b 06 c6
       -44 -3 -23 18 10 51 35 -31 12 29 29 -11 -69 43 6 -58
0000c0 11 4a 24 fc 41 f8 c3 15 1d 19 30 3b c7 c9 4d 3a
       17 74 36 -4 65 -8 -61 21 29 25 48 59 -57 -55 77 58
0000d0 ee ec ea 4f 1c cf 17 e2 c7 0d 32 fa 00 da e5 e6
       -18 -20 -22 79 28 -49 23 -30 -57 13 50 -6 0 -38 -27 -26
0000e0 dc 0f 15 d1 01 12 e9 c4 1c a7 b7 1d 32 c7 22 d4
       -36 15 21 -47 1 18 -23 -60 28 -89 -73 29 50 -57 34 -44
0000f0 f7 d1 f7 de e7 00 07 0f 27 d7 e3 d8 b7 15 e3 ea
       -9 -47 -9 -34 -25 0 7 15 39 -41 -29 -40 -73 21 -29 -22

tfl.pseudo_qconst2 i1 [64, 128]
000000 b5 e7 e2 e2 95 70 c2 68 ef e6 4c 17 45 16 36 22
       -75 -25 -30 -30 -107 112 -62 104 -17 -26 76 23 69 22 54 34
000010 1d 75 4a 9f f7 fe b5 f1 22 a2 bf 31 05 a2 57 39
       29 117 74 -97 -9 -2 -75 -15 34 -94 -65 49 5 -94 87 57
000020 2c e1 fc e5 86 50 04 1a 00 a9 87 d5 d1 24 26 23
       44 -31 -4 -27 -122 80 4 26 0 -87 -121 -43 -47 36 38 35
000030 24 43 f4 52 b9 f4 8e 56 ae 2a 07 90 9b 82 fc a2
       36 67 -12 82 -71 -12 -114 86 -82 42 7 -112 -101 -126 -4 -94
000040 90 8a 45 01 94 51 ef a2 9b 81 82 20 cf 0f 17 aa
       -112 -118 69 1 -108 81 -17 -94 -101 -127 -126 32 -49 15 23 -86
000050 03 cf 0b e6 43 e5 d7 ea 9f 61 d5 23 4d 2e e0 a6
       3 -49 11 -26 67 -27 -41 -22 -97 97 -43 35 77 46 -32 -90
000060 d8 42 0a d2 de 6b ed 10 be f4 0b f7 5f ee 35 ae
       -40 66 10 -46 -34 107 -19 16 -66 -12 11 -9 95 -18 53 -82
000070 30 98 d8 69 45 f3 a2 cd d8 d9 a4 c1 93 b8 2e aa
       48 -104 -40 105 69 -13 -94 -51 -40 -39 -92 -63 -109 -72 46 -86
000080 f2 9a e9 c2 0c 0e a7 32 31 23 38 d9 53 fe 07 24
       -14 -102 -23 -62 12 14 -89 50 49 35 56 -39 83 -2 7 36
000090 9f b3 4c e1 ca 20 cb de f5 df d1 15 cb 05 09 58
       -97 -77 76 -31 -54 32 -53 -34 -11 -33 -47 21 -53 5 9 88
0000a0 cb a3 1b ca d1 54 ad e9 55 bb e0 13 41 db 15 a2
       -53 -93 27 -54 -47 84 -83 -23 85 -69 -32 19 65 -37 21 -94
0000b0 d5 b4 06 0e e4 27 b6 b5 d2 2d d9 15 e5 0e e7 9b
       -43 -76 6 14 -28 39 -74 -75 -46 45 -39 21 -27 14 -25 -101
0000c0 d2 a3 4c 20 23 df 56 b1 49 2f 0d 0f a5 fd a6 c0
       -46 -93 76 32 35 -33 86 -79 73 47 13 15 -91 -3 -90 -64
0000d0 e0 ce ab 33 b2 3f 44 c0 19 04 bc a3 b7 f0 e9 f1
       -32 -50 -85 51 -78 63 68 -64 25 4 -68 -93 -73 -16 -23 -15
0000e0 32 4a 81 64 3c c5 0b 98 22 db f3 27 43 27 00 1c
       50 74 -127 100 60 -59 11 -104 34 -37 -13 39 67 39 0 28
0000f0 fd fa be 3a cc 0b 1b 3f 2f 49 c0 bb 9d 3c e2 15
       -3 -6 -66 58 -52 11 27 63 47 73 -64 -69 -99 60 -30 21

tfl.pseudo_qconst3 i1 [128, 128]
000000 eb 70 4a ca 41 19 33 e9 2f 07 21 0b bf 0a dc bf
       -21 112 74 -54 65 25 51 -23 47 7 33 11 -65 10 -36 -65
000010 58 3c 1d f3 71 af 00 c2 40 2d 30 21 6a fe 53 ce
       88 60 29 -13 113 -81 0 -62 64 45 48 33 106 -2 83 -50
000020 e3 b1 b0 3b f6 dd 5f d6 f4 ef a2 af 6d a7 db ef
       -29 -79 -80 59 -10 -35 95 -42 -12 -17 -94 -81 109 -89 -37 -17
000030 be 98 b6 c3 50 f3 16 cc 43 0f f5 00 d0 a1 d8 22
       -66 -104 -74 -61 80 -13 22 -52 67 15 -11 0 -48 -95 -40 34
000040 81 e1 bb e3 d8 c9 c0 66 64 95 a0 87 3a c8 30 57
       -127 -31 -69 -29 -40 -55 -64 102 100 -107 -96 -121 58 -56 48 87
000050 1a 41 b3 ef 68 5e 58 25 e8 58 c9 d3 69 b3 6a cf
       26 65 -77 -17 104 94 88 37 -24 88 -55 -45 105 -77 106 -49
000060 bc b3 83 5c d9 8e 19 32 93 27 05 d9 9e 2b 50 95
       -68 -77 -125 92 -39 -114 25 50 -109 39 5 -39 -98 43 80 -107
000070 fc ed 38 be 8a 33 cb 60 e3 ac 91 03 f5 b3 f6 1a
       -4 -19 56 -66 -118 51 -53 96 -29 -84 -111 3 -11 -77 -10 26
000080 12 0b c6 48 6e 0f e3 ca 81 d2 ff f7 e1 60 22 e6
       18 11 -58 72 110 15 -29 -54 -127 -46 -1 -9 -31 96 34 -26
000090 99 ab b2 19 e1 39 06 a2 b3 92 af 8c 27 5b 09 5c
       -103 -85 -78 25 -31 57 6 -94 -77 -110 -81 -116 39 91 9 92
0000a0 c3 3f 68 b0 d1 59 e6 b6 32 f9 ba ba 1b 6a 41 d3
       -61 63 104 -80 -47 89 -26 -74 50 -7 -70 -70 27 106 65 -45
0000b0 2b d7 3d 07 b8 da d8 ad 90 33 b2 24 23 f0 68 b3
       43 -41 61 7 -72 -38 -40 -83 -112 51 -78 36 35 -16 104 -77
0000c0 1e d5 5f 3b 88 c0 c8 02 b6 41 77 fb 5a cc 39 1d
       30 -43 95 59 -120 -64 -56 2 -74 65 119 -5 90 -52 57 29
0000d0 ed 1c 54 cc 1f 43 ca ec 08 c0 6b 74 13 b5 dd be
       -19 28 84 -52 31 67 -54 -20 8 -64 107 116 19 -75 -35 -66
0000e0 49 9f da 39 30 25 19 12 a0 92 66 94 4a 6c 00 89
       73 -97 -38 57 48 37 25 18 -96 -110 102 -108 74 108 0 -119
0000f0 09 ec 8d 21 bc c8 f5 e4 9b 3b 0b 90 fe 22 b5 ff
       9 -20 -115 33 -68 -56 -11 -28 -101 59 11 -112 -2 34 -75 -1
