ML/models/conv1d_angle_toro_ossaba/seed3_20260117_034451_823/model.tflite (tflite, 96000 bytes, 11 tensors)

arith.constant2 f4 [1, 64]
00000000: a674 fcbc a98d f4bd 5755 93bd 0e86 c73d
00000010: 917c 84be fe58 12be b342 9abd fe62 61bd
00000020: 7089 a13d b7f3 01be 9fcf 88be 10fc 5f3e
00000030: 3c6e 013e adba 68be 49a0 b53c 0623 5ebc
00000040: 2e7f 263e 5b38 9c3d 95c7 76be 4165 6dbe
00000050: c4ce aebd b08a 8b3e 5f89 afbe 4457 f8bd
00000060: 5a45 193d 5343 4a3e 72dc 4d3e d5dd 1cbe
00000070: c343 b4bd d24d 043e 6a0c 6b3d 884c 2bbe
00000080: ab25 843e d567 ab3e 691d 103e 414e 183e
00000090: 15de abbc e8c5 2ebe 023f 92bd 5e54 95be
000000a0: d2be 8e3d 98d2 2b3e 5fa6 0bbd 383a 5b3d
000000b0: 6bb5 4a3d 545d 7e3d db05 833d 6d22 c7bd
000000c0: 4ecc 06be dd98 ba3e 67fc 043e bce7 b03d
000000d0: 7ba1 34be a13f 54be e405 2cbe b566 c93d
000000e0: 2bed 0b3e cb89 4d3e fcfd 52bd ba31 babd
000000f0: a757 0f3e 6cb2 febd c5d3 7ebc b8c2 84bd
-0.030817341 -0.11941082 -0.07194012 0.09742366 -0.25876287 -0.1429176 -0.07532253 -0.055026047
0.07887542 -0.12690626 -0.26720902 0.21873498 0.12639707 -0.22727461 0.022171156 -0.013558155
0.16259453 0.076279365 -0.24099572 -0.23183157 -0.08535531 0.27254248 -0.34284493 -0.121260196
0.037419654 0.19752245 0.20103624 -0.15318997 -0.08801987 0.12920311 0.057384886 -0.16728413
0.25809988 0.33477655 0.14073719 0.14873601 -0.02097992 -0.17067683 -0.07140924 -0.2916593
0.0696999 0.16779554 -0.03409421 0.05352232 0.04948942 0.062100723 0.06397601 -0.09723363
-0.13163874 0.3644475 0.12986909 0.0863795 -0.17639725 -0.20727398 -0.16799122 0.09834043
0.13664691 0.20072095 -0.05151175 -0.09091516 0.1399828 -0.12436375 -0.0155534195 -0.06482452

arith.constant7 f4 [128]
00000000: 21f5 d3bb 8f38 483d 57b4 d33d f618 aebc
00000010: c25d 493d c3a1 73bb d7c4 083b 209c b83b
00000020: 1224 a8bc 2d3a af3c 0013 843d 2204 4a3c
00000030: 8f7d 213d 8eaa 3e3d 513e babc 0000 0000
00000040: 7f88 c5bc 4c92 6d3d 2336 7ebc d1f4 a5bc
00000050: bda3 1e3d 9bd8 df3c 31b9 f1bc 1f42 053d
00000060: 9d49 253d 7a31 513c bc22 2d3d adcc cabc
00000070: cd86 733d f6cc 423d b151 0e3d 18a6 b6bc
00000080: e95d 42bd f322 cdbc a3b1 b03d 0f1f 0c3d
00000090: a53f 38bc 8e07 a5bc 871b 8f3b e4a0 893d
000000a0: a014 223c 76d6 3b3d e78d cfbc b699 8c3d
000000b0: 81ba a2bc ea62 b0bc ca87 b9bc 3611 0fbc
000000c0: 2367 c2bc 3c07 193b 5f23 b93d 6fed 2d3d
000000d0: 7ef4 133d 60e9 61bb 9fc4 bd3d b006 da3c
000000e0: 177c a5bc 5004 8cbc 6b34 8bbc 942d 3a3c
000000f0: 0427 67bc 964a 663d a6be 06bb 1f54 163d
00000100: 776c 68bb 83c6 5abd 2577 ee3b 4d53 cd3b
00000110: a2a4 37bd bd51 a0bc b3fc 853c 1a3a 7cbc
00000120: d7bf 93bc a90e 6e3d cd93 04bc cf60 46ba
00000130: a6ea 4a3d af3f 91bb 79b7 be3c 47c8 dfbc
00000140: 892b 91bc e704 a7bc 30c0 69bd 4d36 183d
00000150: 8a91 683d 2b5c 4ebc 49ed 82bb 3fb4 9d3d
00000160: 204e cc3d 6cc0 14bb c4d6 d23c 3c06 ed3c
00000170: a22e 743d 279a d8bc d699 4a3c cd20 433d
00000180: 18dc 7cbb e63a 6cbc 8215 f93c 604d 49bc
00000190: 7e81 7b3d b17a 7bbc 06e1 a4bc 47da 56bc
000001a0: 9886 b6bc 1eae 803c 0421 e63a 5ff6 47bc
000001b0: 1af0 a4bc 10f1 a23d 349d 81bd b02e 433d
000001c0: 2a56 46bd 6b67 86bc 994b 9fbc 7ad2 6d3d
000001d0: 563a abbc 1b13 4e3c 2381 b6bb aaaa b33d
000001e0: 4f75 573d 6b7f 9b3d f87c 3abc 3b83 13bc
000001f0: 5bc2 3fbd 77e3 653d f098 cd3c d767 09bd
-0.0064684306 0.048882063 0.103371315 -0.021252137 0.04916168 -0.0037175275 0.0020869279 0.005633846
-0.020525012 0.021390045 0.064489365 0.012330087 0.039426383 0.046549372 -0.022734793 0.0
-0.024112938 0.058000848 -0.015515837 -0.02025834 0.03873037 0.027324965 -0.029507251 0.03253376
0.040353406 0.012768144 0.042269453 -0.0247558 0.059454728 0.047558747 0.034745876 -0.022295997
-0.04745284 -0.02504108 0.086276315 0.034209307 -0.011245643 -0.020145204 0.004367295 0.067201406
0.009892613 0.045858823 -0.025336219 0.068652555 -0.019864323 -0.02153154 -0.022647757 -0.008732131
-0.02373082 0.002335026 0.090399496 0.042462762 0.036121838 -0.0034471378 0.09266018 0.026614517
-0.020200772 -0.0170919 -0.016992768 0.011363406 -0.014108423 0.056223474 -0.0020560413 0.036701318
-0.003546504 -0.05341197 0.0072773867 0.0062660337 -0.04483474 -0.019570226 0.016355848 -0.015394712
-0.018035812 0.05811945 -0.008091879 -0.0007567526 0.049540184 -0.0044326405 0.023280846 -0.02731718
-0.017720954 -0.02038808 -0.05706805 0.03716116 0.056779422 -0.012595217 -0.0039955718 0.07700395
0.09975839 -0.00226977 0.025737174 0.028933637 0.059614785 -0.026440693 0.012365779 0.047638703
-0.0038583335 -0.014418339 0.030405764 -0.012286514 0.06140279 -0.015349076 -0.02012683 -0.013113565
-0.022280976 0.015708026 0.0017557447 -0.012204736 -0.02013402 0.07956135 -0.06328812 0.047651947
-0.048422016 -0.016406735 -0.019445227 0.058062054 -0.02090184 0.012577797 -0.0055695935 0.08772786
0.05260211 0.075926624 -0.011382334 -0.009003456 -0.04681621 0.05612513 0.02509734 -0.033546295

arith.constant8 f4 [64]
00000000: 0314 9b3c c9cd abbd 79a9 c73d bc63 353d
00000010: 2557 fe3d c7fb ac3d 575b da3c 7046 453c
00000020: 8959 403d 5f21 d33d abb6 353c 409a 44bc
00000030: f498 c73d de3c 3f3d fea8 98bd d301 debd
00000040: 827e b4bd 098a f43d 026f cb3d 71bb 503b
00000050: 1a59 2aba 3586 37bd 11fc 503d 53e9 a33d
00000060: 709a bcbd 733e 893d da68 943d 5bd5 f03d
00000070: 1f84 6b3d c831 4e3d 0ad9 993d 63f7 8d3c
00000080: 7f1b f73d 91ad 123e f363 eabd a4d6 e53d
00000090: 2b6f eebb 5abb 953d 7828 9d3d a16f e53d
000000a0: 12a4 1f3d f6f8 82bd d5d0 d5bd 40e0 4dbd
000000b0: f1c6 e9bd beb3 763d 2c36 bdbd 7302 333c
000000c0: 657d 87bd 794b ec3d 3254 743d a5b6 88bc
000000d0: 651e 043e e408 ee3d 0f22 003d 965d 1f3e
000000e0: bf2f 143d 6523 813d ed40 203d 4afa 2b3c
000000f0: 35f3 4e3d be21 873d 8621 0abd 9f60 863d
0.01893044 -0.0838886 0.09749121 0.044284567 0.12418965 0.0844646 0.026654882 0.012040719
0.046960387 0.103090994 0.011090915 -0.011999667 0.0974597 0.046688907 -0.07454108 -0.10840192
-0.08813192 0.119403906 0.099332824 0.0031850005 -0.00064982625 -0.044805724 0.05102164 0.080034874
-0.09209144 0.06701364 0.07246561 0.11759444 0.057499047 0.050340444 0.075121 0.017329877
0.12065791 0.14324023 -0.11444845 0.1122258 -0.007276436 0.07311125 0.076737344 0.11202932
0.03897483 -0.06395142 -0.10440222 -0.05026269 -0.11414898 0.06023001 -0.09238848 0.010925877
-0.06615714 0.11537833 0.059650607 -0.016688654 0.1290222 0.116227895 0.03128248 0.15563044
0.036178347 0.06305579 0.039124418 0.010496685 0.05052491 0.06598233 -0.033723377 0.06561398

arith.constant9 f4 [32, 1, 9, 3]
00000000: fb1b b13e 608d b53f 08b4 1e3f 17a5 1cbe
00000010: ec64 9c3f f49b 9e3f d541 62bf b398 8c3f
00000020: 23d3 54bf 504d d33e b0a8 073f e543 423d
00000030: eeed bdbe 9f53 99be 3875 59bf 2fdb 003f
00000040: dfef 0d3f 9f21 5bbf d5b4 a83e ff16 bbbb
00000050: 8a35 81bf 875c 1f3f e2d9 7d3f 7d09 c63e
00000060: cfce c73e e7bc 0fbf e9eb 28bf 91e2 653e
00000070: 5fc6 193f 3cec db3e 8a5a 963e 2855 3c3f
00000080: 126e 833f 939b b83e affe e8bd d097 cb3e
00000090: 0505 123f 9c29 963e 29e4 963f 42b5 e33e
000000a0: 1eaf 5a3e 180d 933e dcbf 5cbe 191a a0bc
000000b0: 7933 313e b128 91bd 9cab 0cbf faa0 70bd
000000c0: 533c 06be 8ac6 bdbe 8791 7cbe 51a6 723e
000000d0: 1a0c 853e 51fc 06bf 71c5 ff3f f826 38bf
000000e0: 6ddb 9b40 d129 bcbf 7e1d c5bf 0bba 7540
000000f0: ffbe d0bf 5969 75be ce0a 303f f55b ab3f
00000100: 651d b63f 99b7 6a3f 8648 5dbe 0254 df3f
00000110: 42b1 e73f ed9f 91bf 3a0d 10c0 603b 7bc0
00000120: 0a52 f13f ce8c dbbf 61e0 a8bf a9c2 cdbf
00000130: f79f 993f 4d5b 80c0 3350 2f3f 1a65 4b3e
00000140: 5a7a 64c0 2d43 f43e a882 4f3f 6fac dcbf
00000150: d94e 5bbe 1565 4dbf 2097 2bc0 ba5e 613f
00000160: 1d29 15c0 86e0 1a3f 73e1 94ba 21fc a63f
00000170: 273c babe 7e19 29bf 5914 5cbf b345 b9bf
00000180: f166 f0be 13bd 18c0 9477 4fbe a028 193f
00000190: 6604 12c0 cc30 a03f 37cf 29bf 049c a9bd
000001a0: 6e54 ba3f 5f46 6a3f 76e3 d3bf f546 9040
000001b0: 99bc 9cbd 5756 053e 24c6 9dbe fc38 cbbe
000001c0: 540c 563e 0da8 2abe 83dd 923e 1a25 8fbe
000001d0: 0dc8 17bf 7a76 483e 51fe b8be d6ff da3d
000001e0: 5da0 81be b4b7 463e 4a81 813e 416d f23c
000001f0: cf1f cdbd e2ae 4f3f 0aad 753e 8827 eabd
00000200: 6da4 6f3f 6bbb c3be 080b 813e 7d46 1b40
00000210: a0ee 923e a2b0 3c3d e71d 05bc 568a 59bf
00000220: d7b4 343f 24bb 1140 fa9c 153f 130a 2f3f
00000230: 762b e03f ff07 50bf 733b 34bf be86 47bf
00000240: f841 123f f3fc 183d cd2d 7cbe b3aa 1c3f
00000250: 85fe a83f 6b9d 9ebf e71a 48bf 10a6 2cbf
00000260: 9374 8c3d 0f49 7dbe d16b f33e 61a8 2cbe
00000270: e64b 503e c86d 973d dc37 f4bf 9552 923f
00000280: 74d0 e83e 3988 11c0 1a15 1abf 7e24 cebf
00000290: 7f3f 5e40 9339 64be 1953 13bf f238 083e
000002a0: 646b f6be 7542 e83d b48e 363f 7e88 88bf
000002b0: 5600 cbbf 08f9 543f 96a5 0d3f cc32 963e
000002c0: 4968 e03f 2752 58bb 3355 18bf 5869 05c0
000002d0: 7b89 ac3f 27de f0bd 24e5 48bf 9fdd c43f
000002e0: ca05 00c0 5586 04c0 b671 f4bc beed 823e
000002f0: c5d3 2ec0 ebbd 413f f173 7ebe f8a1 0e40
00000300: 1b08 bbbe 23e8 733f 6188 303f 0416 62bf
00000310: 5b4e 5bbe b2f6 863f 772c 84be aff6 993f
00000320: 09c6 803f 8b36 9a3f 5b16 10bf 6915 83bf
00000330: 21ec 403f fb3a 09be 792b edbe 6fda c6be
00000340: 415d 8bbf d68b f9bf cf9b 22bf 8957 d33d
00000350: 8517 2dc0 e8fa dabd 100c 443f df58 89bf
00000360: 7660 55bf de10 753f 09ba d63f 5f7f b6be
00000370: d618 ac3e 03d6 a4be c87d 16bf 6655 1cbf
00000380: 9512 85bc ec54 ab3e f47c 78be 14f6 92bc
00000390: f683 c43e a4a3 513f 655b 0fbf e11e 17bd
000003a0: 2d12 c03e 5381 51bf d7fa 8abe 350f 453e
000003b0: 5157 53bf b5e3 cf3e 18fe 343f de55 4dbf
000003c0: 4220 42bf 09b1 123f acc4 77bf 15c9 9c3d
000003d0: 08ff 1a3e 60e4 2140 339e 6ebe 74c2 45bf
000003e0: 6710 1940 bb1a a6be 0b4f ed3e 50e1 9abd
000003f0: d844 d93e 7d42 79bd 8ea4 cebf 80c3 173f
0.3459166 1.4183769 0.61993456 -0.15297352 1.2218299 1.2391343 -0.883817 1.09841
-0.8313467 0.41269922 0.5299177 0.04742803 -0.37095588 -0.2994661 -0.84944487 0.5033445
0.5544414 -0.85598177 0.32950464 -0.0057095285 -1.0094464 0.6225056 0.9916059 0.38679114
0.3902497 -0.5614762 -0.6598497 0.2244971 0.60068315 0.4295367 0.2936595 0.7356744
1.0267966 0.36056194 -0.11376702 0.3976426 0.5703891 0.2932862 1.1788379 0.44474226
0.21355864 0.28720927 -0.21557564 -0.019543694 0.17304792 -0.070878394 -0.54949355 -0.05874727
-0.1310895 -0.37065536 -0.2466489 0.23696257 0.25985795 -0.52728754 1.9982129 -0.7193446
4.8705354 -1.4700261 -1.5399625 3.8394802 -1.6308287 -0.23965968 0.68766487 1.3387438
1.422772 0.916864 -0.21609697 1.7447512 1.810097 -1.137693 -2.2508073 -3.925499
1.8853161 -1.7152345 -1.3193475 -1.607503 1.2001942 -4.011145 0.6848175 0.19862786
-3.5699677 0.477075 0.8105874 -1.7240123 -0.21416797 -0.80232364 -2.681099 0.88035166
-2.3306344 0.60498846 -0.0011358693 1.3045694 -0.36374018 -0.66054523 -0.8596855 -1.4474396
-0.46953538 -2.3865402 -0.20260459 0.59827614 -2.2815185 1.2514892 -0.6633181 -0.08281711
1.4557016 0.9151363 -1.655379 4.5086617 -0.0765316 0.13021217 -0.30815232 -0.39691913
0.2090314 -0.16665669 0.28684625 -0.27957994 -0.5928963 0.19576445 -0.36131528 0.10693328
-0.2531766 0.19406015 0.25293952 0.029593112 -0.10015833 0.81126225 0.2399179 -0.11433321
0.9361027 -0.38228926 0.2520373 2.4261773 0.2869768 0.046066888 -0.008124805 -0.8497671
0.7058844 2.2770472 0.5844265 0.6837475 1.7513263 -0.812622 -0.7040321 -0.77939975
0.5713191 0.037350606 -0.24626847 0.61197966 1.3202673 -1.239179 -0.7816605 -0.6744089
0.06858172 -0.24734901 0.47543195 -0.16861106 0.20341453 0.07393986 -1.9079547 1.1431452
0.45471537 -2.2739394 -0.6018845 -1.6104887 3.4726255 -0.22287588 -0.5754867 0.13302973
-0.48128808 0.11340801 0.713115 -1.0666654 -1.5859478 0.8319249 0.5533079 0.2933563
1.7531825 -0.003300795 -0.59505004 -2.0845547 1.3479456 -0.11761122 -0.7847464 1.5380133
-2.0003533 -2.070699 -0.029839378 0.25572008 -2.7316754 0.75680417 -0.24848916 2.2286358
-0.3652962 0.9527609 0.689581 -0.88314843 -0.21416609 1.0544035 -0.25815174 1.2028407
1.0060436 1.2047895 -0.5628411 -1.0240909 0.75360304 -0.13401406 -0.4632223 -0.38838527
-1.0887834 -1.94958 -0.63518995 0.103194304 -2.7045605 -0.10692388 0.76580906 -1.0730246
-0.8335031 0.9572886 1.6775523 -0.3564405 0.33612698 -0.32194528 -0.58785677 -0.6106781
-0.016244212 0.33463228 -0.24266416 -0.017939605 0.38381928 0.8189032 -0.5599883 -0.036894683
0.37513867 -0.8183796 -0.271445 0.19244082 -0.8255511 0.40603414 0.70700216 -0.8020915
-0.7583047 0.57301384 -0.9678447 0.07655541 0.15136349 2.529564 -0.23302536 -0.77249837
2.3916261 -0.3244227 0.46349367 -0.07562506 0.42435336 -0.060854424 -1.6143968 0.59282684

arith.constant10 f4 [128]
00000000: 7aee 27be f2a8 cd3e 07bc 4e3f 968b dbbe
00000010: 7f0e 16bf 1ba6 143e 0cd9 ab3f 90a1 273f
00000020: 0e00 17bf db7a 20bf df54 0040 da4f b53f
00000030: 84af bf3e ce81 1540 0878 043e 14b7 833f
00000040: 5871 09bf ad5f f23c 5282 0f3f eba4 d53f
00000050: 23ec 96be ec88 2fbd 6d9b a33f f47d ae3d
00000060: bf17 a33f d904 3e3e 1a15 4c3f 7689 113f
00000070: 400e 1d40 3c89 663f e28c 583f 1c3f 153f
00000080: 710d 2640 b3c8 be3f c721 203f 151e 3e3f
00000090: 78d0 7d3e 2b1a 14bf 791a c5be 1ac2 b53c
000000a0: 3b29 613f de86 213f f3e0 843f c63a 9bbf
000000b0: 4e58 5b3c 3870 6a3f ef3e 0140 1d16 1940
000000c0: 85de 243f d6dc d73c b45f 793e 20f2 193d
000000d0: 8c46 003f 18cc 973e 1c34 96be 89ab 6dbf
000000e0: fe00 583e 15dd 54bd d26f f73e 9578 f4be
000000f0: 7276 e93e bac4 343e c3ef 7d3e 7985 f23f
00000100: 0ea4 5e3f 7085 d3bc 079d f33f 3d95 083c
00000110: 05bf 0ebf 3003 2140 a1e6 973f 0de2 b83e
00000120: dd6c 033f a4dc 353f 8368 be3f 012e e0be
00000130: 84f7 67be 671d 403f 9969 033f 767b 1f3f
00000140: 266c 1840 504f b13e 1141 da3f e6ee eb3f
00000150: bdf4 103f 022e 073f d402 ec3e 8644 343f
00000160: 3651 1a40 c4fb 983e c21c dd3e 0ee2 a83e
00000170: fcbe ccbd 1dfd 193f 4bc2 253f 2fbd f93f
00000180: 2504 2040 ee9f 55bd fae6 0340 3def 2e3f
00000190: aee8 1a3f 7c34 143f 1286 173f cadb d83e
000001a0: 45e4 a83e de67 303e f1f3 1040 b1e1 833f
000001b0: 1cf9 d53e cf2d 853f e4fd 8e3e b9ee 883f
000001c0: 97ab 7f3f 7cd7 39bf b7cf 073e 9783 b4be
000001d0: a179 a63d 9f42 723d 7f6a e73f 9b69 b5be
000001e0: 7de7 823f e8bd 323f 9486 2640 d89a 6b3f
000001f0: 970f 643f c3ae 3340 732d 0cbf b4f8 063e
-0.16399565 0.40167958 0.80755657 -0.42879933 -0.5861587 0.14516489 1.3425612 0.654809
-0.5898446 -0.6268746 2.0051801 1.4164994 0.37438595 2.3360476 0.12936413 1.0290246
-0.53688574 0.029586637 0.5605823 1.6690954 -0.29477033 -0.04285519 1.2781807 0.085201174
1.2741622 0.18556537 0.797197 0.56850374 2.4539948 0.90053153 0.8458997 0.5829942
2.5945704 1.4904999 0.6255154 0.7426465 0.24786556 -0.5785243 -0.3849676 0.022187281
0.8795354 0.63096416 1.0381149 -1.2127311 0.013387753 0.9157748 2.0194662 2.3919747
0.6440204 0.02635042 0.24352914 0.037584424 0.50107646 0.296479 -0.2933663 -0.92839867
0.21094128 -0.051968653 0.483275 -0.47748247 0.4559818 0.1765317 0.24798493 1.8946983
0.8696908 -0.025820464 1.9032296 0.008336362 -0.5576022 2.5158195 1.1867257 0.36109963
0.5133799 0.71039796 1.4875644 -0.43785098 -0.22653013 0.75044864 0.51333004 0.6229776
2.3816009 0.34630823 1.7051107 1.8432281 0.5662344 0.5280458 0.46095908 0.7041706
2.4112067 0.29879582 0.43186003 0.32984966 -0.09997365 0.60151845 0.6474959 1.9510859
2.500253 -0.052154474 2.0609727 0.683338 0.6051129 0.57892585 0.5918895 0.42355186
0.32986656 0.17227122 2.264889 1.030325 0.41791618 1.0404605 0.27928078 1.0697852
0.998712 -0.7259443 0.1326283 -0.35256645 0.081286676 0.059145566 1.8079375 -0.35432133
1.0226895 0.69821024 2.601964 0.9203315 0.8908629 2.8075416 -0.5475685 0.1318081

arith.constant11 f4 [64]
00000000: dffe e73e e7b4 b1be 4831 bc3e 8fea 903e
00000010: a07e ec3c e90e 0c3d 6525 babe dca7 e63e
00000020: f60e d83e 235b d0bf d03b f33e 22d7 5ebd
00000030: e3db 01bf 256e e53e 3d5b 12bf 2a97 8abf
00000040: fdcf ed3e bdd7 e0bf 0a17 7dbf 2ab7 1b3f
00000050: db39 573e 4b7b e43e ecf0 36bf 81af 203c
00000060: c8dd 413e abfc b83e 284d 0d3e efcf 5bbe
00000070: e933 dfbf 2431 e43e 717b a73e 3d30 9c3d
00000080: 3267 263e cd0d 75bf 59be de3e 3dbb 5bbe
00000090: ec31 93bf 01a2 af3e 2b72 a03e d9b5 033f
000000a0: 7ebc ed3e 1dc4 be3e 11f3 f13e 97ca 463e
000000b0: 19dc cf3e e1d9 0e3f 5f17 913e f804 cb3e
000000c0: f47e 8b3d 4f87 973e 7dce 8f3e 2338 a6bd
000000d0: aeb0 40be 8a1e 3bbf 017c a93e b818 c4bf
000000e0: 1cea 64bb 9e26 8bbf 5d2b 1cbf fe05 29be
000000f0: c284 e63e c0f1 28bf 32f0 9ebf 7ffd 8d3e
0.4531164 -0.3470833 0.3675635 0.28303954 0.028868973 0.034193907 -0.36356655 0.45049942
0.42198914 -1.6277813 0.4750657 -0.054404385 -0.50726146 0.44810596 -0.5717047 -1.0827382
0.46447745 -1.7565838 -0.9886328 0.6082636 0.21018164 0.44625315 -0.7146137 0.009807468
0.18932259 0.3613027 0.13798964 -0.21466039 -1.7437717 0.4456874 0.32711366 0.07626388
0.16250303 -0.95724183 0.435046 -0.21458144 -1.149961 0.34303287 0.31337103 0.5144935
0.4643287 0.37258998 0.47255757 0.1941322 0.4059761 0.55801207 0.28338143 0.39652228
0.06811324 0.2959542 0.28087226 -0.08116176 -0.18817398 -0.73093474 0.3310242 -1.5320044
-0.003492958 -1.087116 -0.6100367 -0.16506192 0.4502316 -0.6599388 -1.2417052 0.27732465

arith.constant12 f4 [32]
00000000: 9179 003f db36 0bc0 8ddd 063f 4216 2ebf
00000010: b6c8 f9bf 90a6 ed3e cc0f f43e 6396 303f
00000020: 4e62 163f 5975 9c3f 0177 ebbf 9048 bc3f
00000030: 078c d13f bfb2 d5bf 7b46 a1bf 5687 0cc0
00000040: 8019 8fbf 3616 a43e 7277 663f 939c a13f
00000050: b89e 943f 20c9 ecbf 1a82 cd3f 8f51 ab3e
00000060: cf78 8dbe 56b5 dcbf a164 27bf 96c0 dd3e
00000070: 474a 82bf cb1a 563f c4e9 2c3f 7536 023f
0.50185496 -2.175223 0.5268181 -0.6800271 -1.9514377 0.4641614 0.47668302 0.6897947
0.5874375 1.2223312 -1.8395692 1.4709644 1.6370858 -1.6695174 -1.2599634 -2.1957603
-1.1179657 0.32048196 0.9002601 1.2625908 1.1610937 -1.8498878 1.6055329 0.33460662
-0.27631232 -1.7242839 -0.6538792 0.43310994 -1.0178918 0.8363463 0.675442 0.50864345

tfl.pseudo_qconst i1 [128, 1, 5, 64]
00000000: 9f0b 380f 0e2a 061f e22a a2b0 e6ad b226
00000010: f71e 3df7 1202 0914 e325 edf5 5233 bbd1
00000020: df19 af2b 4a0a 07b2 0602 ec1a 2213 1aad
00000030: c1ed 182d ba28 f341 07f3 d9b5 d3ce 2a15
00000040: e7c8 4204 1c2f 0a2b d046 d3be fdef ee34
00000050: dc39 28fc f658 4e1f 1321 2eda 1717 ed07
00000060: 1559 ba1a 4109 19bc ee1a bf11 fd1b e8de
00000070: 080d e932 2516 ff47 20f7 24f2 c40f 000a
00000080: bddc 2e07 ec1d f9fc 9e13 f301 25e1 d13d
00000090: da45 45e6 d904 3cff d2ea 23e6 4616 e0ee
000000a0: c30a e114 340b 28d0 0e18 c60f 2720 0cb7
000000b0: 0001 eaea ee0c ee3a 0019 0401 cc06 f50e
000000c0: b529 462d 4e2a 3c16 e73c edc4 51d0 d02b
000000d0: 1c7f 51ec 1813 3339 d1fd fcda 3823 e803
000000e0: 193e de17 6bfc fbbc 0e1e c42d 0a14 f5d9
000000f0: 3e02 fb4b ef0e 0355 0b15 fde8 d10d 35e7
-97 11 56 15 14 42 6 31
-30 42 -94 -80 -26 -83 -78 38
-9 30 61 -9 18 2 9 20
-29 37 -19 -11 82 51 -69 -47
-33 25 -81 43 74 10 7 -78
6 2 -20 26 34 19 26 -83
-63 -19 24 45 -70 40 -13 65
7 -13 -39 -75 -45 -50 42 21
-25 -56 66 4 28 47 10 43
-48 70 -45 -66 -3 -17 -18 52
-36 57 40 -4 -10 88 78 31
19 33 46 -38 23 23 -19 7
21 89 -70 26 65 9 25 -68
-18 26 -65 17 -3 27 -24 -34
8 13 -23 50 37 22 -1 71
32 -9 36 -14 -60 15 0 10
-67 -36 46 7 -20 29 -7 -4
-98 19 -13 1 37 -31 -47 61
-38 69 69 -26 -39 4 60 -1
-46 -22 35 -26 70 22 -32 -18
-61 10 -31 20 52 11 40 -48
14 24 -58 15 39 32 12 -73
0 1 -22 -22 -18 12 -18 58
0 25 4 1 -52 6 -11 14
-75 41 70 45 78 42 60 22
-25 60 -19 -60 81 -48 -48 43
28 127 81 -20 24 19 51 57
-47 -3 -4 -38 56 35 -24 3
25 62 -34 23 107 -4 -5 -68
14 30 -60 45 10 20 -11 -39
62 2 -5 75 -17 14 3 85
11 21 -3 -24 -47 13 53 -25

tfl.pseudo_qconst1 i1 [64, 1, 7, 32]
00000000: f10f 2fdf faff 2811 04f9 23fc 0507 fdfa
00000010: d2fe fbf2 f10f 0ef3 06eb 1314 fa08 f82b
00000020: f204 0eac e803 000d 0e0c 1301 fe01 f7ee
00000030: c8ff 1206 fb08 0be3 0ce0 0c04 eb03 0217
00000040: f7ec 00bc ebf9 fff8 04f6 0f11 08ff ffdc
00000050: aff3 fa02 060b f8ed 10d7 0002 f300 fcfc
00000060: ebe5 fdc4 eefc f9fc f208 fbf2 10fd feec
00000070: c0ff f907 fcf9 f7fc 0ede fb06 eef9 02fc
00000080: f6e4 02ca e3ff 03f9 fafc fc0c 02fd fde1
00000090: b40d 080b 08f2 f400 04d5 fe05 f006 f105
000000a0: ecd5 00c5 cffd 0003 0d09 fb05 10f0 f1c5
000000b0: 9304 f8f8 15eb 03fc 01ce 00ff dbf6 fffd
000000c0: eddd ffaa d1f8 0300 fcfa f014 01f8 f0b9
000000d0: 81f5 02fd 0fe6 0fdb 03c4 00fd e805 f2fd
000000e0: 05c6 440f ed30 4123 f009 d9f4 e6d8 f7d8
000000f0: e32a 0818 1de5 0a01 01e7 1b6f e316 db5c
-15 15 47 -33 -6 -1 40 17
4 -7 35 -4 5 7 -3 -6
-46 -2 -5 -14 -15 15 14 -13
6 -21 19 20 -6 8 -8 43
-14 4 14 -84 -24 3 0 13
14 12 19 1 -2 1 -9 -18
-56 -1 18 6 -5 8 11 -29
12 -32 12 4 -21 3 2 23
-9 -20 0 -68 -21 -7 -1 -8
4 -10 15 17 8 -1 -1 -36
-81 -13 -6 2 6 11 -8 -19
16 -41 0 2 -13 0 -4 -4
-21 -27 -3 -60 -18 -4 -7 -4
-14 8 -5 -14 16 -3 -2 -20
-64 -1 -7 7 -4 -7 -9 -4
14 -34 -5 6 -18 -7 2 -4
-10 -28 2 -54 -29 -1 3 -7
-6 -4 -4 12 2 -3 -3 -31
-76 13 8 11 8 -14 -12 0
4 -43 -2 5 -16 6 -15 5
-20 -43 0 -59 -49 -3 0 3
13 9 -5 5 16 -16 -15 -59
-109 4 -8 -8 21 -21 3 -4
1 -50 0 -1 -37 -10 -1 -3
-19 -35 -1 -86 -47 -8 3 0
-4 -6 -16 20 1 -8 -16 -71
-127 -11 2 -3 15 -26 15 -37
3 -60 0 -3 -24 5 -14 -3
5 -58 68 15 -19 48 65 35
-16 9 -39 -12 -26 -40 -9 -40
-29 42 8 24 29 -27 10 1
1 -25 27 111 -29 22 -37 92

tfl.pseudo_qconst2 i1 [64, 128]
00000000: 093a f01d 8c2e 4b24 b3f1 d6f5 0e1e 44b4
00000010: fe4b d2f9 1be4 b8dc 42ef e0f1 3055 d2a8
00000020: dfc9 f000 e00a e214 16f7 be26 cae1 00cf
00000030: 49eb 08c7 312f 1c33 a81d 513e 3009 fa10
00000040: 23b7 0534 c6c0 1ed3 d534 f40f f3e1 0ef3
00000050: e445 db32 0407 2904 8130 30f3 f6ae 324f
00000060: 2252 3ef6 8e20 d15c 3a42 1650 d102 df35
00000070: 3cda b3e9 42b8 0306 eeaa c3f1 28a3 ad62
00000080: 06f6 c9e5 13f3 1107 1e12 080b ec11 0c15
00000090: 1345 0603 27f2 df01 f7e6 0c11 0ee8 1ad6
000000a0: e6eb fd11 df31 f604 e7e1 fec3 f9ea e9dd
000000b0: 2228 0713 f6fc 0eff 2416 fc1a fd1d fa11
000000c0: faed fef4 f82a fcdc 17ff da0b 02f4 18eb
000000d0: f2ef 02f4 dbed 18ec 0c02 01ed 3c0b 0119
000000e0: f71f 2431 280e 09d8 0125 18fa 0904 12f6
000000f0: 0618 f781 2711 e4d6 00db 1818 2806 f422
9 58 -16 29 -116 46 75 36
-77 -15 -42 -11 14 30 68 -76
-2 75 -46 -7 27 -28 -72 -36
66 -17 -32 -15 48 85 -46 -88
-33 -55 -16 0 -32 10 -30 20
22 -9 -66 38 -54 -31 0 -49
73 -21 8 -57 49 47 28 51
-88 29 81 62 48 9 -6 16
35 -73 5 52 -58 -64 30 -45
-43 52 -12 15 -13 -31 14 -13
-28 69 -37 50 4 7 41 4
-127 48 48 -13 -10 -82 50 79
34 82 62 -10 -114 32 -47 92
58 66 22 80 -47 2 -33 53
60 -38 -77 -23 66 -72 3 6
-18 -86 -61 -15 40 -93 -83 98
6 -10 -55 -27 19 -13 17 7
30 18 8 11 -20 17 12 21
19 69 6 3 39 -14 -33 1
-9 -26 12 17 14 -24 26 -42
-26 -21 -3 17 -33 49 -10 4
-25 -31 -2 -61 -7 -22 -23 -35
34 40 7 19 -10 -4 14 -1
36 22 -4 26 -3 29 -6 17
-6 -19 -2 -12 -8 42 -4 -36
23 -1 -38 11 2 -12 24 -21
-14 -17 2 -12 -37 -19 24 -20
12 2 1 -19 60 11 1 25
-9 31 36 49 40 14 9 -40
1 37 24 -6 9 4 18 -10
6 24 -9 -127 39 17 -28 -42
0 -37 24 24 40 6 -12 34

tfl.pseudo_qconst3 i1 [128, 128]
00000000: d7f0 fb22 e21d f749 0caa d6d6 a8c7 eec4
00000010: c80f a10f 91d0 3634 a3d0 e1c2 04d1 23a9
00000020: f4f0 08c9 cd2a ac12 34e8 00ef e430 1d0d
00000030: ee35 f5b7 f9c9 e7b5 320c 3dc2 e6c1 3820
00000040: f7fb c206 9fcf 05fb 2138 1ce4 01a6 a409
00000050: f5ed f5ec a23d e2eb b932 f69e 2e54 9101
00000060: f307 0525 b809 dc3c 10e4 0f0d ea0d bf2d
00000070: 8381 1b12 c3d1 1927 0c00 cec6 e7df 2ddd
00000080: a9dc 118e 1831 17ab 9edb 20e8 fce1 4ed5
00000090: 0bff 1122 4b06 401e e0fd f5df 101e d441
000000a0: 2616 5609 f9ee 13fc f0ec 00cb 0c00 28f3
000000b0: 3cc4 f019 efe6 d2f8 db0c e1b2 43ab d01e
000000c0: 471f e0c3 ef18 354f 1db6 f144 16cd 16fd
000000d0: e9b1 ce48 fca0 afe5 0c11 060d b281 3551
000000e0: 3343 eb1a 3a03 2001 fdd9 1504 3503 3d26
000000f0: 05d1 0d12 a60b f285 13fa ce0a 2ee0 11ec
-41 -16 -5 34 -30 29 -9 73
12 -86 -42 -42 -88 -57 -18 -60
-56 15 -95 15 -111 -48 54 52
-93 -48 -31 -62 4 -47 35 -87
-12 -16 8 -55 -51 42 -84 18
52 -24 0 -17 -28 48 29 13
-18 53 -11 -73 -7 -55 -25 -75
50 12 61 -62 -26 -63 56 32
-9 -5 -62 6 -97 -49 5 -5
33 56 28 -28 1 -90 -92 9
-11 -19 -11 -20 -94 61 -30 -21
-71 50 -10 -98 46 84 -111 1
-13 7 5 37 -72 9 -36 60
16 -28 15 13 -22 13 -65 45
-125 -127 27 18 -61 -47 25 39
12 0 -50 -58 -25 -33 45 -35
-87 -36 17 -114 24 49 23 -85
-98 -37 32 -24 -4 -31 78 -43
11 -1 17 34 75 6 64 30
-32 -3 -11 -33 16 30 -44 65
38 22 86 9 -7 -18 19 -4
-16 -20 0 -53 12 0 40 -13
60 -60 -16 25 -17 -26 -46 -8
-37 12 -31 -78 67 -85 -48 30
71 31 -32 -61 -17 24 53 79
29 -74 -15 68 22 -51 22 -3
-23 -79 -50 72 -4 -96 -81 -27
12 17 6 13 -78 -127 53 81
51 67 -21 26 58 3 32 1
-3 -39 21 4 53 3 61 38
5 -47 13 18 -90 11 -14 -123
19 -6 -50 10 46 -32 17 -20
