ML/models/conv1d_angle_toro_ossaba/seed7_20260116_234517_166/model.tflite (tflite, 96000 bytes, 11 tensors)

arith.constant2 f4 [1, 64]
-0.077822365 0.115135275 0.10469801 -0.12974381 -0.1435652 0.15602835 0.18226571 0.20346117
-0.24404387 -0.07828412 -0.1671544 0.23861235 -0.09594337 -0.05319587 -0.18332675 -0.104404725
-0.09940682 -0.20612906 -0.052795492 -0.20656325 0.08013421 0.064943805 0.110946946 -0.18155676
0.17062345 0.101790614 0.17076237 0.08530054 0.12806967 0.27310893 0.21691903 -0.22684191
0.060987618 -0.15866938 -0.14447291 0.0063206465 0.101076886 0.093862355 -0.15740609 -0.21213242
0.10345971 0.18397695 -0.023974296 -0.15358488 0.07190631 0.017622335 -0.29080218 0.22668865
-0.058159478 -0.1842054 0.093763016 -0.17159787 -0.11668862 0.15485363 0.13545536 0.2283417
0.1108094 -0.190513 -0.15646853 0.06180257 0.19556175 0.12466301 0.12433992 0.03622602
00000000: 5561 9fbd 0bcc eb3d e96b d63d 90db 04be
00000010: c102 13be e5c5 1f3e dda3 3a3e 2058 503e
00000020: a3e6 79be 6d53 a0bd 862a 2bbe cc56 743e
00000030: f57d c4bd eae3 59bd 02ba 3bbe 25d2 d5bd
00000040: ce95 cbbd 7f13 53be 1640 58bd 5185 53be
00000050: 681d a43d 4201 853d 2738 e33d 04ea 39be
00000060: eab7 2e3e 9977 d03d 55dc 2e3e 0db2 ae3d
00000070: b224 033e efd4 8b3e 0620 5e3e 3f49 68be
00000080: 27ce 793d 3a7a 22be b5f0 13be 6d1d cf3b
00000090: 6601 cf3d e83a c03d 102f 21be 3e39 59be
000000a0: afe2 d33d 7464 3c3e be65 c4bc 5b45 1dbe
000000b0: 9e43 933d b75c 903c 06e4 94be 1221 683e
000000c0: a238 6ebd 57a0 3cbe d306 c03d 5ab7 2fbe
000000d0: 71fa eebd f391 1e3e cfb4 0a3e 68d2 693e
000000e0: 0af0 e23d d715 43be 4939 20be b124 7d3d
000000f0: 5741 483e 524f ff3d eea5 fe3d bc61 143d

arith.constant7 f4 [128]
-0.011445537 -0.01147728 -0.0070307315 -0.004243471 -0.020112462 -0.020228531 -0.023078535 -0.003767724
-0.024506629 -0.010413381 -0.004784364 -0.015733274 0.0 -0.015139861 -0.013923526 -0.012085786
-0.010664209 -0.016183501 -0.014804339 -0.009965905 0.003006496 -0.002088053 0.0005485045 -0.023774363
-0.013338027 0.021414308 -0.00060289504 -0.010111699 -0.007809814 -0.0046124584 -0.0047016623 -0.018106211
-0.004676458 -0.015130702 -0.02987138 -0.00020884266 -0.0058745826 0.00830793 -0.015519499 0.01933311
-0.028890278 -0.0049408367 -0.0057336753 -0.0020751848 -0.02580415 -0.0013933126 -0.009599129 0.012929224
0.0132511575 -0.0099283 -0.020175582 -0.015430231 -0.009641583 -0.010082104 -0.030944914 -0.0005510394
-0.0062442836 -0.043788727 -0.008357181 -0.009944998 -0.018232258 0.0005788926 -0.009824901 -0.0037328703
-0.00075864873 0.0026529902 -0.0038751708 -0.001698788 -0.012762969 0.0060584773 -0.012291284 -0.012856167
-0.0035757746 0.0004561498 -0.0058579696 -0.0023310573 -0.007977854 -0.006447707 -0.0044841305 0.0
-0.0020418642 -0.016581869 -0.019189412 0.0070696925 -0.0023652997 -0.014814637 -0.016521627 -0.0070789033
-0.009484484 -0.021833796 0.00033878928 -0.0148262875 0.0031852603 -3.8800754e-06 -0.01502943 -0.018345987
-0.009130448 0.002911488 0.0012141351 -0.009086999 0.023003876 0.015833687 -0.01318239 -0.012087353
-0.0032105024 -0.002927709 -0.014617296 -0.016263034 -0.012834765 -0.02543608 -0.00513265 0.00020992706
0.00038356843 -0.025731217 -0.00908415 -0.021532014 0.0022840423 -0.0023281844 -0.014507718 0.0065577356
-0.0076611363 -0.017386366 0.0011432694 0.010899162 -0.028367355 -0.004472902 -0.0031017899 -0.009843083
00000000: 1086 3bbc 340b 3cbc 0d62 e6bb d10c 8bbb
00000010: e4c2 a4bc 4eb6 a5bc 320f bdbc ebeb 76bb
00000020: 20c2 c8bc e39c 2abc 27c6 9cbb 11e3 80bc
00000030: 0000 0000 2e0d 78bc 801f 64bc 7603 46bc
00000040: efb8 2ebc 4393 84bc e68d 72bc 0948 23bc
00000050: a208 453b b7d7 08bb 84c9 0f3a 74c2 c2bc
00000060: bd87 5abc 0f6d af3c 9a0b 1eba 8aab 25bc
00000070: 78e9 ffbb 1b24 97bb 6710 9abb 7a53 94bc
00000080: f93c 99bb c4e6 77bc d3b4 f4bc c6fc 5ab9
00000090: 927f c0bb fc1d 083c 7f45 7ebc 7860 9e3c
000000a0: 4eab ecbc bee6 a1bb 8ee1 bbbb d3ff 07bb
000000b0: 3a63 d3bc d09f b6ba aa45 1dbc 19d5 533c
000000c0: 621b 593c 4faa 22bc 4347 a5bc 14cf 7cbc
000000d0: bbf7 1dbc 692f 25bc 3080 fdbc a173 10ba
000000e0: d99c ccbb cf5b 33bd 8fec 08bc 58f0 22bc
000000f0: d15b 95bc d3c0 173a 9ff8 20bc 2ca3 74bb
00000100: 0ee0 46ba cadd 2d3b 94f6 7dbb dea9 deba
00000110: c61b 51bc 3186 c63b 6261 49bc aca2 52bc
00000120: 8b57 6abb 6427 ef39 36f4 bfbb a7c4 18bb
00000130: 8cb5 02bc 4947 d3bb 9def 92bb 0000 0000
00000140: ccd0 05bb b3d6 87bc 1d33 9dbc e1a8 e73b
00000150: 2503 1bbb 17b9 72bc 5d58 87bc 25f6 e7bb
00000160: cf64 1bbc cadc b2bc 879f b139 f5e9 72bc
00000170: cdbf 503b 9831 82b6 003e 76bc 534a 96bc
00000180: e097 15bc aace 3e3b 9d23 9f3a a3e1 14bc
00000190: a072 bc3c a6b5 813c f3fa 57bc 080a 46bc
000001a0: 4b67 52bb cede 3fbb 627d 6fbc 0e3a 85bc
000001b0: e848 52bc 535f d0bc ca2f a8bb de1f 5c39
000001c0: af19 c939 46ca d2bc b0d5 14bc e863 b0bc
000001d0: dfaf 153b 7494 18bb c8b1 6dbc 46e2 d63b
000001e0: 450a fbbb da6d 8ebc c1d9 953a 6692 323c
000001f0: a862 e8bc 6c91 92bb 6647 4bbb e244 21bc

arith.constant8 f4 [64]
-0.021952374 0.055505358 0.08824527 0.023105387 0.012013318 0.034982838 0.024999427 0.0529124
0.012051772 0.00016049818 0.029803896 0.05926213 -0.009415143 -0.010760812 -0.026155218 0.043794915
0.03867227 0.015070238 0.004786082 0.04864602 0.017724961 0.014697419 -0.0053051272 0.06433106
0.030796826 0.018105019 -0.015631279 0.008379201 -0.0007022502 0.030419517 0.051413197 0.04258476
0.026159056 0.039851297 -0.0024858692 -0.031048255 0.006116689 0.027101131 0.07697282 0.05752692
0.035841573 0.058667995 0.010583366 0.051635537 0.024394225 -0.024828425 0.05665488 0.044745147
-0.022549577 0.084939815 -0.022324884 0.014372009 -0.0031991443 0.026398078 0.028480995 -0.010123161
0.029274631 0.054139927 -0.0057564504 0.027783878 0.014907452 -0.041961256 0.093009576 -0.060861215
00000000: 77d5 b3bc 9659 633d f0b9 b43d 8247 bd3c
00000010: 82d3 443c 2a4a 0f3d 99cb cc3c acba 583d
00000020: cc74 453c 674b 2839 4d27 f43c d9bc 723d
00000030: f941 1abc 1e4e 30bc 7843 d6bc 4c62 333d
00000040: d066 1e3d 29e9 763c 91d4 9c3b 0d41 473d
00000050: f033 913c 71cd 703c a2d6 adbb 01c0 833d
00000060: a049 fc3c fa50 943c 2b0d 80bc eb48 093c
00000070: 3717 38ba 5a32 f93c a596 523d 5b6d 2e3d
00000080: 844b d63c 1d3b 233d f7e9 22bb e958 febc
00000090: 826e c83b 3103 de3c eda3 9d3d 59a1 6b3d
000000a0: 9dce 123d da4d 703d db65 2d3c c97f 533d
000000b0: 66d6 c73c fb64 cbbc f30e 683d b046 373d
000000c0: e4b9 b8bc edf4 ad3d ade2 b6bc 9378 6b3c
000000d0: bca8 51bb c840 d83c fa50 e93c 9ddb 25bc
000000e0: 5ad1 ef3c d4c1 5d3d 9ba0 bcbb 049b e33c
000000f0: 633e 743c 91df 2bbd ce7b be3d 9c49 79bd

arith.constant9 f4 [32, 1, 9, 3]
-0.3146558 1.4491763 -0.31599364 -0.8867754 1.4101477 -1.8450134 0.65878993 -0.83452666
-1.0367012 0.7909885 0.91215307 -0.47284618 -1.6751397 -1.3293359 0.17744412 0.71833503
0.073423006 -0.6673554 0.20265809 0.29453588 2.1417284 0.9803614 1.3585786 1.6060237
-0.85571474 -0.93921757 2.9772794 -0.3885822 -1.5503876 1.9955386 -1.0985149 -0.59644735
1.4094409 2.1439433 -0.5005803 1.1927207 -2.1151807 0.3017867 1.989146 1.0358112
2.5782037 -0.44886315 -0.53758353 -0.22876881 -2.438041 -2.1292863 2.3214262 -2.1166632
-0.03711769 -1.439644 -2.6131747 1.9029787 -1.119445 -0.55287886 0.43868846 -0.61534524
0.34243146 0.6745824 0.8582436 -0.445474 0.99728346 -0.1511269 0.17586626 -0.30741626
0.06101044 -1.2048953 0.21327484 0.72184205 -1.0149509 0.41584665 -0.16400385 0.15274498
-0.8236932 0.0867978 -0.21719114 -0.7809337 -0.118940614 -1.3750626 0.19180253 -0.047232974
-0.2457562 -2.2910616 1.4473971 -3.7115402 0.09176451 -2.518276 -2.6865866 -0.097148456
2.034755 -0.39540258 0.04758347 2.2668302 2.8403726 -0.12527244 -2.1446097 0.91591144
0.8824957 2.128826 -0.68492717 -3.2413306 0.171276 2.654017 1.9736857 -1.6050278
-0.5243274 -1.744216 1.2545865 1.3980851 -1.102449 1.0396184 0.5226207 -0.78251225
0.43989813 0.5810209 -0.13276367 -0.13585454 1.3018214 -0.1075065 -1.136215 0.54325485
1.141983 -0.57733184 0.34460738 -0.40917286 -1.2404342 0.88787496 -0.7321444 0.1616162
-1.0031685 -1.0681294 -1.2082716 -0.22451726 1.0806656 -1.0290699 0.78657997 -0.22569194
0.48610818 0.79499286 -0.19492139 0.68704075 0.055844244 0.42513353 -0.43016195 0.098017566
0.41029623 0.19408746 -1.0707587 0.35181493 -0.2824856 -0.64622676 0.43910307 0.02610262
-1.5398492 -0.23506083 -0.0326229 -0.25190076 0.15478504 -0.33262742 -0.47594273 -0.25073743
-0.026544059 -0.85545045 -1.0836731 -0.37412572 2.6111057 0.53501517 -1.1950142 -0.2144235
-0.28377306 0.7434487 -0.35331088 0.702206 0.79253745 0.89896744 0.6925014 -1.037328
-0.7203324 -0.8492901 -1.0876188 -2.2079568 -0.42473185 -0.45652932 -0.004845052 1.6695786
0.57870454 -0.6434326 -1.2839354 1.7580888 -2.7380095 -1.3144611 -1.4416265 -1.448718
1.3081692 0.6777648 -2.273746 1.4798545 -0.02767686 -1.7135259 0.43063313 3.295507
-1.515594 -1.3865811 -2.3169808 2.820605 -0.23007293 -2.4104311 2.9724925 -0.796458
-0.38081113 1.6995829 -1.1742576 -0.53576374 3.4427316 -0.6546704 2.1889303 -1.9980966
-1.5894191 2.2029648 2.3139956 -2.0795426 -0.68261063 -1.6557446 -0.20158955 2.6237116
0.1071125 1.2198744 0.18783295 0.39163026 0.8359015 -0.6127869 0.4220687 0.9547399
0.28127208 2.6030934 1.4320562 1.9179201 2.3585472 1.1326171 -0.2957947 -1.044886
-0.33507565 -2.6586483 -2.4283183 2.6334 -2.7659512 0.40378672 -0.7637847 0.25619385
-0.288651 3.0255494 -0.70263904 2.418787 -1.7326185 -2.867652 -2.252166 0.88756335
00000000: 911a a1be 9c7e b93f ebc9 a1be b603 63bf
00000010: b87f b43f 6629 ecbf 75a6 283f 8aa3 55bf
00000020: a0b2 84bf 397e 4a3f dd82 693f e518 f2be
00000030: fa6a d6bf ae27 aabf e9b3 353e cee4 373f
00000040: cd5e 963d ced7 2abf 9a85 4f3e 68cd 963e
00000050: 1412 0940 f7f8 7a3f e7e5 ad3f 2f92 cd3f
00000060: 1f10 5bbf 9070 70bf bf8b 3e40 3ff4 c6be
00000070: 1a73 c6bf cf6d ff3f 239c 8cbf c6b0 18bf
00000080: 8f68 b43f 5e36 0940 0826 00bf 12ab 983f
00000090: 1f5f 07c0 c983 9a3e 569c fe3f 7695 843f
000000a0: 4a01 2540 64d1 e5be 139f 09bf 5f42 6abe
000000b0: dd08 1cc0 3a46 08c0 3f92 1440 6977 07c0
000000c0: b808 18bd 4146 b8bf 413e 27c0 ce94 f33f
000000d0: f949 8fbf 7889 0dbf c69b e03e 4487 1dbf
000000e0: 2d53 af3e 6fb1 2c3f dab5 5b3f 2b15 e4be
000000f0: f84d 7f3f 03c1 1abe 4916 343e aa65 9dbe
00000100: 15e6 793d 023a 9abf b864 5a3e a4ca 383f
00000110: e9e9 81bf dae9 d43e a0f0 27be 2e69 1c3e
00000120: 8fdd 52bf 0cc3 b13d 5b67 5ebe 45eb 47bf
00000130: 2397 f3bd 0d02 b0bf e267 443e 5d77 41bd
00000140: 83a7 7bbe c1a0 12c0 4f44 b93f e089 6dc0
00000150: 08ef bb3d 6f2b 21c0 09f1 2bc0 c5f5 c6bd
00000160: 6d39 0240 3572 cabe e2e6 423d bf13 1140
00000170: aac8 3540 6b47 00be 4941 09c0 2c79 6a3f
00000180: 3deb 613f af3e 0840 6357 2fbf f671 4fc0
00000190: fa62 2f3e 6adb 2940 bca1 fc3f 8d71 cdbf
000001a0: 523a 06bf 7842 dfbf 4a96 a03f 74f4 b23f
000001b0: 0d1d 8dbf 3712 853f 78ca 053f b952 48bf
000001c0: 543a e13e c9bd 143f 33f3 07be 741d 0bbe
000001d0: 15a2 a63f 5e2c dcbd 7e6f 91bf c012 0b3f
000001e0: 802c 923f 05cc 13bf 6170 b03e 1b7f d1be
000001f0: 8cc6 9ebf c64b 633f d16d 3bbf b87e 253e
00000200: d367 80bf 77b8 88bf a5a8 9abf dae7 65be
00000210: 4053 8a3f 90b8 83bf 4e5d 493f ca1b 67be
00000220: 2ce3 f83e a784 4b3f 7999 47be e7e1 2f3f
00000230: efbc 643d 1aab d93e 303e dcbe 6fbd c83d
00000240: 5912 d23e ddbe 463e 9f0e 89bf 1621 b43e
00000250: f4a1 90be 1e6f 25bf 1ed2 e03e 29d5 d53c
00000260: c719 c5bf c9b3 70be 979f 05bd 23f9 80be
00000270: f87f 1e3e 244e aabe c4ae f3be a860 80be
00000280: ed72 d9bc cdfe 5abf cdb5 8abf 688d bfbe
00000290: 5b1c 2740 c1f6 083f 3af6 98bf d591 5bbe
000002a0: b44a 91be a752 3e3f 2ae5 b4be c6c3 333f
000002b0: bce3 4a3f bb22 663f c647 313f 2ac7 84bf
000002c0: b467 38bf 136b 59bf 1837 8bbf 2a4f 0dc0
000002d0: 7476 d9be 36be e9be 3ec3 9ebb c0b4 d53f
000002e0: fb25 143f 00b8 24bf ff57 a4bf 0e09 e13f
000002f0: 8c3b 2fc0 4340 a8bf 3887 b8bf 976f b9bf
00000300: 1772 a73f fe81 2d3f 0e85 11c0 df6b bd3f
00000310: 95ba e2bc d154 dbbf f27b dc3e 96e9 5240
00000320: fcfe c1bf 7d7b b1bf 6a49 14c0 cb84 3440
00000330: 3d98 6bbe 8144 1ac0 513d 3e40 ace4 4bbf
00000340: adf9 c2be ef8b d93f 134e 96bf d027 09bf
00000350: b755 5c40 7b98 27bf 6f17 0c40 a1c1 ffbf
00000360: 1672 cbbf 60fd 0c40 8118 1440 3a17 05c0
00000370: 92bf 2ebf 70ef d3bf 7e6d 4ebe e4ea 2740
00000380: cc5d db3d d824 9c3f 4857 403e c383 c83e
00000390: a4fd 553f 9adf 1cbf 6319 d83e d669 743f
000003a0: e502 903e 1599 2640 9e4d b73f 687e f53f
000003b0: 70f2 1640 99f9 903f 6772 97be d3be 85bf
000003c0: 098f abbe 4b27 2ac0 9169 1bc0 a089 2840
000003d0: 5805 31c0 22bd ce3e 6587 43bf d72b 833e
000003e0: 10ca 93be 9aa2 4140 27e0 33bf 68cd 1a40
000003f0: 71c6 ddbf 9c87 37c0 7d23 10c0 5a37 633f

arith.constant10 f4 [128]
-0.4184129 0.79225016 0.5678628 -0.22204769 -0.7605329 0.9126533 -0.6802026 0.6909632
1.2416911 0.14704575 1.672385 0.5481776 -0.14501601 -0.24880329 1.0122863 0.7409527
0.35419384 1.2322981 -0.37711868 -0.16868296 -0.20085806 -0.20836063 0.23785049 -0.07207879
-0.03822935 0.74727356 -0.19816567 -0.19587995 -0.512228 0.04042057 1.4980905 1.2660912
-0.37458113 -0.18478996 0.48608565 -0.053623408 -0.36000732 0.89576536 0.5347134 -0.20982313
1.0239978 0.8524324 0.7967846 0.32650682 0.7730839 -0.8936305 0.76380455 -0.80892247
-0.15996386 1.2644073 0.81739926 -0.43754128 0.9892224 1.4109443 -0.23149745 0.742045
0.5604464 0.43003508 1.2435534 1.2643988 1.2868553 -0.27021325 -0.55058855 -0.0038558573
-0.671693 0.6097999 0.7168445 1.4198438 0.6843318 1.140449 1.3351624 0.6921927
0.23778638 -0.31674588 -0.02268679 -0.62615526 0.35654777 1.4320829 1.4540948 1.1019993
0.9003731 -0.49052262 0.8297884 1.1557077 0.75621444 -0.19660382 -0.66107404 1.0990502
-0.4748052 0.60883415 -0.5200676 -0.23149452 0.9514043 -0.1293601 0.76613533 -0.32855323
-0.5872989 -0.5015659 -0.10089342 0.56511253 0.5499763 0.27347863 -0.45109412 0.43732888
1.0346035 0.3130644 -0.24995378 -0.28944397 1.1897918 0.09565231 0.07161102 -0.41315588
0.5862331 -0.4274718 -0.25661674 0.6864738 -0.098405965 0.29816052 0.5928586 0.8822718
-0.66831946 0.053755026 -0.5662593 1.7585307 -0.13081424 0.49580884 -0.7142806 -1.2282064
00000000: 373a d6be e8d0 4a3f 755f 113f 7860 63be
00000010: 49b2 42bf a6a3 693f c221 2ebf f7e2 303f
00000020: bcef 9e3f 2993 163e b610 d63f 5e55 0c3f
00000030: 147f 14be 4ac6 7ebe 9992 813f 13af 3d3f
00000040: e558 b53e f2bb 9d3f b315 c1be 3abb 2cbe
00000050: bcad 4dbe 7d5c 55be 148f 733e 0b9e 93bd
00000060: 6196 1cbd 524d 3f3f f1eb 4abe c194 48be
00000070: 6021 03bf 0a90 253d 6ec1 bf3f 470f a23f
00000080: 19c9 bfbe 9439 3dbe 38e0 f83e 38a4 5bbd
00000090: e152 b8be e150 653f fae2 083f e0db 56be
000000a0: 5c12 833f 0339 5a3f 13fa 4b3f e72b a73e
000000b0: d4e8 453f f8c4 64bf b288 433f 8b15 4fbf
000000c0: 91cd 23be 19d8 a13f 1441 513f 6905 e0be
000000d0: ae3d 7d3f d399 b43f ab0d 6dbe a9f6 3d3f
000000e0: 6a79 0f3f 8f2d dc3e c22c 9f3f d2d7 a13f
000000f0: adb7 a43f 6459 8abe 5ff3 0cbf 8db2 7cbb
00000100: 13f4 2bbf d91b 1c3f 1f83 373f 71bd b53f
00000110: 5e30 2f3f 3cfa 913f 9ae6 aa3f 8a33 313f
00000120: 467e 733e 842c a2be a6d9 b9bc b64b 20bf
00000130: 6e8d b63e 7e4e b73f c71f ba3f 500e 8d3f
00000140: da7e 663f c825 fbbe 036d 543f 3bee 933f
00000150: 4597 413f 8352 49be 263c 29bf adad 8c3f
00000160: ab19 f3be 8edc 1b3f 2623 05bf e60c 6dbe
00000170: 3b8f 733f f976 04be 7221 443f 2138 a8be
00000180: 3959 16bf 9f66 00bf 36a1 cebd 37ab 103f
00000190: 3fcb 0c3f 6405 8c3e cff5 e6be 92e9 df3e
000001a0: e36d 843f fa49 a03e e2f3 7fbe 0032 94be
000001b0: 194b 983f 5ce5 c33d cca8 923d 2b89 d3be
000001c0: 5f13 163f 95dd dabe 4563 83be bfbc 2f3f
000001d0: 1189 c9bd 7fa8 983e 95c5 173f 91dc 613f
000001e0: fc16 2bbf 3b2e 5c3d 5ff6 10bf 8917 e13f
000001f0: 2bf4 05be a8da fd3e 18db 36bf de35 9dbf

arith.constant11 f4 [64]
-0.93232256 -1.3820821 -0.529017 -0.41321543 1.3221556 0.8277828 0.6173924 0.8234089
0.7888959 -0.7061946 1.315227 -0.9525338 0.008743124 -0.5792282 0.67336416 -0.4079528
0.37016207 0.458983 -0.2623677 -0.5128251 0.48083782 0.39990625 0.13691624 -0.4880321
-1.4976344 0.11794937 -0.440959 0.44943795 1.2847766 -0.4821703 0.26771945 0.45290688
-0.14457212 1.1994576 0.053836327 0.15575822 0.7044242 0.6039991 0.079873756 0.0027654918
-0.7318595 0.9494559 0.955768 0.21199283 0.21898471 -0.64601815 0.26849425 1.1057019
0.6025687 -0.6356478 -0.25847617 0.5001087 -0.58353484 -0.60451007 1.0963789 -0.5314704
-0.6642771 -0.069229774 -1.4918001 -0.5287045 1.0009786 0.503587 -0.39296252 -0.74648494
00000000: b1ac 6ebf 11e8 b0bf a86d 07bf f990 d3be
00000010: 653c a93f 93e9 533f 6e0d 1e3f edca 523f
00000020: 15f5 493f 2bc9 34bf 5c59 a83f 41d9 73bf
00000030: 523f 0f3c 4d48 14bf 9861 2c3f 30df d0be
00000040: e285 bd3e d2ff ea3e 0f55 86be 8148 03bf
00000050: 6030 f63e 83c0 cc3e c533 0c3e 58df f9be
00000060: 7cb2 bfbf 708f f13d 61c5 e1be bb1c e63e
00000070: 8f73 a43f 07df f6be 8612 893e 69e3 e73e
00000080: b70a 14be d487 993f 7b83 5c3d 157f 1f3e
00000090: 2555 343f af9f 1a3f da94 a33d 413d 353b
000000a0: 255b 3bbf 8b0f 733f 36ad 743f a614 593e
000000b0: 873d 603e 7261 25bf 1478 893e a487 8d3f
000000c0: f141 1a3f d0b9 22bf fd56 84be 2007 003f
000000d0: 8a62 15bf 2cc1 1abf 2556 8c3f 720e 08bf
000000e0: 100e 2abf 57c8 8dbd 4ef3 bebf 2e59 07bf
000000f0: 1120 803f 14eb 003f 6232 c9be a319 3fbf

arith.constant12 f4 [32]
-1.3730026 0.8840208 1.484375 0.13165066 -1.4043757 1.5848757 1.5496662 -0.7344439
-1.6442779 -0.10761459 1.2126335 -1.4212468 1.4957864 0.13825655 -1.6562215 1.7530102
0.5827596 -0.77281946 -0.601584 -1.3430382 1.230424 -1.3264545 -0.432374 0.19564007
1.0246152 0.15895514 -1.7475516 -1.2216543 -1.55451 1.3629291 -0.16330144 -0.7265258
00000000: 8dbe afbf 304f 623f 0000 be3f 6ecf 063e
00000010: 95c2 b3bf 35dd ca3f 765b c63f 8404 3cbf
00000020: b377 d2bf 0a65 dcbd 9337 9b3f 6aeb b5bf
00000030: ee75 bf3f 2093 0d3e 11ff d3bf a362 e03f
00000040: bc2f 153f 7fd7 45bf 6901 1abf ade8 abbf
00000050: 897e 9d3f 43c9 a9bf 2060 ddbe df55 483e
00000060: 9726 833f 23c5 223e c5af dfbf 2b5f 9cbf
00000070: 2ffa c6bf 7674 ae3f 7e38 27be 98fd 39bf

tfl.pseudo_qconst i1 [128, 1, 5, 64]
-23 -5 -60 -61 -46 10 38 49
-53 22 2 27 -47 -13 -29 42
90 -1 8 -76 -75 15 51 47
-5 68 68 65 -7 -44 -17 -33
40 27 73 89 -33 -9 38 -20
69 -25 13 78 48 68 55 45
12 13 39 -37 22 -27 -10 50
40 -8 10 -68 -17 29 14 16
55 76 18 22 25 -62 14 68
-28 34 10 -7 30 11 -24 34
81 -78 -24 -4 -50 -19 -57 32
88 45 82 -46 37 -34 -16 13
-75 43 14 37 83 -43 -28 71
51 -25 24 69 75 8 -8 70
-27 -75 -29 3 72 15 28 -80
-46 7 89 50 52 63 32 -10
26 81 28 -41 2 -12 -16 -12
56 -53 44 14 26 -38 15 -46
29 1 32 -21 -2 -51 55 -22
11 1 -13 -62 14 43 -56 66
34 20 -51 73 -5 -106 -35 -56
90 54 15 -28 41 6 -60 -23
-10 15 -11 -51 -24 72 35 43
-30 28 -23 45 -40 -42 73 -50
6 127 25 -63 -39 -3 74 35
-29 -66 43 96 37 -53 -83 -53
-40 -28 17 -13 42 1 -74 -63
-34 -10 46 -71 23 39 -25 10
54 -8 -4 47 16 -59 -42 -3
43 60 15 48 -18 82 49 -45
-13 45 -34 42 36 -1 57 -21
-19 63 -13 40 -8 12 48 -36
00000000: e9fb c4c3 d20a 2631 cb16 021b d1f3 e32a
00000010: 5aff 08b4 b50f 332f fb44 4441 f9d4 efdf
00000020: 281b 4959 dff7 26ec 45e7 0d4e 3044 372d
00000030: 0c0d 27db 16e5 f632 28f8 0abc ef1d 0e10
00000040: 374c 1216 19c2 0e44 e422 0af9 1e0b e822
00000050: 51b2 e8fc ceed c720 582d 52d2 25de f00d
00000060: b52b 0e25 53d5 e447 33e7 1845 4b08 f846
00000070: e5b5 e303 480f 1cb0 d207 5932 343f 20f6
00000080: 1a51 1cd7 02f4 f0f4 38cb 2c0e 1ada 0fd2
00000090: 1d01 20eb fecd 37ea 0b01 f3c2 0e2b c842
000000a0: 2214 cd49 fb96 ddc8 5a36 0fe4 2906 c4e9
000000b0: f60f f5cd e848 232b e21c e92d d8d6 49ce
000000c0: 067f 19c1 d9fd 4a23 e3be 2b60 25cb adcb
000000d0: d8e4 11f3 2a01 b6c1 def6 2eb9 1727 e70a
000000e0: 36f8 fc2f 10c5 d6fd 2b3c 0f30 ee52 31d3
000000f0: f32d de2a 24ff 39eb ed3f f328 f80c 30dc

tfl.pseudo_qconst1 i1 [64, 1, 7, 32]
12 82 -16 -31 60 -44 66 91
2 54 99 40 -8 -52 -9 14
73 -8 -54 -1 37 57 -37 7
51 -30 57 77 -51 -5 -24 52
-3 24 49 -24 37 3 40 45
-3 -42 118 43 78 -37 10 97
105 -22 32 30 45 34 66 24
-11 -30 17 -41 -10 -12 9 29
22 73 34 -1 27 9 87 -46
-5 28 12 -68 84 -38 -10 65
106 75 9 -22 51 25 -7 -22
24 -14 -71 -38 -50 -5 12 38
1 7 30 -37 -9 63 57 -10
10 28 -2 -45 70 -19 64 80
-4 49 -30 -30 -28 41 56 35
64 -71 15 -3 -48 87 -24 35
81 43 3 -8 19 70 45 36
45 62 -27 -59 57 -8 54 47
-19 -27 62 22 10 -15 29 -76
-41 15 -52 31 -28 -47 1 -3
19 -20 61 7 -76 23 -12 76
0 -76 -20 -17 -27 -9 -40 43
-2 56 32 91 -42 -67 12 27
40 -127 61 1 72 39 -46 -9
-79 18 -13 -35 -2 15 -62 39
59 23 60 41 61 -93 -1 -48
-7 -75 30 -51 33 80 27 22
-24 -108 -34 -40 72 -5 -85 57
-70 -45 43 -21 103 -44 56 97
115 -69 -78 -66 41 47 -39 67
86 82 54 -18 -59 127 -24 -57
84 -100 111 -7 110 86 -60 71
00000000: 0c52 f0e1 3cd4 425b 0236 6328 f8cc f70e
00000010: 49f8 caff 2539 db07 33e2 394d cdfb e834
00000020: fd18 31e8 2503 282d fdd6 762b 4edb 0a61
00000030: 69ea 201e 2d22 4218 f5e2 11d7 f6f4 091d
00000040: 1649 22ff 1b09 57d2 fb1c 0cbc 54da f641
00000050: 6a4b 09ea 3319 f9ea 18f2 b9da cefb 0c26
00000060: 0107 1edb f73f 39f6 0a1c fed3 46ed 4050
00000070: fc31 e2e2 e429 3823 40b9 0ffd d057 e823
00000080: 512b 03f8 1346 2d24 2d3e e5c5 39f8 362f
00000090: ede5 3e16 0af1 1db4 d70f cc1f e4d1 01fd
000000a0: 13ec 3d07 b417 f44c 00b4 ecef e5f7 d82b
000000b0: fe38 205b d6bd 0c1b 2881 3d01 4827 d2f7
000000c0: b112 f3dd fe0f c227 3b17 3c29 3da3 ffd0
000000d0: f9b5 1ecd 2150 1b16 e894 ded8 48fb ab39
000000e0: bad3 2beb 67d4 3861 73bb b2be 292f d943
000000f0: 5652 36ee c57f e8c7 549c 6ff9 6e56 c447

tfl.pseudo_qconst2 i1 [64, 128]
46 64 -24 -55 -28 -20 7 50
-77 86 26 -16 39 -20 49 36
78 -49 -75 29 -66 -41 -5 3
28 44 -81 -29 -13 35 64 -127
-76 -57 56 72 64 -7 45 57
47 -64 64 33 -29 -31 -92 21
-26 12 5 -17 -47 4 71 -19
46 61 -13 50 -83 37 69 -2
-69 -53 -14 5 -59 33 74 37
-58 -58 -22 -44 81 -9 -78 61
-57 15 18 72 -28 -37 -87 10
11 26 -70 82 -34 19 -51 75
-96 -20 -12 27 82 97 78 16
69 26 90 -70 87 -18 50 -44
51 -8 45 36 73 18 71 46
49 -75 9 8 -56 -53 85 7
69 -2 -86 -41 25 -31 -52 -71
1 -45 -15 43 -93 -67 -72 85
-10 -69 37 -51 -25 -100 -36 -48
87 -56 -67 -17 22 33 39 -118
-4 -69 -36 11 -29 -42 4 66
90 70 78 -72 -86 -11 -11 -75
-54 7 -6 -24 -97 -36 3 -46
-33 -78 -45 -69 -44 -35 74 -2
-83 -85 78 -33 -23 -55 -2 4
-22 67 -12 61 -24 -27 29 30
-44 77 -14 78 -53 -39 89 -45
28 66 -58 12 -85 -11 -69 -81
30 51 69 -51 -127 5 -12 -82
-44 69 23 -72 8 -81 -37 -17
0 -10 45 44 -90 -59 -64 -88
43 -113 97 21 19 -16 -12 -35
00000000: 2e40 e8c9 e4ec 0732 b356 1af0 27ec 3124
00000010: 4ecf b51d bed7 fb03 1c2c afe3 f323 4081
00000020: b4c7 3848 40f9 2d39 2fc0 4021 e3e1 a415
00000030: e60c 05ef d104 47ed 2e3d f332 ad25 45fe
00000040: bbcb f205 c521 4a25 c6c6 ead4 51f7 b23d
00000050: c70f 1248 e4db a90a 0b1a ba52 de13 cd4b
00000060: a0ec f41b 5261 4e10 451a 5aba 57ee 32d4
00000070: 33f8 2d24 4912 472e 31b5 0908 c8cb 5507
00000080: 45fe aad7 19e1 ccb9 01d3 f12b a3bd b855
00000090: f6bb 25cd e79c dcd0 57c8 bdef 1621 278a
000000a0: fcbb dc0b e3d6 0442 5a46 4eb8 aaf5 f5b5
000000b0: ca07 fae8 9fdc 03d2 dfb2 d3bb d4dd 4afe
000000c0: adab 4edf e9c9 fe04 ea43 f43d e8e5 1d1e
000000d0: d44d f24e cbd9 59d3 1c42 c60c abf5 bbaf
000000e0: 1e33 45cd 8105 f4ae d445 17b8 08af dbef
000000f0: 00f6 2d2c a6c5 c0a8 2b8f 6115 13f0 f4dd

tfl.pseudo_qconst3 i1 [128, 128]
50 -110 40 46 46 -21 7 -100
80 -36 54 1 73 -124 4 -46
-107 -81 -77 22 -105 -117 57 36
-21 -76 -59 -87 -80 -26 -31 -113
-2 88 53 56 41 -114 1 34
-2 76 29 -22 -9 -16 52 -2
-14 -18 51 70 -39 42 15 -78
70 38 82 -41 -26 22 86 75
-127 -89 -51 -13 -33 78 67 -20
34 -87 -122 -80 12 32 -25 42
-109 -113 -47 40 -45 5 5 36
-75 97 43 -83 -46 -61 71 11
72 26 33 -57 45 5 64 -27
-81 15 22 -48 -57 -34 -102 -81
70 13 65 -6 50 -106 30 59
-70 77 9 -37 -113 -28 59 96
-36 17 36 35 20 74 13 -22
-46 80 68 57 -109 61 14 -78
-78 -21 -7 -53 51 25 -123 54
12 59 109 -69 -62 28 69 75
-108 39 -39 -56 -32 -119 -46 28
78 83 -115 -56 41 -83 -103 -42
-78 -27 -106 -86 68 -96 -115 -114
79 19 -11 84 -32 -1 97 -14
-84 -73 46 -20 -91 -47 -21 99
18 -47 -72 -21 -12 -106 33 -35
-47 12 -122 -26 41 10 -86 -18
65 106 91 12 47 87 -127 69
-109 -12 48 -110 9 88 47 28
-50 42 -120 -50 -51 27 74 39
-68 -85 -36 -40 -96 76 99 -94
-3 67 -70 51 -94 8 80 97
00000000: 3292 282e 2eeb 079c 50dc 3601 4984 04d2
00000010: 95af b316 978b 3924 ebb4 c5a9 b0e6 e18f
00000020: fe58 3538 298e 0122 fe4c 1dea f7f0 34fe
00000030: f2ee 3346 d92a 0fb2 4626 52d7 e616 564b
00000040: 81a7 cdf3 df4e 43ec 22a9 86b0 0c20 e72a
00000050: 938f d128 d305 0524 b561 2bad d2c3 470b
00000060: 481a 21c7 2d05 40e5 af0f 16d0 c7de 9aaf
00000070: 460d 41fa 3296 1e3b ba4d 09db 8fe4 3b60
00000080: dc11 2423 144a 0dea d250 4439 933d 0eb2
00000090: b2eb f9cb 3319 8536 0c3b 6dbb c21c 454b
000000a0: 9427 d9c8 e089 d21c 4e53 8dc8 29ad 99d6
000000b0: b2e5 96aa 44a0 8d8e 4f13 f554 e0ff 61f2
000000c0: acb7 2eec a5d1 eb63 12d1 b8eb f496 21dd
000000d0: d10c 86e6 290a aaee 416a 5b0c 2f57 8145
000000e0: 93f4 3092 0958 2f1c ce2a 88ce cd1b 4a27
000000f0: bcab dcd8 a04c 63a2 fd43 ba33 a208 5061
