ML/models/conv1d_angle_toro_ossaba/seed8_20260117_045953_660/model_int8.tflite (tflite, 99296 bytes, 6 tensors)

tfl.pseudo_qconst1 i1 [1, 64] scale=0.0041209008 zero_point=0
00000000: 3081 dadd e65f 0ec2 e022 1af8 0309 d6fe
00000010: e489 db30 421e d914 f2a7 e326 29ba f417
00000020: 1516 44f6 f517 db0b f608 eb27 f7e8 c911
00000030: 4a4f 19ed 10d2 ece1 34ce 0cf5 2e11 eaf3
0.19780323 -0.5233544 -0.15659423 -0.14423153 -0.10714342 0.39148557 0.05769261 -0.25549585
-0.13186882 0.14011063 0.10714342 -0.032967206 0.012362702 0.037088107 -0.17307784 -0.0082418015
-0.11538522 -0.4903872 -0.15247333 0.19780323 0.27197945 0.12362702 -0.16071513 0.08241802
-0.05769261 -0.36676016 -0.11950612 0.15659423 0.16895694 -0.28846306 -0.049450807 0.09478072
0.08653892 0.09065982 0.28022125 -0.04120901 -0.04532991 0.09478072 -0.15247333 0.04532991
-0.04120901 0.032967206 -0.08653892 0.16071513 -0.037088107 -0.098901615 -0.22664954 0.07005531
0.30494666 0.32555115 0.103022516 -0.078297116 0.06593441 -0.18956144 -0.08241802 -0.12774792
0.21428683 -0.20604503 0.049450807 -0.04532991 0.18956144 0.07005531 -0.09065982 -0.05357171

tfl.pseudo_qconst3 i1 [64, 128]
00000000: dff4 e712 1b18 17fa ea27 01d9 fe0e 2eff
00000010: 2c15 b105 09dd 0a1c cf0a ecde 101f edc2
00000020: bff0 1ab3 1102 edad d1c3 efe0 0608 f3e9
00000030: 1423 fd08 1dfa 10f5 ea0e 02a7 d222 e608
00000040: fdfb 9dce 9ae5 34c6 34dc 310c b5ee d40e
00000050: d182 0de5 d933 dcee edbd 20dc 03f6 dbe8
00000060: ffef f7fb 0cdd d0ce f3c7 d025 21d8 c4ae
00000070: 02b7 0e32 d735 3811 cbe7 ecfe e381 bd0f
00000080: cfde c3f6 ecef 1fd4 fbf2 d806 f8c4 eaec
00000090: 16f1 81db fdfd 1308 fd10 c10f fbf3 ecd0
000000a0: d3f3 ac33 29fb efd5 e11e d4fb 1106 25fe
000000b0: e5eb fd21 181f c901 f613 f3d6 19f6 f5e3
000000c0: 25e5 2cdc 9203 0b11 ec06 20c0 e217 fcc7
000000d0: 0498 0110 1e20 f913 dafc 14fe 11fb 04e9
000000e0: efc2 e2e6 23dc fdf2 fc20 0818 ffeb 19ac
000000f0: e513 18e4 cff8 e50e fce9 e6c2 00c5 e2e3
-33 -12 -25 18 27 24 23 -6
-22 39 1 -39 -2 14 46 -1
44 21 -79 5 9 -35 10 28
-49 10 -20 -34 16 31 -19 -62
-65 -16 26 -77 17 2 -19 -83
-47 -61 -17 -32 6 8 -13 -23
20 35 -3 8 29 -6 16 -11
-22 14 2 -89 -46 34 -26 8
-3 -5 -99 -50 -102 -27 52 -58
52 -36 49 12 -75 -18 -44 14
-47 -126 13 -27 -39 51 -36 -18
-19 -67 32 -36 3 -10 -37 -24
-1 -17 -9 -5 12 -35 -48 -50
-13 -57 -48 37 33 -40 -60 -82
2 -73 14 50 -41 53 56 17
-53 -25 -20 -2 -29 -127 -67 15
-49 -34 -61 -10 -20 -17 31 -44
-5 -14 -40 6 -8 -60 -22 -20
22 -15 -127 -37 -3 -3 19 8
-3 16 -63 15 -5 -13 -20 -48
-45 -13 -84 51 41 -5 -17 -43
-31 30 -44 -5 17 6 37 -2
-27 -21 -3 33 24 31 -55 1
-10 19 -13 -42 25 -10 -11 -29
37 -27 44 -36 -110 3 11 17
-20 6 32 -64 -30 23 -4 -57
4 -104 1 16 30 32 -7 19
-38 -4 20 -2 17 -5 4 -23
-17 -62 -30 -26 35 -36 -3 -14
-4 32 8 24 -1 -21 25 -84
-27 19 24 -28 -49 -8 -27 14
-4 -23 -26 -62 0 -59 -30 -29

tfl.pseudo_qconst5 i1 [128, 128]
00000000: ff0b 4a22 f218 c108 0f2e b811 fe19 08ee
00000010: e710 f9c3 cad5 02cc 081c 18bd f3c2 9f03
00000020: 2e18 fde8 deb8 0105 f901 f9ba b0f4 0ff2
00000030: f70c f300 100f f0fe 04d2 1b20 11eb c627
00000040: ea2d f438 e907 3348 ff16 d01d eefb fe0d
00000050: bdda e11b 8186 eef2 f20f 2f35 cf10 03f5
00000060: f2cc 3539 fff0 483f f2ec f309 b63a daec
00000070: fecf 18ef d1d8 52ef 2f18 c085 f3c2 18f6
00000080: d0f1 e0cb 2288 1a92 10bd 0b42 f63d c31f
00000090: 0f2a da16 dfe3 a0b3 def7 3c97 e3f9 1932
000000a0: bc91 ab24 870a c7c1 edd8 19ee 344d 9a72
000000b0: 9ed2 122b dbe8 f4e4 37c6 d2a3 fa0e c11c
000000c0: 224e b0c5 f231 65a5 262f a186 15e4 1c06
000000d0: be21 89c9 1100 23b0 fd0b 8bc7 40d7 ff81
000000e0: c2d6 0ba8 b5ff 231a a3ef fbfb 04dd c29e
000000f0: 0311 04c3 2d2b 9bc4 4baa eb07 3987 28cf
-1 11 74 34 -14 24 -63 8
15 46 -72 17 -2 25 8 -18
-25 16 -7 -61 -54 -43 2 -52
8 28 24 -67 -13 -62 -97 3
46 24 -3 -24 -34 -72 1 5
-7 1 -7 -70 -80 -12 15 -14
-9 12 -13 0 16 15 -16 -2
4 -46 27 32 17 -21 -58 39
-22 45 -12 56 -23 7 51 72
-1 22 -48 29 -18 -5 -2 13
-67 -38 -31 27 -127 -122 -18 -14
-14 15 47 53 -49 16 3 -11
-14 -52 53 57 -1 -16 72 63
-14 -20 -13 9 -74 58 -38 -20
-2 -49 24 -17 -47 -40 82 -17
47 24 -64 -123 -13 -62 24 -10
-48 -15 -32 -53 34 -120 26 -110
16 -67 11 66 -10 61 -61 31
15 42 -38 22 -33 -29 -96 -77
-34 -9 60 -105 -29 -7 25 50
-68 -111 -85 36 -121 10 -57 -63
-19 -40 25 -18 52 77 -102 114
-98 -46 18 43 -37 -24 -12 -28
55 -58 -46 -93 -6 14 -63 28
34 78 -80 -59 -14 49 101 -91
38 47 -95 -122 21 -28 28 6
-66 33 -119 -55 17 0 35 -80
-3 11 -117 -57 64 -41 -1 -127
-62 -42 11 -88 -75 -1 35 26
-93 -17 -5 -5 4 -35 -62 -98
3 17 4 -61 45 43 -101 -60
75 -86 -21 7 57 -121 40 -49

tfl.pseudo_qconst7 i1 [128, 1, 5, 64]
00000000: 510d 0c16 ec09 f82d 0841 2720 1cab 3de6
00000010: 120a 8e27 0c17 1507 3725 dd32 f734 11da
00000020: 1f22 1c51 fb36 fd1f 29fe 0aff 16d0 2a56
00000030: 0e07 f932 3a0f 213d 4623 17fa 140d 8105
00000040: 5e0a 0d0b fefb 272a fe15 44fd 38c9 3cbf
00000050: 2b04 93fc f12f 051b 340b c9f6 fa0e f7f0
00000060: 0828 0945 06fd 1821 ff18 35ef 3cfd fd0a
00000070: 4001 1043 0d17 311b 3d31 1502 1319 9537
00000080: 12da 0bdb 1cde 312b 2c36 2237 15da 16d4
00000090: 2eef 0517 f906 1816 fe2b d403 fa3c d9ea
000000a0: 0728 082d f212 3314 f107 35f9 0aec 4124
000000b0: 22f2 1436 121e 390f 0c25 eb0f 2d07 b827
000000c0: 54b5 27f8 0414 f465 ff1f 352d 25b8 0bbf
000000d0: 232d c847 2e1b 3346 fc22 e910 f71d df9a
000000e0: 3414 0318 00e7 330a a7d8 0de5 03c7 5b24
000000f0: 27db 0333 221e f115 3110 ad1f 12c6 b80b
81 13 12 22 -20 9 -8 45
8 65 39 32 28 -85 61 -26
18 10 -114 39 12 23 21 7
55 37 -35 50 -9 52 17 -38
31 34 28 81 -5 54 -3 31
41 -2 10 -1 22 -48 42 86
14 7 -7 50 58 15 33 61
70 35 23 -6 20 13 -127 5
94 10 13 11 -2 -5 39 42
-2 21 68 -3 56 -55 60 -65
43 4 -109 -4 -15 47 5 27
52 11 -55 -10 -6 14 -9 -16
8 40 9 69 6 -3 24 33
-1 24 53 -17 60 -3 -3 10
64 1 16 67 13 23 49 27
61 49 21 2 19 25 -107 55
18 -38 11 -37 28 -34 49 43
44 54 34 55 21 -38 22 -44
46 -17 5 23 -7 6 24 22
-2 43 -44 3 -6 60 -39 -22
7 40 8 45 -14 18 51 20
-15 7 53 -7 10 -20 65 36
34 -14 20 54 18 30 57 15
12 37 -21 15 45 7 -72 39
84 -75 39 -8 4 20 -12 101
-1 31 53 45 37 -72 11 -65
35 45 -56 71 46 27 51 70
-4 34 -23 16 -9 29 -33 -102
52 20 3 24 0 -25 51 10
-89 -40 13 -27 3 -57 91 36
39 -37 3 51 34 30 -15 21
49 16 -83 31 18 -58 -72 11

tfl.pseudo_qconst9 i1 [64, 1, 7, 32]
00000000: 1c2a 29ce 0a09 1026 e0e9 dff1 5929 2c34
00000010: 0fff fb52 13d9 232d e9e7 4c18 e2fe 4be8
00000020: 1e26 1f1d 1218 ee44 cf0c 00f6 4831 6b1c
00000030: 4032 1220 f938 2f51 4329 3b23 01f9 4701
00000040: 0434 2d09 2133 282d ff34 0211 1e0a 7f0b
00000050: 5616 1b53 29fe 3024 2110 430b 1d1b 3d19
00000060: 0939 f9de 050c f134 0b15 4827 1ddd 501b
00000070: 4f18 304e 3d1c 1528 1cef 3c11 2122 3c1e
00000080: 1312 28fe fe4b 4410 e253 0032 4dff 1e43
00000090: 4421 362b 0f30 4149 4801 1341 3551 442e
000000a0: 520b 2f0c 0a30 3a23 f410 fd1c 2631 3552
000000b0: 1c13 414b 1e30 4c4b 4023 1cf7 0e51 3430
000000c0: 5b23 e400 471d 3f40 c53e 2a13 32f2 0c3c
000000d0: 2feb 3608 4525 fb4a 5133 1858 3c39 581f
000000e0: f1fd c0f4 fee9 f7e3 0317 daf9 f7ea 1aef
000000f0: 0dec 06e9 0d22 ea09 30ea fbe9 f8ec efe4
28 42 41 -50 10 9 16 38
-32 -23 -33 -15 89 41 44 52
15 -1 -5 82 19 -39 35 45
-23 -25 76 24 -30 -2 75 -24
30 38 31 29 18 24 -18 68
-49 12 0 -10 72 49 107 28
64 50 18 32 -7 56 47 81
67 41 59 35 1 -7 71 1
4 52 45 9 33 51 40 45
-1 52 2 17 30 10 127 11
86 22 27 83 41 -2 48 36
33 16 67 11 29 27 61 25
9 57 -7 -34 5 12 -15 52
11 21 72 39 29 -35 80 27
79 24 48 78 61 28 21 40
28 -17 60 17 33 34 60 30
19 18 40 -2 -2 75 68 16
-30 83 0 50 77 -1 30 67
68 33 54 43 15 48 65 73
72 1 19 65 53 81 68 46
82 11 47 12 10 48 58 35
-12 16 -3 28 38 49 53 82
28 19 65 75 30 48 76 75
64 35 28 -9 14 81 52 48
91 35 -28 0 71 29 63 64
-59 62 42 19 50 -14 12 60
47 -21 54 8 69 37 -5 74
81 51 24 88 60 57 88 31
-15 -3 -64 -12 -2 -23 -9 -29
3 23 -38 -7 -9 -22 26 -17
13 -20 6 -23 13 34 -22 9
48 -22 -5 -23 -8 -20 -17 -28

tfl.pseudo_qconst11 i1 [32, 1, 9, 3]
00000000: 034f bde6 d8e0 0fd4 8aed 4edd af61 a308
00000010: 2ff2 f1ef e5da 01e0 ae63 8160 d981 f92a
00000020: 8b0b 5443 f958 1735 3f4c 37ca 523f db58
00000030: 1166 5ad0 32ea e44a 35dd 2546 1315 18ff
00000040: 0911 d502 2f2b 107f cc13 28e5 2f1e dfe9
00000050: b435 95b4 0081 d8d7 9fbe d59f 2242 8ede
00000060: 149b 50da 9b4f 00cd 2206 c41a e349 ac09
00000070: fccd f2f3 c6ee f5ec 1ff4 0a0b 0c11 f2f0
00000080: 6cf4 277f 0fd8 fee4 1918 12f3 f1eb 1cac
00000090: 21f8 9610 18bf e22a 8120 eb0e ed24 aee7
000000a0: 0ec2 f534 05e3 25f1 88a7 9894 3081 abee
000000b0: 33ad bc82 c516 3a93 be1b dc28 84e7 fadc
000000c0: 07ee 2107 002f 0117 4407 0036 f70c 7ffb
000000d0: 0ef0 f8ed 2dfb f1eb bf4a 30c6 4711 d436
000000e0: 19ef 1722 fade 20a9 ed3d 8126 e0a6 30ed
000000f0: 9202 c62e ea5e 2829 26ec ebe3 ef18 ae20
3 79 -67 -26 -40 -32 15 -44
-118 -19 78 -35 -81 97 -93 8
47 -14 -15 -17 -27 -38 1 -32
-82 99 -127 96 -39 -127 -7 42
-117 11 84 67 -7 88 23 53
63 76 55 -54 82 63 -37 88
17 102 90 -48 50 -22 -28 74
53 -35 37 70 19 21 24 -1
9 17 -43 2 47 43 16 127
-52 19 40 -27 47 30 -33 -23
-76 53 -107 -76 0 -127 -40 -41
-97 -66 -43 -97 34 66 -114 -34
20 -101 80 -38 -101 79 0 -51
34 6 -60 26 -29 73 -84 9
-4 -51 -14 -13 -58 -18 -11 -20
31 -12 10 11 12 17 -14 -16
108 -12 39 127 15 -40 -2 -28
25 24 18 -13 -15 -21 28 -84
33 -8 -106 16 24 -65 -30 42
-127 32 -21 14 -19 36 -82 -25
14 -62 -11 52 5 -29 37 -15
-120 -89 -104 -108 48 -127 -85 -18
51 -83 -68 -126 -59 22 58 -109
-66 27 -36 40 -124 -25 -6 -36
7 -18 33 7 0 47 1 23
68 7 0 54 -9 12 127 -5
14 -16 -8 -19 45 -5 -15 -21
-65 74 48 -58 71 17 -44 54
25 -17 23 34 -6 -34 32 -87
-19 61 -127 38 -32 -90 48 -19
-110 2 -58 46 -22 94 40 41
38 -20 -21 -29 -17 24 -82 32
