ML/models/conv1d_angle_toro_ossaba/seed8_20260117_045953_660/model.tflite (tflite, 96000 bytes, 11 tensors)

arith.constant2 f4 [1, 64]
0.1970728 -0.5233544 -0.15860143 -0.14535555 -0.107941926 0.39187652 0.05704237 -0.25648996
-0.13079125 0.1382739 0.10617865 -0.030923568 0.0132645555 0.036872573 -0.17146961 -0.008278871
-0.11730042 -0.48954 -0.15248714 0.19867785 0.27362075 0.12260685 -0.16084588 0.08327397
-0.0587158 -0.36505195 -0.12052816 0.15500368 0.16931498 -0.29049203 -0.049701486 0.09650976
0.08697843 0.09031372 0.28041124 -0.0411849 -0.043518603 0.0935418 -0.15094429 0.045861978
-0.041535467 0.03244495 -0.08629773 0.16114338 -0.03693464 -0.10065567 -0.22788933 0.069157265
0.30335376 0.32353187 0.10420528 -0.07734649 0.06616153 -0.18751206 -0.08204157 -0.12797718
0.2144992 -0.20519343 0.048291035 -0.046367485 0.18916687 0.07197931 -0.08974694 -0.051656812
00000000: 74cd 493e 8efa 05bf 6a68 22be 16d8 14be
00000010: a810 ddbd 0aa4 c83e 43a5 693d a752 83be
00000020: 24ee 05be ac97 0d3e 3174 d93d 6c53 fdbc
00000030: 9453 593c b207 173d bb95 2fbe 1aa4 07bc
00000040: 343b f0bd fda4 fabe 9725 1cbe 3572 4b3e
00000050: 0518 8c3e 4d19 fb3d c8b4 24be 8b8b aa3d
00000060: fb7f 70bd 17e8 babe 78d7 f6bd 49b9 1e3e
00000070: e860 2d3e 5fbb 94be c993 4bbd e9a6 c53d
00000080: bf21 b23d 66f6 b83d 1092 8f3e 7fb1 28bd
00000090: 9040 32bd d892 bf3d 2491 1abe c5d9 3b3d
000000a0: 1821 2abd ffe4 043d ddbc b0bd c502 253e
000000b0: c748 17bd 8f24 cebd d25b 69be 53a2 8d3d
000000c0: 2f51 9b3e f8a5 a53e 9469 d53d d667 9ebd
000000d0: b27f 873d 2903 40be 6905 a8bd 730c 03be
000000e0: aea5 5b3e 3a1e 52be d2cc 453d d5eb 3dbd
000000f0: f6b4 413e e369 933d 3ecd b7bd 1896 53bd

arith.constant7 f4 [128]
-0.04498925 0.04447956 -0.0011533413 -0.030713307 -0.009503721 0.015802393 0.08362656 0.048571732
-0.016810078 -0.01691546 0.021997862 0.08913347 -0.016306011 -0.0054759085 -0.017988684 -0.04599258
-0.014250562 -0.0103806695 0.10288034 -0.018200222 -0.010420197 -0.024352212 -0.025141457 -0.028863527
-0.036503475 0.044020005 0.009062084 -0.021482287 -0.031028204 0.06607835 -0.0255173 0.044786803
0.028175976 -0.000902654 0.037073392 0.016849505 -0.0140009485 -0.019631192 -0.002831286 0.09878689
0.04128621 0.06637572 0.025898859 -0.016121794 -0.013755291 0.08434758 0.005564283 -0.023078779
0.053099375 -0.032254625 -0.015455554 -0.026204938 -0.024692621 -0.028527556 0.030803096 0.061464194
-0.039933354 0.041186135 -0.013870739 0.08497674 -0.037937053 -0.019983025 0.040853262 -0.011395044
-0.01706989 -0.040314388 0.02840951 0.00033679552 0.104071185 -0.025586365 -0.023901463 -0.01851527
-0.01602724 0.000475269 -0.020086886 0.007205931 -0.046055056 -0.09528302 0.0052691987 0.032314017
-0.05049252 0.120094605 0.031794913 -0.010954328 -0.032435004 -0.025457526 0.025601089 -0.003902361
-0.004336237 0.038112845 -0.020466547 0.0135483835 0.0034471946 -0.027507095 -0.021234475 0.06131465
-0.0019931537 0.0046271053 0.02368473 -0.011752499 -0.03421188 -0.045800228 -0.0141851595 0.027558194
0.016830027 -0.06780581 -0.045264594 -0.0073241726 -0.020321753 0.1114116 0.022865431 0.07557673
-0.02000666 0.08427458 -0.008554217 -0.033113793 0.021159457 -0.015883388 -0.019571038 -0.020278318
-0.026652884 -0.046880078 -0.038239326 0.014507612 -0.012839632 0.020579671 0.06746761 0.029675925
00000000: a646 38bd 3330 363d b62b 97ba 799a fbbc
00000010: 7fb5 1bbc 0574 813c 6744 ab3d 27f3 463d
00000020: 4ab5 89bc 4a92 8abc dc34 b43c 9c8b b63d
00000030: 2f94 85bc 406f b3bb 015d 93bc b762 3cbd
00000040: 307b 69bc af13 2abc edb2 d23d a218 95bc
00000050: 79b9 2abc 4a7e c7bc 75f5 cdbc 3473 ecbc
00000060: ab84 15bd 524e 343d 2379 143c 9ffb afbc
00000070: dc2e febc 1654 873d a809 d1bc 5e72 373d
00000080: 4ed1 e63c 16a0 6cba 45da 173d f907 8a3c
00000090: 3c64 65bc 98d1 a0bc 198d 39bb c850 ca3d
000000a0: bb1b 293d feef 873d d829 d43c da11 84bc
000000b0: df5d 61bc 6dbe ac3d 9754 b63b b50f bdbc
000000c0: bb7e 593d 6d1d 04bd 4b39 7dbc bdab d6bc
000000d0: 2e48 cabc 9fb2 e9bc c656 fc3c e1c1 7b3d
000000e0: 2891 23bd cbb2 283d 1942 63bc 4908 ae3d
000000f0: e263 1bbd 71b3 a3bc c055 273d 47b2 3abc
00000100: 27d6 8bbc b320 25bd 10bb e83c ee93 b039
00000110: 4623 d53d 7f9a d1bc 00cd c3bc 56ad 97bc
00000120: 8f4b 83bc 862d f939 418d a4bc bb1f ec3b
00000130: 3aa4 3cbd be23 c3bd 3ea9 ac3b b45b 043d
00000140: 3fd1 4ebd 29f4 f53d 623b 023d c879 33bc
00000150: 91da 04bd 4d8c d0bc 60b9 d13c c1be 7fbb
00000160: fe16 8ebb 371c 1c3d 76a9 a7bc 0afa 5d3c
00000170: 54ea 613b 8f56 e1bc ecf3 adbc 1225 7b3d
00000180: 929f 02bb f99e 973b 7b06 c23c 8e8d 40bc
00000190: c221 0cbd 0599 3bbd df68 68bc b9c1 e13c
000001a0: 20df 893c c6dd 8abd 5e67 39bd 9dff efbb
000001b0: ce79 a6bc c42b e43d 4950 bb3c f9c7 9a3d
000001c0: 02e5 a3bc 2798 ac3d fd26 0cbc 54a2 07bd
000001d0: 9956 ad3c e11d 82bc 7153 a0bc b71e a6bc
000001e0: 2657 dabc 5305 40bd d7a0 1cbd 56b1 6d3c
000001f0: 525d 52bc b396 a83c 752c 8a3d ed1a f33c

arith.constant8 f4 [64]
0.107297786 0.07298633 0.070210114 0.062180705 0.047083076 0.05321378 -0.07241131 0.054725155
0.05421358 0.030696027 -0.047150765 -0.039393067 -0.06161925 -0.19578676 0.052759033 -0.011939514
-0.008054811 0.08785022 0.051968724 0.039714415 0.067961246 0.049019113 0.1330977 0.12042459
0.028228333 0.052142043 -0.029330311 0.14506978 0.04040559 0.012010552 -0.110284686 -0.037590105
-0.02504696 -0.054436553 0.028792284 -0.09557759 -0.19879997 0.031092452 0.024740187 -0.03922868
0.021336718 -0.00516487 0.054526158 0.01612219 -0.03027406 0.056172818 -0.016382102 0.03841555
0.123315856 -0.05683306 0.029423177 -0.0032616272 0.020456256 0.0037868677 -0.07781291 0.11273523
0.062383574 0.069109246 -0.12726554 -0.027186463 0.06193771 -0.018655304 0.038957514 -0.06265828
00000000: f1be db3d db79 953d 52ca 8f3d 32b1 7e3d
00000010: 2fda 403d b1f6 593d 624c 94bd 7c27 603d
00000020: 0f0f 5e3d 3c76 fb3c 2921 41bd a05a 21bd
00000030: 7764 7cbd 537c 48be db19 583d f49d 43bc
00000040: 53f8 03bc d1ea b33d 28dd 543d 95ab 223d
00000050: 442f 8b3d 44c8 483d c34a 083e 2ba1 f63d
00000060: 1b3f e73c e592 553d 1f46 f0bc 2c8d 143e
00000070: 5580 253d e8c7 443c f0dc e1bd 15f8 19bd
00000080: 482f cdbc ddf8 5ebd ccdd eb3c 2fbe c3bd
00000090: 3892 4bbe 99b5 fe3c efab ca3c 41ae 20bd
000000a0: 57ca ae3c 123e a9bb d256 5f3d af12 843c
000000b0: 4e01 f8bc 7815 663d c233 86bc a059 1d3d
000000c0: 068d fc3d c8c9 68bd e008 f13c 06c1 55bb
000000d0: e193 a73c 192d 783b 605c 9fbd bae1 e63d
000000e0: eb85 7f3d 2689 8d3d e651 02be 25b6 debc
000000f0: 65b2 7d3d 02d3 98bc ea91 1f3d fc52 80bd

arith.constant9 f4 [32, 1, 9, 3]
0.01803438 0.4448205 -0.38070235 -0.14492822 -0.22478744 -0.1831996 0.08415887 -0.24733536
-0.6671771 -0.10858776 0.43796295 -0.19989659 -0.45615554 0.5455419 -0.5238169 0.047365103
0.26375842 -0.077524014 -0.08314415 -0.097144715 -0.15336303 -0.21513224 0.007763358 -0.17850856
-0.4624961 0.5576729 -0.7170244 1.591037 -0.64076054 -2.1068912 -0.112821475 0.69048506
-1.9373461 0.1762403 1.3993752 1.112812 -0.117755584 1.454912 0.37552828 0.8747001
1.0461507 1.2632252 0.9143754 -0.9036754 1.3542744 1.0471373 -0.62144715 1.4574368
0.28579816 1.6904769 1.4989902 -0.7970313 0.83183646 -0.37113857 -0.29719684 0.7791554
0.562043 -0.36595893 0.38679996 0.7435036 0.19782235 0.22193061 0.25374824 -0.007891141
0.09553406 0.17622624 -0.4589135 0.021181738 0.5003815 0.45635802 0.16755755 1.3430136
-0.55370104 0.20232402 0.42665488 -0.28934798 0.49852297 0.31746563 -0.347868 -0.24483503
-0.80434585 0.8271911 -1.6521302 -1.1773037 -0.0012249314 -1.9675658 -0.6193548 -0.6416982
-1.5016216 -1.0195817 -0.6657804 -1.5063689 0.5335076 1.0286411 -1.7711744 -0.5261605
0.30698282 -1.5631804 1.2390462 -0.5887821 -1.5665023 1.2310842 -0.0035220678 -0.7971836
0.52310526 0.08833445 -0.9252058 0.40253308 -1.0684762 2.640034 -3.066808 0.3184904
-0.15317996 -1.8539038 -0.5145519 -0.47151873 -2.1007702 -0.65630263 -0.39054543 -0.7169824
1.1422657 -0.42922872 0.35271406 0.41063407 0.44192114 0.6282178 -0.50933427 -0.5668308
3.928849 -0.44905138 1.4229548 4.6243377 0.5511242 -1.4415448 -0.05510412 -0.21275236
0.18830694 0.17855193 0.13470009 -0.09992125 -0.11333832 -0.1584021 0.20982294 -0.6313561
0.24669556 -0.05845777 -0.79313177 0.12101805 0.17737845 -0.4877158 -0.22598514 0.3147293
-0.9525261 0.23740081 -0.1578037 0.1077317 -0.14155762 0.267388 -0.6187563 -0.18905579
0.102364935 -0.46821558 -0.09496079 0.45316768 0.04012352 -0.2528386 0.32214645 -0.13142654
-1.0408198 -0.7746843 -0.903649 -0.9412003 0.42146617 -1.106055 -0.73731846 -0.15697686
0.44552362 -0.72716373 -0.58832 -1.1011239 -0.5156238 0.19330242 0.5034422 -0.9493156
-0.57432944 0.23495269 -0.3094222 0.34647176 -1.0808911 -0.3016283 -0.068351515 -0.43666098
0.08808842 -0.2222327 0.40682232 0.09031473 -0.0039722538 0.5749539 0.009211129 0.2780872
0.8344708 0.08675422 -0.0037748625 0.66665834 -0.11257968 0.15205868 1.5582922 -0.06366078
0.1752062 -0.2003613 -0.099049024 -0.23516487 0.5553094 -0.055813435 -0.18745764 -0.2558231
-1.3512787 1.5370121 1.00172 -1.2075298 1.4845593 0.36294279 -0.91214246 1.1313959
0.51270294 -0.3594232 0.48412514 0.7187985 -0.12434259 -0.7005497 0.67763937 -1.8261381
-0.40532908 1.2759535 -2.655361 0.797892 -0.6710627 -1.8782253 1.0049627 -0.40094754
-2.2942262 0.039956804 -1.2226455 0.62492704 -0.29944417 1.2868451 0.5442428 0.55378073
0.5210498 -0.27718237 -0.28709495 -0.39890438 -0.23689301 0.32825813 -1.1216859 0.43244323
00000000: d6bc 933c 83bf e33e 6beb c2be 1068 14be
00000010: ae2e 66be ad98 3bbe 7c5b ac3d 7b45 7dbe
00000020: 1ecc 2abf 4263 debd ae3c e03e b1b1 4cbe
00000030: 388d e9be a2a8 0b3f dd18 06bf e901 423d
00000040: 580b 873e e9c4 9ebd 7b47 aabd cff3 c6bd
00000050: 330b 1dbe a04b 5cbe c463 fe3b f3ca 36be
00000060: 4acc ecbe a7c3 0e3f e98e 37bf 1aa7 cb3f
00000070: e208 24bf 4ed7 06c0 f20e e7bd a1c3 303f
00000080: f5fa f7bf 5678 343e ba1e b33f a070 8e3f
00000090: d729 f1bd 8e3a ba3f 3e45 c03e 59ec 5f3f
000000a0: 44e8 853f 5db1 a13f 8214 6a3f 4557 67bf
000000b0: dd58 ad3f 9808 863f 2917 1fbf 4a8d ba3f
000000c0: 2354 923e 8c61 d83f e9de bf3f 3e0a 4cbf
000000d0: 3cf3 543f e005 bebe 2f2a 98be ba76 473f
000000e0: 0de2 0f3f f85e bbbe a50a c63e 4056 3e3f
000000f0: f191 4a3e c741 633e 4aeb 813e d849 01bc
00000100: 5ca7 c33d a774 343e b6f6 eabe 5385 ad3c
00000110: 0119 003f c2a7 e93e 3594 2b3e dfe7 ab3f
00000120: 5abf 0dbf 072e 4f3e 8272 da3e 6b25 94be
00000130: 673e ff3e db8a a23e c11b b2be 09b6 7abe
00000140: 9ce9 4dbf ccc2 533f 0179 d3bf e3b1 96bf
00000150: e18d a0ba 32d9 fbbf 098e 1ebf 5546 24bf
00000160: 2335 c0bf a781 82bf 9670 2abf b2d0 c0bf
00000170: f493 083f 83aa 833f d8b5 e2bf 74b2 06bf
00000180: da2c 9d3e 4c16 c8bf 1199 9e3f 6cba 16bf
00000190: 2683 c8bf 2b94 9d3f 7ed2 66bb 3914 4cbf
000001a0: 3aea 053f b1e8 b43d 4ada 6cbf d118 ce3e
000001b0: d4c3 88bf 51f6 2840 9546 44c0 2c11 a33e
000001c0: 35db 1cbe b84c edbf acb9 03bf e76a f1be
000001d0: 0573 06c0 7303 28bf 92f5 c7be 298c 37bf
000001e0: c335 923f dec3 dbbe f096 b43e a13e d23e
000001f0: 7d43 e23e e2d2 203f bb63 02bf d31b 11bf
00000200: 4372 7b40 10ea e5be 6223 b63f 93fa 9340
00000210: 7a16 0d3f 8a84 b8bf dcb4 61bd c1db 59be
00000220: 89d3 403e 51d6 363e d2ee 093e 83a3 ccbd
00000230: ec1d e8bd 2934 22be d3db 563e 8ea0 21bf
00000240: c39d 7c3e 6a71 6fbd af0a 4bbf 50d8 f73d
00000250: b2a2 353e e3b5 f9be a668 67be 3324 a13e
00000260: c0d8 73bf 3319 733e 4b97 21be 70a2 dc3d
00000270: 7bf4 10be 14e7 883e d066 1ebf d797 41be
00000280: b5a4 d13d f4b9 efbe cd7a c2bd 9805 e83e
00000290: 8f58 243d 1074 81be 61f0 a43e ae94 06be
000002a0: 9539 85bf b651 46bf 8a55 67bf 81f2 70bf
000002b0: 6aca d73e 3693 8dbf e7c0 3cbf 8bbe 20be
000002c0: ac1b e43e 6727 3abf 249c 16bf a1f1 8cbf
000002d0: ecff 03bf 12f1 453e 97e1 003f 5906 73bf
000002e0: 4107 13bf 7097 703e 966c 9ebe bf64 b13e
000002f0: a45a 8abf 066f 9abe e1fb 8bbd 0792 dfbe
00000300: b467 b43d f890 63be 044b d03e eef6 b83d
00000310: ae29 82bb 2e30 133f 46ea 163c 7261 8e3e
00000320: e19f 553f 32ac b13d af63 77bb 1faa 2a3f
00000330: 2d90 e6bd 45b5 1b3e 1e76 c73f 9560 82bd
00000340: 4169 333e 832b 4dbe 37da cabd 0fcf 70be
00000350: c228 0e3f a19c 64bd e5f4 3fbe 3ffb 82be
00000360: b3f6 acbf d0bc c43f 5c38 803f 5690 9abf
00000370: 0a06 be3f a3d3 b93e 2b82 69bf 95d1 903f
00000380: 8040 033f 5106 b8be 40df f73e 2e03 383f
00000390: 54a7 febd 3a57 33bf c679 2d3f e5be e9bf
000003a0: 4b87 cfbe 7252 a33f 6ff1 29c0 a642 4c3f
000003b0: c4ca 2bbf b069 f0bf 9ea2 803f ff48 cdbe
000003c0: 9ad4 12c0 bfa9 233d a67f 9cbf 38fb 1f3f
000003d0: bf50 99be 57b7 a43f 7f53 0b3f 93c4 0d3f
000003e0: 8563 053f d9ea 8dbe 1cfe 92be 323d ccbe
000003f0: 1594 72be 7311 a83e 6793 8fbf 3369 dd3e

arith.constant10 f4 [128]
-0.3292451 -1.0618275 0.3160426 -0.536293 0.6427736 0.48258173 0.47715232 -0.8703534
2.2517002 0.92727786 0.004471621 0.7383074 0.18469606 0.26864472 0.39234197 1.0800503
0.8416452 0.837521 1.3218521 2.372335 0.9736672 -0.5482123 0.7975275 1.3678999
-0.8072254 1.1587594 -0.8297023 1.7602055 0.64084524 1.3921273 -0.014871049 0.24780978
0.5486066 0.6805892 -0.65246594 -0.3188208 -0.03795292 2.8396385 0.31096008 1.9198368
0.056334652 0.031623613 0.41804937 -0.066262916 0.4606036 0.58194894 -0.19256936 -0.06743472
2.2104075 2.7968261 0.209276 -0.040185653 2.6747644 0.16290423 1.008112 -0.47888172
0.8923314 0.68737626 0.37554932 0.4891193 0.22448032 1.0389855 0.8693447 0.59748083
0.13509253 -0.71667844 2.045449 -0.11273405 0.45617482 0.631189 0.28477463 0.82133836
2.1065898 1.4261906 0.27369374 0.47470844 1.1880026 2.1555886 1.7391638 -0.10463262
-0.012264828 0.44417048 1.6139618 -0.43265986 -0.70139277 -0.043653265 0.84299445 -2.5233889
1.8371233 0.61543447 0.45817885 0.36419147 1.219888 1.2473198 1.8462999 -0.5060354
1.1541818 1.6906505 0.3913392 0.8640294 1.2477397 0.8753096 0.47184005 0.11874845
0.5408516 2.0010574 -0.38970712 0.12250173 1.6250607 -0.59505534 1.2555315 -0.54722404
-0.35193166 1.7499264 2.7469451 2.3762634 0.17604314 2.5834513 1.3466281 0.26873115
0.5571857 -0.183249 2.632087 -0.21951404 -0.5009253 -0.10766138 2.9874377 2.3611279
00000000: d092 a8be f7e9 87bf 56d0 a13e 804a 09bf
00000010: d08c 243f f414 f73e 4f4d f43e 7bcf 5ebf
00000020: db1b 1040 1562 6d3f ad86 923b b701 3d3f
00000030: f720 3d3e cd8b 893e 0ce1 c83e 173f 8a3f
00000040: 0f76 573f c767 563f 7332 a93f 56d4 1740
00000050: 4142 793f a457 0cbf c32a 4c3f 5817 af3f
00000060: 53a6 4ebf 3a52 943f 5f67 54bf 6a4e e13f
00000070: 6f0e 243f 3a31 b23f b3a5 73bc d9c1 7d3e
00000080: 7b71 0c3f 183b 2e3f 0208 27bf 7b3c a3be
00000090: 8574 1bbd a3bc 3540 2936 9f3e 36bd f53f
000000a0: 2abf 663d c387 013d 910a d63e dab4 87bd
000000b0: 3cd4 eb3e 9bfa 143f e730 45be 371b 8abd
000000c0: 5177 0d40 33ff 3240 734c 563e b699 24bd
000000d0: 572f 2b40 5ed0 263e d009 813f fc2f f5be
000000e0: d56f 643f e4f7 2f3f 0048 c03e d86d fa3e
000000f0: 2bde 653e 7afd 843f 608d 5e3f 81f4 183f
00000100: b255 0a3e 3d78 37bf a3e8 0240 1ce1 e6bd
00000110: bf8f e93e 9a95 213f fbcd 913e 3b43 523f
00000120: 5ed2 0640 6a8d b63f 9621 8c3e fc0c f33e
00000130: 7810 983f 2af5 0940 eb9c de3f a149 d6bd
00000140: 6bf2 48bc 506a e33e 4d96 ce3f 9885 ddbe
00000150: 7a8e 33bf c4cd 32bd 7cce 573f 347f 21c0
00000160: db26 eb3f 1d8d 1d3f 6b96 ea3e 4e77 ba3e
00000170: 4a25 9c3f 2da8 9f3f 8e53 ec3f 898b 01bf
00000180: 3bbc 933f 3c67 d83f 9d5d c83e 0831 5d3f
00000190: efb5 9f3f 4a14 603f 0595 f13e 6332 f33d
000001a0: 4075 0a3f 5311 0040 b187 c7be 30e2 fa3d
000001b0: fd01 d03f 8c55 18bf 42b5 a03f e016 0cbf
000001c0: 6330 b4be 97fd df3f f3cd 2f40 b314 1840
000001d0: a744 343e 4457 2540 4f5e ac3f 2197 893e
000001e0: b9a3 0e3f a0a5 3bbe 1d74 2840 4ac8 60be
000001f0: a43c 00bf 927d dcbd 2e32 3f40 b81c 1740

arith.constant11 f4 [64]
-2.04073 0.44259685 0.2927967 0.12881528 0.4483781 -0.0245339 -0.83847475 -2.1540098
0.06717188 -0.004334852 -0.8915437 0.3020154 0.21897362 0.3980694 0.038566746 0.6200731
-0.29114148 0.28001142 0.52496076 -0.23590323 0.3168424 -0.11394108 0.15788613 0.16161403
-0.25928238 0.2902292 0.8701067 -0.29671046 0.6905032 -0.52944934 0.3525998 0.52333677
0.20255126 0.12940356 -0.15448055 -1.8727428 0.6801696 0.035708237 0.16983004 0.2483163
0.2105855 0.43643525 -0.17172351 0.13510439 -1.6053827 0.5486252 -1.4745978 -1.6446642
-0.20531742 0.29371476 0.29388928 -0.5670394 0.29448703 0.13120666 0.26461634 0.27922282
-1.117676 0.11988575 0.57569635 0.19899589 0.17077497 0.5908456 0.5493361 -0.5162385
00000000: 529b 02c0 0e9c e23e 73e9 953e 27e8 033e
00000010: d091 e53e 51fb c8bc 48a6 56bf 4cdb 09c0
00000020: 6991 893d 600b 8ebb 353c 64bf c3a1 9a3e
00000030: 9f3a 603e c1cf cb3e 2af8 1d3d 1cbd 1e3f
00000040: 7f10 95be a85d 8f3e d463 063f 9e90 71be
00000050: 2b39 a23e f159 e9bd e7ac 213e 267e 253e
00000060: a9c0 84be ec98 943e 50bf 5e3f 6fea 97be
00000070: d1c4 303f fe89 07bf f687 b43e 66f9 053f
00000080: 9969 4f3e 5e82 043e 2630 1ebe 09b6 efbf
00000090: 981f 2e3f cd42 123d ede7 2d3e a146 7e3e
000000a0: baa3 573e 7174 df3e 4ad8 2fbe ce58 0a3e
000000b0: 2e7d cdbf b372 0c3f 9fbf bcbf 5b84 d2bf
000000c0: bb3e 52be c861 963e a878 963e 7e29 11bf
000000d0: 01c7 963e 0a5b 063e cb7b 873e 4bf6 8e3e
000000e0: 0210 8fbf a986 f53d d660 133f 94c5 4b3e
000000f0: a2df 2e3e a841 173f 4aa1 0c3f 3528 04bf

arith.constant12 f4 [32]
0.95385695 -2.1674452 -2.0281339 0.15251109 -0.75887215 1.3602384 1.5932928 -2.0855546
-0.71041405 1.4416693 0.7028008 -1.7141736 -1.7635916 -0.9131311 -0.35370958 1.5486132
0.37630996 -1.1395947 0.4830576 -1.9802243 -0.61809814 0.13545778 -1.793268 1.7378454
0.89462715 -1.2523537 -1.4458716 0.70915717 -1.2827606 1.5768896 0.5419577 1.3661473
00000000: f82f 743f 6cb7 0ac0 f2cc 01c0 de2b 1c3e
00000010: 7245 42bf 4b1c ae3f 05f1 cb3f ba79 05c0
00000020: b2dd 35bf 9f88 b83f c1ea 333f 0a6a dbbf
00000030: 5fbd e1bf f6c2 69bf 6c19 b5be f538 c63f
00000040: b3ab c03e 3dde 91bf 5353 f73e fd77 fdbf
00000050: ae3b 1ebf 72b5 0a3e ce89 e5bf b871 de3f
00000060: 4906 653f 204d a0bf 5212 b9bf 538b 353f
00000070: 8031 a4bf 85d7 c93f bdbd 0a3f eadd ae3f

tfl.pseudo_qconst i1 [128, 1, 5, 64]
81 13 12 22 -20 9 -8 45
8 65 39 32 28 -85 61 -26
18 10 -114 39 12 23 21 7
55 37 -35 50 -9 52 17 -38
31 34 28 81 -5 54 -3 31
41 -2 10 -1 22 -48 42 86
14 7 -7 50 58 15 33 61
70 35 23 -6 20 13 -127 5
94 10 13 11 -2 -5 39 42
-2 21 68 -3 56 -55 60 -65
43 4 -109 -4 -15 47 5 27
52 11 -55 -10 -6 14 -9 -16
8 40 9 69 6 -3 24 33
-1 24 53 -17 60 -3 -3 10
64 1 16 67 13 23 49 27
61 49 21 2 19 25 -107 55
18 -38 11 -37 28 -34 49 43
44 54 34 55 21 -38 22 -44
46 -17 5 23 -7 6 24 22
-2 43 -44 3 -6 60 -39 -22
7 40 8 45 -14 18 51 20
-15 7 53 -7 10 -20 65 36
34 -14 20 54 18 30 57 15
12 37 -21 15 45 7 -72 39
84 -75 39 -8 4 20 -12 101
-1 31 53 45 37 -72 11 -65
35 45 -56 71 46 27 51 70
-4 34 -23 16 -9 29 -33 -102
52 20 3 24 0 -25 51 10
-89 -40 13 -27 3 -57 91 36
39 -37 3 51 34 30 -15 21
49 16 -83 31 18 -58 -72 11
00000000: 510d 0c16 ec09 f82d 0841 2720 1cab 3de6
00000010: 120a 8e27 0c17 1507 3725 dd32 f734 11da
00000020: 1f22 1c51 fb36 fd1f 29fe 0aff 16d0 2a56
00000030: 0e07 f932 3a0f 213d 4623 17fa 140d 8105
00000040: 5e0a 0d0b fefb 272a fe15 44fd 38c9 3cbf
00000050: 2b04 93fc f12f 051b 340b c9f6 fa0e f7f0
00000060: 0828 0945 06fd 1821 ff18 35ef 3cfd fd0a
00000070: 4001 1043 0d17 311b 3d31 1502 1319 9537
00000080: 12da 0bdb 1cde 312b 2c36 2237 15da 16d4
00000090: 2eef 0517 f906 1816 fe2b d403 fa3c d9ea
000000a0: 0728 082d f212 3314 f107 35f9 0aec 4124
000000b0: 22f2 1436 121e 390f 0c25 eb0f 2d07 b827
000000c0: 54b5 27f8 0414 f465 ff1f 352d 25b8 0bbf
000000d0: 232d c847 2e1b 3346 fc22 e910 f71d df9a
000000e0: 3414 0318 00e7 330a a7d8 0de5 03c7 5b24
000000f0: 27db 0333 221e f115 3110 ad1f 12c6 b80b

tfl.pseudo_qconst1 i1 [64, 1, 7, 32]
28 42 41 -50 10 9 16 38
-32 -23 -33 -15 89 41 44 52
15 -1 -5 82 19 -39 35 45
-23 -25 76 24 -30 -2 75 -24
30 38 31 29 18 24 -18 68
-49 12 0 -10 72 49 107 28
64 50 18 32 -7 56 47 81
67 41 59 35 1 -7 71 1
4 52 45 9 33 51 40 45
-1 52 2 17 30 10 127 11
86 22 27 83 41 -2 48 36
33 16 67 11 29 27 61 25
9 57 -7 -34 5 12 -15 52
11 21 72 39 29 -35 80 27
79 24 48 78 61 28 21 40
28 -17 60 17 33 34 60 30
19 18 40 -2 -2 75 68 16
-30 83 0 50 77 -1 30 67
68 33 54 43 15 48 65 73
72 1 19 65 53 81 68 46
82 11 47 12 10 48 58 35
-12 16 -3 28 38 49 53 82
28 19 65 75 30 48 76 75
64 35 28 -9 14 81 52 48
91 35 -28 0 71 29 63 64
-59 62 42 19 50 -14 12 60
47 -21 54 8 69 37 -5 74
81 51 24 88 60 57 88 31
-15 -3 -64 -12 -2 -23 -9 -29
3 23 -38 -7 -9 -22 26 -17
13 -20 6 -23 13 34 -22 9
48 -22 -5 -23 -8 -20 -17 -28
00000000: 1c2a 29ce 0a09 1026 e0e9 dff1 5929 2c34
00000010: 0fff fb52 13d9 232d e9e7 4c18 e2fe 4be8
00000020: 1e26 1f1d 1218 ee44 cf0c 00f6 4831 6b1c
00000030: 4032 1220 f938 2f51 4329 3b23 01f9 4701
00000040: 0434 2d09 2133 282d ff34 0211 1e0a 7f0b
00000050: 5616 1b53 29fe 3024 2110 430b 1d1b 3d19
00000060: 0939 f9de 050c f134 0b15 4827 1ddd 501b
00000070: 4f18 304e 3d1c 1528 1cef 3c11 2122 3c1e
00000080: 1312 28fe fe4b 4410 e253 0032 4dff 1e43
00000090: 4421 362b 0f30 4149 4801 1341 3551 442e
000000a0: 520b 2f0c 0a30 3a23 f410 fd1c 2631 3552
000000b0: 1c13 414b 1e30 4c4b 4023 1cf7 0e51 3430
000000c0: 5b23 e400 471d 3f40 c53e 2a13 32f2 0c3c
000000d0: 2feb 3608 4525 fb4a 5133 1858 3c39 581f
000000e0: f1fd c0f4 fee9 f7e3 0317 daf9 f7ea 1aef
000000f0: 0dec 06e9 0d22 ea09 30ea fbe9 f8ec efe4

tfl.pseudo_qconst2 i1 [64, 128]
-33 -12 -25 18 27 24 23 -6
-22 39 1 -39 -2 14 46 -1
44 21 -79 5 9 -35 10 28
-49 10 -20 -34 16 31 -19 -62
-65 -16 26 -77 17 2 -19 -83
-47 -61 -17 -32 6 8 -13 -23
20 35 -3 8 29 -6 16 -11
-22 14 2 -89 -46 34 -26 8
-3 -5 -99 -50 -102 -27 52 -58
52 -36 49 12 -75 -18 -44 14
-47 -126 13 -27 -39 51 -36 -18
-19 -67 32 -36 3 -10 -37 -24
-1 -17 -9 -5 12 -35 -48 -50
-13 -57 -48 37 33 -40 -60 -82
2 -73 14 50 -41 53 56 17
-53 -25 -20 -2 -29 -127 -67 15
-49 -34 -61 -10 -20 -17 31 -44
-5 -14 -40 6 -8 -60 -22 -20
22 -15 -127 -37 -3 -3 19 8
-3 16 -63 15 -5 -13 -20 -48
-45 -13 -84 51 41 -5 -17 -43
-31 30 -44 -5 17 6 37 -2
-27 -21 -3 33 24 31 -55 1
-10 19 -13 -42 25 -10 -11 -29
37 -27 44 -36 -110 3 11 17
-20 6 32 -64 -30 23 -4 -57
4 -104 1 16 30 32 -7 19
-38 -4 20 -2 17 -5 4 -23
-17 -62 -30 -26 35 -36 -3 -14
-4 32 8 24 -1 -21 25 -84
-27 19 24 -28 -49 -8 -27 14
-4 -23 -26 -62 0 -59 -30 -29
00000000: dff4 e712 1b18 17fa ea27 01d9 fe0e 2eff
00000010: 2c15 b105 09dd 0a1c cf0a ecde 101f edc2
00000020: bff0 1ab3 1102 edad d1c3 efe0 0608 f3e9
00000030: 1423 fd08 1dfa 10f5 ea0e 02a7 d222 e608
00000040: fdfb 9dce 9ae5 34c6 34dc 310c b5ee d40e
00000050: d182 0de5 d933 dcee edbd 20dc 03f6 dbe8
00000060: ffef f7fb 0cdd d0ce f3c7 d025 21d8 c4ae
00000070: 02b7 0e32 d735 3811 cbe7 ecfe e381 bd0f
00000080: cfde c3f6 ecef 1fd4 fbf2 d806 f8c4 eaec
00000090: 16f1 81db fdfd 1308 fd10 c10f fbf3 ecd0
000000a0: d3f3 ac33 29fb efd5 e11e d4fb 1106 25fe
000000b0: e5eb fd21 181f c901 f613 f3d6 19f6 f5e3
000000c0: 25e5 2cdc 9203 0b11 ec06 20c0 e217 fcc7
000000d0: 0498 0110 1e20 f913 dafc 14fe 11fb 04e9
000000e0: efc2 e2e6 23dc fdf2 fc20 0818 ffeb 19ac
000000f0: e513 18e4 cff8 e50e fce9 e6c2 00c5 e2e3

tfl.pseudo_qconst3 i1 [128, 128]
-1 11 74 34 -14 24 -63 8
15 46 -72 17 -2 25 8 -18
-25 16 -7 -61 -54 -43 2 -52
8 28 24 -67 -13 -62 -97 3
46 24 -3 -24 -34 -72 1 5
-7 1 -7 -70 -80 -12 15 -14
-9 12 -13 0 16 15 -16 -2
4 -46 27 32 17 -21 -58 39
-22 45 -12 56 -23 7 51 72
-1 22 -48 29 -18 -5 -2 13
-67 -38 -31 27 -127 -122 -18 -14
-14 15 47 53 -49 16 3 -11
-14 -52 53 57 -1 -16 72 63
-14 -20 -13 9 -74 58 -38 -20
-2 -49 24 -17 -47 -40 82 -17
47 24 -64 -123 -13 -62 24 -10
-48 -15 -32 -53 34 -120 26 -110
16 -67 11 66 -10 61 -61 31
15 42 -38 22 -33 -29 -96 -77
-34 -9 60 -105 -29 -7 25 50
-68 -111 -85 36 -121 10 -57 -63
-19 -40 25 -18 52 77 -102 114
-98 -46 18 43 -37 -24 -12 -28
55 -58 -46 -93 -6 14 -63 28
34 78 -80 -59 -14 49 101 -91
38 47 -95 -122 21 -28 28 6
-66 33 -119 -55 17 0 35 -80
-3 11 -117 -57 64 -41 -1 -127
-62 -42 11 -88 -75 -1 35 26
-93 -17 -5 -5 4 -35 -62 -98
3 17 4 -61 45 43 -101 -60
75 -86 -21 7 57 -121 40 -49
00000000: ff0b 4a22 f218 c108 0f2e b811 fe19 08ee
00000010: e710 f9c3 cad5 02cc 081c 18bd f3c2 9f03
00000020: 2e18 fde8 deb8 0105 f901 f9ba b0f4 0ff2
00000030: f70c f300 100f f0fe 04d2 1b20 11eb c627
00000040: ea2d f438 e907 3348 ff16 d01d eefb fe0d
00000050: bdda e11b 8186 eef2 f20f 2f35 cf10 03f5
00000060: f2cc 3539 fff0 483f f2ec f309 b63a daec
00000070: fecf 18ef d1d8 52ef 2f18 c085 f3c2 18f6
00000080: d0f1 e0cb 2288 1a92 10bd 0b42 f63d c31f
00000090: 0f2a da16 dfe3 a0b3 def7 3c97 e3f9 1932
000000a0: bc91 ab24 870a c7c1 edd8 19ee 344d 9a72
000000b0: 9ed2 122b dbe8 f4e4 37c6 d2a3 fa0e c11c
000000c0: 224e b0c5 f231 65a5 262f a186 15e4 1c06
000000d0: be21 89c9 1100 23b0 fd0b 8bc7 40d7 ff81
000000e0: c2d6 0ba8 b5ff 231a a3ef fbfb 04dd c29e
000000f0: 0311 04c3 2d2b 9bc4 4baa eb07 3987 28cf
