ML/models/conv1d_angle_toro_ossaba/seed3_20260117_045953_614/model_int8.tflite (tflite, 99296 bytes, 6 tensors)

tfl.pseudo_qconst1 i1 [1, 64] scale=0.004838674 zero_point=0
0	0x08	0.03870939
1	0x1f	0.14999889
2	0xcd	-0.24677236
3	0xcf	-0.23709501
4	0x11	0.08225746
5	0xe0	-0.15483756
6	0x7f	0.6145116
7	0xfb	-0.024193369
8	0x07	0.033870716
9	0xe1	-0.14999889
10	0xd7	-0.19838563
11	0xe8	-0.11612818
12	0xe1	-0.14999889
13	0xe3	-0.14032154
14	0xf8	-0.03870939
15	0xd2	-0.222579
16	0x0f	0.07258011
17	0xed	-0.0919348
18	0x00	0.0
19	0x16	0.106450826
20	0x10	0.07741878
21	0xe6	-0.12580553
22	0x1d	0.14032154
23	0x5c	0.445158
24	0xae	-0.39677125
25	0x25	0.17903094
26	0x12	0.08709613
27	0xde	-0.16451491
28	0xee	-0.08709613
29	0xd6	-0.2032243
30	0x16	0.106450826
31	0xdc	-0.17419226
32	0xd5	-0.20806298
33	0x43	0.32419115
34	0x08	0.03870939
35	0xf8	-0.03870939
36	0x14	0.096773475
37	0xf9	-0.033870716
38	0x0b	0.053225413
39	0x1d	0.14032154
40	0xdc	-0.17419226
41	0x0a	0.048386738
42	0x1e	0.14516021
43	0xf7	-0.043548066
44	0xe8	-0.11612818
45	0x13	0.0919348
46	0x14	0.096773475
47	0x2e	0.222579
48	0xe5	-0.13064419
49	0x33	0.24677236
50	0x11	0.08225746
51	0xd7	-0.19838563
52	0xe7	-0.120966844
53	0xf7	-0.043548066
54	0x0c	0.05806409
55	0x1d	0.14032154
56	0x17	0.1112895
57	0xdc	-0.17419226
58	0xde	-0.16451491
59	0x0f	0.07258011
60	0x21	0.15967624
61	0x04	0.019354695
62	0xf8	-0.03870939
63	0xdf	-0.15967624

tfl.pseudo_qconst3 i1 [64, 128]
0	0x01	1
1	0x28	40
2	0x0a	10
3	0x1e	30
4	0xb8	-72
5	0x27	39
6	0x1c	28
7	0xca	-54
8	0xd5	-43
9	0x18	24
10	0x09	9
11	0x0d	13
12	0x03	3
13	0x31	49
14	0xf2	-14
15	0xdf	-33
16	0x20	32
17	0x23	35
18	0xe0	-32
19	0x0f	15
20	0xdf	-33
21	0x2a	42
22	0x24	36
23	0x07	7
24	0x08	8
25	0xda	-38
26	0x90	-112
27	0x23	35
28	0xdc	-36
29	0x13	19
30	0xef	-17
31	0xce	-50
32	0x1e	30
33	0xed	-19
34	0x22	34
35	0x1e	30
36	0x22	34
37	0xec	-20
38	0xc9	-55
39	0x09	9
40	0x07	7
41	0xd0	-48
42	0xf1	-15
43	0x15	21
44	0xd9	-39
45	0xfe	-2
46	0xe6	-26
47	0xe7	-25
48	0xd0	-48
49	0x13	19
50	0xef	-17
51	0xf4	-12
52	0xc5	-59
53	0x81	-127
54	0x23	35
55	0x39	57
56	0xd4	-44
57	0x1d	29
58	0xe4	-28
59	0x1c	28
60	0x25	37
61	0xd0	-48
62	0xda	-38
63	0xbf	-65
64	0x32	50
65	0x32	50
66	0xe0	-32
67	0x02	2
68	0x23	35
69	0x07	7
70	0xe1	-31
71	0xfe	-2
72	0x21	33
73	0x12	18
74	0xd7	-41
75	0xf5	-11
76	0x1b	27
77	0xcf	-49
78	0x35	53
79	0x29	41
80	0x06	6
81	0xe5	-27
82	0xf6	-10
83	0xea	-22
84	0xa3	-93
85	0x0e	14
86	0xf3	-13
87	0xcf	-49
88	0xfa	-6
89	0x01	1
90	0x0d	13
91	0xe3	-29
92	0xeb	-21
93	0xd0	-48
94	0x2a	42
95	0x1b	27
96	0xc9	-55
97	0xd3	-45
98	0xbc	-68
99	0xd6	-42
100	0xe5	-27
101	0xcb	-53
102	0xe3	-29
103	0xd3	-45
104	0x0d	13
105	0xd5	-43
106	0x15	21
107	0xcd	-51
108	0xcc	-52
109	0x1a	26
110	0x17	23
111	0xa5	-91
112	0x2b	43
113	0xdc	-36
114	0x0e	14
115	0x20	32
116	0x2d	45
117	0x27	39
118	0x21	33
119	0x00	0
120	0x01	1
121	0x01	1
122	0x2d	45
123	0x04	4
124	0x09	9
125	0xf1	-15
126	0x14	20
127	0xcd	-51
128	0xec	-20
129	0xeb	-21
130	0xfa	-6
131	0xcc	-52
132	0xd1	-47
133	0x21	33
134	0xf3	-13
135	0xdb	-37
136	0xc9	-55
137	0xf8	-8
138	0x04	4
139	0x1c	28
140	0x16	22
141	0xf7	-9
142	0xde	-34
143	0xfc	-4
144	0xe6	-26
145	0xfb	-5
146	0x09	9
147	0x13	19
148	0xe7	-25
149	0xff	-1
150	0x1a	26
151	0x10	16
152	0x1c	28
153	0xfc	-4
154	0xea	-22
155	0x06	6
156	0xfb	-5
157	0x24	36
158	0x0a	10
159	0x08	8
160	0x05	5
161	0xf9	-7
162	0x03	3
163	0xe9	-23
164	0x81	-127
165	0x03	3
166	0xdd	-35
167	0x0a	10
168	0x26	38
169	0xfe	-2
170	0x0a	10
171	0xeb	-21
172	0xd3	-45
173	0x12	18
174	0xfd	-3
175	0x00	0
176	0x18	24
177	0x0c	12
178	0xe1	-31
179	0xf0	-16
180	0xf3	-13
181	0xff	-1
182	0x20	32
183	0xf8	-8
184	0x22	34
185	0xf3	-13
186	0x12	18
187	0xff	-1
188	0x00	0
189	0xe8	-24
190	0x1c	28
191	0x0b	11
192	0xf2	-14
193	0xea	-22
194	0xc6	-58
195	0x04	4
196	0x25	37
197	0x18	24
198	0x01	1
199	0x00	0
200	0xf0	-16
201	0x08	8
202	0xf4	-12
203	0x20	32
204	0xe6	-26
205	0x1d	29
206	0x22	34
207	0xdf	-33
208	0xf7	-9
209	0xf1	-15
210	0x00	0
211	0x10	16
212	0x00	0
213	0x01	1
214	0xd7	-41
215	0xf2	-14
216	0x0a	10
217	0xdc	-36
218	0xda	-38
219	0x1a	26
220	0x0d	13
221	0x11	17
222	0x14	20
223	0x0e	14
224	0xea	-22
225	0x07	7
226	0xdd	-35
227	0xc7	-57
228	0x1e	30
229	0x00	0
230	0xed	-19
231	0x06	6
232	0x08	8
233	0x0d	13
234	0xe3	-29
235	0xf2	-14
236	0xf6	-10
237	0x08	8
238	0x0a	10
239	0xe6	-26
240	0xe1	-31
241	0xff	-1
242	0x2d	45
243	0x10	16
244	0xf5	-11
245	0xe7	-25
246	0x15	21
247	0xec	-20
248	0x23	35
249	0x02	2
250	0x00	0
251	0x04	4
252	0x04	4
253	0xf2	-14
254	0xf7	-9
255	0x11	17

tfl.pseudo_qconst5 i1 [128, 128]
0	0xb1	-79
1	0x4f	79
2	0xdf	-33
3	0x35	53
4	0x0f	15
5	0x45	69
6	0x99	-103
7	0x22	34
8	0x70	112
9	0xc6	-58
10	0xbf	-65
11	0x62	98
12	0x3b	59
13	0x4e	78
14	0xc9	-55
15	0xe7	-25
16	0x3d	61
17	0xbd	-67
18	0x85	-123
19	0x16	22
20	0x57	87
21	0xc3	-61
22	0x9d	-99
23	0xe2	-30
24	0x66	102
25	0x1e	30
26	0x9c	-100
27	0xd4	-44
28	0xc1	-63
29	0xbb	-69
30	0xa0	-96
31	0x82	-126
32	0x31	49
33	0x11	17
34	0x11	17
35	0x5e	94
36	0x81	-127
37	0x3e	62
38	0xb0	-80
39	0xa0	-96
40	0xc2	-62
41	0xe5	-27
42	0x54	84
43	0x31	49
44	0x89	-119
45	0xf5	-11
46	0x4d	77
47	0x63	99
48	0x31	49
49	0xf8	-8
50	0xd1	-47
51	0xac	-84
52	0x99	-103
53	0x86	-122
54	0xd3	-45
55	0xea	-22
56	0xce	-50
57	0x9d	-99
58	0x2b	43
59	0x57	87
60	0x91	-111
61	0xa7	-89
62	0x77	119
63	0x25	37
64	0x9c	-100
65	0xe2	-30
66	0x1a	26
67	0xfa	-6
68	0x46	70
69	0x4e	78
70	0xe3	-29
71	0x8d	-115
72	0xdd	-35
73	0x74	116
74	0x40	64
75	0xe1	-31
76	0x2f	47
77	0x02	2
78	0xf7	-9
79	0xdc	-36
80	0xa0	-96
81	0xb3	-77
82	0x83	-125
83	0x35	53
84	0x8b	-117
85	0xfe	-2
86	0xe2	-30
87	0xe7	-25
88	0x35	53
89	0x2f	47
90	0x20	32
91	0xb7	-73
92	0xd5	-43
93	0xf7	-9
94	0xe9	-23
95	0x31	49
96	0x20	32
97	0xc5	-59
98	0x8d	-115
99	0x3f	63
100	0x23	35
101	0xdb	-37
102	0x5b	91
103	0xda	-38
104	0x34	52
105	0x4b	75
106	0xfd	-3
107	0x0c	12
108	0xfa	-6
109	0x9b	-101
110	0x89	-119
111	0xcf	-49
112	0x50	80
113	0xfe	-2
114	0x03	3
115	0xef	-17
116	0x77	119
117	0x35	53
118	0x6a	106
119	0x06	6
120	0x05	5
121	0x5d	93
122	0xdf	-33
123	0xe3	-29
124	0x89	-119
125	0x85	-123
126	0x96	-106
127	0x82	-126
128	0x95	-107
129	0x0e	14
130	0x9e	-98
131	0xc5	-59
132	0xe5	-27
133	0xd4	-44
134	0x81	-127
135	0x8e	-114
136	0xa7	-89
137	0x67	103
138	0xd2	-46
139	0xd8	-40
140	0x02	2
141	0xa4	-92
142	0x50	80
143	0xf1	-15
144	0xdb	-37
145	0x13	19
146	0x24	36
147	0x9c	-100
148	0x14	20
149	0x8f	-113
150	0x18	24
151	0xf0	-16
152	0x44	68
153	0x2f	47
154	0xf3	-13
155	0xb6	-74
156	0x54	84
157	0xe9	-23
158	0xbd	-67
159	0xbd	-67
160	0x16	22
161	0x62	98
162	0x1d	29
163	0x9f	-97
164	0x09	9
165	0x52	82
166	0x0f	15
167	0xa8	-88
168	0xd7	-41
169	0x95	-107
170	0x23	35
171	0xad	-83
172	0x37	55
173	0x86	-122
174	0xfc	-4
175	0x22	34
176	0x98	-104
177	0xb1	-79
178	0x9b	-101
179	0xc3	-61
180	0x90	-112
181	0x52	82
182	0xe3	-29
183	0xb2	-78
184	0x03	3
185	0x91	-111
186	0x58	88
187	0x51	81
188	0x1e	30
189	0xe7	-25
190	0x1a	26
191	0x29	41
192	0xe4	-28
193	0x91	-111
194	0x52	82
195	0x96	-106
196	0x6b	107
197	0xbb	-69
198	0xe5	-27
199	0x33	51
200	0x9b	-101
201	0xed	-19
202	0xca	-54
203	0x2a	42
204	0x6c	108
205	0xfd	-3
206	0x27	39
207	0x44	68
208	0x48	72
209	0xe6	-26
210	0x04	4
211	0x96	-106
212	0x14	20
213	0x35	53
214	0xf4	-12
215	0x26	38
216	0xdb	-37
217	0x3d	61
218	0xc8	-56
219	0x4c	76
220	0xdf	-33
221	0x50	80
222	0xbc	-68
223	0x65	101
224	0x17	23
225	0xf1	-15
226	0xd2	-46
227	0x8c	-116
228	0x95	-107
229	0xcd	-51
230	0xea	-22
231	0xe5	-27
232	0xfa	-6
233	0xaf	-81
234	0xdc	-36
235	0x38	56
236	0x9c	-100
237	0x60	96
238	0x0c	12
239	0x1e	30
240	0x60	96
241	0xc2	-62
242	0xd3	-45
243	0x3d	61
244	0x29	41
245	0xff	-1
246	0x22	34
247	0x0b	11
248	0x16	22
249	0xe4	-28
250	0xa9	-87
251	0x70	112
252	0xaf	-81
253	0xfa	-6
254	0xa2	-94
255	0x1f	31

tfl.pseudo_qconst7 i1 [128, 1, 5, 64]
0	0x37	55
1	0x2a	42
2	0xe7	-25
3	0x2a	42
4	0x13	19
5	0xf4	-12
6	0xba	-70
7	0x0f	15
8	0x0e	14
9	0xc4	-60
10	0x06	6
11	0x08	8
12	0xf4	-12
13	0x0e	14
14	0xe4	-28
15	0xf4	-12
16	0xee	-18
17	0xf7	-9
18	0x07	7
19	0xba	-70
20	0x4a	74
21	0x0d	13
22	0xcb	-53
23	0x23	35
24	0xe2	-30
25	0xeb	-21
26	0x0e	14
27	0x31	49
28	0xdb	-37
29	0x49	73
30	0xf4	-12
31	0xd8	-40
32	0xde	-34
33	0x01	1
34	0x48	72
35	0xe3	-29
36	0x14	20
37	0xc5	-59
38	0x1e	30
39	0x1c	28
40	0xdb	-37
41	0xfe	-2
42	0xf1	-15
43	0x00	0
44	0x01	1
45	0xe7	-25
46	0x39	57
47	0x2a	42
48	0xbf	-65
49	0xf1	-15
50	0xf5	-11
51	0xce	-50
52	0xbb	-69
53	0xee	-18
54	0x04	4
55	0xf1	-15
56	0x32	50
57	0x0c	12
58	0xff	-1
59	0x13	19
60	0x17	23
61	0xe8	-24
62	0x2b	43
63	0xd2	-46
64	0x2f	47
65	0x06	6
66	0xed	-19
67	0x0c	12
68	0xf6	-10
69	0x36	54
70	0xeb	-21
71	0x3b	59
72	0xb7	-73
73	0xad	-83
74	0x57	87
75	0x02	2
76	0xcf	-49
77	0x1c	28
78	0xf8	-8
79	0xf1	-15
80	0x05	5
81	0xc6	-58
82	0x12	18
83	0xd3	-45
84	0x5d	93
85	0x1e	30
86	0xe7	-25
87	0x2b	43
88	0x03	3
89	0xe0	-32
90	0xe7	-25
91	0x14	20
92	0xd9	-39
93	0x1b	27
94	0xf3	-13
95	0xb8	-72
96	0xb6	-74
97	0x4e	78
98	0x4c	76
99	0x2c	44
100	0xdf	-33
101	0xe0	-32
102	0x02	2
103	0x50	80
104	0xe1	-31
105	0xd1	-47
106	0xbd	-67
107	0x01	1
108	0x1c	28
109	0x03	3
110	0x16	22
111	0x26	38
112	0xf1	-15
113	0xc4	-60
114	0x2c	44
115	0x10	16
116	0xab	-85
117	0x21	33
118	0x23	35
119	0xf4	-12
120	0xfe	-2
121	0x22	34
122	0xb7	-73
123	0x3d	61
124	0xe5	-27
125	0xda	-38
126	0x1c	28
127	0xde	-34
128	0x37	55
129	0xd3	-45
130	0xb2	-78
131	0x0e	14
132	0xf7	-9
133	0x50	80
134	0xb3	-77
135	0xd6	-42
136	0xb7	-73
137	0xb4	-76
138	0x08	8
139	0x19	25
140	0xeb	-21
141	0xcc	-52
142	0x15	21
143	0xf2	-14
144	0x66	102
145	0xfb	-5
146	0x20	32
147	0xf1	-15
148	0x5f	95
149	0x26	38
150	0xef	-17
151	0x1c	28
152	0x00	0
153	0xd4	-44
154	0xce	-50
155	0x24	36
156	0x03	3
157	0x22	34
158	0x25	37
159	0xe4	-28
160	0xcd	-51
161	0x1f	31
162	0x5e	94
163	0xc9	-55
164	0x15	21
165	0xdf	-33
166	0x13	19
167	0x13	19
168	0xf1	-15
169	0xfc	-4
170	0xd9	-39
171	0x12	18
172	0x05	5
173	0xd4	-44
174	0xfc	-4
175	0x23	35
176	0xf4	-12
177	0xad	-83
178	0xed	-19
179	0xd5	-43
180	0xae	-82
181	0xea	-22
182	0x38	56
183	0xfd	-3
184	0x07	7
185	0x21	33
186	0xc4	-60
187	0x22	34
188	0xee	-18
189	0xe4	-28
190	0x24	36
191	0xef	-17
192	0x68	104
193	0x2c	44
194	0xda	-38
195	0xf5	-11
196	0xf5	-11
197	0x45	69
198	0xc6	-58
199	0x48	72
200	0xb9	-71
201	0xc2	-62
202	0x3d	61
203	0x3b	59
204	0xb5	-75
205	0x19	25
206	0x08	8
207	0xef	-17
208	0xfb	-5
209	0xcd	-51
210	0xf0	-16
211	0xa6	-90
212	0x6f	111
213	0x26	38
214	0xc6	-58
215	0xf4	-12
216	0xe1	-31
217	0xad	-83
218	0x54	84
219	0x10	16
220	0x06	6
221	0x47	71
222	0xdc	-36
223	0xd3	-45
224	0xbc	-68
225	0x1b	27
226	0x7f	127
227	0xd6	-42
228	0xfd	-3
229	0xbb	-69
230	0x46	70
231	0x17	23
232	0xed	-19
233	0xf3	-13
234	0xb0	-80
235	0xf7	-9
236	0x27	39
237	0x00	0
238	0x18	24
239	0x0c	12
240	0xf0	-16
241	0xac	-84
242	0xf5	-11
243	0x12	18
244	0xec	-20
245	0x50	80
246	0x22	34
247	0xfb	-5
248	0xf2	-14
249	0xe7	-25
250	0xf6	-10
251	0x3f	63
252	0x35	53
253	0xfe	-2
254	0x2a	42
255	0xb8	-72

tfl.pseudo_qconst9 i1 [64, 1, 7, 32]
0	0x2f	47
1	0xfa	-6
2	0xec	-20
3	0x53	83
4	0x16	22
5	0x32	50
6	0x4b	75
7	0xeb	-21
8	0xd7	-41
9	0xaf	-81
10	0x22	34
11	0xe2	-30
12	0x16	22
13	0xf6	-10
14	0x55	85
15	0x10	16
16	0x11	17
17	0x13	19
18	0xf1	-15
19	0x39	57
20	0xf9	-7
21	0x34	52
22	0x4a	74
23	0x28	40
24	0x40	64
25	0xfe	-2
26	0x4a	74
27	0xd4	-44
28	0xfb	-5
29	0x00	0
30	0x61	97
31	0x25	37
32	0x37	55
33	0xe3	-29
34	0xfb	-5
35	0x00	0
36	0x12	18
37	0x69	105
38	0x3c	60
39	0xf6	-10
40	0xf4	-12
41	0xd8	-40
42	0x04	4
43	0x33	51
44	0x2a	42
45	0xbf	-65
46	0x40	64
47	0x26	38
48	0xd3	-45
49	0x18	24
50	0x22	34
51	0x28	40
52	0x1f	31
53	0x25	37
54	0x69	105
55	0x0f	15
56	0x3e	62
57	0xfe	-2
58	0x3d	61
59	0xd4	-44
60	0xf4	-12
61	0x45	69
62	0x50	80
63	0x28	40
64	0x0b	11
65	0x30	48
66	0x06	6
67	0x47	71
68	0x37	55
69	0x45	69
70	0x59	89
71	0x10	16
72	0xbc	-68
73	0x93	-109
74	0x0e	14
75	0x16	22
76	0x10	16
77	0xbd	-67
78	0x39	57
79	0x24	36
80	0x05	5
81	0x23	35
82	0x13	19
83	0x19	25
84	0x2d	45
85	0x08	8
86	0x1c	28
87	0x10	16
88	0x27	39
89	0xf7	-9
90	0x27	39
91	0xd6	-42
92	0x0c	12
93	0x36	54
94	0x0f	15
95	0x11	17
96	0x2c	44
97	0x00	0
98	0x00	0
99	0x2f	47
100	0xfd	-3
101	0x62	98
102	0x35	53
103	0xea	-22
104	0xe4	-28
105	0x2f	47
106	0xf8	-8
107	0x42	66
108	0x32	50
109	0x2b	43
110	0x1f	31
111	0x0a	10
112	0x0d	13
113	0x10	16
114	0x52	82
115	0xdd	-35
116	0x09	9
117	0xe5	-27
118	0x25	37
119	0x22	34
120	0x43	67
121	0xf3	-13
122	0x11	17
123	0xfb	-5
124	0x11	17
125	0x3c	60
126	0x69	105
127	0x2e	46
128	0x39	57
129	0x0e	14
130	0x29	41
131	0x19	25
132	0x1d	29
133	0x45	69
134	0x5c	92
135	0xdc	-36
136	0xf9	-7
137	0xdb	-37
138	0x10	16
139	0x1b	27
140	0x05	5
141	0xc9	-55
142	0x45	69
143	0x0c	12
144	0x23	35
145	0xe5	-27
146	0x3d	61
147	0x15	21
148	0x1f	31
149	0x26	38
150	0x45	69
151	0xf6	-10
152	0x1d	29
153	0x19	25
154	0x3e	62
155	0xeb	-21
156	0xef	-17
157	0x10	16
158	0x2e	46
159	0xe5	-27
160	0x22	34
161	0x6b	107
162	0x1b	27
163	0x36	54
164	0x2a	42
165	0x39	57
166	0x6d	109
167	0x10	16
168	0xe6	-26
169	0xf1	-15
170	0x12	18
171	0x2a	42
172	0x14	20
173	0x2c	44
174	0x61	97
175	0x47	71
176	0x19	25
177	0x05	5
178	0x32	50
179	0x13	19
180	0xe5	-27
181	0x16	22
182	0x69	105
183	0x16	22
184	0x47	71
185	0xf3	-13
186	0x6a	106
187	0x1e	30
188	0x12	18
189	0x3b	59
190	0x36	54
191	0x43	67
192	0x1d	29
193	0x53	83
194	0x22	34
195	0x3f	63
196	0x46	70
197	0x30	48
198	0x37	55
199	0xe3	-29
200	0x15	21
201	0xc1	-63
202	0xfa	-6
203	0x21	33
204	0xf5	-11
205	0xff	-1
206	0x48	72
207	0x7f	127
208	0x2d	45
209	0x36	54
210	0x1b	27
211	0x39	57
212	0xf2	-14
213	0x35	53
214	0x50	80
215	0x04	4
216	0x2e	46
217	0x1b	27
218	0x67	103
219	0x44	68
220	0x09	9
221	0x26	38
222	0x2e	46
223	0x23	35
224	0xfc	-4
225	0x96	-106
226	0xff	-1
227	0xd1	-47
228	0xd3	-45
229	0x4f	79
230	0x0c	12
231	0xfe	-2
232	0x04	4
233	0x1a	26
234	0xfe	-2
235	0xf7	-9
236	0x0a	10
237	0x1e	30
238	0xed	-19
239	0xb0	-80
240	0x00	0
241	0x25	37
242	0xf0	-16
243	0xf6	-10
244	0xf1	-15
245	0x0b	11
246	0xe1	-31
247	0xe7	-25
248	0xde	-34
249	0x12	18
250	0xdc	-36
251	0xd4	-44
252	0x0b	11
253	0xf5	-11
254	0xd5	-43
255	0xfc	-4

tfl.pseudo_qconst11 i1 [32, 1, 9, 3]
0	0x16	22
1	0x03	3
2	0x25	37
3	0xc6	-58
4	0x1c	28
5	0x4e	78
6	0xf7	-9
7	0x19	25
8	0x6d	109
9	0x14	20
10	0x43	67
11	0x7f	127
12	0xf0	-16
13	0xf2	-14
14	0x01	1
15	0xd5	-43
16	0xec	-20
17	0x1b	27
18	0x06	6
19	0xe7	-25
20	0xbc	-68
21	0x05	5
22	0x19	25
23	0x1d	29
24	0xd5	-43
25	0x11	17
26	0x06	6
27	0xed	-19
28	0x09	9
29	0xcf	-49
30	0x0f	15
31	0x0a	10
32	0xce	-50
33	0x0d	13
34	0xd8	-40
35	0x94	-108
36	0xe7	-25
37	0x13	19
38	0xec	-20
39	0xfc	-4
40	0xd1	-47
41	0xac	-84
42	0x0a	10
43	0x32	50
44	0x35	53
45	0xe4	-28
46	0xf7	-9
47	0x57	87
48	0xfe	-2
49	0x15	21
50	0x48	72
51	0x23	35
52	0xd7	-41
53	0x7f	127
54	0xe5	-27
55	0xed	-19
56	0x7f	127
57	0x2c	44
58	0xfb	-5
59	0x46	70
60	0x1d	29
61	0x16	22
62	0x28	40
63	0xe1	-31
64	0xcf	-49
65	0x0d	13
66	0x0f	15
67	0xec	-20
68	0x02	2
69	0x1a	26
70	0x2a	42
71	0xc3	-61
72	0xf1	-15
73	0x16	22
74	0xe6	-26
75	0xf9	-7
76	0xf7	-9
77	0x91	-111
78	0xfb	-5
79	0x0b	11
80	0x90	-112
81	0x01	1
82	0x29	41
83	0xd7	-41
84	0x22	34
85	0x3d	61
86	0xd1	-47
87	0xf0	-16
88	0x4c	76
89	0xd1	-47
90	0x0f	15
91	0xe8	-24
92	0xd1	-47
93	0xe4	-28
94	0x18	24
95	0xbe	-66
96	0xf3	-13
97	0xd8	-40
98	0xff	-1
99	0xd0	-48
100	0xe2	-30
101	0x63	99
102	0xfd	-3
103	0x45	69
104	0x79	121
105	0x2e	46
106	0x1c	28
107	0x7f	127
108	0xfa	-6
109	0xf9	-7
110	0xd0	-48
111	0xe9	-23
112	0x41	65
113	0xe5	-27
114	0x2a	42
115	0xf9	-7
116	0xe3	-29
117	0x21	33
118	0x30	48
119	0x0b	11
120	0x1c	28
121	0xd8	-40
122	0x6e	110
123	0xf6	-10
124	0xef	-17
125	0x7f	127
126	0x02	2
127	0xe0	-32
128	0xff	-1
129	0xe9	-23
130	0xfd	-3
131	0x0b	11
132	0xef	-17
133	0x0a	10
134	0xda	-38
135	0xf2	-14
136	0xde	-34
137	0x25	37
138	0x09	9
139	0xfe	-2
140	0x21	33
141	0xff	-1
142	0xf8	-8
143	0x3c	60
144	0xf5	-11
145	0x03	3
146	0xdb	-37
147	0x0a	10
148	0xf7	-9
149	0xf7	-9
150	0xfa	-6
151	0xde	-34
152	0xcc	-52
153	0x32	50
154	0x34	52
155	0xc7	-57
156	0x12	18
157	0x1f	31
158	0x03	3
159	0xd0	-48
160	0xe8	-24
161	0x81	-127
162	0x1d	29
163	0xec	-20
164	0xe0	-32
165	0x20	32
166	0xea	-22
167	0xe5	-27
168	0x06	6
169	0x16	22
170	0x28	40
171	0xf8	-8
172	0xe7	-25
173	0xef	-17
174	0x1d	29
175	0xc5	-59
176	0x0f	15
177	0x1b	27
178	0xb5	-75
179	0xf2	-14
180	0x11	17
181	0x21	33
182	0x7f	127
183	0x22	34
184	0xe5	-27
185	0x73	115
186	0x1a	26
187	0x0f	15
188	0x51	81
189	0xf5	-11
190	0xdc	-36
191	0x36	54
192	0x0a	10
193	0xe9	-23
194	0x25	37
195	0xf9	-7
196	0xd8	-40
197	0xea	-22
198	0x14	20
199	0x28	40
200	0xcd	-51
201	0xe9	-23
202	0x19	25
203	0xda	-38
204	0x13	19
205	0xf3	-13
206	0x9d	-99
207	0x14	20
208	0xe8	-24
209	0xd7	-41
210	0xd5	-43
211	0x0e	14
212	0x81	-127
213	0xd1	-47
214	0x15	21
215	0xcc	-52
216	0xd2	-46
217	0xe9	-23
218	0x9b	-101
219	0x9e	-98
220	0x5d	93
221	0x9b	-101
222	0x87	-121
223	0x2b	43
224	0x35	53
225	0x92	-110
226	0x0d	13
227	0xe7	-25
228	0xe6	-26
229	0x53	83
230	0xae	-82
231	0xb0	-80
232	0x1c	28
233	0x58	88
234	0xde	-34
235	0x5e	94
236	0x29	41
237	0xe4	-28
238	0x11	17
239	0x3b	59
240	0xb7	-73
241	0xf9	-7
242	0x7f	127
243	0x6c	108
244	0xa1	-95
245	0xe1	-31
246	0xf1	-15
247	0xc5	-59
248	0x81	-127
249	0x7b	123
250	0x17	23
251	0x6e	110
252	0x68	104
253	0x00	0
254	0x32	50
255	0xb3	-77
