ML/models/conv1d_angle_toro_ossaba/seed5_20260117_034451_841/model.tflite (tflite, 96000 bytes, 11 tensors)

arith.constant2 f4 [1, 64]
-0.13386747 -0.04022571 0.08992274 -0.10395886 -0.07303981 -0.02003621 0.10348442 -0.23017852
-0.07684371 -0.17131038 -0.055184808 -0.22414123 0.005506979 -0.061530508 0.10946931 -0.031507645
-0.14946787 0.11333125 -0.16664565 0.0719472 -0.21239932 0.42168942 -0.17070152 0.06672443
-0.11010503 0.0581269 -0.090976655 -0.14123984 -0.07309434 -0.14191256 -0.19977276 -0.04181827
-0.19402301 -0.06264638 0.18093373 0.18252748 0.114689365 0.11757226 -0.13942942 -0.0484688
-0.12030964 0.13373862 -0.14084175 0.33244166 -0.01744698 -0.22423585 -0.18828465 0.22094062
-0.16625696 0.16126783 -0.042812504 -0.16846673 0.08810614 -0.15759054 -0.15534346 0.047281828
-0.06871637 -0.35503125 -0.061257605 -0.25942388 0.013714927 -0.14183421 -0.109352104 -0.065539785
00000000: 8e14 09be b7c3 24bd 6a29 b83d 62e8 d4bd
00000010: e595 95bd fa22 a4bc a4ef d33d ebb3 6bbe
00000020: 3c60 9dbd fd6b 2fbe 7709 62bd 4785 65be
00000030: e373 b43b 6a07 7cbd 7231 e03d 290e 01bd
00000040: 1b0e 19be 371a e83d 28a5 2abe 0e59 933d
00000050: 357f 59be ade7 d73e 61cc 2ebe d1a6 883d
00000060: bf7e e1bd 7916 6e3d f851 babd 2da1 10be
00000070: 7cb2 95bd 8751 11be 3b91 4cbe a249 2bbd
00000080: f8ad 46be bf4c 80bd b146 393e 7ce8 3a3e
00000090: 42e2 ea3d bac9 f03d 96c6 0ebe 3887 46bd
000000a0: e764 f6bd c7f2 083e d238 10be cb35 aa3e
000000b0: f8ec 8ebc 159e 65be b1cd 40be 423e 623e
000000c0: 443f 2abe 6523 253e 2a5c 2fbd 8b82 2cbe
000000d0: fe70 b43d 6a5f 21be 5b12 1fbe 97aa 413d
000000e0: 2bbb 8cbd a8c6 b5be 41e9 7abd 35d3 84be
000000f0: 93b4 603c fd3c 11be fff3 dfbd b939 86bd

arith.constant7 f4 [128]
0.08659277 0.03467349 -0.017415563 0.107809074 -0.05971938 0.004706216 -0.03300277 0.07794831
0.043588474 0.022267813 0.046600733 0.047284916 0.06499431 0.018778754 -0.032394618 -0.014673845
-0.043336727 0.058808215 -0.028790915 -0.0100556845 -0.014120633 -0.018782636 0.060789738 0.030579766
-0.022462146 0.0701951 -0.021149637 -0.020011703 0.03253887 -0.05702661 -0.012027057 -0.020035475
-0.012659591 0.0037267988 -0.009392517 0.022246005 0.08508322 0.029152222 0.078072466 -0.026186226
-0.020803304 -0.0319367 -0.012229595 -0.04420674 -0.034231193 0.07389113 0.048812836 0.07312684
0.017674025 -0.020705277 0.062254544 -0.002076086 -0.0123965945 0.08960008 -0.034886178 0.015480659
-0.008133426 0.013409048 -0.030494403 0.01325013 -0.014431968 -0.012732208 -0.022897111 0.0015589466
-0.03238039 0.019661432 0.050415512 0.01330285 0.045435198 -0.033663608 -0.017088225 -0.0039292057
-0.012655713 0.07220479 -0.032351498 0.016084714 0.023877474 -0.012063516 -0.016668426 -0.007327636
-0.022617184 -0.026249193 -0.055990238 0.03090737 -0.012713483 -0.0031329857 0.037578184 -0.046793714
-0.018714197 0.08283984 0.046847716 -0.015895512 -0.026425382 0.08299293 0.04411013 -0.087867826
-0.022218876 0.049953822 -0.022286287 0.01889717 -0.015753413 0.026220545 0.032658126 -0.016776407
0.050242536 -0.008894823 -0.015014061 -0.01961753 -0.016986134 0.032365818 0.09602765 -0.018832196
0.039322704 -0.023951983 0.06424934 0.09648207 -0.012819321 -0.023405895 -0.031917658 -0.0124445325
0.026824106 -0.009204503 0.039513197 -0.0033990687 -0.0005215459 0.05092097 0.04731495 -0.04389662
00000000: 8d57 b13d ca05 0e3d 15ab 8ebc 01cb dc3d
00000010: 4f9c 74bd 9a36 9a3b ea2d 07bd 5da3 9f3d
00000020: d489 323d fd6a b63c 69e0 3e3d d4ad 413d
00000030: bd1b 853d e7d5 993c 38b0 04bd 916a 70bc
00000040: da81 31bd e2e0 703d edda ebbc 99c0 24bc
00000050: 3a5a 67bc 0bde 99bc a9fe 783d 6b82 fa3c
00000060: 8902 b8bc 73c2 8f3d 0142 adbc 95ef a3bc
00000070: 7a47 053d bc94 69bd 220d 45bc 7021 a4bc
00000080: 2c6a 4fbc 4f3d 743b 12e3 19bc 413d b63c
00000090: 1c40 ae3d a4d0 ee3c 75e4 9f3d 7f84 d6bc
000000a0: b16b aabc 0fd0 02bd a45e 48bc 2012 35bd
000000b0: 0236 0cbd 3c54 973d f8ef 473d 86c3 953d
000000c0: 1ec9 903c 1d9e a9bc 9ffe 7e3d f10e 08bb
000000d0: 161b 4bbc 3f80 b73d cfe4 0ebd 97a2 7d3c
000000e0: 1042 05bc a0b1 5b3c 66cf f9bc 1317 593c
000000f0: 1074 6cbc c09a 50bc b992 bbbc 9155 cc3a
00000100: 4da1 04bd 0311 a13c 7f80 4e3d 32f4 593c
00000110: 421a 3a3d dae2 09bd 9bfc 8bbc 91c0 80bb
00000120: e859 4fbc 1be0 933d 0183 04bd 17c4 833c
00000130: b19a c33c 0ea6 45bc 398c 88bc aa1c f0bb
00000140: ac47 b9bc 8c08 d7bc 0556 65bd 7431 fd3c
00000150: 364c 50bc c752 4dbb 95eb 193d c4aa 3fbd
00000160: 844e 99bc efa7 a93d 64e3 3f3d 4e37 82bc
00000170: 0b7a d8bc 33f8 a93d d3ac 343d 0cf4 b3bd
00000180: 5c04 b6bc 619c 4c3d bb91 b6bc 3dce 9a3c
00000190: 4d0d 81bc 78cc d63c 87c4 053d ad6e 89bc
000001a0: 1ecb 4d3d 97bb 11bc 89fd 75bc f1b4 a0bc
000001b0: 8126 8bbc 0592 043d 25aa c43d fa45 9abc
000001c0: d810 213d f336 c4bc 2895 833d 6498 c53d
000001d0: 2108 52bc b8bd bfbc 17bc 02bd 27e4 4bbc
000001e0: 3abe db3c 7cce 16bc 97d8 213d e9c2 5ebb
000001f0: 5ab8 08ba 8292 503d 52cd 413d f1cc 33bd

arith.constant8 f4 [64]
0.057627324 -0.087959155 -0.06431923 -0.05655192 0.103809275 -0.055925205 0.018188901 -0.015866816
-0.034082595 0.058908474 -0.020531114 0.027490806 -0.054539472 0.0011450892 0.091070406 0.034569487
0.027857164 -0.07067282 0.10352363 -0.058897085 0.066566296 0.033811282 0.13161635 -0.038566172
-0.13110712 0.10470013 -0.019708058 0.103370264 -0.046683073 0.031165387 -0.03788282 -0.08352902
0.062923774 -0.13127398 0.022758208 0.04920491 0.073072486 -0.05844434 0.009984956 0.058625292
-0.00014132966 -0.009683012 -0.014700009 0.17107113 -0.10984432 0.014261505 -0.021326058 0.06262965
0.07957598 0.062229067 0.13439566 0.11567324 -0.006882599 0.0125777135 -0.011873747 -0.13478218
0.033512417 0.0055153677 -0.019070812 0.07956363 -0.0045983293 0.009016441 0.0463702 -0.080789156
00000000: a10a 6c3d ee23 b4bd cdb9 83bd fca2 67bd
00000010: f599 d43d d411 65bd e400 953c 20fb 81bc
00000020: 319a 0bbd 034a 713d de30 a8bc 6634 e13c
00000030: c864 5fbd d116 963a 1f83 ba3d bc98 0d3d
00000040: b534 e43c e9bc 90bd 3204 d43d 123e 71bd
00000050: e953 883d b37d 0a3d 70c6 063e 90f7 1dbd
00000060: f240 06be 066d d63d cb72 a1bc cab3 d33d
00000070: c036 3fbd 8e4e ff3c 042b 1bbd 4311 abbd
00000080: 2ede 803d b06c 06be 6c6f ba3c 168b 493d
00000090: 07a7 953d 5563 6fbd f197 233c 1321 703d
000000a0: e431 14b9 7fa5 1ebc 4ed8 70bc 452d 2f3e
000000b0: 0ff6 e0bd 16a9 693c fcb3 aebc f943 803d
000000c0: bbf8 a23d e8e3 7e3d 049f 093e 17e6 ec3d
000000d0: 6d87 e1bb c112 4e3c 1b8a 42bc 5704 0abe
000000e0: 5144 093d 42ba b43b 643a 9cbc 42f2 a23d
000000f0: 95ad 96bb b2b9 133c aeee 3d3d c974 a5bd

arith.constant9 f4 [32, 1, 9, 3]
0.92818195 0.047602672 2.2539775 1.1736454 -0.70805573 1.2834982 0.0125463195 0.09376944
0.1468007 -1.0518543 -0.44615436 -2.2424836 -0.45388642 0.16077362 -0.37292024 -0.59918946
0.11229455 -3.0447617 -0.4580033 -0.68076813 0.4899816 0.053761348 0.9790206 -0.6656909
0.54507107 0.2638042 -0.37248045 -0.034954958 0.12728633 -0.13431612 0.31477877 0.035491873
-0.15144198 -0.32285178 0.14686282 0.17648341 -0.07187336 -0.07926934 0.82882214 -0.21375972
-0.28205466 0.47054416 0.05794953 0.38417643 1.5270572 -0.22748297 0.16496314 0.41127107
0.40449214 0.22063358 1.0511978 -0.5105771 -0.13594079 0.10171513 -0.06310029 -0.4344202
1.2055571 0.120664194 -0.45542613 -0.2589736 -0.10008412 0.17429474 -0.767282 -0.14977607
-0.15279457 -2.125828 0.2832099 0.33204728 0.6276195 -0.5350019 -0.24922402 -1.0107217
0.22941102 -0.043617044 0.46955287 -0.10313143 0.3686991 -0.5812318 0.16780569 0.5216506
-0.60160625 -0.0538316 -0.15005054 0.21616986 -0.0136369495 -0.01881698 0.0057344274 -0.16155916
0.15069778 -0.2865423 -0.018471684 0.40761644 -0.9634871 -0.1906473 0.34561792 -0.5141122
0.09764816 -0.0055712177 -0.92737377 -0.0680863 -0.10368533 -0.5160761 0.16063206 0.24037713
-0.36828077 -0.20755099 0.5550592 -0.18881354 0.05795202 -0.33596373 -0.41351297 -0.3910917
0.12988266 0.04631798 0.18966323 -0.46066684 0.069238745 0.1728544 -0.22270375 0.399425
0.064977236 0.22135285 0.9461741 -0.009879934 0.060356747 1.1224623 -0.11953179 0.014030894
0.34820163 0.028867166 -0.00050906534 1.0691066 0.054373804 -0.18626788 -0.086091936 0.8015823
-1.2892123 -0.5521018 0.49088302 -0.070375554 -0.8821505 0.94724286 -1.1082522 0.32796076
-0.4391489 -0.60901445 -0.72681636 -0.46493357 -0.50285405 -0.4135907 0.32805777 -0.45093113
-0.41003424 -0.99425733 -0.50214016 0.8798349 -0.02966776 0.60987127 -0.017652439 -2.120787
-0.30310753 -1.76178 -0.54307246 -0.13969047 0.098925225 -0.16811363 -0.04900419 -0.015554823
-0.7453268 0.14610836 -0.53367513 -0.66808826 0.23511459 -1.1566933 -0.59401727 0.19519249
-0.42798892 -0.15473016 0.3100845 -0.11828645 0.089407854 0.3880936 -0.23922084 -0.7488735
-0.04912369 -0.6041686 -0.48307976 -0.008258934 -0.12219778 0.05126773 0.6942842 0.13247207
0.1849045 -0.23593517 0.4996563 -0.54882514 0.36814895 1.1610938 0.23504405 0.48944542
1.50113 0.0037861227 0.061088894 0.095705934 -0.23060405 0.4454269 0.28292206 0.0288649
-0.26572454 -0.15020604 0.19741926 0.14814572 0.073081486 -0.30470207 -0.34649396 -0.34987932
0.3202814 -0.58663785 4.3597393 -2.1624777 1.8770282 2.8099737 1.2113281 -2.029648
-0.9597908 -1.1783103 -0.2200873 -1.7082926 -0.5190928 0.041995373 0.076624475 -1.6070529
1.437877 -0.24526045 1.5109739 -1.1644278 -0.6195358 2.5554714 0.59976417 -2.8466785
0.53166395 -0.6075632 -2.759371 -0.49565208 0.15087667 0.2003219 -0.42327225 -0.062015064
0.40340474 -0.11323318 -0.30864164 -0.9125688 -0.28478485 -0.19500123 -1.3978332 -0.49602696
00000000: 559d 6d3f 05fb 423d 2b41 1040 033a 963f
00000010: 2443 35bf ab49 a43f 148f 4d3c 310a c03d
00000020: ec52 163e 29a3 86bf 586e e4be da84 0fc0
00000030: cd63 e8be d7a1 243e 67ef bebe 7b64 19bf
00000040: affa e53d 60dd 42c0 697f eabe d246 2ebf
00000050: dede fa3e dc34 5c3d 18a1 7a3f b86a 2abf
00000060: c789 0b3f 5811 873e c2b5 bebe ee2c 0fbd
00000070: 5957 023e 2a8a 09be af2a a13e ed5f 113d
00000080: 9b13 1bbe d44c a5be 3563 163e 11b8 343e
00000090: 5732 93bd f757 a2bd b02d 543f d4e3 5abe
000000a0: 7869 90be 2aeb f03e 7d5c 6d3d c6b2 c43e
000000b0: 9c76 c33f 4cf1 68be 19ec 283e 1f92 d23e
000000c0: 9819 cf3e c5ed 613e a68d 863f 2eb5 02bf
000000d0: 1034 0bbe 0650 d03d ba3a 81bd 536c debe
000000e0: b24f 9a3f ca1e f73d 9d2d e9be 3098 84be
000000f0: e7f8 ccbd 527a 323e 986c 44bf e65e 19be
00000100: 2e76 1cbe 910d 08c0 e300 913e 1a02 aa3e
00000110: acab 203f e2f5 08bf 9534 7fbe 545f 81bf
00000120: b9ea 6a3e c9a7 32bd 3c69 f03e 9236 d3bd
00000130: 21c6 bc3e 9bcb 14bf 41d5 2b3e e58a 053f
00000140: de02 1abf 867e 5cbd d9a6 19be a25b 5d3e
00000150: 836d 5fbc 1126 9abc dde7 bb3b c46f 25be
00000160: 8550 1a3e acb5 92be ee51 97bc 1ab3 d03e
00000170: 17a7 76bf 0c39 43be d5f4 b03e db9c 03bf
00000180: c2fb c73d c38e b6bb 5e68 6dbf d470 8bbd
00000190: f958 d4bd 901d 04bf bb7c 243e 6c25 763e
000001a0: 4c8f bcbe 3f88 54be 5c18 0e3f 5658 41be
000001b0: 195f 6d3d 7003 acbe f9b7 d3be 2c3d c8be
000001c0: f6ff 043e ecb7 3d3d 1437 423e 86dc ebbe
000001d0: 0bcd 8d3d be00 313e 740c 64be 6f81 cc3e
000001e0: c912 853d 52aa 623e 7738 723f 72df 21bc
000001f0: a338 773d d8ac 8f3f 15cd f4bd d6e1 653c
00000200: 7c47 b23e d67a ec3c cc72 05ba 7cd8 883f
00000210: 11b7 5e3d 02bd 3ebe f850 b0bd 7f34 4d3f
00000220: e904 a5bf 8b56 0dbf 0555 fb3e 0f21 90bd
00000230: 9dd4 61bf 827e 723f 35db 8dbf 79ea a73e
00000240: 20d8 e0be 5fe8 1bbf a310 3abf c60b eebe
00000250: 0bbb 00bf 29c2 d3be 30f7 a73e 72e0 e6be
00000260: 02f0 d1be a687 7ebf 428c 00bf dc3c 613f
00000270: cd09 f3bc 8620 1c3f d99b 90bc f9ba 07c0
00000280: e930 9bbe 0282 e1bf cc06 0bbf 050b 0fbe
00000290: 4f99 ca3d fb25 2cbe 9eb8 48bd a8d9 7ebc
000002a0: bdcd 3ebf 6e9d 153e ef9e 08bf d507 2bbf
000002b0: e1c1 703e 870e 94bf 8411 18bf 8ae0 473e
000002c0: 5d21 dbbe 9571 1ebe 65c3 9e3e 2b40 f2bd
000002d0: 771b b73d 34b4 c63e 4ff6 74be 2cb6 3fbf
000002e0: ec35 49bd cbaa 1abf 3b56 f7be 7b50 07bc
000002f0: d442 fabd 1cfe 513d 9cbc 313f c2a6 073e
00000300: 9b57 3d3e fd98 71be f3d2 ff3e ce7f 0cbf
00000310: 057e bc3e b99e 943f 63af 703e 9798 fa3e
00000320: 0725 c03f 9920 783b 5938 7a3d 7901 c43d
00000330: 7823 6cbe ff0e e43e 29db 903e 1576 ec3c
00000340: 0c0d 88be 9dcf 19be 4628 4a3e 83b3 173e
00000350: bfab 953d e901 9cbe a867 b1be 6223 b3be
00000360: ecfb a33e e62d 16bf fc82 8b40 0966 0ac0
00000370: 7642 f03f 9cd6 3340 cd0c 9b3f c1e5 01c0
00000380: dab4 75bf dfd2 96bf 915e 61be 55a9 dabf
00000390: 44e3 04bf 5703 2c3d 4bed 9c3d e9b3 cdbf
000003a0: 5b0c b83f 8e25 7bbe 9867 c13f f80b 95bf
000003b0: e699 1ebf d88c 2340 258a 193f fb2f 36c0
000003c0: 211b 083f 4389 1bbf 8999 30c0 1cc6 fdbe
000003d0: 6a7f 1a3e 2f21 4d3e 24b7 d8be 8203 7ebd
000003e0: 118b ce3e cce6 e7bd 4706 9ebe 1c9e 69bf
000003f0: 52cf 91be 67ae 47be 33ec b2bf 3ff7 fdbe

arith.constant10 f4 [128]
0.031970344 2.8164535 -0.26115835 1.3320484 0.46153733 0.6168325 0.6057836 -0.43510905
0.5390556 1.8965026 2.5506575 1.3621217 0.548484 0.70839614 0.13644773 1.191934
0.14643402 1.8537266 1.1858828 2.1766043 0.70279205 -1.3324401 0.6170185 2.4838226
0.63139415 0.3169389 0.1639224 0.87565553 1.3234177 0.20599437 -0.32423523 0.05620141
0.28248233 -0.6838617 -0.40190393 0.6854265 1.1838111 0.22720665 0.6555938 0.4811512
0.5714451 -0.4403601 -0.47692442 2.3589985 0.34628364 0.4567983 0.39218017 2.235115
1.0794605 0.43538272 -0.14310496 0.5864518 0.68327355 0.3256163 0.47527725 -0.34720516
0.6202947 0.60844725 2.600102 0.52086353 -0.9478901 1.2052786 -0.6479296 2.3747284
0.9636337 0.157494 -0.01390261 1.0880191 0.69544864 0.72447616 0.3882796 2.7117565
0.58762187 2.892156 1.0197138 0.15192911 1.1423664 0.38529417 0.07139762 0.2109991
0.18743595 1.137629 0.35826638 1.0935048 0.2868921 1.2791153 1.7070912 0.8264847
-0.1934893 -0.6604165 -0.05692446 0.6976374 1.1841662 0.574553 2.293302 0.50847733
2.2964861 -0.5691442 0.3643293 0.110736266 -0.04852921 0.34560746 0.8179132 0.7210941
2.149245 0.5375381 0.75174356 1.9173056 2.3952365 2.4957497 0.38652125 0.43074805
-0.8933413 0.60350823 -0.066276774 -0.22150849 -0.41494864 0.6229715 0.8725391 2.92519
0.42060637 2.6395676 0.2568314 -0.6693735 -0.36946136 0.96332896 -0.24461606 2.0629802
00000000: 56f3 023d c640 3440 8cb6 85be 9080 aa3f
00000010: 9f4e ec3e bce8 1d3f a214 1b3f 9dc6 debe
00000020: 8cff 093f 99c0 f23f f93d 2340 015a ae3f
00000030: 7369 0c3f 7359 353f f4b8 0b3e 4b91 983f
00000040: cdf2 153e ea46 ed3f 02cb 973f 7c4d 0b40
00000050: 2eea 333f 668d aabf edf4 1d3f f3f6 1e40
00000060: 0ca3 213f d145 a23e 46db 273e f62a 603f
00000070: c065 a93f 30f0 523e 2902 a6be 7333 663d
00000080: 86a1 903e 8f11 2fbf 5ac6 cdbe 1c78 2f3f
00000090: 1f87 973f dca8 683e ffd4 273f 7359 f63e
000000a0: 3a4a 123f e176 e1be 702f f4be d5f9 1640
000000b0: 174c b13e 77e1 e93e d7cb c83e 200c 0f40
000000c0: c32b 8a3f 7cea de3e 1b8a 12be b521 163f
000000d0: 04eb 2e3f 2eb7 a63e 8a57 f33e e0c4 b1be
000000e0: a2cb 1e3f 33c3 1b3f 1268 2640 5057 053f
000000f0: eda8 72bf 9246 9a3f b7de 25bf 8dfb 1740
00000100: b3b0 763f 1b46 213e c6c7 63bc 3644 8b3f
00000110: ec08 323f 4577 393f 95cc c63e 6b8d 2d40
00000120: 636e 163f 1519 3940 fb85 823f 4e93 1b3e
00000130: 1039 923f 4745 c53e ea38 923d 2610 583e
00000140: 36ef 3f3e d49d 913f b16e b73e f7f7 8b3f
00000150: 85e3 923e 0dba a33f f781 da3f 8094 533f
00000160: 0f22 46be 0e11 29bf 9f29 69bd 5d98 323f
00000170: c292 973f e815 133f 76c5 1240 922b 023f
00000180: a1f9 1240 6fb3 11bf 5f89 ba3e b2c9 e23d
00000190: 91c6 46bd 76f3 b03e c262 513f 9f99 383f
000001a0: 3b8d 0940 199c 093f 4472 403f 456a f53f
000001b0: 8e4b 1940 5dba 1f40 1de6 c53e 028b dc3e
000001c0: 04b2 64bf 847f 1a3f 1ebc 87bd 1fd3 62be
000001d0: 2674 d4be 0f7b 1f3f b95e 5f3f 5036 3b40
000001e0: b859 d73e adee 2840 687f 833e 105c 2bbf
000001f0: 0a2a bdbe ba9c 763f a27c 7abe de07 0440

arith.constant11 f4 [64]
-1.8254504 -0.86502284 0.30158445 0.61024255 -0.52043146 -0.18399031 0.4927307 -1.6930588
-0.6968676 -1.3388988 -1.5967522 0.20918107 0.37019876 -0.2674522 0.35107175 -0.016204026
0.24931826 -0.90378344 0.027982054 0.42214933 -0.23335724 0.5081422 -0.40524206 0.6663045
0.20521437 0.49006674 0.16886768 0.2961773 0.08345247 0.4506149 0.15845875 0.3283657
0.404954 -1.0015699 0.39951396 -0.9456942 0.6933213 -0.18359014 -0.7559249 -0.43963218
-0.040933784 0.16319634 0.37594175 -0.4268633 0.42799044 0.13812432 0.409908 0.22900115
0.50938183 -1.8154957 -0.061889257 -1.6016983 0.14190209 0.37769115 0.39029843 0.13366464
-0.3890112 0.5175284 -0.6958279 0.1403589 0.17193457 0.14490637 0.29968908 0.49675688
00000000: 5ca8 e9bf 2372 5dbf 4769 9a3e db38 1c3f
00000010: ff3a 05bf f567 3cbe 3347 fc3e 27b6 d8bf
00000020: ea65 32bf 0961 abbf 6062 ccbf 9033 563e
00000030: b18a bd3e 7fef 88be adbf b33e 4ebe 84bc
00000040: 494d 7f3e 5a5e 67bf 9f3a e53c f523 d83e
00000050: 33f5 6ebe 9b15 023f e37b cfbe ef92 2a3f
00000060: b723 523e 07ea fa3e a6eb 2c3e 8da4 973e
00000070: 21e9 aa3d ffb6 e63e 0343 223e 8d1f a83e
00000080: 2156 cf3e 7133 80bf 188d cc3e 0419 72bf
00000090: 817d 313f 0eff 3bbe 4b84 41bf 7817 e1be
000000a0: 2faa 27bd f11c 273e 707b c03e d48d dabe
000000b0: 9021 db3e 7670 0d3e 76df d13e 477f 6a3e
000000c0: d966 023f 2a62 e8bf 977f 7dbd 7304 cdbf
000000d0: c84e 113e bc60 c13e 32d5 c73e 62df 083e
000000e0: 7a2c c7be be7c 043f c721 32bf 3eba 0f3e
000000f0: 9e0f 303e 5662 143e d970 993e eb56 fe3e

arith.constant12 f4 [32]
1.1637516 -2.4461591 1.3399662 1.185643 -1.9327804 1.4955002 1.1398809 -1.6444309
0.62559634 1.4137723 0.9598652 1.270826 -0.9804714 -2.112104 0.28693286 0.6056374
-1.9909519 -1.5843118 -0.7459147 0.678523 0.8838336 -1.3410145 -1.6795508 -1.5237107
0.013215534 0.92712766 0.32475173 -1.2996751 0.80607456 0.28557798 0.5271158 -0.51495177
00000000: d0f5 943f df8d 1cc0 0384 ab3f 26c3 973f
00000010: 5965 f7bf 8d6c bf3f 9ee7 913f b67c d2bf
00000020: 1527 203f 7ef6 b43f bab9 753f 6daa a23f
00000030: 2c00 7bbf b62c 07c0 dde8 923e 0d0b 1b3f
00000040: 83d7 febf bbca cabf 44f4 3ebf afb3 2d3f
00000050: eb42 623f 5da6 abbf 85fb d6bf f408 c3bf
00000060: f885 583c 3d58 6d3f dc45 a63e c15b a6bf
00000070: e75a 4e3f 4737 923e 10f1 063f e1d3 03bf

tfl.pseudo_qconst i1 [128, 1, 5, 64]
49 7 -98 -37 -52 -82 31 12
-56 -25 4 -127 -39 -63 0 18
7 33 15 1 -45 20 -40 27
-1 -29 16 -11 -94 52 33 -36
-6 -21 15 -15 74 21 21 -75
-31 13 -26 -62 -6 -85 -13 -25
19 85 -51 8 4 26 21 10
-84 -29 38 -72 35 19 9 -36
44 49 -37 -49 -77 -37 12 28
53 58 34 -60 -12 -15 24 4
3 6 -8 9 5 -13 5 -45
16 -17 19 14 23 -5 -7 -59
-50 -21 40 48 67 12 73 -12
10 -18 14 -56 -4 5 13 13
33 79 -93 26 1 8 6 17
-3 -8 -16 8 0 -34 -3 -91
34 58 -42 55 -63 -18 9 41
-12 -14 39 -8 18 -30 8 47
8 -20 -28 22 -28 57 0 -39
21 -11 -24 29 -29 -46 -27 -17
-15 31 45 75 23 25 71 -31
10 6 -28 -29 17 3 -1 -29
5 45 -8 43 -13 23 -27 48
-7 10 12 -14 14 29 -53 -80
119 30 -1 -13 -15 -15 -48 52
39 54 12 -32 -25 27 -5 95
7 16 -23 -17 49 -41 12 -74
-42 -17 -29 -55 78 -11 -36 -22
-46 52 46 60 17 93 92 30
59 -13 -36 61 -95 54 14 -19
-38 108 0 65 29 31 -38 19
8 -1 18 58 1 -55 -73 -79
00000000: 3107 9edb ccae 1f0c c8e7 0481 d9c1 0012
00000010: 0721 0f01 d314 d81b ffe3 10f5 a234 21dc
00000020: faeb 0ff1 4a15 15b5 e10d e6c2 faab f3e7
00000030: 1355 cd08 041a 150a ace3 26b8 2313 09dc
00000040: 2c31 dbcf b3db 0c1c 353a 22c4 f4f1 1804
00000050: 0306 f809 05f3 05d3 10ef 130e 17fb f9c5
00000060: ceeb 2830 430c 49f4 0aee 0ec8 fc05 0d0d
00000070: 214f a31a 0108 0611 fdf8 f008 00de fda5
00000080: 223a d637 c1ee 0929 f4f2 27f8 12e2 082f
00000090: 08ec e416 e439 00d9 15f5 e81d e3d2 e5ef
000000a0: f11f 2d4b 1719 47e1 0a06 e4e3 1103 ffe3
000000b0: 052d f82b f317 e530 f90a 0cf2 0e1d cbb0
000000c0: 771e fff3 f1f1 d034 2736 0ce0 e71b fb5f
000000d0: 0710 e9ef 31d7 0cb6 d6ef e3c9 4ef5 dcea
000000e0: d234 2e3c 115d 5c1e 3bf3 dc3d a136 0eed
000000f0: da6c 0041 1d1f da13 08ff 123a 01c9 b7b1

tfl.pseudo_qconst1 i1 [64, 1, 7, 32]
13 91 31 -35 6 26 26 25
-3 12 46 -10 64 11 5 -8
17 -29 -38 -53 -33 -46 14 34
53 37 127 28 5 -37 65 -40
-20 45 19 30 57 -20 16 15
-7 -3 33 -9 88 48 10 6
12 -1 -36 -14 4 -18 77 30
22 35 48 -14 24 24 52 32
-14 16 14 -2 45 -14 -11 40
105 10 -13 5 87 1 53 8
4 40 -29 28 -14 39 72 50
59 27 59 17 26 -11 36 39
48 60 52 0 13 19 54 32
-43 38 44 16 110 -4 57 13
20 24 -39 -24 -6 -64 54 20
88 33 100 78 68 44 59 60
40 23 24 9 60 -6 54 -13
-7 38 14 59 90 12 76 51
33 0 -86 -117 25 -65 28 38
47 35 106 72 74 -18 58 21
44 -17 31 25 11 38 63 8
88 50 31 84 100 25 115 50
57 42 -18 -87 73 3 48 48
2 35 51 61 76 21 40 63
43 -47 -5 60 49 32 63 18
-6 28 31 42 52 41 81 87
3 38 -18 -51 47 33 -2 26
7 78 102 34 46 -15 59 98
-3 11 9 10 7 -1 6 -5
26 9 1 -2 -19 12 -8 -12
10 4 -17 -15 14 -25 -5 -9
0 -14 -22 10 -14 -23 -11 13
00000000: 0d5b 1fdd 061a 1a19 fd0c 2ef6 400b 05f8
00000010: 11e3 dacb dfd2 0e22 3525 7f1c 05db 41d8
00000020: ec2d 131e 39ec 100f f9fd 21f7 5830 0a06
00000030: 0cff dcf2 04ee 4d1e 1623 30f2 1818 3420
00000040: f210 0efe 2df2 f528 690a f305 5701 3508
00000050: 0428 e31c f227 4832 3b1b 3b11 1af5 2427
00000060: 303c 3400 0d13 3620 d526 2c10 6efc 390d
00000070: 1418 d9e8 fac0 3614 5821 644e 442c 3b3c
00000080: 2817 1809 3cfa 36f3 f926 0e3b 5a0c 4c33
00000090: 2100 aa8b 19bf 1c26 2f23 6a48 4aee 3a15
000000a0: 2cef 1f19 0b26 3f08 5832 1f54 6419 7332
000000b0: 392a eea9 4903 3030 0223 333d 4c15 283f
000000c0: 2bd1 fb3c 3120 3f12 fa1c 1f2a 3429 5157
000000d0: 0326 eecd 2f21 fe1a 074e 6622 2ef1 3b62
000000e0: fd0b 090a 07ff 06fb 1a09 01fe ed0c f8f4
000000f0: 0a04 eff1 0ee7 fbf7 00f2 ea0a f2e9 f50d

tfl.pseudo_qconst2 i1 [64, 128]
-35 31 -29 34 48 22 -13 -13
-10 -18 -34 -18 -43 -14 -91 22
29 38 -13 -12 -10 -12 -56 6
-26 -61 -11 -33 9 -1 -18 35
9 19 -11 6 35 -15 17 -35
-19 24 5 -36 -55 -78 -53 -17
5 -16 -9 -11 -21 -6 -12 -40
28 13 -36 3 9 -8 4 -62
20 -18 26 -3 -11 -22 -20 27
20 2 17 -13 -1 1 -25 -107
20 9 10 25 18 -3 0 22
-21 -39 -33 -12 36 -8 -41 -31
33 4 -127 -40 5 39 -4 0
-29 1 2 31 -30 21 -7 25
21 -18 -12 31 -43 -15 25 -15
-1 -15 5 -24 -4 -13 -28 -35
-127 -49 -16 20 71 15 -40 21
-6 -48 -10 -17 25 -75 -47 30
20 -57 34 -34 10 -6 28 -29
-9 45 18 5 53 -46 -75 75
-69 24 13 -57 6 -45 -93 8
-33 -50 34 -17 -49 -3 31 -35
-8 -62 27 18 -52 -76 -48 15
53 56 41 2 -42 73 -45 -30
52 30 37 40 -68 77 -51 8
47 81 70 14 -87 29 28 -71
-53 12 0 12 10 -13 -77 14
46 -58 -27 63 40 25 5 -53
-74 39 -81 -66 72 -60 -61 -47
59 8 37 55 0 48 -72 -50
18 45 36 51 30 55 3 2
-109 -19 -21 0 -98 -44 34 9
00000000: dd1f e322 3016 f3f3 f6ee deee d5f2 a516
00000010: 1d26 f3f4 f6f4 c806 e6c3 f5df 09ff ee23
00000020: 0913 f506 23f1 11dd ed18 05dc c9b2 cbef
00000030: 05f0 f7f5 ebfa f4d8 1c0d dc03 09f8 04c2
00000040: 14ee 1afd f5ea ec1b 1402 11f3 ff01 e795
00000050: 1409 0a19 12fd 0016 ebd9 dff4 24f8 d7e1
00000060: 2104 81d8 0527 fc00 e301 021f e215 f919
00000070: 15ee f41f d5f1 19f1 fff1 05e8 fcf3 e4dd
00000080: 81cf f014 470f d815 fad0 f6ef 19b5 d11e
00000090: 14c7 22de 0afa 1ce3 f72d 1205 35d2 b54b
000000a0: bb18 0dc7 06d3 a308 dfce 22ef cffd 1fdd
000000b0: f8c2 1b12 ccb4 d00f 3538 2902 d649 d3e2
000000c0: 341e 2528 bc4d cd08 2f51 460e a91d 1cb9
000000d0: cb0c 000c 0af3 b30e 2ec6 e53f 2819 05cb
000000e0: b627 afbe 48c4 c3d1 3b08 2537 0030 b8ce
000000f0: 122d 2433 1e37 0302 93ed eb00 9ed4 2209

tfl.pseudo_qconst3 i1 [128, 128]
-49 21 -31 -44 -2 -44 11 7
23 -38 -15 69 -109 54 47 63
-55 0 40 -45 -22 45 -116 89
-8 -51 -79 -87 44 83 63 -22
-32 23 22 -31 18 -10 -27 -108
-69 -66 3 -90 55 -107 -97 59
-115 -22 -80 23 -112 -118 9 -29
-7 -99 33 -120 -5 11 -61 11
51 18 19 -39 -28 -15 21 15
-21 74 -60 -9 -36 4 -63 36
43 -58 71 13 55 49 59 -17
56 60 -18 -113 -1 -103 -17 -127
58 21 45 61 102 9 11 -23
-54 -72 36 64 -8 -8 60 4
58 -69 -19 -29 -50 76 7 18
-35 18 49 40 65 8 -17 59
9 -8 5 -50 10 -17 -27 16
-27 -11 -10 34 -28 -24 24 3
-29 9 25 34 -52 50 -127 18
30 -30 -7 -74 -7 -5 12 -18
5 32 12 -125 12 25 -24 -99
-78 4 9 0 -31 -125 -36 -11
-2 -3 -47 -4 -77 -6 5 23
-12 -100 11 -118 -32 17 10 45
12 -5 24 -46 -94 -46 -16 49
2 -8 -14 -12 -18 22 -8 25
-32 34 -13 31 13 -7 21 4
23 -17 2 -40 -11 -114 -19 -120
35 21 -12 10 -28 -31 -29 2
5 -87 -12 0 7 38 -33 -15
18 -86 14 9 -4 21 -18 46
-21 19 27 1 -2 -12 2 16
00000000: cf15 e1d4 fed4 0b07 17da f145 9336 2f3f
00000010: c900 28d3 ea2d 8c59 f8cd b1a9 2c53 3fea
00000020: e017 16e1 12f6 e594 bbbe 03a6 3795 9f3b
00000030: 8dea b017 908a 09e3 f99d 2188 fb0b c30b
00000040: 3312 13d9 e4f1 150f eb4a c4f7 dc04 c124
00000050: 2bc6 470d 3731 3bef 383c ee8f ff99 ef81
00000060: 3a15 2d3d 6609 0be9 cab8 2440 f8f8 3c04
00000070: 3abb ede3 ce4c 0712 dd12 3128 4108 ef3b
00000080: 09f8 05ce 0aef e510 e5f5 f622 e4e8 1803
00000090: e309 1922 cc32 8112 1ee2 f9b6 f9fb 0cee
000000a0: 0520 0c83 0c19 e89d b204 0900 e183 dcf5
000000b0: fefd d1fc b3fa 0517 f49c 0b8a e011 0a2d
000000c0: 0cfb 18d2 a2d2 f031 02f8 f2f4 ee16 f819
000000d0: e022 f31f 0df9 1504 17ef 02d8 f58e ed88
000000e0: 2315 f40a e4e1 e302 05a9 f400 0726 dff1
000000f0: 12aa 0e09 fc15 ee2e eb13 1b01 fef4 0210
