ML/models/conv1d_angle_toro_ossaba/seed2_20260116_234517_116/model_int8.tflite (tflite, 99296 bytes, 6 tensors)

tfl.pseudo_qconst1 i1 [1, 64] scale=0.0022153428 zero_point=0
-0.20824222 0.16172002 -0.23925702 0.14399728 0.23925702 0.23039566 -0.15728934 -0.2015962
0.19051948 0.17944276 0.2791332 0.21488826 -0.23482634 0.23039566 0.17279674 -0.16393536
0.26141044 0.035445485 0.25697976 -0.21045756 0.09082906 -0.22596496 -0.17944276 -0.18830414
-0.16172002 -0.17279674 -0.11519783 -0.18387346 0.21267292 -0.06646028 0.17279674 0.23039566
0.28134853 -0.1240592 -0.20381154 -0.050952885 0.022153428 0.09082906 0.2436877 0.06646028
-0.11076714 -0.22153428 0.0155074 0.12184385 -0.09969043 0.03766083 -0.1705814 0.14399728
0.011076714 -0.17279674 -0.2481184 -0.022153428 -0.0620296 0.11962851 0.19051948 0.20602688
-0.09082906 -0.232611 0.25033373 -0.21045756 0.05538357 0.05316823 -0.22596496 -0.11741317
00000000: a249 9441 6c68 b9a5 5651 7e61 9668 4eb6
00000010: 7610 74a1 299a afab b7b2 ccad 60e2 4e68
00000020: 7fc8 a4e9 0a29 6e1e ce9c 0737 d311 b341
00000030: 05b2 90f6 e436 565d d797 71a1 1918 9acb

tfl.pseudo_qconst3 i1 [64, 128]
24 -57 4 -10 -25 91 77 -9
94 -50 -31 -38 21 -12 65 -18
-27 3 -107 -48 78 91 96 -2
-127 -28 -85 -46 19 27 67 101
-91 94 49 94 -61 -72 -27 19
-38 84 -64 -47 -52 94 14 -34
-14 -78 -70 -38 -37 -39 57 -62
-96 21 0 73 65 94 -32 -77
7 -34 89 -9 6 11 24 -75
-6 -26 74 -41 -35 53 33 -83
-2 -85 -85 39 58 62 30 58
-118 2 -70 -92 53 -62 77 99
-28 64 -25 20 -45 -23 -91 54
51 3 -63 -8 6 -71 -69 3
74 23 52 17 -1 9 3 -66
-28 57 47 90 -23 -59 44 -10
-84 -21 24 -15 34 -63 -62 -94
66 -126 -54 82 25 84 -98 93
-87 -50 -41 -125 13 45 -67 -19
0 64 4 -36 -64 -66 -4 -63
1 -35 89 -91 -120 27 38 -31
69 12 24 95 -75 -122 -4 33
-29 -101 15 80 -12 57 -23 80
24 2 5 -122 50 -83 83 -25
1 -104 -94 -7 60 -89 -21 -75
-115 45 15 -54 84 98 -12 -71
-28 -63 -29 89 -84 -2 118 53
38 37 43 92 -82 82 -108 -92
-10 -10 77 116 -50 54 105 -61
-97 -108 88 3 9 -86 -118 52
-105 -127 34 -28 -9 -114 47 -23
57 -41 105 -90 -31 -6 -18 114
00000000: 18c7 04f6 e75b 4df7 5ece e1da 15f4 41ee
00000010: e503 95d0 4e5b 60fe 81e4 abd2 131b 4365
00000020: a55e 315e c3b8 e513 da54 c0d1 cc5e 0ede
00000030: f2b2 bada dbd9 39c2 a015 0049 415e e0b3
00000040: 07de 59f7 060b 18b5 fae6 4ad7 dd35 21ad
00000050: feab ab27 3a3e 1e3a 8a02 baa4 35c2 4d63
00000060: e440 e714 d3e9 a536 3303 c1f8 06b9 bb03
00000070: 4a17 3411 ff09 03be e439 2f5a e9c5 2cf6
00000080: aceb 18f1 22c1 c2a2 4282 ca52 1954 9e5d
00000090: a9ce d783 0d2d bded 0040 04dc c0be fcc1
000000a0: 01dd 59a5 881b 26e1 450c 185f b586 fc21
000000b0: e39b 0f50 f439 e950 1802 0586 32ad 53e7
000000c0: 0198 a2f9 3ca7 ebb5 8d2d 0fca 5462 f4b9
000000d0: e4c1 e359 acfe 7635 2625 2b5c ae52 94a4
000000e0: f6f6 4d74 ce36 69c3 9f94 5803 09aa 8a34
000000f0: 9781 22e4 f78e 2fe9 39d7 69a6 e1fa ee72

tfl.pseudo_qconst5 i1 [128, 128]
84 7 -88 73 78 -72 -3 70
62 7 -99 37 -28 80 25 62
-19 -34 73 64 -96 -63 -95 -64
36 58 31 -112 -88 -72 -1 -105
-85 50 -71 -27 19 -24 -110 13
69 45 -40 6 -81 -32 -74 -93
-18 -15 42 63 87 28 -84 -26
15 56 43 -61 -78 -46 -24 15
29 56 -108 11 67 -13 -63 70
86 22 -79 80 -60 -42 66 -103
-10 45 -30 -50 -59 -127 -72 -53
74 -104 -37 73 67 16 -96 -42
1 51 46 12 59 -83 -15 38
28 -21 -29 -66 35 29 -3 82
53 42 -38 25 66 -30 -52 78
-107 42 66 -112 15 65 -91 2
-25 -127 -24 84 38 -4 -110 13
14 -109 -26 -76 -67 46 48 -69
68 44 -72 -19 -69 54 -51 -22
70 -18 -3 -85 -11 -21 84 90
-81 87 -110 40 5 1 49 45
-27 -73 27 -70 8 -80 18 -56
-27 64 59 4 30 -16 -57 19
15 -109 63 17 36 -94 57 -72
-17 -61 13 73 -78 42 89 -25
60 -35 -82 36 -93 -19 -58 89
72 49 45 -84 -72 81 -101 12
-61 -53 -84 -102 -113 82 -90 -20
-11 -46 -20 20 15 70 -55 67
51 12 -1 28 20 -28 -86 -45
35 87 -105 -63 19 -99 15 -111
72 56 -28 74 44 -73 42 -97
00000000: 5407 a849 4eb8 fd46 3e07 9d25 e450 193e
00000010: edde 4940 a0c1 a1c0 243a 1f90 a8b8 ff97
00000020: ab32 b9e5 13e8 920d 452d d806 afe0 b6a3
00000030: eef1 2a3f 571c ace6 0f38 2bc3 b2d2 e80f
00000040: 1d38 940b 43f3 c146 5616 b150 c4d6 4299
00000050: f62d e2ce c581 b8cb 4a98 db49 4310 a0d6
00000060: 0133 2e0c 3bad f126 1ceb e3be 231d fd52
00000070: 352a da19 42e2 cc4e 952a 4290 0f41 a502
00000080: e781 e854 26fc 920d 0e93 e6b4 bd2e 30bb
00000090: 442c b8ed bb36 cdea 46ee fdab f5eb 545a
000000a0: af57 9228 0501 312d e5b7 1bba 08b0 12c8
000000b0: e540 3b04 1ef0 c713 0f93 3f11 24a2 39b8
000000c0: efc3 0d49 b22a 59e7 3cdd ae24 a3ed c659
000000d0: 4831 2dac b851 9b0c c3cb ac9a 8f52 a6ec
000000e0: f5d2 ec14 0f46 c943 330c ff1c 14e4 aad3
000000f0: 2357 97c1 139d 0f91 4838 e44a 2cb7 2a9f

tfl.pseudo_qconst7 i1 [128, 1, 5, 64]
-25 14 37 -59 -26 -27 37 37
-25 -81 -45 -103 21 -54 112 10
40 -13 10 35 56 -36 -6 -38
-9 8 -38 26 -26 -44 -41 5
94 56 11 -23 30 20 -67 32
-23 53 56 28 57 -10 -43 -21
-41 31 -26 63 23 92 -27 -10
-84 20 -51 3 -60 0 -94 -38
-38 -71 66 34 16 32 -34 -10
18 3 -28 -86 32 55 92 7
41 -6 29 59 -31 -29 69 34
-6 -8 8 -8 -8 -49 93 -4
-41 27 14 36 37 -5 49 53
0 20 26 -53 82 -43 -58 33
12 7 32 -49 -81 37 67 13
-31 18 15 -63 -53 2 19 34
21 -16 80 -39 19 -8 -59 -30
9 -79 56 2 -49 26 -24 -6
-39 49 31 -12 38 -74 -15 -35
77 1 53 -57 -46 -2 -3 41
-20 17 13 -34 50 -67 44 -71
-58 66 -65 51 39 21 -93 21
-41 61 -39 -73 -88 -16 82 -85
-76 -113 -64 -64 -4 -61 -99 114
17 -4 -16 51 -19 -65 -81 -61
-74 -75 36 -98 19 25 60 18
-3 21 45 97 60 13 24 -12
-36 -16 63 -19 -65 -54 21 1
93 29 34 15 -12 38 3 53
-25 103 -63 -109 5 -92 -25 -33
-86 -20 -66 -29 -54 73 44 -44
-7 49 -53 51 -56 -25 -92 21
00000000: e70e 25c5 e6e5 2525 e7af d399 15ca 700a
00000010: 28f3 0a23 38dc fada f708 da1a e6d4 d705
00000020: 5e38 0be9 1e14 bd20 e935 381c 39f6 d5eb
00000030: d71f e63f 175c e5f6 ac14 cd03 c400 a2da
00000040: dab9 4222 1020 def6 1203 e4aa 2037 5c07
00000050: 29fa 1d3b e1e3 4522 faf8 08f8 f8cf 5dfc
00000060: d71b 0e24 25fb 3135 0014 1acb 52d5 c621
00000070: 0c07 20cf af25 430d e112 0fc1 cb02 1322
00000080: 15f0 50d9 13f8 c5e2 09b1 3802 cf1a e8fa
00000090: d931 1ff4 26b6 f1dd 4d01 35c7 d2fe fd29
000000a0: ec11 0dde 32bd 2cb9 c642 bf33 2715 a315
000000b0: d73d d9b7 a8f0 52ab b48f c0c0 fcc3 9d72
000000c0: 11fc f033 edbf afc3 b6b5 249e 1319 3c12
000000d0: fd15 2d61 3c0d 18f4 dcf0 3fed bfca 1501
000000e0: 5d1d 220f f426 0335 e767 c193 05a4 e7df
000000f0: aaec bee3 ca49 2cd4 f931 cb33 c8e7 a415

tfl.pseudo_qconst9 i1 [64, 1, 7, 32]
-13 -46 49 45 13 40 24 -4
-43 51 67 -13 7 -47 71 49
90 -1 78 9 65 -72 -29 16
14 42 70 62 -8 58 -35 61
-3 -15 113 2 -46 5 86 63
35 29 8 14 69 73 127 59
27 53 -20 -51 78 -60 -45 90
29 -16 -30 25 -60 44 48 29
104 33 59 59 4 35 -46 48
-51 56 -58 -45 106 17 -27 34
-31 45 -3 -9 -34 -67 15 91
23 10 34 82 -12 35 -20 -35
78 -9 100 50 -27 -3 101 27
-31 -37 69 67 -10 -44 32 37
88 44 91 46 51 50 -19 5
63 12 35 -12 29 35 -21 79
-13 35 -11 83 23 57 94 80
38 15 13 55 41 -11 76 -6
43 18 53 -28 46 34 23 -4
46 -71 8 -60 59 62 95 78
115 78 -45 29 62 7 -33 67
25 26 49 -78 27 14 121 -47
-29 54 49 -55 49 -18 -30 -14
22 10 28 43 47 35 1 -41
106 47 15 4 60 -34 20 -43
57 50 44 -23 33 31 4 66
107 56 55 -4 -22 34 -58 60
-10 55 39 -6 52 -50 111 49
53 73 31 16 74 6 -82 -25
27 10 -46 0 1 -50 60 -39
76 -8 49 18 -33 12 -28 -53
23 -4 -33 96 3 70 -25 -89
00000000: f3d2 312d 0d28 18fc d533 43f3 07d1 4731
00000010: 5aff 4e09 41b8 e310 0e2a 463e f83a dd3d
00000020: fdf1 7102 d205 563f 231d 080e 4549 7f3b
00000030: 1b35 eccd 4ec4 d35a 1df0 e219 c42c 301d
00000040: 6821 3b3b 0423 d230 cd38 c6d3 6a11 e522
00000050: e12d fdf7 debd 0f5b 170a 2252 f423 ecdd
00000060: 4ef7 6432 e5fd 651b e1db 4543 f6d4 2025
00000070: 582c 5b2e 3332 ed05 3f0c 23f4 1d23 eb4f
00000080: f323 f553 1739 5e50 260f 0d37 29f5 4cfa
00000090: 2b12 35e4 2e22 17fc 2eb9 08c4 3b3e 5f4e
000000a0: 734e d31d 3e07 df43 191a 31b2 1b0e 79d1
000000b0: e336 31c9 31ee e2f2 160a 1c2b 2f23 01d7
000000c0: 6a2f 0f04 3cde 14d5 3932 2ce9 211f 0442
000000d0: 6b38 37fc ea22 c63c f637 27fa 34ce 6f31
000000e0: 3549 1f10 4a06 aee7 1b0a d200 01ce 3cd9
000000f0: 4cf8 3112 df0c e4cb 17fc df60 0346 e7a7

tfl.pseudo_qconst11 i1 [32, 1, 9, 3]
-92 116 24 101 -34 12 -80 104
-41 42 9 40 -54 -104 21 -96
109 -87 -39 -73 50 63 25 127
-93 -56 52 -24 37 -29 65 -23
-127 -87 -53 -96 62 81 -12 -63
-40 -49 78 68 -85 30 7 -18
-80 -39 -25 -19 -78 54 24 -7
-89 -7 -48 19 -94 63 -110 33
-8 6 28 56 -17 -34 -13 -21
-97 -60 21 69 -43 113 68 78
127 -22 -35 -56 -55 -56 -72 -88
-80 -127 -108 111 45 -25 102 -36
-72 -100 32 -41 -22 -115 116 127
-77 53 -85 73 -88 -45 127 38
-30 24 -13 29 25 50 -15 -55
-72 -25 -41 -55 77 0 74 -29
26 30 -14 -40 31 83 -118 35
63 127 13 -65 -27 61 76 -17
-43 -49 107 -50 64 -12 -4 -69
-67 62 -37 -106 81 75 -12 -57
-65 -81 -53 -20 -15 -60 69 75
-43 127 -87 -63 14 37 100 61
103 76 -87 30 97 -111 -90 44
-96 -27 -48 -62 103 -9 85 38
-65 -83 -52 15 -30 -121 -1 100
2 -42 81 -48 15 -50 77 36
60 109 -54 -44 11 8 -55 127
62 26 -111 -111 65 7 -32 -57
-106 -80 91 -107 21 -45 59 26
109 98 -34 -17 -21 34 -56 61
-7 14 127 28 -82 -18 -34 -4
-81 -71 -63 -23 54 -58 0 80
00000000: a474 1865 de0c b068 d72a 0928 ca98 15a0
00000010: 6da9 d9b7 323f 197f a3c8 34e8 25e3 41e9
00000020: 81a9 cba0 3e51 f4c1 d8cf 4e44 ab1e 07ee
00000030: b0d9 e7ed b236 18f9 a7f9 d013 a23f 9221
00000040: f806 1c38 efde f3eb 9fc4 1545 d571 444e
00000050: 7fea ddc8 c9c8 b8a8 b081 946f 2de7 66dc
00000060: b89c 20d7 ea8d 747f b335 ab49 a8d3 7f26
00000070: e218 f31d 1932 f1c9 b8e7 d7c9 4d00 4ae3
00000080: 1a1e f2d8 1f53 8a23 3f7f 0dbf e53d 4cef
00000090: d5cf 6bce 40f4 fcbb bd3e db96 514b f4c7
000000a0: bfaf cbec f1c4 454b d57f a9c1 0e25 643d
000000b0: 674c a91e 6191 a62c a0e5 d0c2 67f7 5526
000000c0: bfad cc0f e287 ff64 02d6 51d0 0fce 4d24
000000d0: 3c6d cad4 0b08 c97f 3e1a 9191 4107 e0c7
000000e0: 96b0 5b95 15d3 3b1a 6d62 deef eb22 c83d
000000f0: f90e 7f1c aeee defc afb9 c1e9 36c6 0050
