ML/models/conv1d_angle_toro_ossaba/seed4_20260117_034451_832/model.tflite (tflite, 96000 bytes, 11 tensors)

arith.constant2 f4 [1, 64]
0.11704234 0.17108077 0.06656069 -0.12928721 -0.14780007 0.15491416 -0.05886787 -0.15720363
-0.09532287 0.16273487 0.5148688 0.3116088 0.039105553 -0.4007997 0.017897932 -0.18663473
0.2791949 -0.15134557 -0.12580402 -0.16264467 0.07812249 -0.14975557 0.07746066 0.5165084
0.11551717 -0.036163375 -0.031120695 0.15049557 0.06586612 0.13208567 -0.34858295 -0.20399223
0.09622827 -0.16754419 -0.08899929 0.016131485 0.09754204 -0.05419238 -0.27620625 -0.14321885
-0.11661138 -0.27598953 -0.061604846 0.10273521 0.06260129 0.16119412 0.055281434 0.23048756
-0.019869009 0.078162335 -0.20243852 0.052279644 -0.40529263 -0.080894426 0.06080583 0.18387477
0.25803927 0.11766571 -0.17672363 0.12827256 0.023778893 0.04448075 0.19173577 0.11137376
00000000: e5b3 ef3d cc2f 2f3e f950 883d de63 04be
00000010: e758 17be d1a1 1e3e 701f 71bd fdf9 20be
00000020: a338 c3bd f8a3 263e 71ce 033f 308b 9f3e
00000030: 252d 203d 9e35 cdbe af9e 923c 2d1d 3fbe
00000040: a2f2 8e3e 55fa 1abe c5d2 00be 538c 26be
00000050: affe 9f3d 8659 19be b2a3 9e3d e539 043f
00000060: 4494 ec3d 0c20 14bd d4f0 febc 831b 1a3e
00000070: d1e4 863d 7741 073e 7779 b2be 57e3 50be
00000080: 5413 c53d b490 2bbe 4245 b6bd 2d26 843c
00000090: 1fc4 c73d d4f8 5dbd e86a 8dbe f6a7 12be
000000a0: f2d1 eebd 804e 8dbe 5d55 7cbd d666 d23d
000000b0: 1b35 803d 1210 253e c96e 623d ee04 6c3e
000000c0: 55c4 a2bc 9313 a03d 0b4c 4fbe 2e23 563d
000000d0: 8482 cfbe faab a5bd 890f 793d ab49 3c3e
000000e0: b91d 843e b8fa f03d 0af7 34be e259 033e
000000f0: f4cb c23c 7231 363d 6256 443e ed17 e43d

arith.constant7 f4 [128]
-0.02006653 0.117203556 0.017601218 0.042464215 0.028763758 -0.017523123 -0.019778972 -0.01096631
0.05859393 0.08255497 -0.07929437 0.026587918 0.009514612 -0.085909225 0.022870185 -0.015722036
-0.02404147 -0.0025760834 -0.035490986 -0.012720381 0.0026745317 -0.009731048 0.023922678 -0.005982395
0.039845753 0.003555538 -0.008418895 -0.022635464 0.058178734 -0.0007521828 -0.024165638 -0.0042573353
-0.013138972 -0.025812909 -0.016947776 0.025303757 -0.018079543 -0.0016671694 0.05416215 -0.009349857
-0.021667233 0.0656678 0.01751846 0.08395694 0.0148877585 -0.013632193 -0.014970073 0.02480529
-0.015731778 0.06827733 0.03137925 0.00518057 -0.016855411 -0.020735882 0.048246898 -0.002637423
-0.024923138 -0.022085443 -0.030529205 0.08417734 0.027256846 -0.011406737 0.103504576 -0.017750341
-0.027521003 0.07141636 -0.020077968 -0.0034929244 0.023791179 0.052689135 -0.015684327 0.040870745
-0.00011814364 -0.02293409 0.015309788 -0.022314018 -0.016632134 0.030748922 -0.08226164 0.033416606
-0.049653627 -0.013992245 0.030007774 0.058942825 0.022332963 0.041073233 -0.01822011 -0.029247057
-0.023427093 0.017253214 -0.037131324 -0.025367431 -0.007947821 0.03929567 -0.008291518 -0.009163228
-0.023483455 0.016924629 -0.07757049 0.05329415 -0.008527816 0.06021267 -0.030851923 0.062001355
0.08841696 0.028414182 -0.017326843 -0.009080718 -0.010453416 -0.018322572 -0.009663621 -0.013844096
0.0736149 0.06395148 0.035191722 0.019237299 -0.07199971 0.032912906 -0.018566158 -0.011411916
0.037269488 0.016911821 0.05136994 -0.035905983 -0.032021847 0.00843214 -0.0062098075 0.0004308824
00000000: 9062 a4bc 6b08 f03d 6e30 903c f5ee 2d3d
00000010: f9a1 eb3c a78c 8fbc 8307 a2bc 0aac 33bc
00000020: 3000 703d 9512 a93d 1665 a2bd e8ce d93c
00000030: 2de3 1b3c 2df1 afbd 415a bb3c 80cb 80bc
00000040: 9ef2 c4bc 82d3 28bb ff5e 11bd 2569 50bc
00000050: 3247 2f3b f96e 1fbc 7ef9 c33c f707 c4bb
00000060: 4d35 233d 0704 693b 68ef 09bc 026e b9bc
00000070: d34c 6e3d 222e 45ba 04f7 c5bc 1e81 8bbb
00000080: d844 57bc 9875 d3bc 10d6 8abc d349 cf3c
00000090: 8d1b 94bc ec84 daba 21d9 5d3d 2530 19bc
000000a0: 7b7f b1bc d77c 863d e082 8f3c 9ef1 ab3d
000000b0: c9eb 733c 9059 5fbc 0945 75bc 7734 cb3c
000000c0: eedf 80bc fcd4 8b3d 8787 003d c5c1 a93b
000000d0: 5c14 8abc 4cde a9bc 8a9e 453d 9ed8 2cbb
000000e0: 9c2b ccbc 88ec b4bc 6218 fabc 2b65 ac3d
000000f0: c049 df3c 53e3 3abc 35fa d33d 2a69 91bc
00000100: ba73 e1bc be42 923d 8d7a a4bc 8ce9 64bb
00000110: b8e5 c23c 90d0 573d 6b7c 80bc 1568 273d
00000120: e2c3 f7b8 46e0 bbbc e8d5 7a3c e3cb b6bc
00000130: 1d40 88bc 2ae5 fb3c ca78 a8bd dadf 083d
00000140: 9a61 4bbd bb3f 65bc ddd2 f53c 086e 713d
00000150: 9ef3 b63c 683c 283d 5742 95bc 8697 efbc
00000160: 2dea bfbc 9d56 8d3c 0417 18bd 5ccf cfbc
00000170: 9437 02bc 7ff4 203d 26d9 07bc 5d21 16bc
00000180: 6060 c0bc 85a5 8a3c 47dd 9ebd f74a 5a3d
00000190: 41b8 0bbc 90a1 763d 2cbd fcbc 22f5 7d3d
000001a0: f313 b53d dcc4 e83c 06f1 8dbc 4bc7 14bc
000001b0: ce44 2bbc 3819 96bc 2a54 1ebc 59d2 62bc
000001c0: 69c3 963d fef8 823d 3225 103d 8a97 9d3c
000001d0: 9574 93bd afcf 063d 0e18 98bc 0cf9 3abc
000001e0: e4a7 183d a98a 8a3c 4969 523d 2712 13bd
000001f0: 5729 03bd f526 0a3c a47b cbbb 0fe8 e139

arith.constant8 f4 [64]
0.062183633 0.04508149 -0.17780165 -0.040912464 0.14648111 0.07745948 0.012673863 0.07860166
0.06551619 0.03024415 0.099024266 -0.016619878 -0.0067213285 0.031346653 -0.07735368 0.040716566
0.1595521 0.025231946 0.1561079 -0.014329059 -0.106506094 0.08053938 0.012680962 0.019870058
-0.060738757 -0.019991525 -0.0005097198 0.020009542 -0.010903224 0.04920664 0.057963554 -0.09567969
-0.037199214 0.14688651 -0.014759359 -0.10447234 0.021543099 -0.16295207 0.06150597 0.05785219
0.050223265 0.11788202 -0.116621904 -0.09038857 0.008342931 0.040983465 -0.020222483 -0.06655114
0.023582077 -0.066282906 0.07436774 0.029921468 0.110753715 0.0062732906 -0.040684663 0.040244244
0.06292072 -0.038403142 0.12718225 -0.03431421 -0.12537004 -0.026324032 0.103285365 -0.008022404
00000000: 44b4 7e3d 5ea7 383d a311 36be d493 27bd
00000010: 25ff 153e 13a3 9e3d 09a6 4f3c e8f9 a03d
00000020: 5a2d 863d 94c2 f73c 3ccd ca3d 6926 88bc
00000030: 973e dcbb 5965 003d 9b6b 9ebd 6ac6 263d
00000040: a061 233e 3ab3 ce3c c0da 1f3e 6ec4 6abc
00000050: de1f dabd d5f1 a43d cfc3 4f3c 88c6 a23c
00000060: 34c9 78bd 44c5 a3bc b79e 05ba 0deb a33c
00000070: 70a3 32bc e78c 493d 316b 6d3d b7f3 c3bd
00000080: 345e 18bd 6b69 163e 3dd1 71bc 98f5 d5bd
00000090: 277b b03c e8dc 26be afed 7b3d 6bf6 6c3d
000000a0: e9b6 4d3d 216c f13d 77d7 eebd a51d b9bd
000000b0: cab0 083c 47de 273d 9fa9 a5bc f74b 88bd
000000c0: 332f c13c 55bf 87bd 1d4e 983d de1d f53c
000000d0: d8d2 e23d 2d90 cd3b f6a4 26bd 26d7 243d
000000e0: 94dc 803d 9d4c 1dbd 103c 023e 0f8d 0cbd
000000f0: 0161 00be 7fa5 d7bc 4787 d33d 6770 03bc

arith.constant9 f4 [32, 1, 9, 3]
-0.04028783 -2.530849 -0.08107697 -0.86670935 -2.3643553 0.781718 -0.08657567 -2.0522537
0.0062083504 -0.07670046 -0.92406255 1.1312095 -0.8894215 0.46011043 -0.73964995 -0.85497004
-0.98111373 -0.8183189 -0.94256055 -1.5668159 -0.83718145 0.52728575 -0.47152165 -1.3700935
-1.8065674 -0.7644324 -0.3319209 0.1378033 -0.56134015 0.06088755 -0.12180572 -0.6970929
0.12502325 -0.20017678 -0.39465064 -1.2984484 0.28306967 -0.3193922 -0.24984898 0.06373375
0.18135196 -1.1999145 0.45042726 -0.23958322 -1.4801991 -0.540663 -0.29423442 -0.11726981
-0.14406769 -0.3985025 0.2942702 -0.5453076 0.038047384 0.06942905 0.38453302 -0.56296515
-0.11755813 1.9898819 -1.9834485 1.1444826 -0.2308541 -2.4849424 1.0781747 -0.24878946
-2.6559067 0.42719322 0.11724456 -1.8294609 -1.5049206 0.18796591 -0.89779997 -1.3629905
1.2663211 -0.9602336 0.564161 0.39789334 -2.9828892 -0.5362377 1.3650315 -1.7336619
-1.0269525 0.7996526 -0.7841924 4.256131 1.1092855 0.06880949 1.0388919 -0.5872781
-0.9738159 -0.40887287 0.80275464 0.032672126 -1.589321 0.55037755 -0.3479298 0.5383407
-0.9561127 -0.91498286 -2.8776007 0.94311446 0.11711537 -0.49008864 -0.670992 1.4031898
-2.719206 -0.81049967 0.7615481 -0.31732884 -0.6841182 0.9921994 1.2718995 1.0224937
-1.0346143 1.7948174 0.044165928 -1.3718965 -1.1082319 -0.19672662 -0.59945637 -1.123191
0.66655236 0.017072577 2.010425 -0.011327503 -0.017053608 1.2491608 -1.06223 1.216718
-2.2829795 0.11200597 -0.738563 -2.891744 0.96093047 0.71197015 -1.8768151 -0.5383738
0.8807841 -2.0052443 -0.8167008 1.2314993 -3.0746424 0.18774496 -0.13891107 -2.3877268
0.12801267 -0.046103742 -1.9359454 1.1750003 -2.237761 1.548578 1.407469 0.4279092
1.9687166 -0.6443868 -2.1629674 2.33452 0.4998065 -2.267272 0.6026324 2.3229024
1.125614 2.5790951 0.25581163 -0.016710067 0.11310445 0.22808938 -0.0041086455 1.2816404
-0.023053179 0.47526485 0.5432172 -0.6002751 -0.21303916 0.6923705 0.23261274 -0.7327375
-0.8884824 0.23766358 -0.36785114 -1.1275747 -0.5717985 1.0173513 -1.0683125 0.5072019
-0.6302961 -0.28470126 0.3612729 0.6963704 -2.1964262 -0.23833925 0.2539526 0.54404163
0.12177194 0.083587065 -0.19308563 0.24071372 0.16594419 -0.59372354 -0.26289287 -0.11032083
-0.9572901 -0.02262142 -0.15113169 -0.5396534 0.22570123 -0.13472545 -1.0748975 0.3052591
0.10216669 -0.29182142 -0.2464084 -0.008097064 -0.40488324 0.11162289 0.3800965 -0.27755505
0.63239866 -0.34352398 4.382024 0.3717092 -0.40993342 2.009055 -1.2859652 0.90455145
1.8032018 1.5798801 0.93995845 -0.80612683 0.20039555 -0.08189839 -0.28169283 -0.21814911
-0.72228944 0.40356907 -1.1300455 -0.22547713 -1.9872472 1.0630825 0.6367263 -3.9496903
0.24760282 -0.0065098302 -2.869167 0.19745637 -0.72832304 -2.129561 -1.3879628 0.5310145
-1.7578777 -1.9676205 1.0896083 0.09919637 -0.07372625 1.5499977 -1.181162 -1.0128114
00000000: da04 25bd 6ef9 21c0 af0b a6bd aae0 5dbf
00000010: 9951 17c0 ac1e 483f 964e b1bd 2058 03c0
00000020: 6b6f cb3b 2115 9dbd 5d8f 6cbf 79cb 903f
00000030: 21b1 63bf 9893 eb3e b359 3dbf 51df 5abf
00000040: 452a 7bbf 597d 51bf a64b 71bf 6c8d c8bf
00000050: 8651 56bf 33fc 063f 496b f1be 395f afbf
00000060: 9a3d e7bf d7b1 43bf 89f1 a9be 4f1c 0d3e
00000070: fdb3 0fbf 3965 793d 4775 f9bd ae74 32bf
00000080: 1806 003e 24fb 4cbe a60f cabe 8f33 a6bf
00000090: 82ee 903e 6087 a3be 69d8 7fbe d786 823d
000000a0: 54b4 393e cc96 99bf 679e e63e 4e55 75be
000000b0: 2a77 bdbf e468 0abf e5a5 96be 272b f0bd
000000c0: 7b86 13be 8508 ccbe 95aa 963e 4799 0bbf
000000d0: 93d7 1b3d d130 8e3d 83e1 c43e 7c1e 10bf
000000e0: 51c2 f0bd 73b4 fe3f a4e1 fdbf 687e 923f
000000f0: 0465 6cbe 4c09 1fc0 a101 8a3f aac2 7ebe
00000100: 60fa 29c0 12b9 da3e ea1d f03d c62b eabf
00000110: 3da1 c0bf 237a 403e 38d6 65bf 7976 aebf
00000120: cf16 a23f dfd1 75bf db6c 103f adb8 cb3e
00000130: a8e7 3ec0 e046 09bf 5ab9 ae3f a2e8 ddbf
00000140: 2e73 83bf 08b6 4c3f d5c0 48bf 3a32 8840
00000150: 11fd 8d3f fdeb 8c3d 69fa 843f dc57 16bf
00000160: 004c 79bf c957 d1be 5481 4d3f 35d3 053d
00000170: df6e cbbf 8be5 0c3f db23 b2be b2d0 093f
00000180: cdc3 74bf 513c 6abf 9c2a 38c0 f36f 713f
00000190: 2fda ef3d e6ec fabe 22c6 2bbf b99b b33f
000001a0: 7907 2ec0 e87c 4fbf d1f4 423f ed78 a2be
000001b0: 5f22 2fbf c800 7e3f 9acd a23f 13e1 823f
000001c0: 3e6e 84bf 94bc e53f 55e7 343d 4e9a afbf
000001d0: 8bda 8dbf b472 49be f975 19bf b9c4 8fbf
000001e0: 2da3 2a3f cadb 8b3c ceaa 0040 fe96 39bc
000001f0: 02b4 8bbc 80e4 9f3f 27f7 87bf 6abd 9b3f
00000200: 561c 12c0 6363 e53d 7712 3dbf 5512 39c0
00000210: 8aff 753f ad43 363f 7a3b f0bf ded2 09bf
00000220: 117b 613f ec55 00c0 4e13 51bf c5a1 9d3f
00000230: f1c6 44c0 3740 403e b43e 0ebe 84d0 18c0
00000240: c115 033e 47d7 3cbd 0fcd f7bf 6966 963f
00000250: 7a37 0fc0 ce37 c63f f227 b43f ea16 db3e
00000260: e8fe fb3f 89f6 24bf 0f6e 0ac0 c768 1540
00000270: a3e6 ff3e fc1a 11c0 1e46 1a3f 6faa 1440
00000280: 1f14 903f e50f 2540 bef9 823e 8de3 88bc
00000290: 4ea3 e73d 4390 693e d1a1 86bb cb0c a43f
000002a0: 05da bcbc ea55 f33e 4810 0b3f a1ab 19bf
000002b0: f026 5abe 313f 313f 0932 6e3e af94 3bbf
000002c0: 9573 63bf 155e 733e fc56 bcbe 5e54 90bf
000002d0: 6361 12bf 9138 823f 77be 88bf fcd7 013f
000002e0: 165b 21bf 5dc4 91be c3f8 b83e 5545 323f
000002f0: 3f92 0cc0 340f 74be 1306 823e 5046 0b3f
00000300: 9163 f93d b22f ab3d 3db8 45be a87d 763e
00000310: 46ed 293e 44fe 17bf e599 86be e3ef e1bd
00000320: f710 75bf 8e50 b9bc 44c2 1abe ba26 0abf
00000330: 391e 673e 78f5 09be 3e96 89bf ec4a 9c3e
00000340: c53c d13d 9e69 95be 7c52 7cbe 8ca9 04bc
00000350: db4c cfbe 8b9a e43d 029c c23e b21b 8ebe
00000360: e1e4 213f 60e2 afbe 8a39 8c40 ab50 be3e
00000370: cbe2 d1be 5b94 0040 829a a4bf af90 673f
00000380: 51cf e63f 8339 ca3f 1ea1 703f 545e 4ebf
00000390: 7e34 4d3e 58ba a7bd 0b3a 90be 7b62 5fbe
000003a0: f6e7 38bf 9ba0 ce3e 55a5 90bf 7ae3 66be
000003b0: 1e5e febf 1613 883f 7f00 233f bac7 7cc0
000003c0: 988b 7d3e 6a50 d5bb 6fa0 37c0 0132 4a3e
000003d0: 6173 3abf ba4a 08c0 c4a8 b1bf 91f0 073f
000003e0: 2302 e1bf fdda fbbf 4978 8b3f 7727 cb3d
000003f0: cafd 96bd 5366 c63f 5130 97bf cea3 81bf

arith.constant10 f4 [128]
0.5563373 0.5482848 1.162665 0.15554787 -0.17711903 0.33402362 -0.31951123 0.82976353
0.65133846 -0.6450526 -0.54290956 0.72212255 1.1498717 -1.1728764 2.3463094 0.29574198
0.49735937 0.21239893 0.44356686 2.5885875 0.86425006 0.26150957 0.8004431 2.210908
0.18732087 0.51922363 -0.40420255 0.30799633 1.9093273 2.0194933 0.41112733 -0.06416304
0.34917998 0.60990685 1.3797228 0.38989407 0.6308496 0.7186618 1.9540004 0.18378139
-0.65190977 0.20351289 -0.5722198 0.3449047 0.20604321 0.4624852 0.37466878 0.05673431
2.3964877 0.71173155 0.9116311 0.19851732 0.19097117 1.3255063 1.3928742 -0.72422516
1.5329064 -0.49773845 -0.48703066 0.86866903 1.0772477 1.7162948 0.94377357 0.6487431
0.1325821 0.56869537 1.9572434 0.72867215 0.070872426 -0.41287127 0.70552516 2.7958112
2.4387314 0.56425375 1.615408 2.4700131 -0.68628985 2.6238904 -0.847166 1.0736852
0.19013561 0.30720276 2.0484507 -0.11707808 0.7450591 -0.7736215 0.14951348 0.4512077
2.6162994 0.6786818 -0.06697391 1.9740288 0.557876 0.7957978 0.78673583 1.93251
1.9644462 0.35158154 -0.15772754 0.748316 -0.47478592 0.34941265 0.42599535 0.56020296
0.4962671 0.3936094 0.020433595 0.13237227 1.9274142 0.658308 2.3116286 2.5604665
2.2785375 1.8826916 0.65199727 0.050191417 1.2977092 0.94191253 -0.16437778 0.7179052
0.5291079 -0.55059874 -0.7327179 0.02836456 -0.49022058 0.41399938 -0.032117605 0.53961164
00000000: 1f6c 0e3f 655c 0c3f 35d2 943f f147 1f3e
00000010: b15e 35be 2505 ab3e fa96 a3be 626b 543f
00000020: 1ebe 263f 2b22 25bf 1ffc 0abf 06dd 383f
00000030: ff2e 933f d020 96bf ef29 1640 7e6b 973e
00000040: e3a5 fe3e 1b7f 593e 321b e33e 6bab 2540
00000050: 7e3f 5d3f 95e4 853e d7e9 4c3f 847f 0d40
00000060: 0bd1 3f3e d7eb 043f a3f3 cebe b2b1 9d3e
00000070: d664 f43f 613f 0140 487f d23e e967 83bd
00000080: b8c7 b23e db22 1c3f c29a b03f 32a0 c73e
00000090: 5c7f 213f 38fa 373f af1c fa3f 3031 3c3e
000000a0: 8fe3 26bf af65 503e ff7c 12bf 5997 b03e
000000b0: fefc 523e dcca ec3e 96d4 bf3e 3c62 683d
000000c0: 0e60 1940 0a34 363f a860 693f 2048 4b3e
000000d0: f28d 433e 31aa a93f b449 b23f d266 39bf
000000e0: 4736 c43f 93d7 febe 155c f9be 1861 5e3f
000000f0: 41e3 893f 8caf db3f 259b 713f 0714 263f
00000100: 9ac3 073e 0596 113f f486 fa3f 428a 3a3f
00000110: 9025 913d dd63 d3be 4c9d 343f 92ee 3240
00000120: 2d14 1c40 ef72 103f b0c5 ce3f b214 1e40
00000130: b1b0 2fbf d2ed 2740 dfdf 58bf 846e 893f
00000140: e9b2 423e ae49 9d3e d119 0340 a2c6 efbd
00000150: 31bc 3e3f 0f0c 46bf 101a 193e b204 e73e
00000160: 7371 2740 17be 2d3f 9e29 89bd faac fc3f
00000170: f6d0 0e3f 68b9 4b3f 8567 493f 7d5c f73f
00000180: f972 fb3f 7f02 b43e 5483 21be a391 3f3f
00000190: 2417 f3be 37e6 b23e 101c da3e 7669 0f3f
000001a0: b916 fe3e 2c87 c93e 5b64 a73c 998c 073e
000001b0: 82b5 f63f e086 283f b9f1 1340 afde 2340
000001c0: 8fd3 1140 0afc f03f 4be9 263f 8495 4d3d
000001d0: 561b a63f 2e21 713f a652 28be a3c8 373f
000001e0: 9e73 073f 0af4 0cbf 6693 3bbf cb5c e83c
000001f0: 31fe fabe baf7 d33e c08d 03bd fd23 0a3f

arith.constant11 f4 [64]
0.29991367 0.6121177 -0.03719322 -0.20810899 0.29394412 0.6474797 -1.8287107 -2.152203
0.21894492 0.13340966 0.1600032 0.085641935 0.069899 -0.57734543 0.41146657 -1.0371673
0.39440212 -0.13163733 0.26178837 0.20569107 0.15183748 0.19111364 0.3076222 0.3457463
-1.2617174 -0.23740275 0.6962356 0.05270465 0.35318658 0.1999119 0.5468437 0.79365546
0.28605315 0.32480645 0.020891406 -0.38678238 0.15408029 -0.22927596 -0.070866026 -0.28275144
-1.3600217 -1.674124 -0.032216944 -1.1742916 -1.0359533 0.5772569 0.63459164 0.6291011
-0.49683103 -0.03173005 -0.043071073 -0.19150795 0.5357691 -1.202503 -0.63549834 0.21429785
0.52601874 0.10552995 0.32909232 0.34708872 -1.1483192 0.23621944 -0.14092699 0.18906084
00000000: 498e 993e bfb3 1c3f eb57 18bd 861a 55be
00000010: d87f 963e 3bc1 253f 3113 eabf b2bd 09c0
00000020: 1933 603e 8b9c 083e e1d7 233e 0a65 af3d
00000030: 3527 8f3d e9cc 13bf bfab d23e e6c1 84bf
00000040: 13ef c93e f0cb 06be 2009 863e aea0 523e
00000050: 497b 1b3e 4bb3 433e a880 9d3e a905 b13e
00000060: f57f a1bf b519 73be 7f3c 323f d5e0 573d
00000070: dfd4 b43e b5b5 4c3e f3fd 0b3f 012d 4b3f
00000080: 8f75 923e 084d a63e 7424 ab3c 5708 c6be
00000090: 39c7 1d3e 51c7 6abe 3522 91bd ccc4 90be
000000a0: 3115 aebf b249 d6bf eaf5 03bd 304f 96bf
000000b0: 1e9a 84bf 1cc7 133f 9974 223f c50c 213f
000000c0: a360 febe 5ef7 01bd 4b6b 30bd a91a 44be
000000d0: 2a28 093f 9eeb 99bf 05b0 22bf e570 5b3e
000000e0: 2aa9 063f 1620 d83d ca7e a83e 9db5 b13e
000000f0: 20fc 92bf 82e3 713e 2a4f 10be 2a99 413e

arith.constant12 f4 [32]
1.6276993 1.4869677 0.8396572 1.1820034 0.4772082 0.12834923 0.3413844 1.438832
0.49081728 0.09000519 -1.666501 -2.041797 0.9966938 1.5692935 -0.6346168 -0.99312603
0.6056136 1.6302027 -2.160394 -1.5711023 -1.3588066 0.35567123 1.2310536 0.56347746
-1.0658935 -1.887306 -1.0741283 0.1836549 0.58565575 1.1140584 -2.0373049 -1.1742067
00000000: 7358 d03f f554 be3f c6f3 563f e34b 973f
00000010: a254 f43e fb6d 033e f0c9 ae3e a62b b83f
00000020: 674c fb3e a454 b83d e84f d5bf cdac 02c0
00000030: 5327 7f3f 9cde c83f 3f76 22bf 823d 7ebf
00000040: 7e09 1b3f 7baa d03f e543 0ac0 e119 c9bf
00000050: 60ed adbf 8a1a b63e 2a93 9d3f 0f40 103f
00000060: 336f 88bf 3e93 f1bf 097d 89bf 0810 3c3e
00000070: 89ed 153f 7799 8e3f 3463 02c0 684c 96bf

tfl.pseudo_qconst i1 [128, 1, 5, 64]
-5 33 -80 29 -23 25 -51 -40
-40 -75 -71 -93 -49 -80 37 -85
-1 -54 8 13 -27 -21 -74 -78
10 -110 -8 -38 -4 -25 -27 59
-61 -56 -82 10 -41 7 -119 -33
-11 -51 44 -32 -34 -33 3 -90
-44 -52 -33 14 -50 -73 24 -10
29 -85 -35 5 -79 -17 29 -40
-33 12 -73 35 -57 0 -71 -1
-31 -92 -119 -126 14 -84 -8 -62
-13 -52 -44 -90 -51 -69 -25 -80
-18 -33 10 2 -21 -10 -48 46
-47 25 -26 -3 -17 21 -94 -54
16 -9 -18 -20 -100 -19 59 -104
15 -98 -44 -39 17 -30 32 -60
28 -85 -43 27 -51 12 -27 -35
-79 -15 -82 -23 -28 24 -82 -59
-23 -37 -104 -66 30 -105 -18 -119
-23 -54 -41 -51 -5 -36 -54 -40
0 -49 67 -77 -84 -22 -71 42
-58 16 -68 -1 -46 -29 -52 -11
22 -57 -16 -18 -95 -40 40 -63
-33 -11 -64 29 -9 -23 -18 -41
-4 -58 -64 -21 -59 -30 7 -25
3 -28 -62 7 -46 41 -71 -55
-29 -81 -127 -43 -39 -120 42 -87
26 -42 -17 -53 34 2 -73 -31
21 -83 15 -33 -67 -2 -25 72
-75 26 -70 10 -43 -17 -65 -16
12 -34 44 -1 -55 37 20 -122
-8 6 -57 3 -43 -30 28 -27
40 -20 -64 29 -96 -25 -33 -8
00000000: fb21 b01d e919 cdd8 d8b5 b9a3 cfb0 25ab
00000010: ffca 080d e5eb b6b2 0a92 f8da fce7 e53b
00000020: c3c8 ae0a d707 89df f5cd 2ce0 dedf 03a6
00000030: d4cc df0e ceb7 18f6 1dab dd05 b1ef 1dd8
00000040: df0c b723 c700 b9ff e1a4 8982 0eac f8c2
00000050: f3cc d4a6 cdbb e7b0 eedf 0a02 ebf6 d02e
00000060: d119 e6fd ef15 a2ca 10f7 eeec 9ced 3b98
00000070: 0f9e d4d9 11e2 20c4 1cab d51b cd0c e5dd
00000080: b1f1 aee9 e418 aec5 e9db 98be 1e97 ee89
00000090: e9ca d7cd fbdc cad8 00cf 43b3 acea b92a
000000a0: c610 bcff d2e3 ccf5 16c7 f0ee a1d8 28c1
000000b0: dff5 c01d f7e9 eed7 fcc6 c0eb c5e2 07e7
000000c0: 03e4 c207 d229 b9c9 e3af 81d5 d988 2aa9
000000d0: 1ad6 efcb 2202 b7e1 15ad 0fdf bdfe e748
000000e0: b51a ba0a d5ef bff0 0cde 2cff c925 1486
000000f0: f806 c703 d5e2 1ce5 28ec c01d a0e7 dff8

tfl.pseudo_qconst1 i1 [64, 1, 7, 32]
-50 32 -24 -71 -23 5 9 -27
-37 0 15 11 1 -45 -16 -14
26 -48 18 8 -8 5 -36 -51
3 14 10 -9 27 -43 -4 -2
-58 7 -20 -83 -46 -8 12 -61
-12 2 13 -23 -11 -73 -19 28
22 -62 23 14 5 11 -55 -10
-7 8 2 -4 7 -67 24 -17
3 -4 -28 -7 6 -3 14 -83
16 1 19 25 -35 -76 25 11
-5 -73 -1 11 14 12 -36 -5
15 -23 13 -7 -3 -73 3 21
14 -10 16 16 25 -12 16 -16
-12 15 -13 -10 -11 -41 -7 -12
-7 -45 -25 27 21 15 -38 17
-4 3 3 5 -33 -11 -12 15
20 -16 -12 3 29 2 29 -82
2 23 -13 -2 -43 -67 -11 -4
-36 -65 11 28 -4 -3 -56 7
14 -25 -7 -11 41 -70 6 -15
-3 12 22 1 17 10 26 -8
3 16 15 12 -3 -90 33 40
14 -89 -12 -1 -3 18 -68 15
-2 -10 10 7 -12 -14 13 -2
-52 -22 -17 -48 47 11 34 -118
-9 -11 19 -15 -68 -118 20 18
-61 -127 -6 -13 -2 -1 -66 -29
7 21 -6 0 -12 -88 8 10
9 64 5 16 -93 6 -112 14
-20 -21 41 52 40 5 -2 -3
-31 46 58 28 3 -84 51 85
13 36 -33 -3 5 18 43 16
00000000: ce20 e8b9 e905 09e5 db00 0f0b 01d3 f0f2
00000010: 1ad0 1208 f805 dccd 030e 0af7 1bd5 fcfe
00000020: c607 ecad d2f8 0cc3 f402 0de9 f5b7 ed1c
00000030: 16c2 170e 050b c9f6 f908 02fc 07bd 18ef
00000040: 03fc e4f9 06fd 0ead 1001 1319 ddb4 190b
00000050: fbb7 ff0b 0e0c dcfb 0fe9 0df9 fdb7 0315
00000060: 0ef6 1010 19f4 10f0 f40f f3f6 f5d7 f9f4
00000070: f9d3 e71b 150f da11 fc03 0305 dff5 f40f
00000080: 14f0 f403 1d02 1dae 0217 f3fe d5bd f5fc
00000090: dcbf 0b1c fcfd c807 0ee7 f9f5 29ba 06f1
000000a0: fd0c 1601 110a 1af8 0310 0f0c fda6 2128
000000b0: 0ea7 f4ff fd12 bc0f fef6 0a07 f4f2 0dfe
000000c0: ccea efd0 2f0b 228a f7f5 13f1 bc8a 1412
000000d0: c381 faf3 feff bee3 0715 fa00 f4a8 080a
000000e0: 0940 0510 a306 900e eceb 2934 2805 fefd
000000f0: e12e 3a1c 03ac 3355 0d24 dffd 0512 2b10

tfl.pseudo_qconst2 i1 [64, 128]
-37 -62 -15 28 -19 21 -52 -54
-63 1 26 -60 -12 -46 10 -20
-62 15 20 -63 -13 -5 -8 -49
-86 31 -67 -53 -21 -14 -25 -16
-57 -24 -15 -31 66 -34 -76 52
29 -89 -70 21 -90 38 -9 32
33 -127 -56 -24 -36 -76 -3 38
47 -18 72 -50 23 2 60 61
64 10 -2 66 -15 -105 5 -48
37 -63 17 -30 28 40 -47 19
-34 -10 4 -112 -17 10 21 19
57 31 -8 50 -31 33 42 -27
-38 -36 66 -19 37 35 -74 -37
-81 -28 -73 47 -65 25 -46 -23
4 -46 -26 11 -56 -38 2 -34
-11 1 -17 -23 8 5 -28 -32
-50 -20 -30 -40 8 49 3 9
-11 -22 15 -43 -29 4 13 -15
-42 -42 18 41 6 -31 -77 33
-56 -22 13 51 -102 20 -33 13
19 16 -2 55 26 13 1 42
-23 -118 -13 -23 -46 -51 -8 -25
42 -111 -35 -16 -18 -38 -1 14
-14 -11 30 -127 -51 16 -44 18
-4 -4 -15 49 -58 -16 11 -16
53 27 14 -50 -37 -61 -8 -51
38 23 -59 -85 49 5 -27 34
1 -38 -5 -33 -11 22 29 -51
14 18 -32 -25 -27 12 1 19
-67 -30 22 43 -22 -13 -33 -6
67 -82 -5 -55 -15 -7 43 -10
-32 -1 -52 13 -20 -31 -4 -21
00000000: dbc2 f11c ed15 ccca c101 1ac4 f4d2 0aec
00000010: c20f 14c1 f3fb f8cf aa1f bdcb ebf2 e7f0
00000020: c7e8 f1e1 42de b434 1da7 ba15 a626 f720
00000030: 2181 c8e8 dcb4 fd26 2fee 48ce 1702 3c3d
00000040: 400a fe42 f197 05d0 25c1 11e2 1c28 d113
00000050: def6 0490 ef0a 1513 391f f832 e121 2ae5
00000060: dadc 42ed 2523 b6db afe4 b72f bf19 d2e9
00000070: 04d2 e60b c8da 02de f501 efe9 0805 e4e0
00000080: ceec e2d8 0831 0309 f5ea 0fd5 e304 0df1
00000090: d6d6 1229 06e1 b321 c8ea 0d33 9a14 df0d
000000a0: 1310 fe37 1a0d 012a e98a f3e9 d2cd f8e7
000000b0: 2a91 ddf0 eeda ff0e f2f5 1e81 cd10 d412
000000c0: fcfc f131 c6f0 0bf0 351b 0ece dbc3 f8cd
000000d0: 2617 c5ab 3105 e522 01da fbdf f516 1dcd
000000e0: 0e12 e0e7 e50c 0113 bde2 162b eaf3 dffa
000000f0: 43ae fbc9 f1f9 2bf6 e0ff cc0d ece1 fceb

tfl.pseudo_qconst3 i1 [128, 128]
48 59 -118 -43 -18 -116 14 -111
26 -127 60 -5 -32 -63 89 -74
-66 -7 15 -14 59 24 63 47
-39 20 82 -19 10 -75 38 -52
34 -58 81 11 -73 18 -7 88
-39 -19 85 44 -94 -48 -74 -57
-121 -6 -16 93 18 43 -13 78
-48 -34 6 7 -83 98 -68 23
-44 55 -109 -60 15 -21 95 25
-32 20 1 87 81 -70 -1 9
-53 -66 107 -91 39 -68 -81 -67
-45 -51 -11 -24 -47 -4 -1 5
-10 39 -60 58 -118 -64 -68 -24
-10 84 20 0 69 0 32 -82
-83 -120 -58 -72 -57 -89 5 -32
109 80 51 -94 -22 112 -30 79
-2 -21 -96 -35 -12 -119 -41 3
-32 -2 -79 -42 27 -127 -22 -22
-65 18 -36 -19 31 -10 -67 24
-23 -58 10 22 -24 15 6 -41
-3 30 24 4 28 -86 3 -24
-67 -6 -7 8 -11 -2 -94 -9
1 -39 -6 -14 -30 4 15 -79
-18 -6 15 -96 -9 27 28 2
-88 -7 -29 -24 -4 1 -22 3
0 -111 10 6 -51 14 -56 -17
0 -9 5 -102 22 -89 -28 -39
-6 11 -14 11 -12 18 -15 -27
-28 -32 -49 -74 2 -7 -84 -16
-24 -61 -68 -3 -1 -19 7 -16
4 25 -28 5 28 32 24 26
-20 13 -34 -70 -10 -97 -26 4
00000000: 303b 8ad5 ee8c 0e91 1a81 3cfb e0c1 59b6
00000010: bef9 0ff2 3b18 3f2f d914 52ed 0ab5 26cc
00000020: 22c6 510b b712 f958 d9ed 552c a2d0 b6c7
00000030: 87fa f05d 122b f34e d0de 0607 ad62 bc17
00000040: d437 93c4 0feb 5f19 e014 0157 51ba ff09
00000050: cbbe 6ba5 27bc afbd d3cd f5e8 d1fc ff05
00000060: f627 c43a 8ac0 bce8 f654 1400 4500 20ae
00000070: ad88 c6b8 c7a7 05e0 6d50 33a2 ea70 e24f
00000080: feeb a0dd f489 d703 e0fe b1d6 1b81 eaea
00000090: bf12 dced 1ff6 bd18 e9c6 0a16 e80f 06d7
000000a0: fd1e 1804 1caa 03e8 bdfa f908 f5fe a2f7
000000b0: 01d9 faf2 e204 0fb1 eefa 0fa0 f71b 1c02
000000c0: a8f9 e3e8 fc01 ea03 0091 0a06 cd0e c8ef
000000d0: 00f7 059a 16a7 e4d9 fa0b f20b f412 f1e5
000000e0: e4e0 cfb6 02f9 acf0 e8c3 bcfd ffed 07f0
000000f0: 0419 e405 1c20 181a ec0d deba f69f e604
