ML/models/conv1d_angle_toro_ossaba/seed2_20260117_045953_606/model.tflite (tflite, 96000 bytes, 11 tensors)

arith.constant2 f4 [1, 64]
-0.24551433 0.112365246 -0.08589737 0.5697978 -0.15444513 -0.1579455 -0.22635992 -0.09573731
-0.16089974 -0.05635584 -0.123944625 0.10928288 -0.06724171 0.0661838 -0.056167327 -0.18830013
-0.13056843 0.25355807 0.15820587 -0.18910702 0.03916388 -0.06695117 -0.09423842 0.17908669
0.14242785 0.32876682 0.2291655 -0.080809966 0.2288666 -0.07798155 0.1607831 0.20258245
-0.11368683 -0.182398 -0.10367523 0.22038876 0.12795411 -0.08805876 -0.098427005 -0.5596441
0.33881196 -0.048681106 0.21538906 -0.14221834 -0.01912407 0.16879344 0.046240345 -0.15006736
-0.08006991 0.1375223 -0.0802547 0.058877487 -0.23184173 -0.020813584 -0.18597503 -0.11808924
-0.091482855 0.25425386 -0.04501394 -0.046462964 0.0025040992 0.19196656 -0.05492557 0.023800645
00000000: 1c68 7bbe c01f e63d f6ea afbd 45de 113f
00000010: dd26 1ebe 77bc 21be e5ca 67be ec11 c4bd
00000020: e7c2 24be 62d5 66bd aed6 fdbd b4cf df3d
00000030: 06b6 89bd 5f8b 873d b60f 66bd c0d1 40be
00000040: bbb3 05be 5dd2 813e b800 223e 45a5 41be
00000050: 4e6a 203d b21d 89bd 1300 c1bd 8062 373e
00000060: 9bd8 113e 2054 a83e 5caa 6a3e b27f a5bd
00000070: 025c 6a3e cab4 9fbd 53a4 243e c671 4f3e
00000080: a4d4 e8bd 8bc6 3abe ae53 d4bd 97ad 613e
00000090: 6706 033e 2758 b4bd 1994 c9bd d644 0fbf
000000a0: c378 ad3e d765 47bd f38e 5c3e afa1 11be
000000b0: 15aa 9cbc 30d8 2c3e 8466 3d3d 42ab 19be
000000c0: b1fb a3bd a5d2 0c3e 935c a4bd 8529 713d
000000d0: eb67 6dbe 4081 aabc 3d70 3ebe c5d8 f1bd
000000e0: 5d5b bbbd 902d 823e 8a60 38bd f34f 3ebd
000000f0: d01b 243b e292 443e a2f9 60bd 92f9 c23c

arith.constant7 f4 [128]
-0.027278744 -0.024795884 -0.026999373 -0.04065436 -0.03283813 -0.02706194 -0.011990936 0.020075426
0.016594283 0.062130135 -0.012222373 0.0069671823 -0.009464611 0.031145032 -0.025379207 0.06400196
-0.007950286 0.002372034 -0.006486181 0.04725584 0.047982 -0.011074421 -0.0065963264 0.027161894
0.027212117 -0.016475163 0.048764646 -0.050878998 0.017741414 0.03267386 -0.0055937157 0.016736679
0.013300405 -0.021454722 0.020178217 0.023341155 -0.06404064 -0.021583654 -0.027340265 0.018650692
0.032143153 -0.035411965 0.030311054 0.0124375485 -0.00571815 0.027243054 0.020624716 -0.027573802
-0.0088181505 -0.026622927 0.015342178 0.032456163 0.014553588 -0.0036089653 0.0472143 -0.008076873
-0.017387098 -0.022165935 0.0815177 0.052924197 0.003319229 -0.02351776 0.09230503 -0.030443307
0.006171997 -0.031273812 -0.026379732 -0.005189962 0.016253509 0.071814775 0.052876826 0.10589765
0.04610206 -0.016277034 0.023801142 -0.022928929 0.02885835 -0.011977671 0.09173842 0.02077859
-0.015360868 0.09351709 -0.02439869 0.057878353 -0.0011933725 -0.01944548 0.074145034 -0.012668188
0.009062791 0.010018651 -0.009741945 -0.041523702 -0.018639717 0.009755412 0.019439459 -0.022536302
-0.01966053 -0.004133641 0.086364 -0.055348873 -0.009356712 -0.037619464 0.04715269 0.02779254
0.06334145 0.032968327 0.033302184 0.020584162 -0.0052602985 -0.07387871 0.086378895 -0.00486912
0.04720837 -0.034553785 0.017779943 -0.016191257 0.045103762 0.08737665 0.0034199941 0.051751796
0.05495593 -0.024636501 0.07269306 -0.021491632 -0.021054544 0.012273708 0.0 -0.037562337
00000000: ac77 dfbc bd20 cbbc ca2d ddbc 3085 26bd
00000010: 4681 06bd 00b1 ddbc a175 44bc 3875 a43c
00000020: bcf0 873c 2b7c 7e3d 5940 48bc f64c e43b
00000030: 7511 1bbc de23 ff3c 0ee8 cfbc 7613 833d
00000040: eb41 02bc 2074 1b3b 088a d4bb 578f 413d
00000050: c688 443d 7d71 35bc ff25 d8bb 9f82 de3c
00000060: f2eb de3c ecf6 86bc 70bd 473d 7f66 50bd
00000070: 7156 913c 07d5 053d 7d4b b7bb 5c1b 893c
00000080: f1e9 593c d0c1 afbc ca4c a53c f335 bf3c
00000090: bd27 83bd 34d0 b0bc b1f8 dfbc 56c9 983c
000000a0: 8aa8 033d 230c 11bd e34e f83c dcc6 4b3c
000000b0: 525f bbbb d32c df3c 2af5 a83c 74e2 e1bc
000000c0: 017a 10bc 5318 dabc c25d 7b3c c1f0 043d
000000d0: 2c72 6e3c 6484 6cbb c863 413d dc54 04bc
000000e0: 636f 8ebc 5695 b5bc c0f2 a63d 0bc7 583d
000000f0: 6c87 593b 51a8 c0bc 6b0a bd3d 3e64 f9bc
00000100: 773e ca3b f818 00bd 4f1a d8bc 8f10 aabb
00000110: 1426 853c a013 933d 5f95 583d dee0 d83d
00000120: 83d5 3c3d 6a57 85bc 9dfa c23c 73d5 bbbc
00000130: 5968 ec3c fe3d 44bc 5ae1 bb3d dd37 aa3c
00000140: 26ac 7bbc e385 bf3d c3df c7bc da11 6d3d
00000150: f06a 9cba 214c 9fbc 5ad9 973d 3b8e 4fbc
00000160: 1a7c 143c 4525 243c ae9c 1fbc c214 2abd
00000170: 52b2 98bc 2ad5 1f3c 803f 9f3c 0d9e b8bc
00000180: 1f0f a1bc 7e73 87bb 9cdf b03d 80b5 62bd
00000190: e54c 19bc de16 1abd 2e23 413d 2ead e33c
000001a0: 2ab9 813d cc09 073d df67 083d 1ea0 a83c
000001b0: 955e acbb b94d 97bd 6be7 b03d 248d 9fbb
000001c0: 905d 413d 4588 0dbd 3ea7 913c 87a3 84bc
000001d0: b9be 383d 87f2 b23d fb21 603b b1f9 533d
000001e0: 7819 613d 7dd2 c9bc 19e0 943d 380f b0bc
000001f0: 947a acbc aa17 493c 0000 0000 f7da 19bd

arith.constant8 f4 [64]
0.08019408 0.059034694 0.004986391 0.115988754 -0.014620187 0.049875386 0.07495984 -0.033252005
-0.0063428264 -0.0027170943 -0.06630939 0.035737164 0.044295594 -0.100487515 -0.0055352156 0.068852484
-0.30289835 0.020234019 0.0052978355 0.09876931 -0.089424424 -0.050799552 0.042618696 0.039240796
-0.018808907 0.07476054 0.06903328 -0.007719476 -0.0033979942 0.058394648 0.0313507 0.08733484
0.038182583 0.009716477 0.060203023 0.008994591 0.036616057 0.00833777 0.01419237 0.056032356
0.02809777 -0.013536971 0.069845274 0.048069306 -0.09568437 0.0014347803 0.043086488 0.007890922
-0.0059733028 -0.04945709 -0.12794779 0.032990575 0.11430431 -0.045166653 0.07441737 -0.02054062
0.070580885 0.08634044 0.06890826 -0.04596692 -0.046514966 0.03411362 -0.0057136198 -0.020187108
00000000: cb3c a43d 5dce 713d e164 a33b 838b ed3d
00000010: 8289 6fbc 224a 4c3d 8b84 993d 4133 08bd
00000020: 7cd7 cfbb 4711 32bb 38cd 87bd 2261 123d
00000030: 4c6f 353d 66cc cdbd c160 b5bb 8802 8d3d
00000040: 7e15 9bbe d0c1 a53c 7799 ad3b 9047 ca3d
00000050: 2724 b7bd 3113 50bd f190 2e3d f5ba 203d
00000060: 2315 9abc 0e1c 993d 5261 8d3d a8f3 fcbb
00000070: e2b0 5ebb 3a2f 6f3d 9769 003d 9cdc b23d
00000080: 5765 1c3d dc31 1f3c 7297 763d 0d5e 133c
00000090: b8fa 153d 249b 083c 1d87 683c 2f82 653d
000000a0: 4b2d e63c 2cca 5dbc 0a0b 8f3d 52e4 443d
000000b0: 2bf6 c3bd 3d0f bc3a 757b 303d ed48 013c
000000c0: b2bb c3bb 8593 4abd bf04 03be 2021 073d
000000d0: 6118 ea3d ab00 39bd 2268 983d cd44 a8bc
000000e0: b68c 903d 42d3 b03d c61f 8d3d cf47 3cbd
000000f0: 7a86 3ebd b9ba 0b3d 5139 bbbb 6f5f a5bc

arith.constant9 f4 [32, 1, 9, 3]
1.1049758 0.07017084 0.32487065 0.9104885 1.1761067 -0.5112031 -0.02857877 0.4573968
0.2676636 0.91607463 1.0558022 1.1892586 0.38322723 1.2276994 1.4781156 0.5465195
0.6109259 0.6104594 0.5179712 0.30473778 -0.34087476 -0.54224193 0.56512636 -1.0818113
-0.5025374 -0.39457473 0.6210627 -2.0726948 1.2689899 0.51873237 -0.78695124 1.3296503
-0.9480445 -1.6625761 0.6006927 -0.5119561 -1.7600943 0.17650376 0.1245404 -1.1547476
1.2845137 0.11492242 -0.78430563 -0.018326689 0.29250446 -1.0490355 0.54004925 1.0132685
-2.1558425 0.6003533 0.44212043 -1.5959907 0.6254434 0.40356454 0.19817573 -0.15128112
-0.119493164 -0.24385032 0.37844074 -0.12190052 -0.36630672 -0.21786946 -0.812665 0.13422085
-0.01962874 -0.78916574 0.20740953 0.22578377 -0.39887765 -0.075723134 0.018074634 -0.45516634
-0.2509283 -0.051548388 0.14425233 0.26706925 0.26882687 -0.615167 0.08739496 0.3768118
-0.43051454 0.071051255 -0.022236211 0.035930965 0.124612376 -0.113327935 -0.11060609 -0.06968002
0.18463738 -0.995533 -0.15205619 0.04248297 -1.0172533 0.17259906 -0.012692883 -0.19776954
-0.22918747 0.043225475 -0.65884453 0.24608095 -0.041574992 0.025410281 0.111514494 0.22054558
-0.4356261 -0.21173543 0.28167307 -0.45714107 -0.43457663 -1.2507687 2.2017465 -1.4247515
1.4511054 -0.13278037 1.729163 -0.38644657 0.27525368 1.7706051 -1.4085251 0.48068514
-0.4165867 -0.5985393 -0.1309831 -1.361681 -0.18961543 -0.23905523 -0.89915377 0.76090866
1.0594045 0.333408 1.1393988 -2.806046 0.4973168 -0.5115199 -3.4447575 -0.8022265
1.0119791 -1.7799516 0.17078875 0.64808035 -1.2920413 -0.85715723 0.43981555 -0.0766705
-0.5779276 -0.15523641 0.22484636 0.44606122 0.11550905 -0.6154371 0.2597231 0.21496539
0.8621328 0.5622904 -0.92421365 1.0487602 0.68561935 0.069475256 1.7778764 -0.1532741
-0.20503655 2.118382 -0.07745782 0.3171357 -0.38116482 -0.34817713 0.39605492 -0.7908162
-0.14651133 -0.013619317 0.038698867 0.5198817 -0.3664516 0.7830504 0.5752067 0.3411831
1.3613526 -0.14031237 0.2490952 2.17706 0.57100964 -0.83858716 0.14915334 -0.28664684
-0.38448676 -0.004699116 0.18844971 -1.0353212 -0.1685542 -0.33394957 1.2361052 -5.2694755
-1.404379 -0.2262595 -0.6091799 1.8806202 -0.4782086 -2.6066527 -0.7100037 -0.06502898
-1.3696015 1.5974238 0.9028229 0.59555995 -1.002138 -1.2693645 2.0394447 -1.7952108
1.0009687 -0.25326917 -0.08520684 0.6902323 4.598649 1.0421762 -1.6020163 4.4493084
-0.16111006 0.2824529 -0.24385497 -0.5275826 -0.4738434 -0.5548634 -0.21989606 0.41531363
-0.038685154 -0.36560172 0.22785735 -1.2999027 -0.9735837 -0.15220508 0.68107927 -1.0011702
-0.29395095 -0.85220003 -1.4924315 0.34900174 0.21232876 -0.9738701 -0.37647843 -0.31486845
-1.7931986 -0.10360475 -0.0858379 1.0666081 -1.1823946 0.1593178 -0.44560587 0.25779793
1.4546573 0.6555489 -1.255498 0.86142975 0.8835898 -1.276928 -0.6824256 1.0166539
00000000: d96f 8d3f bbb5 8f3d 7255 a63e c615 693f
00000010: aa8a 963f 35de 02bf 061e eabc ea2f ea3e
00000020: 340b 893e de83 6a3f 8724 873f a039 983f
00000030: 5c36 c43e 4125 9d3f e432 bd3f b4e8 0b3f
00000040: a465 1c3f 1147 1c3f c399 043f 9706 9c3e
00000050: 2387 aebe 5ed0 0abf 1fac 103f cb78 8abf
00000060: 4ba6 00bf b305 cabe f7fd 1e3f 08a7 04c0
00000070: 436e a23f a5cb 043f a375 49bf fb31 aa3f
00000080: 0bb3 72bf 4bcf d4bf ffc6 193f 8e0f 03bf
00000090: c54a e1bf 67bd 343e 0a0f ff3d c5ce 93bf
000000a0: f26a a43f 725c eb3d 41c8 48bf da21 96bc
000000b0: 25c3 953e cc46 86bf ab40 0a3f c8b2 813f
000000c0: 53f9 09c0 c1b0 193f 9c5d e23e 6c49 ccbf
000000d0: 0f1d 203f 03a0 ce3e 94ee 4a3e 70e9 1abe
000000e0: d5b8 f4bd e6b3 79be fcc2 c13e fba6 f9bd
000000f0: 8e8c bbbe 2c19 5fbe d00a 50bf 3171 093e
00000100: 74cc a0bc c406 4abf 2a63 543e dc33 673e
00000110: b139 ccbe bb14 9bbd 4111 943c 900b e9be
00000120: ad79 80be 6724 53bd e2b6 133e 4dbd 883e
00000130: ada3 893e 967b 1dbf 21fc b23d 7aed c03e
00000140: 676c dcbe 5283 913d b728 b6bc 592c 133d
00000150: c634 ff3d 7a18 e8bd 7285 e2bd 66b4 8ebd
00000160: 9511 3d3e 40db 7ebf 9eb4 1bbe 9f02 2e3d
00000170: 5b35 82bf cfbd 303e cff5 4fbc 1984 4abe
00000180: 1fb0 6abe 320d 313d 09aa 28bf a5fc 7b3e
00000190: 8a4a 2abd 3929 d03c b661 e43d b3d6 613e
000001a0: 620a dfbe 2cd1 58be 7437 903e 650e eabe
000001b0: d480 debe 3019 a0bf 6ae9 0c40 425e b6bf
000001c0: d2bd b93f 94f7 07be 3755 dd3f 53dc c5be
000001d0: 0dee 8c3e 30a3 e23f 8d4a b4bf 5d1c f63e
000001e0: da4a d5be df39 19bf 6f20 06be 904b aebf
000001f0: 8c2a 42be e5ca 74be f12e 66bf e9ca 423f
00000200: 919a 873f 74b4 aa3e d2d7 913f 4296 33c0
00000210: 4fa0 fe3e f8f2 02bf e876 5cc0 b75e 4dbf
00000220: 8888 813f 74d5 e3bf 3fe3 2e3e 98e8 253f
00000230: 9c61 a5bf a86e 5bbf 812f e13e 6c05 9dbd
00000240: 10f3 13bf 4bf6 1ebe 203e 663e 2362 e43e
00000250: 0290 ec3d 498d 1dbf 6dfa 843e e31f 5c3e
00000260: bcb4 5c3f 43f2 0f3f 4499 6cbf c63d 863f
00000270: c084 2f3f 0b49 8e3d 7491 e33f e3f3 1cbe
00000280: 1af5 51be 9293 0740 35a2 9ebd 9c5f a23e
00000290: 0928 c3be 4644 b2be b6c7 ca3e ee72 4abf
000002a0: 1107 16be 8e23 5fbc b482 1e3d f816 053f
000002b0: 8b9f bbbe fe75 483f bf40 133f 8daf ae3e
000002c0: cd40 ae3f 0cae 0fbe d012 7f3e f354 0b40
000002d0: b02d 123f a6ad 56bf a7bb 183e 60c3 92be
000002e0: 73db c4be 0bfb 99bb f6f8 403e 6885 84bf
000002f0: 7999 2cbe 70fb aabe b238 9e3f 8b9f a8c0
00000300: b1c2 b3bf 92b0 67be 37f3 1bbf 2ab8 f03f
00000310: c2d7 f4be 66d3 26c0 cdc2 35bf ea2d 85bd
00000320: 1a4f afbf 6278 cc3f 671f 673f 9e76 183f
00000330: 0f46 80bf 897a a2bf 4386 0240 78c9 e5bf
00000340: be1f 803f 7fac 81be ec80 aebd 10b3 303f
00000350: 2228 9340 0866 853f df0e cdbf bc60 8e40
00000360: 09fa 24be ab9d 903e 1eb5 79be a70f 07bf
00000370: 9a9b f2be 870b 0ebf 6f2c 61be fda3 d43e
00000380: 5374 1ebd 2630 bbbe 7053 693e 3663 a6bf
00000390: c83c 79bf a6db 1bbe 365b 2e3f 5826 80bf
000003a0: bd80 96be c829 5abf ff07 bfbf 5bb0 b23e
000003b0: b66c 593e 8d4f 79bf c8c1 c0be 7036 a1be
000003c0: 8887 e5bf ba2e d4bd c8cb afbd 9d86 883f
000003d0: b558 97bf 3524 233e 7426 e4be 17fe 833e
000003e0: 3632 ba3f 0dd2 273f 29b4 a0bf a986 5c3f
000003f0: f132 623f 6072 a3bf 72b3 2ebf b721 823f

arith.constant10 f4 [128]
0.35606766 0.4049488 0.90988946 0.36010164 2.31301 0.31973857 1.2641184 0.09740245
2.9630349 0.53769314 0.36562237 -0.8201255 0.03332912 1.1195363 0.37449807 0.100041196
3.0813384 0.6458864 -0.02524713 2.2952893 0.09750019 -0.73701537 1.0641431 -0.18152343
0.04459803 0.4280385 0.9630881 0.5613959 0.7549969 2.0541196 0.8655592 0.5166447
-0.61305887 -0.019122675 0.20592393 0.5603246 2.521574 1.6453092 0.49488303 -0.13756971
-0.037684135 0.61722034 2.6121256 0.030707296 0.57906693 2.0792418 0.38688114 0.6305636
0.046358302 -0.34293035 0.6273171 -0.35440528 0.46078345 -0.62728584 0.11012137 0.23020147
0.5737218 0.1058021 0.59510744 2.1957655 0.9672088 -0.10632108 1.0311759 -0.4812502
-0.60345185 0.3386554 2.1867852 0.9556045 -0.69230694 1.0141793 -0.6136818 -0.55663997
0.8839426 0.95054245 -0.024474127 0.6581587 3.0247507 0.48249573 -1.3764663 0.8709859
1.0681033 0.08267887 0.6299861 1.5034807 -0.46855077 1.4110138 -0.5338114 0.82162374
1.3211554 -0.33604547 -0.77267575 0.11502262 0.063364945 2.115818 2.378377 0.94968784
2.5623248 2.1172888 0.47590843 0.38673496 2.3731432 -0.6041635 2.5543852 0.5121641
0.21747376 2.6098955 0.9212852 0.8919148 1.3859804 0.50536376 0.54701567 1.8336859
-0.2538118 0.45262924 0.6575816 0.52061784 1.3249044 -0.35576954 2.634646 0.7055529
-0.06658548 0.9139143 0.077199146 0.4281418 2.599269 0.40768102 2.2908816 -0.65281326
00000000: 804e b63e 7355 cf3e 84ee 683f 3e5f b83e
00000010: 5b08 1440 c6b4 a33e a2ce a13f f07a c73d
00000020: 5da2 3d40 42a6 093f db32 bb3e bff3 51bf
00000030: 1e84 083d f74c 8f3f 36be bf3e 66e2 cc3d
00000040: a634 4540 d058 253f 12d3 cebc 05e6 1240
00000050: 2eae c73d 0aad 3cbf d735 883f 47e1 39be
00000060: 6dac 363d dd27 db3e f18c 763f a4b7 0f3f
00000070: 7a47 413f b276 0340 4a95 5d3f d442 043f
00000080: 6df1 1cbf 28a7 9cbc b9dd 523e 6f71 0f3f
00000090: 7861 2140 7e99 d23f 4f61 fd3e 13df 0cbe
000000a0: ae5a 1abd 2702 1e3f 112d 2740 de8d fb3c
000000b0: bb3d 143f 4c12 0540 4915 c63e 9e6c 213f
000000c0: 34e2 3d3d 9194 afbe da97 203f 9c74 b5be
000000d0: cfeb eb3e ce95 20bf 5087 e13d efb9 6b3e
000000e0: 6fdf 123f c5ae d83d f658 183f 6c87 0c40
000000f0: ff9a 773f debe d9bd 92fd 833f 6d66 f6be
00000100: d27b 1abf 3e64 ad3e 4af4 0b40 7fa2 743f
00000110: 073b 31bf a1d0 813f 401a 1dbf f57f 0ebf
00000120: 104a 623f c056 733f f77d c8bc 177d 283f
00000130: 8495 4140 ae09 f73e 0c30 b0bf eff8 5e3f
00000140: 9cb7 883f 8a53 a93d c546 213f 0e72 c03f
00000150: e3e5 efbe 1a9c b43f dda7 08bf ef55 523f
00000160: 9f1b a93f 270e acbe 14ce 45bf fb90 eb3d
00000170: 7bc5 813d 9069 0740 5437 1840 be1e 733f
00000180: 21fd 2340 a981 0740 45aa f33e 2002 c63e
00000190: 94e1 1740 76aa 1abf 0c7b 2340 301d 033f
000001a0: 71b1 5e3e 8708 2740 59d9 6b3f 8754 643f
000001b0: ce67 b13f 855f 013f 3809 0c3f 38b6 ea3f
000001c0: 9ff3 81be 05bf e73e 4557 283f 3647 053f
000001d0: 7896 a93f 6d27 b6be 0a9e 2840 1d9f 343f
000001e0: f85d 88bd 4af6 693f 961a 9e3d 6735 db3e
000001f0: 6c5a 2640 91bb d03e ce9d 1240 c51e 27bf

arith.constant11 f4 [64]
-0.80392534 -0.07269521 -0.36553955 0.11080491 0.3792542 0.0711222 0.3969583 -0.08491318
-0.1994597 0.5973657 0.7931743 0.48732927 0.21531619 0.03820481 0.059575014 0.50984186
-0.03771897 -0.07948415 0.2954169 -1.5784857 0.1597814 0.41863593 0.59804857 0.18539938
0.72553813 -1.5640512 0.24949771 0.5030616 -0.037555087 -0.16202043 0.21179183 -0.15463185
-0.16952449 0.29787028 0.16103946 -1.5890362 -1.1619915 -1.3953129 0.36554974 -0.52515095
0.097357854 0.15971148 0.4102948 -0.013203842 -1.8307385 0.7733708 0.35147697 -0.07255267
-0.018797494 0.17412817 0.36199808 -0.16639018 -1.0284401 -1.501663 0.6597693 -0.0051269
-0.024411425 0.5426572 -0.1296949 0.014288663 0.3666328 0.4666368 0.71513855 -0.018053886
00000000: 0dce 4dbf 3ae1 94bd 0028 bbbe afed e23d
00000010: 9b2d c23e 84a8 913d 1e3e cb3e f6e6 adbd
00000020: 2a3f 4cbe f5ec 183f 790d 4b3f 3983 f93e
00000030: d97b 5c3e a67c 1c3d ee04 743d ff84 023f
00000040: 357f 1abd 96c8 a2bd e240 973e d20b cabf
00000050: bc9d 233e 7357 d63e b619 193f 56d9 3d3e
00000060: debc 393f d432 c8bf 547c 7f3e a5c8 003f
00000070: 5dd3 19bd afe8 25be f5df 583e d057 1ebe
00000080: d497 2dbe 7482 983e 87e7 243e 8a65 cbbf
00000090: 23bc 94bf 9d99 b2bf 5629 bb3e 4b70 06bf
000000a0: 8e63 c73d 688b 233e 2912 d23e ed54 58bc
000000b0: a455 eabf a1fb 453f caf4 b33e 7f96 94bd
000000c0: 34fd 99bc a84e 323e d057 b93e 3062 2abe
000000d0: eda3 83bf 7e36 c0bf a4e6 283f 8eff a7bb
000000e0: 78fa c7bc 95eb 0a3f bdce 04be ff1a 6a3c
000000f0: 4bb7 bb3e 05eb ee3e 5213 373f bee5 93bc

arith.constant12 f4 [32]
-2.0860202 -0.28521824 1.3001789 1.4164617 0.62443906 -1.0004188 -1.5599893 -0.5553081
1.2607608 0.7380063 0.3049613 0.54272187 1.6633607 0.04850633 1.0512952 -1.2620173
-1.9116637 0.31721592 -1.9613885 1.3255229 1.3894286 -0.60305625 -0.8674063 -0.9267607
-1.7278574 1.5453463 -0.93620104 -1.6525197 -1.7754172 -0.6615536 -1.8411537 0.43154725
00000000: 5b81 05c0 2008 92be 436c a63f 9e4e b53f
00000010: 3ddb 1f3f b90d 80bf bbad c7bf ac28 0ebf
00000020: 9c60 a13f fbed 3c3f e323 9c3e d2ef 0a3f
00000030: 01e9 d43f 93ae 463d d790 863f c889 a1bf
00000040: 65b1 f4bf 206a a23e c70e fbbf bcaa a93f
00000050: ccd8 b13f e561 1abf 570e 5ebf 3040 6dbf
00000060: 6e2a ddbf e8cd c53f dfaa 6fbf c485 d3bf
00000070: df40 e3bf 945b 29bf edaa ebbf c3f3 dc3e

tfl.pseudo_qconst i1 [128, 1, 5, 64]
-2 -39 64 -57 -14 33 11 30
37 0 2 -45 -33 11 -70 -8
-19 -17 4 20 -15 6 68 -77
-26 54 -48 -19 1 32 -67 -28
64 -44 4 -78 4 -25 -1 1
-39 -27 -3 -107 -4 47 14 -9
38 -65 -46 59 -42 18 9 0
47 9 36 -95 94 30 75 -95
46 -45 56 -29 -36 31 -78 46
35 8 36 -43 61 -21 -50 -7
64 50 -99 -25 -13 -37 39 -42
-8 -23 -9 -14 14 16 -68 -63
-4 14 -73 -7 15 27 -3 -32
-16 -20 -45 -127 62 28 -60 33
-2 -73 -51 45 -5 29 -26 -32
42 -14 51 -88 2 -18 72 -104
29 -23 54 -11 -3 23 -63 0
19 7 65 -17 -20 8 -82 -35
99 88 -103 35 -69 -21 98 -74
3 -8 -16 -30 5 29 -37 -11
75 -11 -4 17 -29 44 11 44
-41 27 -38 -96 76 50 -18 -45
-35 -117 -93 5 -11 5 -45 -2
17 5 -22 -8 8 -18 18 -19
98 -85 19 -22 -85 -35 -100 95
24 -57 40 -82 13 6 -93 -11
49 75 -40 49 -22 -27 29 -72
-37 32 -54 -45 2 14 -35 -14
-28 -51 -74 86 100 33 -34 28
-81 -18 -92 -9 32 20 -11 51
58 -79 -85 71 26 47 -59 15
50 -21 94 -53 75 -32 -21 -51
00000000: fed9 40c7 f221 0b1e 2500 02d3 df0b baf8
00000010: edef 0414 f106 44b3 e636 d0ed 0120 bde4
00000020: 40d4 04b2 04e7 ff01 d9e5 fd95 fc2f 0ef7
00000030: 26bf d23b d612 0900 2f09 24a1 5e1e 4ba1
00000040: 2ed3 38e3 dc1f b22e 2308 24d5 3deb cef9
00000050: 4032 9de7 f3db 27d6 f8e9 f7f2 0e10 bcc1
00000060: fc0e b7f9 0f1b fde0 f0ec d381 3e1c c421
00000070: feb7 cd2d fb1d e6e0 2af2 33a8 02ee 4898
00000080: 1de9 36f5 fd17 c100 1307 41ef ec08 aedd
00000090: 6358 9923 bbeb 62b6 03f8 f0e2 051d dbf5
000000a0: 4bf5 fc11 e32c 0b2c d71b daa0 4c32 eed3
000000b0: dd8b a305 f505 d3fe 1105 eaf8 08ee 12ed
000000c0: 62ab 13ea abdd 9c5f 18c7 28ae 0d06 a3f5
000000d0: 314b d831 eae5 1db8 db20 cad3 020e ddf2
000000e0: e4cd b656 6421 de1c afee a4f7 2014 f533
000000f0: 3ab1 ab47 1a2f c50f 32eb 5ecb 4be0 ebcd

tfl.pseudo_qconst1 i1 [64, 1, 7, 32]
-9 -50 3 2 50 16 -46 4
-11 -5 35 80 -15 -52 16 -9
-26 -41 -14 -42 32 1 -1 -70
-22 -46 -4 -41 -23 -14 -16 39
9 -69 35 18 -52 7 -10 5
-46 61 15 60 0 -19 19 -14
-1 2 14 40 48 -15 16 -75
-26 46 -11 -49 -35 -33 16 -30
-25 -65 50 -4 -17 30 17 28
14 -2 58 -31 50 -16 52 26
-23 -51 -29 44 19 5 24 -19
14 -7 23 7 -50 -21 9 13
10 -16 49 50 -28 0 -3 28
45 37 8 -36 30 36 -9 30
-29 -53 17 69 54 6 61 -31
-21 2 14 9 -23 -16 -36 -40
29 -43 -27 45 86 46 -7 33
-55 -19 13 0 7 28 -32 10
27 -19 10 -36 -7 62 73 -35
-11 24 17 10 5 -25 15 22
6 -67 -51 13 49 52 41 78
-6 -36 65 16 -25 29 -41 78
-8 -30 52 14 -39 82 102 -9
18 -33 78 26 40 9 44 13
23 -36 -72 -39 18 56 7 113
11 -36 41 1 28 55 32 94
49 21 27 14 -20 113 127 -9
17 7 66 48 4 11 37 -5
-26 -22 -16 -8 -57 3 9 -26
-1 -45 -24 -54 -31 -64 -55 16
-11 -47 -4 3 -23 10 -9 -16
-13 -7 -9 -38 24 7 -2 -48
00000000: f7ce 0302 3210 d204 f5fb 2350 f1cc 10f7
00000010: e6d7 f2d6 2001 ffba ead2 fcd7 e9f2 f027
00000020: 09bb 2312 cc07 f605 d23d 0f3c 00ed 13f2
00000030: ff02 0e28 30f1 10b5 e62e f5cf dddf 10e2
00000040: e7bf 32fc ef1e 111c 0efe 3ae1 32f0 341a
00000050: e9cd e32c 1305 18ed 0ef9 1707 ceeb 090d
00000060: 0af0 3132 e400 fd1c 2d25 08dc 1e24 f71e
00000070: e3cb 1145 3606 3de1 eb02 0e09 e9f0 dcd8
00000080: 1dd5 e52d 562e f921 c9ed 0d00 071c e00a
00000090: 1bed 0adc f93e 49dd f518 110a 05e7 0f16
000000a0: 06bd cd0d 3134 294e fadc 4110 e71d d74e
000000b0: f8e2 340e d952 66f7 12df 4e1a 2809 2c0d
000000c0: 17dc b8d9 1238 0771 0bdc 2901 1c37 205e
000000d0: 3115 1b0e ec71 7ff7 1107 4230 040b 25fb
000000e0: e6ea f0f8 c703 09e6 ffd3 e8ca e1c0 c910
000000f0: f5d1 fc03 e90a f7f0 f3f9 f7da 1807 fed0

tfl.pseudo_qconst2 i1 [64, 128]
-36 -8 -24 -28 -29 42 -52 -127
-90 47 -15 -33 14 -66 -21 -17
-22 24 -56 27 51 0 -9 -53
-50 14 3 -37 70 -15 -15 61
-68 16 -28 -46 108 17 43 33
-26 -22 -39 20 44 1 -51 20
-63 -51 -15 47 56 -37 53 -20
-59 13 -34 -51 -60 -41 50 -25
-83 -44 -7 -51 -42 11 -10 25
0 62 -40 -70 16 -3 36 47
-24 51 -65 -90 -15 -26 30 30
-42 -31 -39 6 51 -26 28 12
53 32 5 28 -63 -1 8 62
20 29 21 21 47 62 -98 27
18 58 -28 -51 6 -38 -1 26
31 7 28 -48 -37 17 -47 -25
-18 2 -10 -23 -16 -18 -19 -23
-32 -6 -1 -17 -21 13 -127 -13
-2 -12 7 21 4 1 17 -5
1 -2 -10 8 -15 -16 12 -12
13 11 -10 -6 1 -116 -6 -98
-1 15 -13 -2 -120 9 15 -10
14 19 19 9 -52 19 -22 -10
-7 -35 -37 -13 18 6 -22 -21
-18 7 11 20 -78 -17 7 -35
-22 23 -4 11 -20 12 -17 -7
-10 -11 -3 4 18 -2 -11 18
-24 22 24 -21 15 -26 8 19
-17 -6 -16 -6 -10 -11 -10 -16
16 7 1 14 21 -5 18 -23
-16 -10 -18 1 -5 -19 -9 -22
14 2 -14 2 2 5 13 -6
00000000: dcf8 e8e4 e32a cc81 a62f f1df 0ebe ebef
00000010: ea18 c81b 3300 f7cb ce0e 03db 46f1 f13d
00000020: bc10 e4d2 6c11 2b21 e6ea d914 2c01 cd14
00000030: c1cd f12f 38db 35ec c50d decd c4d7 32e7
00000040: add4 f9cd d60b f619 003e d8ba 10fd 242f
00000050: e833 bfa6 f1e6 1e1e d6e1 d906 33e6 1c0c
00000060: 3520 051c c1ff 083e 141d 1515 2f3e 9e1b
00000070: 123a e4cd 06da ff1a 1f07 1cd0 db11 d1e7
00000080: ee02 f6e9 f0ee ede9 e0fa ffef eb0d 81f3
00000090: fef4 0715 0401 11fb 01fe f608 f1f0 0cf4
000000a0: 0d0b f6fa 018c fa9e ff0f f3fe 8809 0ff6
000000b0: 0e13 1309 cc13 eaf6 f9dd dbf3 1206 eaeb
000000c0: ee07 0b14 b2ef 07dd ea17 fc0b ec0c eff9
000000d0: f6f5 fd04 12fe f512 e816 18eb 0fe6 0813
000000e0: effa f0fa f6f5 f6f0 1007 010e 15fb 12e9
000000f0: f0f6 ee01 fbed f7ea 0e02 f202 0205 0dfa

tfl.pseudo_qconst3 i1 [128, 128]
-55 1 85 6 -8 -60 -110 -19
32 -39 85 -11 -53 -94 88 -88
38 -93 -15 87 -57 36 64 26
-45 -71 10 -89 84 -25 11 50
11 89 -26 5 -111 -99 78 11
-81 69 -29 73 -13 26 40 42
37 -38 -6 -78 -44 65 -17 -96
57 -38 -127 34 -25 -101 -73 -89
54 68 23 22 -54 -34 101 -111
-14 -48 -33 18 -11 75 98 9
-62 -97 66 -98 14 59 -110 -8
83 88 -56 67 37 9 -115 -43
-22 70 0 89 -15 25 42 -30
-40 -73 -9 -108 -98 -15 -33 81
74 16 -53 -37 -24 26 -46 79
54 -119 31 -51 15 44 -77 -123
-56 30 -25 101 -47 3 -71 41
-75 32 79 -68 -52 -48 31 -18
92 -94 -113 94 -46 46 -67 85
85 -59 -24 -45 -29 83 -102 27
-54 -59 36 -29 33 -99 -12 -54
-58 -117 42 29 -35 -98 -99 -81
-3 -104 -89 -65 -56 -78 -86 66
85 25 -75 -56 -31 -65 88 54
-12 -72 -6 -28 -24 90 13 -26
86 -91 82 -3 -82 18 36 -57
-2 34 -15 29 0 63 54 42
-17 -75 -108 -11 -36 59 90 -65
12 -125 29 -113 16 -76 -74 -107
12 -72 -127 -65 13 13 -5 -21
15 54 -48 58 50 -10 48 61
-105 -14 -14 58 -30 29 61 -18
00000000: c901 5506 f8c4 92ed 20d9 55f5 cba2 58a8
00000010: 26a3 f157 c724 401a d3b9 0aa7 54e7 0b32
00000020: 0b59 e605 919d 4e0b af45 e349 f31a 282a
00000030: 25da fab2 d441 efa0 39da 8122 e79b b7a7
00000040: 3644 1716 cade 6591 f2d0 df12 f54b 6209
00000050: c29f 429e 0e3b 92f8 5358 c843 2509 8dd5
00000060: ea46 0059 f119 2ae2 d8b7 f794 9ef1 df51
00000070: 4a10 cbdb e81a d24f 3689 1fcd 0f2c b385
00000080: c81e e765 d103 b929 b520 4fbc ccd0 1fee
00000090: 5ca2 8f5e d22e bd55 55c5 e8d3 e353 9a1b
000000a0: cac5 24e3 219d f4ca c68b 2a1d dd9e 9daf
000000b0: fd98 a7bf c8b2 aa42 5519 b5c8 e1bf 5836
000000c0: f4b8 fae4 e85a 0de6 56a5 52fd ae12 24c7
000000d0: fe22 f11d 003f 362a efb5 94f5 dc3b 5abf
000000e0: 0c83 1d8f 10b4 b695 0cb8 81bf 0d0d fbeb
000000f0: 0f36 d03a 32f6 303d 97f2 f23a e21d 3dee
