ML/models/conv1d_angle_toro_ossaba/20260116_194318/model.tflite (tflite, 96000 bytes, 11 tensors)

arith.constant2 f4 [1, 64]
0	0xbe17720d	-0.147896
1	0xbe3d47de	-0.18484446
2	0xbd4b892d	-0.049691368
3	0x3e8067b1	0.2507911
4	0x3e86406c	0.26221025
5	0x3e40f885	0.18844803
6	0x3e355932	0.17709807
7	0xbd9e45d8	-0.077281654
8	0x3e379840	0.17929173
9	0xbe5191cb	-0.20465772
10	0xbe79c10d	-0.2439005
11	0x3e01867d	0.1264896
12	0xbe2091b3	-0.1568058
13	0x3e331d75	0.17491706
14	0x3dd305d4	0.10303846
15	0x3e6e455e	0.23268649
16	0x3db639a9	0.088977166
17	0x3e675675	0.22591574
18	0xbe1f1e8d	-0.15538998
19	0x3d626272	0.055269666
20	0x3e235b9c	0.15952915
21	0xbe3a54f2	-0.18196467
22	0xbe136677	-0.14394556
23	0xbe95d40d	-0.29263344
24	0xbe2d15f3	-0.16902904
25	0x3e264f1f	0.1624112
26	0xbe84a3dc	-0.25906265
27	0xbd94f4bb	-0.07273241
28	0xbdb6e2c4	-0.08929971
29	0x3e4135e9	0.18868221
30	0xbd26428e	-0.040590815
31	0x3e563b0e	0.20920965
32	0x3e069472	0.13142565
33	0x3e395365	0.18098219
34	0x3ccb1d81	0.024794342
35	0x3e60f942	0.21970084
36	0xbe33f1ff	-0.17572783
37	0xbd28dad3	-0.041224312
38	0x3d32f898	0.04369411
39	0xbde2dcf4	-0.110773
40	0x3e516a9d	0.20450826
41	0x3e15e1f1	0.14636971
42	0x3ddfd45b	0.109291755
43	0x3e58302b	0.21112125
44	0xbe887e86	-0.2665903
45	0x3e60e798	0.21963346
46	0xbb3a81f3	-0.0028458803
47	0xbe3c0b1c	-0.18363613
48	0x3d10d9e3	0.035364043
49	0xbe82d50c	-0.25553167
50	0x3cb4557d	0.02201342
51	0xbd68805c	-0.056763038
52	0xbe76d205	-0.24103554
53	0x3e3bb917	0.18332325
54	0xbe894894	-0.26813185
55	0x3db5b737	0.08872836
56	0x3da8ee20	0.08248544
57	0xbe7319df	-0.23740338
58	0xbe9a1085	-0.30090728
59	0x3d33543a	0.043781497
60	0x3e1c4ebf	0.15264414
61	0xbe24c68f	-0.16091369
62	0xbe8b992a	-0.27265292
63	0x3dee51c1	0.11636687

arith.constant7 f4 [128]
0	0x3baa8c45	0.0052047097
1	0xbcc483f0	-0.023988694
2	0x3bd4a617	0.006489526
3	0xbc6da43b	-0.014504488
4	0xbc44b150	-0.012005165
5	0xbbe6f204	-0.0070478935
6	0xbbeb3fcc	-0.007179236
7	0xbcd6d7a2	-0.026225869
8	0xbc27ee28	-0.010249652
9	0xbcaaab4f	-0.02083364
10	0xba61a8c0	-0.00086082146
11	0xbc3e8d73	-0.011630404
12	0xbc26f292	-0.010189669
13	0xbc206c35	-0.009791424
14	0x399c3ea1	0.000298013
15	0xba59c6f0	-0.0008307537
16	0xbcd5abc7	-0.026082886
17	0xbca85354	-0.020547546
18	0xbc758661	-0.014985652
19	0xbb185d7d	-0.0023249083
20	0x3abd5372	0.0014444424
21	0xbccb7a4e	-0.024838593
22	0xbca6c78a	-0.02035882
23	0xbc866580	-0.01640582
24	0x3bc3628a	0.0059626745
25	0xbc08b6b9	-0.008344346
26	0xbcaa8d6c	-0.020819388
27	0xbc3a47a8	-0.011369623
28	0xbc80d038	-0.015724286
29	0xbc1059b7	-0.008810452
30	0xbc933104	-0.017967708
31	0xbbc35541	-0.005961091
32	0xbc323a43	-0.0108781485
33	0xbc6da96b	-0.014505724
34	0xbc4fc3bd	-0.012680945
35	0xbc5d1bbb	-0.013495381
36	0xbc86a9a7	-0.016438318
37	0xbb5e0444	-0.0033877054
38	0xbc4e572c	-0.012594026
39	0xbbe5b8b6	-0.0070105447
40	0xbbb4f439	-0.0055222777
41	0xbd12b1b2	-0.035813995
42	0xbbe27e96	-0.006912063
43	0x3c409269	0.011753657
44	0x3b8d1390	0.0043053105
45	0xbc641404	-0.013920788
46	0xbbdd9125	-0.0067616873
47	0xbbf14840	-0.007363349
48	0xbcbe426a	-0.023225028
49	0xbc042336	-0.008065036
50	0x3c56fbec	0.013121586
51	0xbb8472f3	-0.0040420233
52	0xb9ed153f	-0.00045219992
53	0xbc793481	-0.015210272
54	0xbb7c0074	-0.0038452419
55	0x3bb0351c	0.005377425
56	0xbc805cb9	-0.015669214
57	0xbca8f744	-0.020625718
58	0xbbb15b16	-0.0054124696
59	0xbcb66164	-0.022263236
60	0xbac3baa5	-0.0014932944
61	0xbccc51f1	-0.024941416
62	0xbc57c3b9	-0.0131692225
63	0xbc05e877	-0.0081731
64	0xbc489c20	-0.012244254
65	0xbbd53c4f	-0.0065074335
66	0xbc882fdb	-0.016624382
67	0xbc55bc66	-0.013045406
68	0xbba2db25	-0.0049699717
69	0xbc476a8f	-0.012171402
70	0xbca046a7	-0.01956494
71	0xbc92697f	-0.01787257
72	0xbbae30e6	-0.0053158877
73	0xbc5b4a1d	-0.013384369
74	0x3b1e0142	0.0024109636
75	0x3ab5872b	0.0013849487
76	0xbc0b9402	-0.0085191745
77	0xbc4a080d	-0.012331021
78	0xbc1c8bb0	-0.0095547885
79	0xbc0bfb08	-0.008543737
80	0xbc455b9c	-0.012045767
81	0xbc0a8ef0	-0.0084569305
82	0xbc4d022e	-0.012512727
83	0x3c5c863d	0.013459739
84	0xbc5777f9	-0.013151162
85	0xbaa4d853	-0.0012576677
86	0xbbd095bc	-0.006365506
87	0x3c1dd640	0.009633601
88	0x3b368282	0.0027848785
89	0xbc89aa94	-0.01680497
90	0xbbe09b2f	-0.006854437
91	0xbc7c4da9	-0.015399375
92	0xbc33ede9	-0.010982015
93	0xbb140f4e	-0.002259213
94	0xbc9cd141	-0.019142749
95	0xbcd105f8	-0.025515541
96	0xbca1e8b0	-0.019764274
97	0xbc2e7de0	-0.010650128
98	0xbc9a0d00	-0.018805027
99	0xbc0e5785	-0.0086878585
100	0xbbe6ff5c	-0.007049484
101	0xbce18303	-0.027528292
102	0xbcc347e5	-0.023837993
103	0x3b24f0e1	0.002516799
104	0xbc296d8c	-0.010341059
105	0xbcbca64a	-0.023028512
106	0xbc824003	-0.015899664
107	0x3c96a12a	0.018387396
108	0x3ae31ee4	0.0017327932
109	0xbc254fc4	-0.010089818
110	0xbc0c4d97	-0.008563421
111	0x3b346f0c	0.002753201
112	0xbcbff462	-0.02343196
113	0x3914ff5c	0.00014209509
114	0x3b6bbc7a	0.0035970495
115	0xbb52eb1a	-0.0032183588
116	0xbba837ee	-0.0051336205
117	0xbbca5d3a	-0.0061756643
118	0x3bc9d3ba	0.006159273
119	0xbcce8380	-0.025209188
120	0xbba3e007	-0.0050010714
121	0xbb90856f	-0.004410438
122	0xbcae3b05	-0.021268377
123	0xbbf43497	-0.0074525583
124	0xbb386c4a	-0.0028140717
125	0xbc28e227	-0.010307825
126	0xbc9dded8	-0.0192713
127	0xbbf95d84	-0.007610025

arith.constant8 f4 [64]
0	0x3d612f6a	0.05497686
1	0x3d43d08d	0.04780631
2	0xbc1ea094	-0.0096818395
3	0x3d4f0840	0.050544977
4	0x3ce27ecb	0.02764835
5	0xbd4fbfaf	-0.050719913
6	0x3d4cc66b	0.049993914
7	0xbb3e356f	-0.0029023548
8	0x3db02c65	0.086022176
9	0x3d35b894	0.04436548
10	0x3becd849	0.0072279316
11	0x3d74065d	0.05957638
12	0x3c9e73c1	0.019342305
13	0x3cf61411	0.030038865
14	0xbc9b9569	-0.018992143
15	0x3d31aa0e	0.043375067
16	0xba213486	-0.0006149489
17	0x3cb28842	0.021793488
18	0x3d575268	0.052568823
19	0xbc810f86	-0.015754472
20	0x3dca5b68	0.098807156
21	0x3ce0d0e4	0.027443357
22	0x3c34701a	0.011013055
23	0x3d5a51b3	0.05330057
24	0x3d76e878	0.060280293
25	0xbc4ac0f4	-0.012375105
26	0x3d35bb92	0.044368334
27	0x3d0338a5	0.032036442
28	0xbb8b2c22	-0.0042472044
29	0x3d34fca1	0.04418624
30	0xb8eabf78	-0.00011193653
31	0x3d293ae7	0.04131594
32	0x3ce58ecb	0.02802219
33	0xbc20e419	-0.009820008
34	0xbd0bd8f8	-0.034142464
35	0xbbdcd539	-0.0067392853
36	0x38e782dc	0.00011039313
37	0xbc41d85e	-0.011831371
38	0x3c0624d7	0.008187494
39	0x3d15bc1d	0.036556352
40	0xbd20f1ef	-0.039293226
41	0x3d0eaf38	0.03483507
42	0xbce0c862	-0.0274393
43	0xbc65a9af	-0.0140175065
44	0x3d395013	0.04524238
45	0x3d242aa9	0.040079746
46	0xbd3e7186	-0.046494983
47	0x3d41d334	0.04732056
48	0x3d00de48	0.031461984
49	0x3d5b6b24	0.053568974
50	0xbd6a1e64	-0.05715789
51	0x3c07bc48	0.008284636
52	0x3d23e6a5	0.04001488
53	0xbcf788c2	-0.030216578
54	0x3d57b07e	0.05265855
55	0xbcb6df64	-0.022323318
56	0x3d293583	0.0413108
57	0x3be04406	0.0068440465
58	0x3cffd9da	0.03123181
59	0x3d0995ea	0.033590235
60	0x3cf8bc6b	0.030363282
61	0x3d0e2083	0.034698974
62	0x3d194d36	0.03742715
63	0x3d278f5f	0.040908214

arith.constant9 f4 [32, 1, 9, 3]
0	0x3f3667fd	0.71252424
1	0xbebc09bf	-0.36726186
2	0xbe95479f	-0.29156205
3	0xbf53efc5	-0.82787734
4	0xbf55ff45	-0.83592635
5	0xbeae31f9	-0.340225
6	0xbe4fb1cc	-0.20282668
7	0xbed3f0d3	-0.41394672
8	0xbf8a8586	-1.0821998
9	0x3e340b15	0.17582352
10	0x3ef6c123	0.48194227
11	0xbe90d259	-0.28285483
12	0x3f43cf19	0.7648788
13	0xbf041040	-0.51587296
14	0x3d92e4df	0.0717256
15	0xbf7ba78c	-0.9830253
16	0xbbe85dc1	-0.0070912545
17	0xbf221963	-0.6331999
18	0xbf74b126	-0.9558281
19	0xbeedbc2b	-0.46432623
20	0xbe6c6560	-0.23085546
21	0xbf4f89ff	-0.8106994
22	0x3f8f16ea	1.1178868
23	0xbf86b22f	-1.0523127
24	0xbecfafe0	-0.4056387
25	0x3f8482af	1.0352381
26	0x3e25d694	0.16195136
27	0xbd8d5f92	-0.06902994
28	0xbe3ec0d3	-0.18628244
29	0x3f0426e6	0.51621854
30	0xbedced30	-0.4314971
31	0xbf37deff	-0.7182464
32	0xbe997166	-0.2996933
33	0x3ee6c957	0.45075485
34	0x3f45154f	0.7698564
35	0x3f38e765	0.7222808
36	0xbf715bb3	-0.94280547
37	0x3f07f340	0.53105545
38	0x3e9f76c7	0.31145307
39	0x3f3c140b	0.73468083
40	0x3d200dd9	0.039075706
41	0x3f85c823	1.0451702
42	0x3f4c8e5b	0.7990472
43	0xbdda7669	-0.10667116
44	0x3facec15	1.3509547
45	0xbeeb90f4	-0.46009028
46	0xbeda6c60	-0.4266081
47	0xbf423228	-0.7585778
48	0xbf276bbd	-0.6539877
49	0xbf1af096	-0.60523355
50	0x3f3d06c7	0.73838466
51	0x3f4eacdc	0.8073251
52	0x3f33d01f	0.7023944
53	0xbe0ace96	-0.13555369
54	0xbfda5d6f	-1.7059764
55	0x3f9f07c6	1.2424247
56	0x3ea6ae63	0.32554922
57	0x402ae75e	2.6703715
58	0xbfae31d8	-1.3608961
59	0x3fe249d3	1.7678779
60	0x3f329244	0.69754434
61	0xbfe2aa8f	-1.77083
62	0x40366d15	2.8504078
63	0x3ea2770f	0.3173146
64	0xc027447e	-2.6135554
65	0xbf875cd9	-1.057521
66	0xbffd028b	-1.9766401
67	0x400223a6	2.0334258
68	0xbf8da024	-1.1064496
69	0x3fd97bc7	1.6990899
70	0x4006f625	2.1087735
71	0xc0249249	-2.5714285
72	0x3ef5cdda	0.48008615
73	0x3f953e64	1.1659665
74	0x3f9244ad	1.1427208
75	0xbf2c92fb	-0.67411774
76	0x3fe714b9	1.8053199
77	0xbfbe68e6	-1.4875762
78	0xc008d17f	-2.1377866
79	0xc00c737e	-2.194549
80	0x4040e34c	3.013873
81	0x4016cbd1	2.35619
82	0x403bad4f	2.932453
83	0xbf16302a	-0.5866724
84	0xbfeeaf1a	-1.8647187
85	0x402ad9bc	2.6695395
86	0x400195d1	2.024769
87	0xbfa07e1e	-1.2538488
88	0xbf616bb7	-0.88054985
89	0x3fd790e8	1.6841097
90	0x3e1191fd	0.14215846
91	0x3eb6d77e	0.35711282
92	0xbfb61adc	-1.4226947
93	0xbf69aa4e	-0.9127549
94	0x3ff85a63	1.9402584
95	0xbfdf8890	-1.746355
96	0xbfe84f2b	-1.814916
97	0x3fa8108b	1.3130049
98	0xc00dd0fb	-2.2158802
99	0x3f56c59f	0.83895296
100	0xbede5a3e	-0.43428224
101	0x3fb50847	1.4143151
102	0xbfe73324	-1.8062482
103	0x3cab583e	0.0209161
104	0x3fb0d586	1.3815162
105	0x400547f5	2.082517
106	0x3fa242e2	1.2676661
107	0x400ba690	2.1820412
108	0x3e8bd47f	0.2731056
109	0x3f122068	0.570807
110	0xbe4a3189	-0.19745459
111	0x3dad7f40	0.08471537
112	0x3efe15df	0.4962606
113	0x3f14e7cb	0.5816619
114	0x3f116d27	0.5680718
115	0x3f38436a	0.71977866
116	0xbf4bb857	-0.79578155
117	0xbe0100d9	-0.1259798
118	0xbf394715	-0.7237409
119	0xbf62c622	-0.88583577
120	0x3edd638b	0.43240008
121	0xbf47bc19	-0.7802139
122	0xbf538567	-0.8262543
123	0xbf37908a	-0.71704924
124	0x3f053ca8	0.5204568
125	0xbf016add	-0.50553685
126	0x3e91245a	0.28348047
127	0x3b6df610	0.0036309995
128	0x3e995fed	0.29955998
129	0x3f32fe97	0.69919723
130	0xbe51a002	-0.20471194
131	0xbe96242e	-0.29324478
132	0xbe0ab1c6	-0.13544378
133	0x3e3d7bb6	0.18504223
134	0xbfa1f5fa	-1.2653191
135	0xbe41cac2	-0.18925002
136	0x3fcbde7b	1.5927271
137	0x40863a3f	4.19461
138	0x3f061d1d	0.52388173
139	0xc02c99bf	-2.696884
140	0xbf6f716e	-0.93532455
141	0xc03250ab	-2.7861736
142	0x4009ea96	2.154943
143	0x401efa75	2.4840367
144	0x3f8ff64d	1.124704
145	0xbfd13466	-1.6344116
146	0x3f91c06c	1.1386847
147	0x3ffe6c4d	1.9876801
148	0x3f65f22d	0.89822656
149	0x3f9e27fc	1.2355952
150	0xbf8cc1bf	-1.0996627
151	0xc02e9bc6	-2.7282577
152	0xc0194c1a	-2.3952699
153	0xc00039f9	-2.0035384
154	0xbff4d4fe	-1.91275
155	0xc082d6ee	-4.0887365
156	0xbdc9b04a	-0.098480776
157	0x3f4bdf5f	0.7963771
158	0xc01bfbe3	-2.437249
159	0x401fd6c1	2.4974825
160	0x3f110172	0.5664283
161	0xbec9cbce	-0.39413303
162	0x3f1e876d	0.61925393
163	0xbec71c5c	-0.38888824
164	0x3fa58629	1.2931567
165	0xbddf5a31	-0.109058745
166	0x3f3c7ec0	0.73630905
167	0x3d394530	0.045231998
168	0xbf819530	-1.0123653
169	0xbf284094	-0.6572354
170	0xbf7be6fd	-0.98399335
171	0x3f73f4cf	0.95295423
172	0xbdc36d64	-0.09542349
173	0xbeb3a682	-0.35087973
174	0x3f20dd63	0.6283781
175	0xbf270bf0	-0.6525259
176	0xbf213463	-0.6297056
177	0xbf671f65	-0.9028228
178	0x3f802878	1.001235
179	0xbfba3dfc	-1.4550166
180	0xbc618c3c	-0.013766345
181	0x3e80f675	0.25188032
182	0xbfabdaa2	-1.3426096
183	0x3f573c42	0.8407632
184	0xbf53adbb	-0.82686967
185	0xbdad3bba	-0.084586576
186	0xbea75830	-0.3268447
187	0x3f85483a	1.0412667
188	0xbe9937ba	-0.29925328
189	0x3e96d918	0.29462504
190	0x3da32019	0.079651065
191	0xbdec9d32	-0.1155342
192	0x3ee6ee50	0.45103693
193	0x3e7a1015	0.24420197
194	0xbe5f3278	-0.21796596
195	0x3d67a66f	0.056555208
196	0xbdaa72dd	-0.0832269
197	0x3e2091b0	0.15680575
198	0xbe2e1e7f	-0.17003821
199	0xbdb509ec	-0.08839783
200	0xbf735141	-0.9504586
201	0xbebb588d	-0.36590996
202	0xbe5e49ef	-0.21707891
203	0xbf2596ea	-0.646834
204	0x3eb5695c	0.35431945
205	0xbe307b7c	-0.17234606
206	0xbf0224a2	-0.5083715
207	0x3f02597b	0.50917786
208	0xbe510e52	-0.20415619
209	0xbebb8db3	-0.36631545
210	0xbea45579	-0.3209646
211	0xbe01546c	-0.1262986
212	0xbf5386d8	-0.8262763
213	0xbebf0ca2	-0.37314326
214	0x3f300005	0.6875003
215	0xbf1b7065	-0.60718375
216	0xbe833731	-0.25628045
217	0x3f815ed8	1.0107069
218	0xbeaf76f3	-0.3427044
219	0xbfde359b	-1.7360109
220	0x3d201cea	0.039090075
221	0x3f661b96	0.8988584
222	0xbe08f65b	-0.13375227
223	0x3f6b411e	0.91896236
224	0x3fd0450d	1.6271073
225	0x3f8c5cf4	1.0965867
226	0x3f9e890c	1.2385573
227	0x3f15db66	0.585379
228	0x3e09f64a	0.13472858
229	0x3e95295d	0.2913312
230	0x3fd05cde	1.6278341
231	0x3f812964	1.0090756
232	0x3f7c6ad2	0.98600495
233	0x3f97a7d0	1.1848087
234	0xbee83b7d	-0.45357886
235	0x3d881119	0.06643886
236	0x3f1afc11	0.6054087
237	0xbf985a88	-1.1902628
238	0xbfa51b95	-1.2899042
239	0xbf454d4c	-0.7707107
240	0xbf09bfd6	-0.53808343
241	0xbf4fa4af	-0.8111066
242	0xbfe25e36	-1.7685001
243	0x3fd760ef	1.6826457
244	0xbe21fe70	-0.15819716
245	0x3fb1de12	1.3895895
246	0xbf8a3510	-1.0797443
247	0x3e255794	0.1614669
248	0xbe1b3e95	-0.15160592
249	0x3f68ccab	0.909373
250	0xbf4bffc2	-0.7968713
251	0xbf910cf0	-1.1332073
252	0x3e29385d	0.16525407
253	0xbfd299e6	-1.6453216
254	0xbfb71fcb	-1.4306577
255	0x3f971477	1.180312

arith.constant10 f4 [128]
0	0x3cb27043	0.021782046
1	0x3d00f4c3	0.031483423
2	0xbed50172	-0.41602665
3	0xbe3a31d2	-0.18183067
4	0xbedf3703	-0.43596658
5	0x3f28695e	0.6578578
6	0xbe49d0ab	-0.19708507
7	0xbeb5a6ae	-0.3547873
8	0x3e3ea71e	0.18618438
9	0x3cbe6353	0.02324072
10	0x3f9d0dce	1.2269838
11	0xbdefe56a	-0.11713679
12	0x3db56f28	0.08859092
13	0x3d8b9ff3	0.06817617
14	0x3d4331bd	0.047654856
15	0xbd895288	-0.06705195
16	0x3f07cfe2	0.5305158
17	0x3f5cd8e9	0.8626848
18	0x3e23e64c	0.1600582
19	0x3eb14c5d	0.34628573
20	0x3d50b6f5	0.05095573
21	0x3f7db8dd	0.99110204
22	0x3f2a353d	0.66487485
23	0xbb089c90	-0.0020845272
24	0xbf86f9e8	-1.0545015
25	0xbf3a7cbf	-0.728466
26	0xbf3959a5	-0.7240241
27	0x3f4b43b7	0.794002
28	0x3f98f387	1.1949319
29	0xbfc27614	-1.5192285
30	0x3f856a8b	1.0423139
31	0x3e25de08	0.1619798
32	0xbe28a46d	-0.16468973
33	0xbedbf09e	-0.42957014
34	0xbd241415	-0.040058214
35	0xbf036c97	-0.5133757
36	0x3fa6c26a	1.302808
37	0xbf48d510	-0.7845011
38	0x3f38b514	0.72151303
39	0x3f61e32e	0.88237274
40	0x3f0cf795	0.5506528
41	0x3f92e6c7	1.1476678
42	0x3c6989dc	0.01425406
43	0x3cd6ca8c	0.026219629
44	0xbfa07292	-1.2534964
45	0xbf362626	-0.7115196
46	0x3ede514d	0.43421403
47	0x3e73e96b	0.2381951
48	0x3ee23de1	0.44187835
49	0x3eef242c	0.46707284
50	0xbede4555	-0.4341227
51	0x3e32daed	0.17466326
52	0x3fa84eee	1.3149087
53	0xbe35430b	-0.17701356
54	0x3e1b5d70	0.15172362
55	0x3ec5050b	0.3848041
56	0xbe200366	-0.15626296
57	0x3da36e6e	0.07980047
58	0xbdcf862e	-0.101330146
59	0x3fd68527	1.6759385
60	0x3d0caf6b	0.03434698
61	0x3fb1a21d	1.3877598
62	0xbfab90a1	-1.3403512
63	0xbed21557	-0.41031906
64	0x3f258e9e	0.6467074
65	0x3fe1f3f6	1.7652576
66	0x3f88dc93	1.0692314
67	0x3ef10a33	0.47078094
68	0xbe164a70	-0.14676833
69	0xbf36120f	-0.71121305
70	0x3e678318	0.22608602
71	0x3e067e88	0.13134205
72	0x3f10c188	0.56545305
73	0x3e029a1a	0.12754098
74	0xbe9f6663	-0.31132802
75	0x3ed4c5bb	0.41557106
76	0x3f526cf1	0.8219748
77	0xbf4d00a8	-0.80079126
78	0x3eb74e59	0.35801962
79	0x3de524ce	0.111886606
80	0x3ffac02e	1.9589899
81	0x3dabbd81	0.083857544
82	0xbf70020c	-0.93753123
83	0xbdd00ccc	-0.10158691
84	0xbec885b8	-0.3916452
85	0x3edc625b	0.4304379
86	0x3f876c5a	1.0579941
87	0x3ea9406e	0.33056968
88	0xbeab86ec	-0.33501375
89	0x3fabbe45	1.3417441
90	0x3f0f3ce3	0.5595228
91	0x3fb56816	1.417239
92	0xbf16579d	-0.5872744
93	0x3f522ec4	0.8210261
94	0x3f928c4c	1.1449065
95	0x3ed4e23c	0.41578853
96	0xbf6926de	-0.9107493
97	0x3f426a39	0.7594333
98	0xbef47292	-0.4774366
99	0x3fdbd3aa	1.717397
100	0x3eb5febb	0.35545906
101	0xbe9fb7ef	-0.31195018
102	0x3fb9bf92	1.4511588
103	0x3d03f6a1	0.032217626
104	0x3dd2ba73	0.102894686
105	0xbf1a345d	-0.6023615
106	0xbf09d120	-0.53834724
107	0xbe59d8c5	-0.21274097
108	0xbd6a02db	-0.05713163
109	0x3f5a0dbb	0.851772
110	0x3f0aae27	0.54171985
111	0x3ef7d4a6	0.48404425
112	0x3fa5de2b	1.2958425
113	0x3e545b0e	0.2073786
114	0xbe0cb60a	-0.13741317
115	0x3ddafc46	0.106926486
116	0xbf06ac05	-0.5260623
117	0x3e31091f	0.17288636
118	0xbe5d6b37	-0.2162293
119	0x3f88924f	1.066965
120	0x3fdf2079	1.7431785
121	0x3f93bce7	1.1542023
122	0xbe3b2d79	-0.18279065
123	0xbdadbda1	-0.084834345
124	0x3e47ffc2	0.19531158
125	0x3f18101f	0.593996
126	0xbf252e71	-0.6452399
127	0xbe23a45d	-0.15980668

arith.constant11 f4 [64]
0	0xbfa83c9a	-1.3143494
1	0x3f8e354c	1.1110015
2	0xbf22125d	-0.6330927
3	0xbf59e33c	-0.8511236
4	0xbf2039c3	-0.6258814
5	0x3fa047b3	1.2521881
6	0x3f15695a	0.5836388
7	0xbf081f17	-0.5317244
8	0xbe29b818	-0.16574132
9	0xbf066e7d	-0.5251234
10	0x3ef16845	0.47149864
11	0x3e2f79b1	0.17136265
12	0x3f0c46c5	0.54795486
13	0xbeacab69	-0.33724526
14	0xbf86d555	-1.0533854
15	0x3f108c42	0.56464016
16	0x3ee2434c	0.44191968
17	0x3f8b8da8	1.0902605
18	0x3ec0195b	0.37519345
19	0xbf97acf6	-1.1849658
20	0x3ec6c413	0.38821468
21	0x3e97bf7a	0.29638273
22	0x3f1fb421	0.6238423
23	0xbfcb9ee1	-1.5907861
24	0x3eaad1b2	0.3336311
25	0xbf1fe513	-0.62458915
26	0x3f009c0f	0.50238127
27	0xbe875312	-0.26430565
28	0x3efffbcd	0.49996796
29	0x3f80303d	1.0014721
30	0xbfb6000d	-1.4218765
31	0xbef68c89	-0.48154095
32	0x3e28729a	0.16449967
33	0x3f0f8131	0.56056505
34	0x3e4f3bf0	0.20237708
35	0x3f9b9347	1.215432
36	0xbe20e702	-0.15713122
37	0x3f81e893	1.0149101
38	0xbf156105	-0.58351165
39	0xbf0ea9d1	-0.5572787
40	0x3f480019	0.7812515
41	0xbf13c7bd	-0.5772665
42	0x3e1d5237	0.15363394
43	0x3ee668c8	0.45001817
44	0x3ebb9e62	0.36644274
45	0xbef280c4	-0.47363865
46	0xbf2c3907	-0.67274517
47	0x3e0eb248	0.13935196
48	0x3db32b73	0.08748522
49	0xbf7f542c	-0.9973781
50	0xbfcdb624	-1.607121
51	0xbf82c015	-1.0214869
52	0x3f634d66	0.88789976
53	0xbf1c1373	-0.6096718
54	0xbe5e1e73	-0.21691303
55	0xbebbfd09	-0.36716488
56	0x3f001777	0.50035805
57	0x3f02a5d4	0.51034284
58	0x3eb7f35d	0.3592786
59	0x3eed0b35	0.46297613
60	0x3e95a51a	0.29227525
61	0x3f868a78	1.0511007
62	0x3f67dfd1	0.9057589
63	0xbf91e229	-1.1397144

arith.constant12 f4 [32]
0	0x3fd63cf5	1.6737353
1	0xbfdf576b	-1.7448553
2	0xbfa04e80	-1.2523956
3	0xbfc44b77	-1.533553
4	0x3fc0d211	1.5064107
5	0x3edd0f10	0.43175554
6	0x3fc80362	1.5626032
7	0x3fda4671	1.7052747
8	0xbfdbbbe1	-1.7166711
9	0x3f85ea17	1.0462064
10	0xbf7d9725	-0.99058753
11	0xbee1235b	-0.43972287
12	0x3f8ba07f	1.0908355
13	0x3f90d5df	1.1315268
14	0xbfcfb7ed	-1.6228005
15	0x3e855598	0.26041865
16	0xbfe52e57	-1.7904767
17	0x3fcb7f70	1.5898266
18	0xbf927b4e	-1.144388
19	0xbf43abb3	-0.7643387
20	0xbfb3bff8	-1.4042959
21	0x3fb12671	1.3839856
22	0x3ea860c2	0.3288632
23	0x3fc2c691	1.5216848
24	0xbf905935	-1.1277224
25	0x3f54c308	0.83110094
26	0x3fe3e7d9	1.7805129
27	0xbfb9e1ac	-1.4521995
28	0xbef7e9bf	-0.48420522
29	0x3f31edd8	0.69503546
30	0xbf0843f0	-0.53228664
31	0xbfdbca8a	-1.7171185

tfl.pseudo_qconst i1 [128, 1, 5, 64]
0	0xce	-50
1	0xf5	-11
2	0x44	68
3	0x1a	26
4	0xb7	-73
5	0xf7	-9
6	0xe2	-30
7	0xf4	-12
8	0x18	24
9	0xc7	-57
10	0x2e	46
11	0xfa	-6
12	0x0f	15
13	0xd9	-39
14	0x22	34
15	0xd8	-40
16	0xff	-1
17	0xa6	-90
18	0xdf	-33
19	0xd4	-44
20	0xcc	-52
21	0xc2	-62
22	0xdd	-35
23	0x06	6
24	0x30	48
25	0xe4	-28
26	0x32	50
27	0x2c	44
28	0xd9	-39
29	0x04	4
30	0xc1	-63
31	0x27	39
32	0x3b	59
33	0x24	36
34	0x00	0
35	0x01	1
36	0x49	73
37	0xd3	-45
38	0x1e	30
39	0xe8	-24
40	0xd6	-42
41	0xec	-20
42	0xd4	-44
43	0x22	34
44	0x18	24
45	0xd5	-43
46	0xd3	-45
47	0x10	16
48	0x20	32
49	0x31	49
50	0x36	54
51	0x26	38
52	0x21	33
53	0x3f	63
54	0x1f	31
55	0x37	55
56	0x3b	59
57	0x43	67
58	0xf4	-12
59	0xdb	-37
60	0xcf	-49
61	0x15	21
62	0x1e	30
63	0x1f	31
64	0x1c	28
65	0xcd	-51
66	0x23	35
67	0xd1	-47
68	0xf1	-15
69	0xdb	-37
70	0xef	-17
71	0x3b	59
72	0xff	-1
73	0x19	25
74	0xcd	-51
75	0xf5	-11
76	0x2c	44
77	0xe2	-30
78	0x3b	59
79	0xf7	-9
80	0x21	33
81	0xad	-83
82	0x00	0
83	0xc6	-58
84	0x1a	26
85	0xe5	-27
86	0x26	38
87	0x3d	61
88	0xf4	-12
89	0xfc	-4
90	0xe3	-29
91	0x33	51
92	0x3f	63
93	0xce	-50
94	0xf9	-7
95	0x0a	10
96	0xde	-34
97	0xc1	-63
98	0xed	-19
99	0x20	32
100	0x40	64
101	0xe7	-25
102	0xfb	-5
103	0xec	-20
104	0xf0	-16
105	0x3a	58
106	0x1b	27
107	0x39	57
108	0x24	36
109	0x0a	10
110	0xe3	-29
111	0x44	68
112	0x27	39
113	0xf6	-10
114	0x0d	13
115	0xf9	-7
116	0x28	40
117	0xbc	-68
118	0xbd	-67
119	0xfb	-5
120	0xed	-19
121	0x0d	13
122	0x06	6
123	0x35	53
124	0x25	37
125	0xd7	-41
126	0xfd	-3
127	0x09	9
128	0x4b	75
129	0x05	5
130	0xeb	-21
131	0xd9	-39
132	0x06	6
133	0xfc	-4
134	0x48	72
135	0xcf	-49
136	0xeb	-21
137	0x3c	60
138	0xf1	-15
139	0xcd	-51
140	0xf4	-12
141	0xd0	-48
142	0xe6	-26
143	0xf6	-10
144	0x43	67
145	0xcb	-53
146	0xfb	-5
147	0xf9	-7
148	0xd7	-41
149	0x3e	62
150	0x3b	59
151	0xea	-22
152	0xed	-19
153	0x25	37
154	0xd9	-39
155	0x04	4
156	0xda	-38
157	0xfe	-2
158	0x14	20
159	0xcf	-49
160	0xea	-22
161	0x22	34
162	0xc7	-57
163	0x24	36
164	0x00	0
165	0xd1	-47
166	0xda	-38
167	0x05	5
168	0x0e	14
169	0x45	69
170	0xd5	-43
171	0x13	19
172	0xec	-20
173	0xe1	-31
174	0x01	1
175	0xd4	-44
176	0x35	53
177	0x2c	44
178	0x43	67
179	0xc7	-57
180	0x17	23
181	0xec	-20
182	0xd1	-47
183	0x00	0
184	0x09	9
185	0xd2	-46
186	0xad	-83
187	0xd5	-43
188	0x26	38
189	0xc4	-60
190	0xf8	-8
191	0xe9	-23
192	0x13	19
193	0xd3	-45
194	0x42	66
195	0x27	39
196	0x08	8
197	0x81	-127
198	0xf8	-8
199	0x4d	77
200	0x31	49
201	0xce	-50
202	0xf1	-15
203	0x41	65
204	0xc9	-55
205	0xca	-54
206	0xc8	-56
207	0xc4	-60
208	0xc1	-63
209	0x02	2
210	0xef	-17
211	0xdf	-33
212	0x11	17
213	0xc5	-59
214	0x0b	11
215	0xdc	-36
216	0x14	20
217	0x3b	59
218	0x3f	63
219	0x37	55
220	0x21	33
221	0xc1	-63
222	0xe9	-23
223	0xeb	-21
224	0x3c	60
225	0x38	56
226	0x2e	46
227	0xd2	-46
228	0x13	19
229	0xfd	-3
230	0x3a	58
231	0x25	37
232	0x11	17
233	0x2a	42
234	0xbd	-67
235	0x46	70
236	0x29	41
237	0x3d	61
238	0x19	25
239	0xcd	-51
240	0xf4	-12
241	0x36	54
242	0x2d	45
243	0xef	-17
244	0x46	70
245	0xcc	-52
246	0xfc	-4
247	0x0e	14
248	0xf8	-8
249	0xe3	-29
250	0xea	-22
251	0xcf	-49
252	0x17	23
253	0xea	-22
254	0x04	4
255	0xef	-17

tfl.pseudo_qconst1 i1 [64, 1, 7, 32]
0	0x22	34
1	0x21	33
2	0xfa	-6
3	0x1a	26
4	0xec	-20
5	0x13	19
6	0x16	22
7	0x1b	27
8	0xea	-22
9	0x15	21
10	0x32	50
11	0x13	19
12	0x1a	26
13	0x0a	10
14	0x44	68
15	0xdc	-36
16	0xcc	-52
17	0xee	-18
18	0x20	32
19	0x42	66
20	0x46	70
21	0xf3	-13
22	0x0f	15
23	0xed	-19
24	0x1d	29
25	0x7f	127
26	0xfa	-6
27	0xd9	-39
28	0x3a	58
29	0xf6	-10
30	0xe4	-28
31	0x29	41
32	0x2d	45
33	0x41	65
34	0x0a	10
35	0xeb	-21
36	0xd4	-44
37	0x1a	26
38	0x04	4
39	0xfe	-2
40	0xd1	-47
41	0xd1	-47
42	0xfe	-2
43	0x03	3
44	0xf0	-16
45	0x02	2
46	0x3c	60
47	0xce	-50
48	0xe3	-29
49	0x34	52
50	0xe8	-24
51	0x17	23
52	0xf3	-13
53	0x33	51
54	0x06	6
55	0x15	21
56	0xf0	-16
57	0x41	65
58	0x3e	62
59	0x40	64
60	0xf2	-14
61	0x30	48
62	0x40	64
63	0x02	2
64	0xe2	-30
65	0x27	39
66	0x08	8
67	0xf9	-7
68	0xed	-19
69	0x3a	58
70	0xd5	-43
71	0x18	24
72	0x23	35
73	0xd8	-40
74	0xf0	-16
75	0xea	-22
76	0x14	20
77	0x31	49
78	0x19	25
79	0x20	32
80	0xf2	-14
81	0xe5	-27
82	0xef	-17
83	0xda	-38
84	0x12	18
85	0x1f	31
86	0xd5	-43
87	0x40	64
88	0x5a	90
89	0xff	-1
90	0x2a	42
91	0xd8	-40
92	0x22	34
93	0x35	53
94	0x2b	43
95	0x12	18
96	0x05	5
97	0xe8	-24
98	0x38	56
99	0x23	35
100	0x32	50
101	0x1f	31
102	0x30	48
103	0x36	54
104	0x23	35
105	0x27	39
106	0xf3	-13
107	0xd3	-45
108	0x04	4
109	0xe9	-23
110	0x1e	30
111	0xfc	-4
112	0xf2	-14
113	0x2a	42
114	0x21	33
115	0xd6	-42
116	0x13	19
117	0xdb	-37
118	0x09	9
119	0xee	-18
120	0xf5	-11
121	0x34	52
122	0xf7	-9
123	0x14	20
124	0xed	-19
125	0x40	64
126	0x1f	31
127	0x2a	42
128	0xdc	-36
129	0xf0	-16
130	0xd1	-47
131	0xed	-19
132	0x2c	44
133	0x41	65
134	0x05	5
135	0x03	3
136	0xd3	-45
137	0x2d	45
138	0xda	-38
139	0xfd	-3
140	0x10	16
141	0x0b	11
142	0xec	-20
143	0xe2	-30
144	0x11	17
145	0x42	66
146	0x2b	43
147	0xdb	-37
148	0xed	-19
149	0xf1	-15
150	0xcb	-53
151	0x19	25
152	0x25	37
153	0x4b	75
154	0xfc	-4
155	0x08	8
156	0x32	50
157	0x0a	10
158	0xe1	-31
159	0x0f	15
160	0xe6	-26
161	0x1d	29
162	0x3a	58
163	0x19	25
164	0x2d	45
165	0x36	54
166	0x53	83
167	0xf7	-9
168	0x2f	47
169	0x30	48
170	0xe7	-25
171	0x34	52
172	0xf4	-12
173	0x4a	74
174	0x3a	58
175	0x34	52
176	0x09	9
177	0x3e	62
178	0x2f	47
179	0xdf	-33
180	0xee	-18
181	0x3a	58
182	0x03	3
183	0x1f	31
184	0x14	20
185	0xd9	-39
186	0x34	52
187	0xf1	-15
188	0xeb	-21
189	0x30	48
190	0xd8	-40
191	0xf6	-10
192	0x55	85
193	0x0d	13
194	0x28	40
195	0xe5	-27
196	0x13	19
197	0x03	3
198	0x4d	77
199	0x00	0
200	0xfa	-6
201	0x2c	44
202	0xf3	-13
203	0xdb	-37
204	0x5c	92
205	0xf1	-15
206	0xde	-34
207	0x2d	45
208	0x1f	31
209	0x1b	27
210	0xff	-1
211	0x0a	10
212	0x0c	12
213	0x24	36
214	0x17	23
215	0x10	16
216	0x06	6
217	0x34	52
218	0x4d	77
219	0x29	41
220	0x2c	44
221	0x2d	45
222	0x13	19
223	0x3c	60
224	0xab	-85
225	0xf5	-11
226	0xe2	-30
227	0xcb	-53
228	0xde	-34
229	0xf4	-12
230	0xcf	-49
231	0xf5	-11
232	0xfd	-3
233	0x21	33
234	0x07	7
235	0x04	4
236	0xd1	-47
237	0xe0	-32
238	0xd6	-42
239	0x11	17
240	0xf4	-12
241	0x24	36
242	0x4e	78
243	0xab	-85
244	0x19	25
245	0xef	-17
246	0xe9	-23
247	0x0d	13
248	0xfa	-6
249	0x42	66
250	0xfb	-5
251	0xc1	-63
252	0xee	-18
253	0x13	19
254	0xc4	-60
255	0x23	35

tfl.pseudo_qconst2 i1 [64, 128]
0	0x88	-120
1	0x0f	15
2	0xcf	-49
3	0xa8	-88
4	0x50	80
5	0xae	-82
6	0xf4	-12
7	0xb6	-74
8	0x66	102
9	0xc4	-60
10	0xae	-82
11	0x34	52
12	0xfb	-5
13	0xa0	-96
14	0x37	55
15	0xe9	-23
16	0xde	-34
17	0xfd	-3
18	0xd6	-42
19	0x50	80
20	0x3e	62
21	0xe4	-28
22	0x1f	31
23	0xb3	-77
24	0x40	64
25	0xf0	-16
26	0x58	88
27	0xf9	-7
28	0xd5	-43
29	0x07	7
30	0x16	22
31	0xda	-38
32	0xce	-50
33	0xac	-84
34	0xc2	-62
35	0x1e	30
36	0xcd	-51
37	0x2c	44
38	0x14	20
39	0xd9	-39
40	0xac	-84
41	0x0a	10
42	0x25	37
43	0xc8	-56
44	0x53	83
45	0x09	9
46	0xed	-19
47	0x5d	93
48	0xb6	-74
49	0xdd	-35
50	0xba	-70
51	0xe2	-30
52	0xf2	-14
53	0x23	35
54	0x46	70
55	0x94	-108
56	0x03	3
57	0x19	25
58	0xdd	-35
59	0xc8	-56
60	0x4c	76
61	0xad	-83
62	0xad	-83
63	0xe5	-27
64	0x41	65
65	0x0b	11
66	0xf6	-10
67	0xad	-83
68	0x0f	15
69	0x5c	92
70	0xaa	-86
71	0xa7	-89
72	0xb1	-79
73	0x25	37
74	0x40	64
75	0xaa	-86
76	0x3e	62
77	0xbf	-65
78	0x25	37
79	0x40	64
80	0xd0	-48
81	0xee	-18
82	0xd8	-40
83	0x0c	12
84	0xff	-1
85	0xd5	-43
86	0xf6	-10
87	0x57	87
88	0xac	-84
89	0x18	24
90	0xc7	-57
91	0xe0	-32
92	0x33	51
93	0xfc	-4
94	0x3d	61
95	0xaf	-81
96	0x4b	75
97	0x13	19
98	0x13	19
99	0xac	-84
100	0x9b	-101
101	0x55	85
102	0x23	35
103	0xfe	-2
104	0xc5	-59
105	0x5f	95
106	0x0a	10
107	0xa0	-96
108	0xbb	-69
109	0xf3	-13
110	0x54	84
111	0x81	-127
112	0x38	56
113	0x5a	90
114	0x49	73
115	0xee	-18
116	0x56	86
117	0xae	-82
118	0x1e	30
119	0xf5	-11
120	0x3a	58
121	0xdc	-36
122	0xec	-20
123	0x55	85
124	0x3a	58
125	0x2a	42
126	0xf4	-12
127	0x5f	95
128	0xae	-82
129	0x06	6
130	0x98	-104
131	0x5e	94
132	0xbe	-66
133	0xdc	-36
134	0x25	37
135	0x0b	11
136	0xdb	-37
137	0x3c	60
138	0xc2	-62
139	0x25	37
140	0xc9	-55
141	0x1e	30
142	0x06	6
143	0x01	1
144	0xce	-50
145	0x02	2
146	0xce	-50
147	0xa5	-91
148	0x04	4
149	0x43	67
150	0x52	82
151	0xde	-34
152	0x18	24
153	0xf9	-7
154	0xd4	-44
155	0xe8	-24
156	0x3f	63
157	0xf4	-12
158	0x98	-104
159	0x13	19
160	0x9c	-100
161	0x0c	12
162	0x51	81
163	0xae	-82
164	0x3b	59
165	0x62	98
166	0xd3	-45
167	0xea	-22
168	0x42	66
169	0xeb	-21
170	0x53	83
171	0xfb	-5
172	0x18	24
173	0x45	69
174	0xdf	-33
175	0x4a	74
176	0x31	49
177	0x5d	93
178	0xac	-84
179	0x1a	26
180	0xbe	-66
181	0xbe	-66
182	0xfb	-5
183	0xdc	-36
184	0x04	4
185	0x34	52
186	0xdd	-35
187	0xfe	-2
188	0x40	64
189	0x18	24
190	0xc3	-61
191	0xc2	-62
192	0x35	53
193	0x9e	-98
194	0xd9	-39
195	0x1d	29
196	0xd9	-39
197	0x81	-127
198	0x05	5
199	0x06	6
200	0x2f	47
201	0xcf	-49
202	0x9c	-100
203	0x3e	62
204	0x07	7
205	0xcb	-53
206	0xaa	-86
207	0xfa	-6
208	0xc4	-60
209	0xcb	-53
210	0x4b	75
211	0x7a	122
212	0xc8	-56
213	0x17	23
214	0xd8	-40
215	0xce	-50
216	0xbb	-69
217	0x53	83
218	0xe0	-32
219	0x1a	26
220	0x49	73
221	0x5b	91
222	0xaf	-81
223	0x29	41
224	0x12	18
225	0xdf	-33
226	0x42	66
227	0xa5	-91
228	0x3d	61
229	0xfc	-4
230	0x34	52
231	0x0a	10
232	0xc6	-58
233	0xac	-84
234	0x10	16
235	0xfe	-2
236	0x0b	11
237	0x37	55
238	0xe3	-29
239	0xe2	-30
240	0x4e	78
241	0xc6	-58
242	0x40	64
243	0x45	69
244	0xd2	-46
245	0xf7	-9
246	0xbc	-68
247	0xae	-82
248	0x1d	29
249	0x24	36
250	0xfd	-3
251	0x3b	59
252	0xaa	-86
253	0x05	5
254	0xb0	-80
255	0x28	40

tfl.pseudo_qconst3 i1 [128, 128]
0	0xb6	-74
1	0x2d	45
2	0xb0	-80
3	0x32	50
4	0x08	8
5	0xab	-85
6	0x1a	26
7	0x45	69
8	0xba	-70
9	0x87	-121
10	0xf0	-16
11	0x8d	-115
12	0xf5	-11
13	0x68	104
14	0xd5	-43
15	0x53	83
16	0x4e	78
17	0x37	55
18	0x9d	-99
19	0x40	64
20	0xfc	-4
21	0xfb	-5
22	0xa0	-96
23	0x06	6
24	0xbb	-69
25	0xaa	-86
26	0x20	32
27	0x61	97
28	0x1e	30
29	0xc4	-60
30	0xbf	-65
31	0x9d	-99
32	0xac	-84
33	0x44	68
34	0x25	37
35	0x10	16
36	0x94	-108
37	0x19	25
38	0x08	8
39	0x41	65
40	0x33	51
41	0x2c	44
42	0xb0	-80
43	0xcb	-53
44	0x22	34
45	0x00	0
46	0xe2	-30
47	0xb7	-73
48	0x2a	42
49	0xe2	-30
50	0x87	-121
51	0x6a	106
52	0xe7	-25
53	0x28	40
54	0x56	86
55	0x13	19
56	0x0d	13
57	0xe6	-26
58	0xfa	-6
59	0x23	35
60	0x81	-127
61	0xcc	-52
62	0xfb	-5
63	0x1d	29
64	0xf0	-16
65	0x32	50
66	0xdc	-36
67	0x87	-121
68	0x12	18
69	0x6d	109
70	0xe0	-32
71	0x0d	13
72	0x16	22
73	0xed	-19
74	0x8a	-118
75	0x06	6
76	0x09	9
77	0x60	96
78	0x00	0
79	0x06	6
80	0xe8	-24
81	0x1d	29
82	0x06	6
83	0xc5	-59
84	0x60	96
85	0x9d	-99
86	0xe9	-23
87	0x91	-111
88	0x56	86
89	0xa6	-90
90	0xe1	-31
91	0x62	98
92	0xaf	-81
93	0x46	70
94	0xfd	-3
95	0xd7	-41
96	0xcc	-52
97	0xc7	-57
98	0x30	48
99	0x39	57
100	0xae	-82
101	0xff	-1
102	0xe8	-24
103	0xa3	-93
104	0xac	-84
105	0xbf	-65
106	0x69	105
107	0xbd	-67
108	0xde	-34
109	0xd5	-43
110	0x06	6
111	0x15	21
112	0x3a	58
113	0x10	16
114	0xfe	-2
115	0x22	34
116	0x20	32
117	0x1d	29
118	0x92	-110
119	0xa0	-96
120	0xf0	-16
121	0x10	16
122	0xa3	-93
123	0xc0	-64
124	0x5b	91
125	0x02	2
126	0x37	55
127	0x20	32
128	0x90	-112
129	0x76	118
130	0x94	-108
131	0xc6	-58
132	0x62	98
133	0xdb	-37
134	0x4d	77
135	0x54	84
136	0x78	120
137	0xbd	-67
138	0x0f	15
139	0x01	1
140	0xe9	-23
141	0xa5	-91
142	0xf6	-10
143	0xe6	-26
144	0xc0	-64
145	0x61	97
146	0xa5	-91
147	0x4f	79
148	0x48	72
149	0xe5	-27
150	0xd7	-41
151	0x86	-122
152	0x49	73
153	0x44	68
154	0x92	-110
155	0x50	80
156	0x09	9
157	0x43	67
158	0xcb	-53
159	0x96	-106
160	0xe4	-28
161	0xd0	-48
162	0xba	-70
163	0x34	52
164	0xf5	-11
165	0x38	56
166	0xc9	-55
167	0x6c	108
168	0x89	-119
169	0x19	25
170	0x5c	92
171	0x4d	77
172	0xf3	-13
173	0x84	-124
174	0x4b	75
175	0x45	69
176	0x99	-103
177	0xf7	-9
178	0xe9	-23
179	0x09	9
180	0xf6	-10
181	0xd0	-48
182	0xee	-18
183	0x44	68
184	0x64	100
185	0x4b	75
186	0x91	-111
187	0x8d	-115
188	0x2e	46
189	0x0a	10
190	0xa0	-96
191	0x1b	27
192	0xe7	-25
193	0x4d	77
194	0xff	-1
195	0x42	66
196	0x3c	60
197	0xa3	-93
198	0xe9	-23
199	0x92	-110
200	0xb8	-72
201	0x96	-106
202	0xac	-84
203	0xea	-22
204	0x89	-119
205	0x46	70
206	0xe2	-30
207	0x64	100
208	0x88	-120
209	0xc0	-64
210	0xac	-84
211	0x45	69
212	0x81	-127
213	0x6f	111
214	0xc3	-61
215	0x9f	-97
216	0xa9	-87
217	0xa3	-93
218	0xa7	-89
219	0x9a	-102
220	0x07	7
221	0xb0	-80
222	0xed	-19
223	0x0c	12
224	0xea	-22
225	0xbf	-65
226	0xe2	-30
227	0xa0	-96
228	0x8c	-116
229	0x2d	45
230	0x3d	61
231	0x05	5
232	0x54	84
233	0xd6	-42
234	0xa5	-91
235	0xe2	-30
236	0x2a	42
237	0x49	73
238	0x45	69
239	0x0e	14
240	0x53	83
241	0xc1	-63
242	0xab	-85
243	0xb1	-79
244	0x31	49
245	0x5e	94
246	0x85	-123
247	0xd5	-43
248	0xf6	-10
249	0x96	-106
250	0x23	35
251	0xdb	-37
252	0xeb	-21
253	0xc2	-62
254	0xf0	-16
255	0xde	-34
