ML/models/conv1d_angle_toro_ossaba/seed9_20260117_034451_884/model_int8.tflite (tflite, 99296 bytes, 6 tensors)

tfl.pseudo_qconst1 i1 [1, 64] scale=0.0033433987 zero_point=0
000000 b0 e9 d2 26 24 df dc 25 31 0d d5 50 0e aa f0 e2
       -0.2674719 -0.07689817 -0.15379634 0.12704915 0.12036236 -0.110332154 -0.12036236 0.12370575 0.16382654 0.043464184 -0.14376615 0.2674719 0.04680758 -0.2875323 -0.05349438 -0.10030196
000010 52 17 53 39 2a e3 d4 3d 29 ed 11 c8 cf ca 13 ed
       0.2741587 0.07689817 0.2775021 0.19057372 0.14042275 -0.09695856 -0.14710954 0.20394732 0.13707934 -0.063524574 0.05683778 -0.18723032 -0.16382654 -0.18054353 0.063524574 -0.063524574
000020 df c7 ca cf 2a d6 2d 0c 37 0e f3 de f7 e7 7f d0
       -0.110332154 -0.19057372 -0.18054353 -0.16382654 0.14042275 -0.14042275 0.15045294 0.040120784 0.18388693 0.04680758 -0.043464184 -0.11367556 -0.03009059 -0.083584964 0.42461163 -0.16048314
000030 eb c5 cb d0 e6 b4 1f 38 0b 0e 02 a8 1c dc e8 31
       -0.07021137 -0.19726053 -0.17720012 -0.16048314 -0.08692837 -0.2540983 0.10364536 0.18723032 0.036777385 0.04680758 0.0066867974 -0.29421908 0.09361516 -0.12036236 -0.08024157 0.16382654

tfl.pseudo_qconst3 i1 [64, 128]
000000 14 0d 01 ef ef fd ca 10 f9 0d d4 f0 03 e3 e9 19
       20 13 1 -17 -17 -3 -54 16 -7 13 -44 -16 3 -29 -23 25
000010 03 e4 01 ed f3 08 dc f2 0a c1 e4 09 df 15 0c 1c
       3 -28 1 -19 -13 8 -36 -14 10 -63 -28 9 -33 21 12 28
000020 1d 17 fb f8 f7 f0 db f9 19 e1 e9 ff af 0e 15 de
       29 23 -5 -8 -9 -16 -37 -7 25 -31 -23 -1 -81 14 21 -34
000030 1a 0e 05 c8 dc 0f 03 03 f2 1b 19 05 ec cb e4 0f
       26 14 5 -56 -36 15 3 3 -14 27 25 5 -20 -53 -28 15
000040 f4 d0 18 f1 f4 0a 01 d4 06 08 19 f5 17 04 17 10
       -12 -48 24 -15 -12 10 1 -44 6 8 25 -11 23 4 23 16
000050 fc 1b f0 03 c2 f3 ff 21 ea e1 81 ec e4 e2 15 dd
       -4 27 -16 3 -62 -13 -1 33 -22 -31 -127 -20 -28 -30 21 -35
000060 07 19 1e b8 ea c8 f5 ff f2 02 b3 d9 f4 f0 0d fb
       7 25 30 -72 -22 -56 -11 -1 -14 2 -77 -39 -12 -16 13 -5
000070 05 fa f7 04 e3 04 d8 f4 16 dd e4 03 fc e1 e1 e3
       5 -6 -9 4 -29 4 -40 -12 22 -35 -28 3 -4 -31 -31 -29
000080 0d f6 f8 33 ae 1c e7 22 16 e5 fc c6 df ed e2 1d
       13 -10 -8 51 -82 28 -25 34 22 -27 -4 -58 -33 -19 -30 29
000090 0a 00 25 56 ba 92 c9 d8 f0 e1 f3 b6 4c dc 43 27
       10 0 37 86 -70 -110 -55 -40 -16 -31 -13 -74 76 -36 67 39
0000a0 52 f1 09 0f b1 f9 af bc 4e 06 e9 24 25 45 3a f0
       82 -15 9 15 -79 -7 -81 -68 78 6 -23 36 37 69 58 -16
0000b0 37 b7 16 f6 4e 49 fe 2f 20 c8 4d 4e 23 39 2b 34
       55 -73 22 -10 78 73 -2 47 32 -56 77 78 35 57 43 52
0000c0 f4 f1 ef d7 40 ce ec e9 43 25 e4 11 bc 6f 08 1a
       -12 -15 -17 -41 64 -50 -20 -23 67 37 -28 17 -68 111 8 26
0000d0 3d f7 b5 ca f0 01 32 34 16 e9 3e 9f fd 0a ce 81
       61 -9 -75 -54 -16 1 50 52 22 -23 62 -97 -3 10 -50 -127
0000e0 f3 45 31 f0 e2 ea cd df 1b 3b 1e 1f ae b4 0a f9
       -13 69 49 -16 -30 -22 -51 -33 27 59 30 31 -82 -76 10 -7
0000f0 26 f3 ae 93 35 2a 07 50 a6 df a8 4b 3b 59 8c cf
       38 -13 -82 -109 53 42 7 80 -90 -33 -88 75 59 89 -116 -49

tfl.pseudo_qconst5 i1 [128, 128]
000000 fe 14 bd 0c 5b 5c f4 35 1b 44 49 d4 18 d9 8a ee
       -2 20 -67 12 91 92 -12 53 27 68 73 -44 24 -39 -118 -18
000010 89 ac 99 22 33 46 88 9d 40 23 e7 3c 09 90 aa 17
       -119 -84 -103 34 51 70 -120 -99 64 35 -25 60 9 -112 -86 23
000020 4b 3e 20 45 28 20 a8 fa d8 68 4c be da c1 25 d2
       75 62 32 69 40 32 -88 -6 -40 104 76 -66 -38 -63 37 -46
000030 b7 ad 8b 47 3f 02 50 df 0e ac ac 66 91 99 50 40
       -73 -83 -117 71 63 2 80 -33 14 -84 -84 102 -111 -103 80 64
000040 ca d6 ff d8 f0 26 b0 cc ee 60 27 ed f0 8b b2 ee
       -54 -42 -1 -40 -16 38 -80 -52 -18 96 39 -19 -16 -117 -78 -18
000050 51 98 d6 ee 2f c8 6e 43 5b 5b dc af 03 8f e1 8c
       81 -104 -42 -18 47 -56 110 67 91 91 -36 -81 3 -113 -31 -116
000060 ff c1 8a 81 6e fb d3 64 5d 38 18 c7 46 bb 1e 1b
       -1 -63 -118 -127 110 -5 -45 100 93 56 24 -57 70 -69 30 27
000070 ec ac 2d 21 b0 fc 5c 02 cf 9d a2 00 3b 9a 0c b5
       -20 -84 45 33 -80 -4 92 2 -49 -99 -94 0 59 -102 12 -75
000080 b8 05 a9 fb 24 f5 21 8b 5a 3d aa 34 2a 63 a7 2a
       -72 5 -87 -5 36 -11 33 -117 90 61 -86 52 42 99 -89 42
000090 ee cb b0 e4 c0 1e 9e f3 a6 d9 03 09 f8 13 95 cb
       -18 -53 -80 -28 -64 30 -98 -13 -90 -39 3 9 -8 19 -107 -53
0000a0 df 81 e8 98 30 2d 99 bf c3 65 fa a6 3b a3 f1 94
       -33 -127 -24 -104 48 45 -103 -65 -61 101 -6 -90 59 -93 -15 -108
0000b0 d0 8f 33 c2 e6 44 64 de b1 9c f8 54 86 cd fa c6
       -48 -113 51 -62 -26 68 100 -34 -79 -100 -8 84 -122 -51 -6 -58
0000c0 85 cb e9 14 15 c5 96 dd fc 46 a6 8f 16 9e 3e e4
       -123 -53 -23 20 21 -59 -106 -35 -4 70 -90 -113 22 -98 62 -28
0000d0 21 fc f9 14 da c0 a5 ca c2 02 07 18 57 53 af cb
       33 -4 -7 20 -38 -64 -91 -54 -62 2 7 24 87 83 -81 -53
0000e0 57 de 2b 65 d0 0e c0 b9 31 21 29 16 82 52 e8 dd
       87 -34 43 101 -48 14 -64 -71 49 33 41 22 -126 82 -24 -35
0000f0 67 23 d1 04 57 65 fa 8e 56 9e 95 fc 2c b7 04 db
       103 35 -47 4 87 101 -6 -114 86 -98 -107 -4 44 -73 4 -37

tfl.pseudo_qconst7 i1 [128, 1, 5, 64]
000000 b8 19 c3 03 02 e1 dd f3 ee b1 c2 c6 cb 00 fd 12
       -72 25 -61 3 2 -31 -35 -13 -18 -79 -62 -58 -53 0 -3 18
000010 e7 a5 13 f2 e4 c9 cf f3 10 22 fb f8 ec 35 ff 03
       -25 -91 19 -14 -28 -55 -49 -13 16 34 -5 -8 -20 53 -1 3
000020 44 03 27 e6 e3 bb e2 b8 eb f0 e4 ef 0d 2c 3c ef
       68 3 39 -26 -29 -69 -30 -72 -21 -16 -28 -17 13 44 60 -17
000030 c6 fb ca f4 1b 2b b7 08 af eb e1 d1 fd 26 f1 f8
       -58 -5 -54 -12 27 43 -73 8 -81 -21 -31 -47 -3 38 -15 -8
000040 b7 2b ea 1e 1f fe f5 e2 eb e7 c0 ea d7 10 d8 15
       -73 43 -22 30 31 -2 -11 -30 -21 -25 -64 -22 -41 16 -40 21
000050 03 e9 39 f8 ff cd d8 ce 30 00 34 dd ee 3f f5 15
       3 -23 57 -8 -1 -51 -40 -50 48 0 52 -35 -18 63 -11 21
000060 32 f3 22 ec e8 9a b5 92 39 2d db e4 39 2f 1c fc
       50 -13 34 -20 -24 -102 -75 -110 57 45 -37 -28 57 47 28 -4
000070 ef e5 ea fd 26 ff bb 51 c7 b5 d2 c6 0b 24 af fc
       -17 -27 -22 -3 38 -1 -69 81 -57 -75 -46 -58 11 36 -81 -4
000080 86 37 d7 f4 0f dd e7 06 11 9c bb e5 f6 23 e6 f7
       -122 55 -41 -12 15 -35 -25 6 17 -100 -69 -27 -10 35 -26 -9
000090 db e8 48 e7 d4 9c f1 ed 34 0c 10 f7 0a 42 11 ed
       -37 -24 72 -25 -44 -100 -15 -19 52 12 16 -9 10 66 17 -19
0000a0 2e d7 e4 f5 d9 d9 b3 97 33 21 a8 07 07 41 39 2c
       46 -41 -28 -11 -39 -39 -77 -105 51 33 -88 7 7 65 57 44
0000b0 c4 0e cd e6 07 22 b2 65 84 ad de c5 e0 24 d1 e2
       -60 14 -51 -26 7 34 -78 101 -124 -83 -34 -59 -32 36 -47 -30
0000c0 87 29 11 32 0a e4 e3 ea e2 eb 02 04 e7 36 a7 25
       -121 41 17 50 10 -28 -29 -22 -30 -21 2 4 -25 54 -89 37
0000d0 0a 0c 30 f6 e8 ae e3 ed 2c f6 18 fc e4 2f 2c 2a
       10 12 48 -10 -24 -82 -29 -19 44 -10 24 -4 -28 47 44 42
0000e0 06 0b 1a fc cb a5 e7 96 6b 2e e3 e6 4c 40 3c 48
       6 11 26 -4 -53 -91 -25 -106 107 46 -29 -26 76 64 60 72
0000f0 a3 f4 e8 d3 10 3b 90 51 b4 b6 31 9f f5 2e cc 13
       -93 -12 -24 -45 16 59 -112 81 -76 -74 49 -97 -11 46 -52 19

tfl.pseudo_qconst9 i1 [64, 1, 7, 32]
000000 00 03 e7 09 0d f0 de ec 12 ce e3 fe ef 05 f5 f7
       0 3 -25 9 13 -16 -34 -20 18 -50 -29 -2 -17 5 -11 -9
000010 eb ec 07 de 16 ea eb 12 0d 00 eb e6 f7 0c 09 e5
       -21 -20 7 -34 22 -22 -21 18 13 0 -21 -26 -9 12 9 -27
000020 06 f0 cb 00 03 fd da 01 f5 bd cd 0f da f1 01 fe
       6 -16 -53 0 3 -3 -38 1 -11 -67 -51 15 -38 -15 1 -2
000030 06 07 f6 c7 04 07 0c 01 02 02 0a 09 f2 08 1b f0
       6 7 -10 -57 4 7 12 1 2 2 10 9 -14 8 27 -16
000040 fc e3 d8 fe 10 ef d9 ee 10 c8 d0 fc 27 04 fa ff
       -4 -29 -40 -2 16 -17 -39 -18 16 -56 -48 -4 39 4 -6 -1
000050 f3 1a ee ca 10 03 0d 03 f7 f5 3d 10 00 fb 01 0a
       -13 26 -18 -54 16 3 13 3 -9 -11 61 16 0 -5 1 10
000060 0d e8 e9 01 07 ff 15 f5 03 dd 05 f4 11 f8 1c 39
       13 -24 -23 1 7 -1 21 -11 3 -35 5 -12 17 -8 28 57
000070 f6 12 2a 06 fe 0e 00 0a 0a f2 33 f9 0e 08 18 fb
       -10 18 42 6 -2 14 0 10 10 -14 51 -7 14 8 24 -5
000080 f0 bc ba 02 09 f3 ca ec 0d b9 b8 f2 07 0b 04 19
       -16 -68 -70 2 9 -13 -54 -20 13 -71 -72 -14 7 11 4 25
000090 03 03 ef bc 01 13 fe 0d 09 08 23 0c 01 06 0f 10
       3 3 -17 -68 1 19 -2 13 9 8 35 12 1 6 15 16
0000a0 0b b4 b6 08 10 ec fc 01 00 c3 f4 0c 14 0c 14 10
       11 -76 -74 8 16 -20 -4 1 0 -61 -12 12 20 12 20 16
0000b0 ec 16 13 05 02 0b ed 00 11 03 2e 0b 20 fc 15 f5
       -20 22 19 5 2 11 -19 0 17 3 46 11 32 -4 21 -11
0000c0 0f a4 a5 f4 0f f3 95 0d ec 81 b1 04 14 0d 00 0a
       15 -92 -91 -12 15 -13 -107 13 -20 -127 -79 4 20 13 0 10
0000d0 ed 04 d1 92 07 10 04 0c 18 ff 12 e8 17 03 fb 03
       -19 4 -47 -110 7 16 4 12 24 -1 18 -24 23 3 -5 3
0000e0 08 35 43 0e f7 0e 29 f6 2b 32 26 df 10 21 4e 0c
       8 53 67 14 -9 14 41 -10 43 50 38 -33 16 33 78 12
0000f0 1d 04 f9 12 01 26 1e 17 0c f4 28 26 46 3b fa f5
       29 4 -7 18 1 38 30 23 12 -12 40 38 70 59 -6 -11

tfl.pseudo_qconst11 i1 [32, 1, 9, 3]
000000 e5 1c 98 19 01 a1 07 1c 02 0f eb c4 de 1a ef d8
       -27 28 -104 25 1 -95 7 28 2 15 -21 -60 -34 26 -17 -40
000010 cb 18 21 22 39 27 c7 61 e4 1a 7f fc 0d 2e 00 e1
       -53 24 33 34 57 39 -57 97 -28 26 127 -4 13 46 0 -31
000020 dc fb f3 bb 01 0c 81 f6 04 1e fb f7 c2 f0 ea 03
       -36 -5 -13 -69 1 12 -127 -10 4 30 -5 -9 -62 -16 -22 3
000030 10 12 ee 00 12 f1 08 ed 37 10 fd 14 f4 f3 c8 06
       16 18 -18 0 18 -15 8 -19 55 16 -3 20 -12 -13 -56 6
000040 fe 81 fe fe 22 ef 15 c1 02 15 11 f5 f6 e4 08 03
       -2 -127 -2 -2 34 -17 21 -63 2 21 17 -11 -10 -28 8 3
000050 f6 fb 10 a2 ff f2 ba d5 c4 21 1e 3d de 2e 33 2a
       -10 -5 16 -94 -1 -14 -70 -43 -60 33 30 61 -34 46 51 42
000060 de 03 1a 04 d2 62 d7 28 7f 19 ea ee 1f 19 a5 ea
       -34 3 26 4 -46 98 -41 40 127 25 -22 -18 31 25 -91 -22
000070 1c a3 14 13 cc d4 e9 d5 0e da 24 33 f2 f5 e9 2c
       28 -93 20 19 -52 -44 -23 -43 14 -38 36 51 -14 -11 -23 44
000080 37 da ea 54 0c 3b 7f 20 9f b8 d0 9b e5 2e 8f c3
       55 -38 -22 84 12 59 127 32 -97 -72 -48 -101 -27 46 -113 -61
000090 2e ab 00 28 e2 05 15 81 f2 0c b1 55 3b cc 3c 4d
       46 -85 0 40 -30 5 21 -127 -14 12 -79 85 59 -52 60 77
0000a0 d8 38 9a df 27 e6 27 31 c0 33 f2 0c e0 a0 19 c9
       -40 56 -102 -33 39 -26 39 49 -64 51 -14 12 -32 -96 25 -55
0000b0 95 04 19 81 a9 3e d6 b3 39 e5 b0 40 be df 36 a2
       -107 4 25 -127 -87 62 -42 -77 57 -27 -80 64 -66 -33 54 -94
0000c0 ff ca d0 fb d0 dd 28 d0 db ea 33 2a cd 43 09 0f
       -1 -54 -48 -5 -48 -35 40 -48 -37 -22 51 42 -51 67 9 15
0000d0 19 fe 0b d5 2d 15 d1 7f e6 9b 23 13 de e9 d6 93
       25 -2 11 -43 45 21 -47 127 -26 -101 35 19 -34 -23 -42 -109
0000e0 11 d3 99 e5 03 a1 0b ed c7 fe 11 86 1c d9 81 0f
       17 -45 -103 -27 3 -95 11 -19 -57 -2 17 -122 28 -39 -127 15
0000f0 d6 a4 00 fc f2 31 0e 05 e0 fe 19 b6 02 fa 81 0c
       -42 -92 0 -4 -14 49 14 5 -32 -2 25 -74 2 -6 -127 12
