ML/models/conv1d_angle_toro_ossaba/seed2_20260117_034451_815/model.tflite (tflite, 96000 bytes, 11 tensors)

arith.constant2 f4 [1, 64]
00000000: 66c7 7c3d c118 56bd 3b1f 5f3e 005b 853d
00000010: 514a f53d 1821 59be dc6a 873e 87aa 913e
00000020: 183d 393e bf08 ecbd 5611 31be d61b c0bd
00000030: ed86 77bd 44f7 9e3c f791 9cbd e0e6 1dbd
00000040: 58f6 a23d ca75 b5be 6168 67be 1432 ffbd
00000050: ee81 c03e 2238 08be 6e66 58bd 4720 35bd
00000060: bb77 3bbe b589 f63d 9f7c f93d 4dcb 7bbe
00000070: 6f6c e8bd 1e82 53be 4259 96bd 27e8 ef3d
00000080: 2e0a c23d b3c8 3ebd 6713 19be 92d6 733d
00000090: d764 d6bd 7d16 2f3e 4f80 e7be 3b4e cfbd
000000a0: 94ee 473e 1a8e 0bbe 6a53 843d ade8 1f3e
000000b0: c713 c73e 0720 46bc 0353 b1bd b423 453e
000000c0: f390 90bd c64a 55bd ffe7 5bbe fd4e 7fbd
000000d0: b2df a6bd bf15 873d bfe4 05be 6256 0abe
000000e0: 19cb a73d 30d2 82be 22f8 65be 275c 003e
000000f0: bcac 8d3d 0229 f5bd 89fe 96be d1ea 213f
0.0617136 -0.0522697 0.21789257 0.065114975 0.11977065 -0.2120403 0.26448715 0.28450415
0.18089712 -0.11525106 -0.1729177 -0.09380309 -0.06043141 0.019405015 -0.07645028 -0.038550258
0.079571426 -0.35441428 -0.22598411 -0.124607235 0.37599128 -0.13302663 -0.05283206 -0.044220235
-0.18307392 0.12037984 0.12181973 -0.24589272 -0.11348807 -0.20655105 -0.07341243 0.117142014
0.09474598 -0.04657812 -0.14948808 0.059530802 -0.104684524 0.17098422 -0.4521508 -0.10122343
0.19524604 -0.13628426 0.064612225 0.15616103 0.38882276 -0.012092597 -0.08658411 0.19251901
-0.07058897 -0.052073263 -0.21475218 -0.06233119 -0.08148135 0.065959446 -0.13075541 -0.13509515
0.08193035 -0.25550985 -0.22457936 0.12535153 0.06917712 -0.11970712 -0.2949107 0.63248926

arith.constant7 f4 [128]
00000000: f49d 913c 314a b7bc c37e 17bd f7bc 20bd
00000010: 24ab 1e3c 778f e4bc 6468 d1bb 5d80 f3bc
00000020: 5626 403d 7035 a7bc 3b18 37bc 1fe9 c0bd
00000030: ca00 89bc b14b 69bc 4b0f 3ebc bc8e 2bbd
00000040: f5c3 36bc 4789 bfbc b7a9 fb3b a825 5dbc
00000050: a940 b6bc 70bd fdbc ac40 a3bc 06db 87bc
00000060: 5212 5dbd 9f8f 3b3d c0ea afbc 32f8 d0bb
00000070: 46c7 d3bc 1891 2e3d 9426 383d 14a0 3abd
00000080: e29c 1f3c d854 b43d 0256 e8ba 5137 043d
00000090: fcce 45bd 79d1 353d fe71 e63d acf5 17bd
000000a0: eefb 6fbc 1c8f 99bc 11a6 15bc 1283 81bc
000000b0: d757 72b9 c2c0 d1bc 158c 12bd 98b8 263d
000000c0: 5be0 e33d 6c95 57bc 533d c93b 6aed d6bc
000000d0: 7deb b2bc bac2 26bc 517f bcbc 0390 dd3b
000000e0: e4e6 3abc 4a72 9a3b 0e2c 4fbc 44e6 b8bc
000000f0: 95ef 9e3d fc27 983c 1a53 22bd f4d4 503d
00000100: 6dfe 4c3d 7a29 c23d 5eeb 09bd 12af 183d
00000110: 50bb 44bc c468 4ebd 4e8e 3b3d ff46 7a3a
00000120: 8c82 21bc e23b a2bc 95d3 7ebc 8260 5d3c
00000130: b203 4e3d 31ff 3dbd 1363 1a3d 64de ec3c
00000140: 6ae0 aebb d9f3 9fbb ec35 d5bc 4274 b53d
00000150: 8846 77ba fb16 69bd da99 5d3c 2396 90bc
00000160: 91fc 0abd c838 fdbc 17cc 86bc 4dfc 8db9
00000170: d670 24bd e3d0 a53d 403f 5cbc f7f7 e3bc
00000180: 3576 5cbc 9c2e 0cbc a277 ca3d 86b5 82bc
00000190: ae6d 953c a715 fb3b efe0 b03b db1b dc3b
000001a0: e075 58bc 790f 323d 0f07 ab3d 547f f3bc
000001b0: d67e c83d 005c d3bc 61f1 53bd db17 37bc
000001c0: 2fd8 f63b 15ca 813c ebae 543d 30b3 313c
000001d0: 2507 c43c 1a97 8c3d 3ce5 32bc 9224 033d
000001e0: cd48 02bd 0f45 023d 3828 e63b 5ce2 643d
000001f0: 1971 fc3c 82fb 32bc f873 ab3d 2de8 20bc
0.017775513 -0.022374244 -0.036986124 -0.03924271 0.009684358 -0.02790044 -0.006390618 -0.029724294
0.04691156 -0.020411223 -0.011175211 -0.09419464 -0.016724009 -0.014239238 -0.011600326 -0.04188417
-0.011155118 -0.023380889 0.0076801437 -0.0134977475 -0.02224763 -0.03097412 -0.019928299 -0.01658393
-0.05397255 0.045791265 -0.021474242 -0.0063772434 -0.025851857 0.04261884 0.044958666 -0.04556282
0.009741994 0.08805245 -0.0017725828 0.032279316 -0.0482931 0.04438922 0.11252211 -0.037099525
-0.014647467 -0.018744998 -0.009133832 -0.01580957 -0.00023111641 -0.02560461 -0.035778124 0.040703386
0.11126777 -0.013158184 0.0061413436 -0.026236255 -0.021840805 -0.010178262 -0.023009928 0.0067615523
-0.011407588 0.0047133313 -0.012644781 -0.022570737 0.077605404 0.018573754 -0.039630033 0.050984338
0.050047327 0.09480567 -0.03367173 0.037276335 -0.012007549 -0.05039288 0.04579001 0.00095473224
-0.009857785 -0.019803945 -0.015553375 0.013511779 0.050296493 -0.046385948 0.03769214 0.028914638
-0.005336811 -0.004881364 -0.026026689 0.08860065 -0.0009432812 -0.05690668 0.013525451 -0.017649716
-0.033932272 -0.030910864 -0.01645474 -0.00027081594 -0.04014667 0.080964826 -0.013442814 -0.0278282
-0.013455917 -0.008556034 0.098860994 -0.015955698 0.018240776 0.0076624933 0.005397908 0.006717188
-0.013211697 0.043471787 0.08350956 -0.0297238 0.09789817 -0.025800705 -0.05174387 -0.011175121
0.0075330953 0.01584343 0.051924627 0.010845944 0.023929188 0.06864758 -0.010918912 0.032017298
-0.03180771 0.03180414 0.0070238374 0.055879936 0.030815648 -0.010924222 0.08371729 -0.00982098

arith.constant8 f4 [64]
00000000: 7bb0 e7bc 4891 4a3c 458e 583d 44f7 1dbe
00000010: f892 443d deac dc3d b922 db3d fb6d bb3d
00000020: f8cd fb3d 3621 f5bc b05b 843d 7548 6e3d
00000030: 5ec0 a6bb bd69 8dbd 76c8 e5bc 49c9 b7bd
00000040: bfb4 cf3d 54ea 653b b742 acbd b643 a3bd
00000050: 9247 e93d c386 d23c 46b4 1cbe da94 23bd
00000060: ceb2 e539 846b 34bd 5556 a4bc 9dbd 123e
00000070: 83fa b63b 6e26 783d d173 463d 183a bcbc
00000080: a342 503d a234 a5bd 7e28 473b bf7f 903d
00000090: f404 19bd a99e 023d ad7b f83c e635 9cbd
000000a0: 8b74 903d b817 ff3c 25da f13c d1f3 d33c
000000b0: 498c 1a3e 8825 0cbe 89b4 943c cd2e ad3d
000000c0: 4131 36ba 257f 22bc 5824 723d 2944 d1bc
000000d0: 5f6b 40bd eee6 3539 7089 8fbd 9508 473d
000000e0: cf50 d93b f02e de3d df11 adbd 92d5 c13c
000000f0: ecc9 c6bc 9273 133d 82f2 083e 9c53 6bbd
-0.028282395 0.012363739 0.052870054 -0.15426356 0.047991723 0.10775159 0.10699982 0.091518365
0.12295145 -0.029923063 0.064628005 0.05817457 -0.00508885 -0.069049336 -0.028049689 -0.08973939
0.101418965 0.0035082297 -0.08411162 -0.07971899 0.11390604 0.025699025 -0.15303144 -0.039936878
0.00043811504 -0.044047847 -0.020060698 0.14330144 0.0055840625 0.060583524 0.048450295 -0.02297692
0.0508448 -0.080666795 0.0030389125 0.07055616 -0.03735824 0.03188959 0.03033241 -0.07627468
0.07053479 0.03113924 0.029522965 0.025873097 0.15092577 -0.13686192 0.018152492 0.08456192
-0.00069500884 -0.009918009 0.05911669 -0.025545197 -0.046977397 0.00017347533 -0.07008636 0.04859217
0.0066319476 0.10848796 -0.08450674 0.023661409 -0.024266206 0.03599889 0.1337376 -0.057452783

arith.constant9 f4 [32, 1, 9, 3]
00000000: 951a bd3d 2473 7d3e 6a5f 33bd c7f8 d2bc
00000010: 8256 563e 34ca a2be 6497 243e 12ff bdbd
00000020: eeb5 7bbe bc45 c9be 0198 49bb 464c 023d
00000030: 13a3 043e b915 a7bd 9480 9cbe 833a c3be
00000040: ade6 27bf 69d7 5c3f 853e f13e c360 173e
00000050: 38de 523f c336 9a3e 1893 14bf f5a7 723f
00000060: 9c4e a73e 9029 67bf c445 b63f b85f a33f
00000070: 161f 4bc0 5961 853f dd56 b93f 2854 36c0
00000080: 63db c13e 1d14 153f 68a4 47c0 b443 e13e
00000090: 9a22 94bf 2dc3 e2be 0a22 cf3f 8bb7 0c3f
000000a0: be6a b3bf ffa1 0dc0 bf42 a63f 9b15 c8bf
000000b0: 2f2c dabf f792 05bd c6e8 dcbf 9818 8bbf
000000c0: 87cb e4be 78b2 113e d267 3d3f 5d94 e43f
000000d0: 97e7 0f3f 8637 4abd 9c08 343e f74f 633e
000000e0: fe39 99be 8208 0dbd c4ab 2cbd c222 55be
000000f0: 56de a5bd 7acc 423e a489 183f 45c0 cc3e
00000100: fc99 d4be bd83 9c3f 79e6 96bd 9daa fbbe
00000110: 8d93 623f d7c6 a03e d47e 55be c46c 7b3f
00000120: 4399 5a3e 5ca5 37be 4af4 a9be d459 43be
00000130: a1df 57bf bfe5 043f 683b 10be e9e9 91be
00000140: 1416 4abe bc7a bbbf 4b39 07c0 fec4 90bf
00000150: 989a 3abf e92c 11c0 05b7 70c0 d21e 60bf
00000160: 140f 0ec0 0303 e5bf 33c2 e93f 32ca d63f
00000170: d2e2 0cc0 c392 a93f 4583 aebd dad4 94bf
00000180: 6ca2 02bf 0b51 85bf 2ca8 82be 8726 1fbf
00000190: 0fd8 87be 6100 2340 63e7 ba3d 04c9 fb3e
000001a0: 5ab7 6a40 1a9f a73f da9e 933f cc19 6940
000001b0: ff07 ce3e a957 9a3b 5268 90bf 21bd 4dbf
000001c0: c274 dd3e 4364 aabe aec2 1f3f 4364 83be
000001d0: 2eab 42be 3183 a4be 9878 a43e 3491 8c3e
000001e0: 4dbd 0abe a740 38bf 7783 b63e 3b6f 24bf
000001f0: 554e b5be 55a8 fb3e 5781 c63e 63a7 6a3e
00000200: 3fd3 ce3f 2f28 273e 9629 393c 3a9d 1640
00000210: cae1 a3bb 9cd5 44be 127e 26be aa51 23bc
00000220: 38f6 a1bd 343c 0ebe 5861 013e 2056 473e
00000230: fc6b 2bbf ae46 acbe 4521 943d a633 aebe
00000240: 62e2 423d 1d55 25be f95b 8cbf 1dc7 063e
00000250: a4a2 86bc 8cf7 8ebe 9f47 833c 0e38 1b3e
00000260: a88b 1ebf 58e2 8ebc 60e3 833e 467f 5c3d
00000270: 89ff 5dbd 52f1 463e 102d 20bf 305a 143e
00000280: e902 a1bd 7542 57be 6aa5 633f f792 d73f
00000290: e8a4 71c0 aa60 7fbf 5081 3cbf ff79 f6bf
000002a0: 4e8b 8fbf 7159 563f fbcf 28c0 0eae dfbf
000002b0: 6e8b 1640 c936 a93e e0f2 27bf f9f7 b7bf
000002c0: 6d53 4cbe 979c a53e 78c3 283e 66e4 9cbf
000002d0: 9cff 5bbe eba2 9fbf 53b0 5340 11c7 10bf
000002e0: f0e3 683f 2fac 6740 9435 c33f 8076 333f
000002f0: 93f8 3d40 0a2c c83c 9820 87bf a8d8 8540
00000300: c06e b73d 7682 4ebe 389f d33f 8cde 6d3f
00000310: b785 603e a92b 0540 8be7 0cbf b15d 533f
00000320: 6663 8fbf cf9d cebf 9360 973f b996 39c0
00000330: 11b0 42bd 636d c8bd 1d41 c5c0 c20b 943f
00000340: 1fa5 44bf 1aa2 1040 5163 c7be 6d53 fe3e
00000350: 9318 14c0 308b 373f c767 3a3e 51d3 76bf
00000360: 4f85 a83f a5e3 82bf 1ba9 3540 d314 fabe
00000370: d020 8abf 96b8 773d 7306 403f e820 763e
00000380: db67 cc3f 58df 89bf d94d af3f ab5c bcbf
00000390: a0a2 8bbf 0305 f4be 30b9 fd3d 91e6 0abe
000003a0: 9460 f7be b657 19c0 666f 573f 6e83 783e
000003b0: 5ac8 babf b784 c43d 288f 523c 5193 f5bf
000003c0: d36a d8bf 5641 463f 6a97 f4be 539b 8f3f
000003d0: 812e 17be b128 523f 9789 043f 5e66 60ba
000003e0: a206 633e 7408 94be e30c 1fbf 5153 883f
000003f0: 699d 983e 189e 25bf 18ab 753f ebe1 333e
0.09233586 0.24750954 -0.043792166 -0.025753392 0.20931438 -0.31794894 0.16073376 -0.092771664
-0.2458112 -0.39311016 -0.0030760767 0.03181102 0.12952833 -0.0815844 -0.30566847 -0.38130578
-0.6558636 0.8626619 0.4711801 0.14783005 0.8237033 0.30119905 -0.5803695 0.9478753
0.32677162 -0.90297794 1.4240041 1.2763586 -3.1737723 1.0420333 1.4479634 -2.8488865
0.3786269 0.58233815 -3.1194096 0.43996966 -1.157306 -0.44289532 1.6182263 0.54967564
-1.401695 -2.2130125 1.2989119 -1.5631593 -1.7044734 -0.03261086 -1.7258537 -1.086688
-0.4468653 0.14228237 0.7398654 1.7857777 0.56212753 -0.049369358 0.17581409 0.22198473
-0.29927057 -0.03443194 -0.042155996 -0.2081404 -0.08099048 0.19023314 0.5958502 0.3999044
-0.4152373 1.2227703 -0.07368178 -0.49153605 0.88506395 0.31401703 -0.20849162 0.9821284
0.21347527 -0.17934173 -0.3319419 -0.19077235 -0.84325606 0.51913065 -0.14085162 -0.28498772
-0.19734985 -1.464683 -2.112872 -1.1310117 -0.7289214 -2.268366 -3.7611706 -0.8754703
-2.2196703 -1.7891544 1.826239 1.6780455 -2.201344 1.3247913 -0.085211314 -1.1627457
-0.51029086 -1.0415357 -0.2551893 -0.62168163 -0.26532027 2.5468981 0.09126165 0.491768
3.667441 1.3095429 1.1532853 3.6421995 0.40240476 0.004710157 -1.1281836 -0.8036671
0.43253142 -0.3327962 0.6240643 -0.2566243 -0.19010612 -0.3213134 0.32123256 0.2745453
-0.13548775 -0.7197365 0.35647175 -0.64232224 -0.35411325 0.49151865 0.38770553 0.22915415
1.6158217 0.16323923 0.011301419 2.3533463 -0.0050012814 -0.1922211 -0.1625903 -0.009968201
-0.079082906 -0.13890153 0.1263479 0.19466448 -0.66961646 -0.33647674 0.07232908 -0.3402378
0.047579177 -0.1614575 -1.0965568 0.13161893 -0.016434975 -0.27923238 0.016025363 0.15158102
-0.6193185 -0.017441913 0.2575941 0.053832315 -0.054198775 0.19427994 -0.6256876 0.14487529
-0.07861883 -0.21021445 0.88924277 1.6841725 -3.77569 -0.9975687 -0.73634815 -1.925598
-1.1214387 0.83730227 -2.6376941 -1.7474992 2.35226 0.3304961 -0.6560497 -1.437255
-0.199537 0.3234603 0.16480815 -1.2257202 -0.21484226 -1.2471594 3.307637 -0.5655375
0.90972805 3.6198843 1.5250726 0.7010269 2.9682968 0.024435062 -1.0556822 4.1826973
0.08956671 -0.20166954 1.6532965 0.92917705 0.21926008 2.0807898 -0.55040807 0.82564837
-1.1202209 -1.6141909 1.1826347 -2.8998244 -0.04753119 -0.09786489 -6.1641984 1.1566088
-0.76814455 2.259894 -0.3894296 0.49673024 -2.314 0.7169676 0.1820365 -0.96416193
1.3165683 -1.0225722 2.8384464 -0.48844013 -1.0791264 0.06047877 0.7500984 0.2403599
1.5969194 -1.0771284 1.3695632 -1.471578 -1.0909004 -0.47660074 0.12388837 -0.13564517
-0.4831587 -2.3959785 0.84154356 0.24268886 -1.4592392 0.09595626 0.012851514 -1.9185582
-1.69076 0.77443445 -0.4777177 1.1219276 -0.14763834 0.8209334 0.51772445 -0.0008560176
0.22170499 -0.289127 -0.6212904 1.0650426 0.29807594 -0.64694357 0.95964193 0.1756665

arith.constant10 f4 [128]
00000000: 4657 0abf c67c 423f ad54 4c3f 3572 f53e
00000010: b413 f13f f989 373f 04dd 1c3f ebf7 edbe
00000020: 99ff 433f 3312 193f 5b29 603f 5661 813f
00000030: 47b6 083f e5cc 12bf f097 2e3f d3d2 8e3f
00000040: d5e0 bd3f eabc 953f f3ab 9e3b 543b c93e
00000050: 9970 4c3f c323 6b3e 58b4 3740 f814 f23e
00000060: 0d4c b83e 7e9e af3e 633a 293f 5d12 233a
00000070: d5f4 333f e226 85bd 26b5 cd3e e28b 3d3f
00000080: a35c 063f de8d d03f 2a43 9a3e 27cc 1dbf
00000090: 8fd0 69bf b383 1d40 87a7 5b3f fd78 5a3f
000000a0: 3639 7e3f c5f4 a7be ce22 6c3f 5193 fb3e
000000b0: 5930 f73f 99eb 933f 330c 593e d0eb 9a3f
000000c0: cdf9 c2be 2ced 80bf 7c19 ecbe 17b5 2bbf
000000d0: 4a37 123f eb0c 2b40 74db 43bf b76e d33e
000000e0: 3b2e dc3f 925f 2840 0728 15bf c461 093f
000000f0: 645f a03e 02e4 763f d392 613e a70d 0f40
00000100: fdca 2f3f 7baa f03e 21cc 4e3f b306 303f
00000110: a296 193d 09ae a73f 2639 dd3e 2d65 eebe
00000120: 834f bc3e 5f5d f73f ac2d e1be c980 223f
00000130: 5e47 f2be 043f 413e 2c33 2f40 5c52 383e
00000140: 558c 6c3f 385d 09bf d481 183e e564 c63e
00000150: 06d9 d33f 4f16 463f 90e2 ca3e 2d43 d5be
00000160: 9516 07bf 7a75 ca3d a6b3 d53f c388 f93e
00000170: 7719 083f 87fd a93f 10e2 bf3f 2ad3 bd3f
00000180: a0f8 133f 1b39 2740 a740 223e 1049 c13e
00000190: 455c 15bf eb3c 2940 d050 35bf 9719 01be
000001a0: bd58 b03e 2b6d 913e 1a36 ee3f 8842 813f
000001b0: ba89 ea3e 66c8 293f 6978 1940 30f3 22bd
000001c0: 3f41 da3d 9637 debe e5f9 1b40 978c 3940
000001d0: 92f5 e03e 600a 543d 489a 353e fcb0 1840
000001e0: e22d b33e 2357 b93f ec04 e53e ddfc 67bf
000001f0: da4d 573d ac7c 4f3f 5e35 273e 458f a43f
-0.5403942 0.7597164 0.79816705 0.47938696 1.8834138 0.71694905 0.61274743 -0.4647821
0.76561886 0.59793395 0.87563103 1.010783 0.53403133 -0.57343894 0.6820059 1.1158088
1.4834238 1.1698277 0.0048422753 0.39303076 0.7985931 0.22962861 2.8703823 0.47281623
0.35995522 0.34300607 0.66104716 0.0006220693 0.7029546 -0.06501557 0.40177268 0.7404157
0.524851 1.6293294 0.30129367 -0.61639637 -0.9133386 2.4611633 0.858025 0.85340863
0.99306047 -0.32803932 0.9224061 0.4913583 1.931163 1.1556274 0.2119606 1.2103214
-0.38081208 -1.0072379 -0.46113193 -0.67073196 0.57115614 2.6726635 -0.76506734 0.41295406
1.7201608 2.6308331 -0.582642 0.53664804 0.31322777 0.9644166 0.22028665 2.2352083
0.6866911 0.47005066 0.80780226 0.6876022 0.03749717 1.3099986 0.43207663 -0.46561566
0.36779413 1.932537 -0.43980157 0.6347776 -0.47320074 0.18871695 2.7374983 0.18000168
0.9240163 -0.53657866 0.14893275 0.3874885 1.6550605 0.7737779 0.39625978 -0.41652814
-0.5276883 0.09885688 1.6695449 0.48737153 0.53163856 1.3280495 1.4990864 1.4830067
0.57801247 2.6128604 0.15844975 0.37751055 -0.5834392 2.6443431 -0.70826435 -0.12607418
0.34442702 0.284036 1.861026 1.0098429 0.45808202 0.6632141 2.3979743 -0.039782703
0.10656976 -0.43401784 2.4371274 2.899206 0.43937355 0.051767707 0.17734635 2.3858023
0.34995943 1.4479717 0.44730318 -0.90620214 0.05256448 0.8104961 0.16328952 1.2856222

arith.constant11 f4 [64]
00000000: 56c2 25bd e82b 003f 4dae d9bf 0881 8f3e
00000010: 0470 0abd 8205 ccbf a00e 603f e3cd ccbd
00000020: b740 a73d bd0b f63e b0c7 003f 1ed2 c03e
00000030: 4d20 f5bd 83be 0dbe 84e5 00bd be76 cfbf
00000040: 6ec3 50bd 8c8e 82be 4a8e fdbe 5ea8 183f
00000050: c06c d33e c395 0b3f eafc aa3e 844c be3e
00000060: d115 5dbe f564 073f 79f8 623e 0069 3ebe
00000070: b4ee 603e 128f bdbf fd01 a03c b61f 8e3e
00000080: f1f5 c7be a4d0 c03e 8b1a 03c0 2b96 08bf
00000090: e0ea 1e3e c9b5 9b3e a4b3 a33e eec9 f43e
000000a0: e772 543e 3c36 b43e dac0 70be 5ef1 583e
000000b0: fa5e f13e 5470 5c3e 1c24 963e fbb5 c93d
000000c0: 31ee 223e ad0d 94bf 44e8 963e 305c ef3e
000000d0: 9703 a63d 8e93 f53d a572 0d3f d4d6 2a3e
000000e0: 2573 80bf de99 853e cc49 9c3d e309 193f
000000f0: 0530 1c3e 0ab0 1dbe f4fb 1a3e dad6 c4bf
-0.040468536 0.50066996 -1.7006317 0.2802813 -0.033798233 -1.5939181 0.87522316 -0.10000207
0.0816664 0.4805583 0.503047 0.37660307 -0.119690515 -0.13842206 -0.031468883 -1.6208112
-0.050967626 -0.2549938 -0.4952262 0.5963191 0.41293907 0.54525393 0.33396083 0.37167752
-0.21590354 0.52888423 0.22165097 -0.18594742 0.21966058 -1.4809287 0.019532198 0.2775857
-0.39054826 0.3765918 -2.048495 -0.5335414 0.15519285 0.3041213 0.31972992 0.4781031
0.20746957 0.35197628 -0.23511067 0.21185824 0.47142774 0.21527225 0.29324424 0.09849163
0.15911175 -1.1566674 0.2947408 0.4675002 0.081061535 0.119910344 0.5525306 0.16683513
-1.0035139 0.26093954 0.07631263 0.5978071 0.15252693 -0.15399185 0.15135175 -1.5378067

arith.constant12 f4 [32]
00000000: d669 bfbf 3fe0 ca3e 8cbd cfbf 4b63 8b3e
00000010: 974d ebbf 0b3a bc3f 07cb 1a3d 647c 8d3f
00000020: f625 b53f 9d8e d0bf ec33 edbf 35a8 8d3f
00000030: c9a4 fdbf dbc5 c3bf d630 673f 3146 29bf
00000040: df04 05bf 282e a3bf 415c e73e 34f3 bf3f
00000050: 3d1d 003e 04ea f5bf bf31 90bf 757a dd3f
00000060: 57a7 bdbf 5630 a5bf b7d7 3ebf 7978 213f
00000070: 6120 b73e 6411 293f 2007 823f 0497 a0bf
-1.4954174 0.3962421 -1.622972 0.27224192 -1.8383054 1.4705213 0.03779128 1.1053586
1.415221 -1.6293522 -1.853147 1.1066958 -1.9815913 -1.5294756 0.9030889 -0.6612273
-0.5196056 -1.2748461 0.45187572 1.4996095 0.12511154 -1.9212041 -1.1265181 1.7302996
-1.4816693 -1.2905376 -0.74547905 0.6307445 0.3576689 0.6604216 1.0158424 -1.2546086

tfl.pseudo_qconst i1 [128, 1, 5, 64]
00000000: 0d05 1994 30e6 10f6 15d4 dbb5 322c fc13
00000010: 1707 f7d6 cc14 ed34 f001 280f 2a29 e732
00000020: 2cf0 2900 2f0d 21be 1cc3 2f00 001e bdfe
00000030: e738 b4cf 2414 c72a fdfe 0da8 2110 1d16
00000040: f52b 3dae 271b 7f17 f8e9 e2ea 4102 0e24
00000050: 18f1 3109 b92b fe03 23ee 2a07 f31f 1427
00000060: f819 1e10 fb0d 0b0b 0bdf 1030 0c03 db05
00000070: fb26 0103 f842 ff15 1308 2708 2f07 2d10
00000080: 0d10 22c8 2c2a 1129 09db dde3 0602 1012
00000090: 2432 1cee ea30 0209 050d 2419 0f3b 2114
000000a0: 0e1e 2420 1b04 06e7 05e8 f7f9 f728 e91f
000000b0: 1f19 e207 2a3b deef 1905 2cfe fe04 093c
000000c0: 051f 45d0 224b 180d 16c4 aef6 181b 0038
000000d0: 0335 27f3 d249 022b 3512 2637 330e 0314
000000e0: 140e 4211 4cf6 faf7 1ad5 4002 0122 0545
000000f0: 1021 b4e9 0241 ff3f 1204 feeb 232a 1652
13 5 25 -108 48 -26 16 -10
21 -44 -37 -75 50 44 -4 19
23 7 -9 -42 -52 20 -19 52
-16 1 40 15 42 41 -25 50
44 -16 41 0 47 13 33 -66
28 -61 47 0 0 30 -67 -2
-25 56 -76 -49 36 20 -57 42
-3 -2 13 -88 33 16 29 22
-11 43 61 -82 39 27 127 23
-8 -23 -30 -22 65 2 14 36
24 -15 49 9 -71 43 -2 3
35 -18 42 7 -13 31 20 39
-8 25 30 16 -5 13 11 11
11 -33 16 48 12 3 -37 5
-5 38 1 3 -8 66 -1 21
19 8 39 8 47 7 45 16
13 16 34 -56 44 42 17 41
9 -37 -35 -29 6 2 16 18
36 50 28 -18 -22 48 2 9
5 13 36 25 15 59 33 20
14 30 36 32 27 4 6 -25
5 -24 -9 -7 -9 40 -23 31
31 25 -30 7 42 59 -34 -17
25 5 44 -2 -2 4 9 60
5 31 69 -48 34 75 24 13
22 -60 -82 -10 24 27 0 56
3 53 39 -13 -46 73 2 43
53 18 38 55 51 14 3 20
20 14 66 17 76 -10 -6 -9
26 -43 64 2 1 34 5 69
16 33 -76 -23 2 65 -1 63
18 4 -2 -21 35 42 22 82

tfl.pseudo_qconst1 i1 [64, 1, 7, 32]
00000000: b6b3 e61b d9fb 2dc9 21ec 0f25 d9f3 d1f3
00000010: b7fd 09f0 280f ea13 fc11 fb1f f5c5 fac5
00000020: d5aa ddea d5e8 120a 1fd9 fd0c d200 14fc
00000030: e7fa 7f05 0302 0909 da20 ea2b 070f 28b0
00000040: dcdf dbef ef03 1e0a 0edf 0709 c5ef 13ea
00000050: c2e4 2323 0311 fb0b 1c1f 0216 0a01 32c3
00000060: f2df e0fd 1720 3304 30ba 050a 30ec f602
00000070: f2e1 30f8 12eb 0326 3410 fa3d 13f6 1a06
00000080: 00af 0105 1903 38eb e318 3918 210b f7fc
00000090: c218 f6f1 0f3c f81b 2f1c fae9 ced3 23e8
000000a0: f0db 0cdd fc09 2ff4 f4f4 3515 1a2f ddee
000000b0: ca0f 1bed 0c40 e8df fb42 01eb d9d6 14dc
000000c0: ebd0 e3f2 1ad9 20d0 13ed 1ce8 1627 f0c9
000000d0: b11c 01cc ef27 f9cd 1724 ee09 d4d6 efd3
000000e0: 1512 01f2 f51b df1d 26ec 1218 131a f8d4
000000f0: ec05 c531 e618 f621 fbf4 eb16 e4c0 e5d7
-74 -77 -26 27 -39 -5 45 -55
33 -20 15 37 -39 -13 -47 -13
-73 -3 9 -16 40 15 -22 19
-4 17 -5 31 -11 -59 -6 -59
-43 -86 -35 -22 -43 -24 18 10
31 -39 -3 12 -46 0 20 -4
-25 -6 127 5 3 2 9 9
-38 32 -22 43 7 15 40 -80
-36 -33 -37 -17 -17 3 30 10
14 -33 7 9 -59 -17 19 -22
-62 -28 35 35 3 17 -5 11
28 31 2 22 10 1 50 -61
-14 -33 -32 -3 23 32 51 4
48 -70 5 10 48 -20 -10 2
-14 -31 48 -8 18 -21 3 38
52 16 -6 61 19 -10 26 6
0 -81 1 5 25 3 56 -21
-29 24 57 24 33 11 -9 -4
-62 24 -10 -15 15 60 -8 27
47 28 -6 -23 -50 -45 35 -24
-16 -37 12 -35 -4 9 47 -12
-12 -12 53 21 26 47 -35 -18
-54 15 27 -19 12 64 -24 -33
-5 66 1 -21 -39 -42 20 -36
-21 -48 -29 -14 26 -39 32 -48
19 -19 28 -24 22 39 -16 -55
-79 28 1 -52 -17 39 -7 -51
23 36 -18 9 -44 -42 -17 -45
21 18 1 -14 -11 27 -33 29
38 -20 18 24 19 26 -8 -44
-20 5 -59 49 -26 24 -10 33
-5 -12 -21 22 -28 -64 -27 -41

tfl.pseudo_qconst2 i1 [64, 128]
00000000: be1c 1114 f5cb dc43 1547 0a82 cfbe b039
00000010: d1e6 134a 3fe0 c743 2d22 5499 6520 eac8
00000020: fae9 dd39 8144 1329 ccdb be07 3edb 2ef0
00000030: 03d3 51ec 1db4 d52f c5a2 100a 33d2 f458
00000040: 4f34 2d2b 244e cdcb 241b c4be c137 fee8
00000050: 5ae7 1833 e8de 2315 ffd1 3549 1bcf dbaf
00000060: 26ea 2944 04cb 291b ad23 241d 27b6 e71a
00000070: 282d b901 c9d6 18e9 b9aa 2c3b d79a 10b5
00000080: ec1b d5e7 67e6 e005 fce0 fe10 101b 0e06
00000090: d12d d9e6 f223 dce7 d2c9 dbcd d6f2 dece
000000a0: 00e7 d30c 2bc0 0a04 f6db d4d7 01de 0cbf
000000b0: ee1e 17ff f425 d5c9 eddb cfe0 f3df d21d
000000c0: 18e6 27c4 e50e eadd cddb f90f ec07 f009
000000d0: f921 e581 cfda ea07 e9f6 d324 f0ea ed0f
000000e0: ecd8 26f3 07f3 e60e dcf5 0df3 0f29 09d5
000000f0: 10e0 1812 1fe0 ddca e83b f119 2fdd 3be8
-66 28 17 20 -11 -53 -36 67
21 71 10 -126 -49 -66 -80 57
-47 -26 19 74 63 -32 -57 67
45 34 84 -103 101 32 -22 -56
-6 -23 -35 57 -127 68 19 41
-52 -37 -66 7 62 -37 46 -16
3 -45 81 -20 29 -76 -43 47
-59 -94 16 10 51 -46 -12 88
79 52 45 43 36 78 -51 -53
36 27 -60 -66 -63 55 -2 -24
90 -25 24 51 -24 -34 35 21
-1 -47 53 73 27 -49 -37 -81
38 -22 41 68 4 -53 41 27
-83 35 36 29 39 -74 -25 26
40 45 -71 1 -55 -42 24 -23
-71 -86 44 59 -41 -102 16 -75
-20 27 -43 -25 103 -26 -32 5
-4 -32 -2 16 16 27 14 6
-47 45 -39 -26 -14 35 -36 -25
-46 -55 -37 -51 -42 -14 -34 -50
0 -25 -45 12 43 -64 10 4
-10 -37 -44 -41 1 -34 12 -65
-18 30 23 -1 -12 37 -43 -55
-19 -37 -49 -32 -13 -33 -46 29
24 -26 39 -60 -27 14 -22 -35
-51 -37 -7 15 -20 7 -16 9
-7 33 -27 -127 -49 -38 -22 7
-23 -10 -45 36 -16 -22 -19 15
-20 -40 38 -13 7 -13 -26 14
-36 -11 13 -13 15 41 9 -43
16 -32 24 18 31 -32 -35 -54
-24 59 -15 25 47 -35 59 -24

tfl.pseudo_qconst3 i1 [128, 128]
00000000: 0e1f 06e1 2206 15dc edb1 c8c7 97eb 08e7
00000010: 0d25 dfe3 2508 17df 1ca8 1fff f015 adfe
00000020: f624 ece8 e8fc 22dd e319 dd08 d709 e1dd
00000030: f518 2a2a fe1f caf0 f806 02f7 0cf2 f1d8
00000040: f8e7 faf5 05d1 b9e7 f0e8 1881 2af5 11f1
00000050: f711 f008 1b02 f2d3 0a12 e8dc 0ad3 1cd8
00000060: 10eb f5e4 e910 d91e 9f1c 07f3 0008 04af
00000070: c810 e81b 21e6 f7de f722 07e3 fc0d 0601
00000080: e51e 2cc2 de6a c425 eccd fc13 cf34 a6bf
00000090: 4905 a886 959c 459f dd37 1455 95a8 cf5d
000000a0: e08c 5b91 f60c 7656 95ca bfd0 33b6 5aa3
000000b0: 9b38 30fd 88d9 6cb1 df17 afde 025b 69b2
000000c0: a6b1 840e f416 b118 2f28 96b9 b2c2 9e1a
000000d0: 0b20 69a4 3a8b 4e40 a8be adde f09e 6b39
000000e0: 8787 726e fa77 d4c8 578b fd1e 1769 92cc
000000f0: 8e83 3fd5 cbf3 c3c6 1181 659c 3a68 d78c
14 31 6 -31 34 6 21 -36
-19 -79 -56 -57 -105 -21 8 -25
13 37 -33 -29 37 8 23 -33
28 -88 31 -1 -16 21 -83 -2
-10 36 -20 -24 -24 -4 34 -35
-29 25 -35 8 -41 9 -31 -35
-11 24 42 42 -2 31 -54 -16
-8 6 2 -9 12 -14 -15 -40
-8 -25 -6 -11 5 -47 -71 -25
-16 -24 24 -127 42 -11 17 -15
-9 17 -16 8 27 2 -14 -45
10 18 -24 -36 10 -45 28 -40
16 -21 -11 -28 -23 16 -39 30
-97 28 7 -13 0 8 4 -81
-56 16 -24 27 33 -26 -9 -34
-9 34 7 -29 -4 13 6 1
-27 30 44 -62 -34 106 -60 37
-20 -51 -4 19 -49 52 -90 -65
73 5 -88 -122 -107 -100 69 -97
-35 55 20 85 -107 -88 -49 93
-32 -116 91 -111 -10 12 118 86
-107 -54 -65 -48 51 -74 90 -93
-101 56 48 -3 -120 -39 108 -79
-33 23 -81 -34 2 91 105 -78
-90 -79 -124 14 -12 22 -79 24
47 40 -106 -71 -78 -62 -98 26
11 32 105 -92 58 -117 78 64
-88 -66 -83 -34 -16 -98 107 57
-121 -121 114 110 -6 119 -44 -56
87 -117 -3 30 23 105 -110 -52
-114 -125 63 -43 -53 -13 -61 -58
17 -127 101 -100 58 104 -41 -116
