ML/models/conv1d_angle_toro_ossaba/seed5_20260117_045953_634/model.tflite (tflite, 96000 bytes, 11 tensors)

arith.constant2 f4 [1, 64]
000000 ae 5d 9c be 46 f0 5c bd 8d b9 80 ba 51 03 c9 3d
       -0.30540222 -0.05394008 -0.0009820923 0.09815086
000010 bf 0b af 3d 65 bb 88 3d 17 81 9d bd 68 e4 9b 3c
       0.08547162 0.06676368 -0.076906376 0.019029811
000020 ba 53 8f 3d b2 15 e1 bd 0b ed 08 bf d7 77 3e 3e
       0.069983914 -0.10990466 -0.534867 0.18600403
000030 5b 63 ef bd c8 bc 39 be c6 f3 97 3e f2 62 0e 3e
       -0.116888724 -0.1813842 0.29678172 0.13904932
000040 c1 f4 ea 3d 5b d0 b3 3c ea 1c 91 be b0 f4 4f bd
       0.11472464 0.021949938 -0.28342372 -0.05077046
000050 e5 73 f2 3d 23 14 fc 3d 0a 37 39 3e 9f f5 2f 3e
       0.118385114 0.12308528 0.18087402 0.17183541
000060 21 93 89 be 00 49 f3 be 7d d4 ff bc 35 17 fd 3d
       -0.26870063 -0.47516632 -0.031229252 0.12357942
000070 b9 78 02 be 43 0c d2 bd d8 cd ad bd d3 7b 24 be
       -0.12741365 -0.10256245 -0.08486527 -0.1606286
000080 29 81 8f 3c c1 8c 5b be 61 e2 17 be 16 11 08 be
       0.017517643 -0.21440412 -0.1483245 -0.13287768
000090 7c 57 f1 bd cd b9 62 be e7 40 27 be 9d 66 89 bd
       -0.117842644 -0.2214119 -0.16333352 -0.06709025
0000a0 c9 bb 0c bd a1 08 16 3d c5 81 c9 3d 01 15 56 bd
       -0.034358773 0.036629323 0.09839205 -0.052266125
0000b0 9e a9 40 be 39 00 83 be e2 7e 9d be 27 b1 78 3d
       -0.18814704 -0.25586107 -0.30760866 0.06071582
0000c0 66 1b 72 3d 0b ba 8f 3e f2 df 3c 3e d3 da 24 3e
       0.05910816 0.28071627 0.18444803 0.160991
0000d0 2e 6d c9 3d da 42 01 be fd 6d 4f 3d 93 4d b7 bd
       0.098352775 -0.12623158 0.050642002 -0.08950343
0000e0 ce 47 93 bd e4 8d 5d be 4c d7 9e 3d 67 68 69 be
       -0.0719143 -0.21636158 0.07755908 -0.22793733
0000f0 fe 65 68 3e a7 f7 03 3e b7 9d 42 3e 38 2a 6e 3e
       0.22695157 0.1288744 0.19005476 0.23258293

arith.constant7 f4 [128]
000000 6d 8b 96 bc 4a dc d6 bb 58 c0 cb bc 08 f1 0b 3d
       -0.01837703 -0.006557022 -0.02487199 0.034165412
000010 c9 9c 89 3b 9f 5d 84 3d 53 0b d8 bc f9 a2 af 3b
       0.0041995985 0.06463169 -0.026372587 0.005360004
000020 dc 70 38 3d 2b 7c c4 bc cb c1 38 3c 4f bb 40 bd
       0.045029506 -0.02398499 0.011276673 -0.04705363
000030 68 4c 48 3c 60 56 91 3d 0a e7 a9 3d eb 6f b5 3d
       0.012225248 0.07096553 0.0829602 0.08859237
000040 55 3a 95 3b aa a1 a2 bc 21 26 24 3d 0f 6f 83 bc
       0.004554073 -0.019852478 0.040075425 -0.016044168
000050 ba e0 b8 3c 99 10 bd 3d 29 fb cd bc 88 9d 34 3d
       0.022568095 0.092316814 -0.025144177 0.044095546
000060 84 6a 0b 3c b3 9f 55 bd ff 93 33 bd 65 6e 6e 3d
       0.008509282 -0.052154254 -0.043842312 0.05821075
000070 59 d7 c1 3c 0f df 86 3c d2 76 66 bd 35 25 1f 3d
       0.023662256 0.016463785 -0.05626566 0.038853843
000080 6a b9 05 3d 46 0d 47 3d f4 22 aa 3d 59 e5 bd 3c
       0.032647528 0.048596643 0.08307448 0.02318065
000090 ef 52 bb bc 31 ee b6 bc 7a 0f 5d bd 27 a5 4e 3d
       -0.022866694 -0.022330375 -0.053969838 0.05045047
0000a0 0e c1 ba 3c b6 a7 d9 bb 82 dc 70 ba 9e ec 5d bc
       0.022797134 -0.006642307 -0.00091881317 -0.013545183
0000b0 06 a3 31 bb 40 30 65 3d 7d 5a 28 bd a1 81 da bb
       -0.0027105226 0.055954218 -0.04110192 -0.006668285
0000c0 fb cf e1 3c 51 25 94 bc 35 f8 6b bc 80 14 f8 3c
       0.027564993 -0.0180842 -0.014402439 0.030283213
0000d0 5d 9a 94 3b f6 06 b4 bc 7a 6d 47 bd 42 55 12 bc
       0.004535003 -0.021975975 -0.04868839 -0.00893146
0000e0 fb 60 63 bb ac d7 2f 3d 0c e7 ae 3c 17 4c a0 bc
       -0.0034695256 0.04293029 0.021350406 -0.019567532
0000f0 de a2 f8 3b e7 ab 59 bc 8f 4b b4 3c 11 8d 13 3d
       0.0075877747 -0.013285614 0.022008685 0.036023203
000100 33 e9 25 3d 4a a8 63 3d 29 31 83 3d b1 23 14 3d
       0.0405056 0.055580415 0.06405861 0.03616685
000110 bb 4b ef 3c db de 03 3d 0a c0 83 3c f0 a5 a6 bc
       0.029210916 0.032194953 0.016082782 -0.020342797
000120 54 74 02 bc 64 c9 f9 3c 11 50 40 3d 7d 73 ba bc
       -0.007962305 0.030491538 0.046951357 -0.022760147
000130 77 27 d4 bc f6 06 f1 3c 00 00 00 00 bf d2 0b 3c
       -0.025897725 0.029422265 0.0 0.0085341325
000140 ea 20 cb bc d6 f8 7c 3d d5 6f a9 bc 16 38 f4 3c
       -0.024795968 0.061760746 -0.020683208 0.0298119
000150 63 52 42 3d 67 4a be bc 27 2e 94 bc 4a c6 ff 3c
       0.04744185 -0.023228837 -0.018088413 0.031222481
000160 90 be 29 3b 54 60 19 3d 45 cf 20 bc 17 70 ff 3c
       0.0025900938 0.03744538 -0.009815042 0.031181378
000170 34 0e ae bc 51 8a 8a 3c 9d f7 4d bc 86 9b d5 3d
       -0.021247007 0.016911658 -0.012571243 0.10430054
000180 b5 4d 49 bc 16 e5 60 3d a2 38 0e bd 0e 92 90 bd
       -0.012286593 0.054905973 -0.034721978 -0.07059108
000190 67 7e 85 3d 00 00 00 00 00 2e ab 3d 0b 8d 4d 3c
       0.0651825 0.0 0.08358383 0.012545834
0001a0 09 ae 80 3d 18 9e 1a 3d 76 d6 20 bd 93 7d a8 bc
       0.062831946 0.037748426 -0.039267026 -0.020567691
0001b0 a1 b1 cc bc 85 d2 61 bc 46 6b 8e bc 77 4b 01 bd
       -0.024987044 -0.013783102 -0.017385136 -0.03156611
0001c0 e4 9e d5 bb 88 3b 8d bc 08 93 86 bc d0 58 e2 bc
       -0.0065191854 -0.0172403 -0.016427532 -0.02763024
0001d0 b3 cd c9 bc 45 4d 1a 3d f0 2c e3 b9 ae 19 ca 3b
       -0.024634218 0.037671346 -0.00043330295 0.006167612
0001e0 40 8e a8 bc fc 19 83 bc ae 9e 34 3d 46 17 bc 3c
       -0.020575643 -0.016003601 0.04409664 0.022960316
0001f0 d8 3d 39 3d 8f ad 0b 3d 39 27 1c 3d 0a 64 a3 3b
       0.045224994 0.034101065 0.038123343 0.004986291

arith.constant8 f4 [64]
000000 d4 f2 e4 3d df da a6 bc 14 f7 47 bd a7 02 6f bd
       0.11179128 -0.020368038 -0.048819616 -0.05835214
000010 1f 2f a5 bd d5 68 a0 3c 80 76 40 bc f4 f0 7c bd
       -0.08065628 0.019581238 -0.011747003 -0.06175323
000020 51 83 a9 3d cf 38 ab 3d 8d fb 51 3d ff 13 2b 3e
       0.08277 0.08360445 0.05126529 0.16706847
000030 da f0 e2 b9 8f 22 9f 3d 83 06 84 bd 2c 67 80 bd
       -0.00043285527 0.077702634 -0.064465545 -0.062696785
000040 8d 07 e0 3c 3c 8e c3 bd 40 d9 9f 3d 10 fc 5d bd
       0.02734735 -0.095486134 0.07805109 -0.054195464
000050 84 e0 1c bd fc 9f 4c bd c9 89 a8 3d aa 96 99 3d
       -0.038300052 -0.04995726 0.082294054 0.0749944
000060 07 ec e5 3d 35 ba 20 3e 7d 41 ff bd 33 1e c4 3d
       0.11226659 0.15696032 -0.12463663 0.095760725
000070 56 60 85 3d 86 f1 32 3d 56 51 a1 bc 9c 0d 73 3c
       0.06512515 0.043687366 -0.019692104 0.014834788
000080 f9 da 85 bd 9a 24 b0 bd 88 2f d2 3d 83 18 92 3d
       -0.06535906 -0.08600731 0.10262972 0.071335815
000090 c6 07 37 bc 7d f8 b7 3d 63 85 c6 3c cd e5 d6 3d
       -0.011171287 0.08982942 0.024233526 0.1049305
0000a0 24 f7 d0 bd 80 2b 21 bd 6a 31 5c bd 5e 49 b2 bd
       -0.10203388 -0.039348125 -0.053758062 -0.087054
0000b0 e0 ce 85 3d b1 f4 d7 3d c6 f9 35 3d 0d f4 8b bd
       0.06533599 0.10544718 0.044427656 -0.06833658
0000c0 8b 18 08 3d f1 9e 92 3d 00 08 21 bd 9d c6 57 3c
       0.03322653 0.07159222 -0.03931427 0.013169912
0000d0 86 3d 87 3d 0b 36 91 bd c2 8e 43 bd 5a 63 e4 3d
       0.066035315 -0.07090386 -0.047743566 0.11151762
0000e0 b5 1c 5b 3d db 47 2a 3e 70 35 0b be a6 f6 ac 3d
       0.053494174 0.16628973 -0.13594604 0.08445482
0000f0 d3 eb a3 3d a6 f7 e2 3d 8e fc e0 3d 98 72 c4 3d
       0.08003964 0.110823914 0.10985671 0.095921695

arith.constant9 f4 [32, 1, 9, 3]
000000 b2 16 89 3f 49 73 af bf 2d 56 13 bf 19 82 22 3f
       1.0710051 -1.3707057 -0.5755337 0.63479763
000010 de 1c 6d bf 80 89 f0 bb a7 01 86 3f 63 26 14 c0
       -0.9262217 -0.00734061 1.0469254 -2.314843
000020 17 c6 cd 3f fb b6 89 3f 96 87 a4 bf 0d cc 83 3f
       1.6076077 1.0758966 -1.2853878 1.0296646
000030 fc 14 75 3f 7e b9 f4 bf e1 26 04 3f 0c e7 5d 3e
       0.95735145 -1.9119108 0.51621825 0.21670169
000040 a9 38 b5 bf f4 9a 21 bf ae 56 51 3f d9 6b 3a c0
       -1.4157916 -0.63127065 0.8177289 -2.9128325
000050 fc 5d 85 bf 63 a4 30 3f a3 e9 bb bf 66 c7 f4 bf
       -1.0419307 0.69000834 -1.4680675 -1.9123352
000060 17 b4 77 be 5a df c8 bf 83 95 99 be 5c c7 a5 3e
       -0.24189793 -1.5693161 -0.2999688 0.32378662
000070 8a 86 a2 be d5 f6 3c 3f 30 0e c8 be 6a 9f 37 3e
       -0.3174327 0.73814136 -0.39073324 0.17931905
000080 9a 4e 85 bd 8a cf d5 3b e3 ae a0 3e c7 d5 d6 be
       -0.06509133 0.0065249847 0.31383428 -0.41959974
000090 f6 38 0e be 47 34 ca 3e 65 3e 9e bf 8d ee 90 be
       -0.13888916 0.3949301 -1.2362791 -0.28307
0000a0 ed cf b6 3e ed fc 09 bf f9 a5 96 be fc 7c d8 bd
       0.3570551 -0.5390156 -0.29423502 -0.10570714
0000b0 d9 1a 35 bf ea 79 fa 3e 23 d5 68 be ad 78 10 bd
       -0.7074409 0.48921138 -0.22737555 -0.035271335
0000c0 0a 99 6e be 66 db d7 3e ec 71 82 be 18 e2 a1 3e
       -0.23300567 0.42159575 -0.2547754 0.31617808
0000d0 47 72 a7 bd e4 8e 3c bf e1 02 91 be 25 93 e1 be
       -0.081760935 -0.73655534 -0.2832251 -0.44057575
0000e0 4e 51 9e bf ea 83 41 3c 1f 04 ac 3f 44 f2 86 be
       -1.2368562 0.011811236 1.3438758 -0.2635671
0000f0 b6 45 f3 be c3 19 a3 3e cb 0e b4 bf 02 bd 8a be
       -0.47514123 0.31855592 -1.4067014 -0.27097327
000100 98 fd d6 be 1f eb df bf 2c 6b 17 3f c2 f0 a5 3e
       -0.41990352 -1.7493628 0.59147906 0.32410246
000110 62 34 84 bf 49 95 2d 3f bf 5e 5b 3f 5a 4f fa 3e
       -1.0328486 0.67805916 0.85691446 0.48888665
000120 34 7b d5 3f 3b 7c 9c 3f d0 bf 9a 3f a9 9d d6 3f
       1.6678224 1.2225412 1.2089787 1.6766864
000130 09 f6 5c 3f 5f 23 a7 3f b7 86 af 3f 3e a7 05 bf
       0.8631292 1.3057669 1.3712987 -0.52208316
000140 ff f9 3c 3f e6 0e 82 bf 10 f8 62 be 46 db b5 3e
       0.73818964 -1.0160797 -0.22164941 0.35518855
000150 96 8e 05 3e c3 c6 58 bf ed 83 fb bd 08 5f 52 bf
       0.13042673 -0.84678286 -0.12281022 -0.82176256
000160 a0 6b b4 be 5f 58 3c 40 97 cc a4 be 3d b7 09 40
       -0.3523836 2.9428937 -0.3218734 2.151809
000170 1f 31 1a 40 12 0d 75 be ef 64 e7 be 0d 04 cd 3f
       2.409248 -0.23930767 -0.45194194 1.6016861
000180 97 45 61 bf 21 a7 0e bd f3 d1 0b bf ef 69 35 c0
       -0.8799681 -0.034827355 -0.5461723 -2.8345907
000190 f3 ce 71 3f 7d 5a 02 c0 23 1f 0d c0 43 b7 c7 be
       0.94456404 -2.036773 -2.2050254 -0.39007005
0001a0 1e 3e db bf e0 fa 59 c0 8f e1 ff 3f 7e e2 88 bf
       -1.7128332 -3.4059372 1.999071 -1.069412
0001b0 6d 65 2f bf e9 61 9e 3f 4f e2 04 bf 1e 03 0e bf
       -0.6851414 1.237363 -0.5190782 -0.55473506
0001c0 a3 ab 95 3f b1 09 9b 3e 3e 4e 85 bf 8a a4 92 3f
       1.1693004 0.3028083 -1.0414503 1.1456463
0001d0 d8 7c e2 3e 63 42 55 be 72 f9 2c be b0 85 2a 3f
       0.44235873 -0.20826106 -0.16892031 0.6661024
0001e0 da 90 e0 3d 1d 21 34 3f 13 e6 df 3d f2 e0 8e be
       0.10965128 0.70363027 0.10932555 -0.27905995
0001f0 59 51 47 3e b9 3b 89 bf 5f bd 92 bf b5 2f 3f 3f
       0.19464625 -1.0721351 -1.1464041 0.7468217
000200 e6 fa 33 be 71 76 1f 3f 6b b5 18 3f 46 e3 b5 bf
       -0.17576179 0.622901 0.5965182 -1.4209983
000210 2f d6 a7 bf b2 57 55 3d c4 e9 15 bf 43 fe 6a 3f
       -1.3112239 0.052085586 -0.58559823 0.9179422
000220 96 af 19 c0 ac 48 93 40 67 80 a5 3f f4 64 e1 3f
       -2.401342 4.602621 1.292981 1.7608933
000230 8d 68 30 40 a3 c2 2b be c9 72 be bf ae 95 c9 3f
       2.7563813 -0.16773467 -1.487878 1.5748804
000240 e7 60 f8 bf 08 03 6a 3e 32 df c9 bf 38 88 f5 3d
       -1.9404572 0.22852719 -1.5771239 0.11988872
000250 1a 75 b7 be a2 63 81 3f 4f 0c a0 bf 5b d7 fd bf
       -0.3583153 1.010853 -1.2503756 -1.9831346
000260 46 6e a0 bf ef 7e 9d 3f b8 a6 af 3f 7e 00 52 c0
       -1.2533653 1.2304362 1.3722754 -3.28128
000270 d0 2f 1a 40 7a 87 b0 3e 96 47 9c bf f6 97 a9 bf
       2.4091682 0.3447836 -1.2209346 -1.32495
000280 50 c4 5d 3e a4 2a 3b c0 66 d1 60 be a9 dc fe bf
       0.21656919 -2.9244776 -0.21954879 -1.991109
000290 4c 4f 02 be 03 18 90 3f f7 ad ed bf 1f 90 60 bf
       -0.12725562 1.1257328 -1.8568715 -0.8771991
0002a0 d4 43 f0 3d c6 17 fd bf c9 76 67 bf c5 2a 69 bf
       0.11731687 -1.977288 -0.90415627 -0.91080886
0002b0 fa 55 bc bf 3b a2 28 bf 60 6b ac 3e 7b 0a dd bf
       -1.4713738 -0.65872544 0.3367567 -1.7268823
0002c0 a2 46 32 3e 4b 1b 30 3e 4b 83 ce be 0c 21 81 bf
       0.17409757 0.17197911 -0.40334544 -1.008821
0002d0 7e bc 0c bf 24 32 23 bf 62 33 ff 3e 16 6f 1d bf
       -0.54975116 -0.63748384 0.4984389 -0.6149763
0002e0 e6 7b a8 bf 71 da 1d be 41 47 8a bf b1 0f 4e bf
       -1.3162811 -0.1541536 -1.0802995 -0.80492693
0002f0 4e 27 50 be 84 a1 86 be 64 0b f6 be d9 d1 38 3f
       -0.20327494 -0.26295102 -0.48055565 0.721952
000300 e2 99 c3 be 5c 34 32 3f 04 bf 24 3d 4f 00 1e 3f
       -0.3820334 0.69611144 0.04022123 0.6171922
000310 bb 82 52 be c2 cb 03 3e 9f a7 f2 bc 77 ec 0e be
       -0.20557682 0.12870696 -0.029620944 -0.13957392
000320 bd 6f 38 3f 5a f8 73 3e ac 56 44 bf 85 38 86 be
       0.720455 0.23825207 -0.7669475 -0.26214996
000330 21 59 41 3e 11 43 c1 be 2a 63 c9 be 27 2b 70 be
       0.18881656 -0.3774648 -0.3933347 -0.23453961
000340 10 16 9e be b0 0c b1 bf 2e 2d c6 3e 2d 2a 06 3f
       -0.30876207 -1.3831997 0.38706344 0.52408105
000350 4a b2 5d bf 94 74 33 bf 63 1f 22 3f a8 91 ca bf
       -0.8660017 -0.7009976 0.6332914 -1.5825701
000360 71 cf 88 be a5 db 08 3f 9a d1 50 be e6 28 4f bf
       -0.26720765 0.5346015 -0.20392457 -0.8092178
000370 fe 42 4c 3e bd a2 23 3e af e2 1d bf d6 af f4 bd
       0.1994743 0.15980048 -0.61674017 -0.119476005
000380 2e 27 c5 3e 5a 84 f5 3c c1 0e 32 3f a8 44 4c 3f
       0.38506454 0.029970337 0.6955376 0.7979226
000390 e4 89 49 bf 0b af 19 3f 01 60 47 3f 5d 81 a5 3e
       -0.7872603 0.6003272 0.77880865 0.3232526
0003a0 af 1a 22 3f 22 8c 9b 3f 0e 29 37 bf 93 c4 b3 3e
       0.63321966 1.215214 -0.7154702 0.35110912
0003b0 04 af c3 3e 55 e3 91 be 5f c3 19 bf 75 23 f5 3e
       0.38219464 -0.28493753 -0.6006374 0.47878614
0003c0 54 d2 52 bf 57 62 aa 3e 5c e2 d7 be 96 e8 0e bf
       -0.82352185 0.33278152 -0.42164886 -0.5582365
0003d0 2a 82 7d bf 3e 6f 64 c0 04 87 7c 3e 3c 25 5f bf
       -0.9902674 -3.5692897 0.2466088 -0.8716619
0003e0 9a 27 27 c0 8f 01 49 3e 40 27 e8 bf f7 9a a2 be
       -2.611792 0.19629501 -1.8136978 -0.31758854
0003f0 1a d4 66 bf 18 33 18 40 de 60 7f 3e 6e 55 b9 3f
       -0.9016739 2.3781185 0.24939296 1.4479196

arith.constant10 f4 [128]
000000 fc d6 d6 bd 0f f8 e9 3e a8 3b cd bd 1e b6 11 3f
       -0.10490224 0.45697066 -0.10021144 0.56918514
000010 ad 3b 1a 40 53 5c a9 3f bf 89 bc 3e 29 9d 40 3f
       2.4098923 1.32313 0.36823842 0.7523981
000020 f0 83 02 40 e6 26 41 be 88 d2 ef be 73 38 2d bd
       2.0393028 -0.18862495 -0.4684031 -0.042290162
000030 7a d3 20 40 13 bd 71 3f ff c8 91 3f 74 9b e4 bd
       2.5129075 0.9442913 1.1389464 -0.11162463
000040 f2 57 12 3f 29 ba c4 bd 3c 46 40 40 b1 c6 c6 3f
       0.57165444 -0.0960582 3.0042868 1.5529386
000050 da f5 d5 3f c1 0e 7a bf 24 f4 0c bf dc 04 88 3f
       1.6715653 -0.9767876 -0.5506003 1.0626483
000060 01 93 cc 3f 81 09 01 40 74 c2 c7 3e 07 0e 08 3f
       1.5982362 2.016205 0.39015543 0.53146404
000070 9a 49 d9 3e f2 24 d3 be 56 da 28 bf d1 41 4f 3e
       0.42438966 -0.41239125 -0.65958154 0.2023995
000080 d2 53 2f 40 5f 06 14 3f 85 a0 86 3f 5e 60 66 3f
       2.739491 0.5782222 1.0517737 0.89990795
000090 16 b1 60 3f c2 50 07 3e 6b 89 1f be a1 ed a2 3e
       0.8777021 0.132144 -0.15579765 0.3182192
0000a0 a4 98 96 3e e8 72 31 3f b9 62 d8 bd 64 88 19 3f
       0.2941333 0.6931596 -0.10565705 0.5997374
0000b0 ed 22 39 bf da 01 29 3f 5b 5b b6 3f 8d fd f0 3f
       -0.7231892 0.6601845 1.424663 1.8827378
0000c0 86 f0 57 3e d2 ee d2 3e 27 9e c5 3e a0 4c 03 bf
       0.21087846 0.4119783 0.38597223 -0.51288795
0000d0 cd e8 09 3f 75 0f 16 3e 3a 2f 53 3e 7a bb 97 3e
       0.5387085 0.14654334 0.20623484 0.2963522
0000e0 79 df 0a 3f cc 78 87 3f e9 ae 94 3f 7f eb 14 40
       0.5424724 1.0583739 1.1615878 2.3268735
0000f0 9b 54 96 3f 99 18 0d c0 dd b2 80 3f 9a 67 04 3e
       1.174457 -2.2046263 1.0054585 0.12930146
000100 e3 ff a1 3e 6a 05 bf 3e 60 75 1a bf 3a 65 29 40
       0.3164054 0.37308818 -0.6033535 2.6468034
000110 e7 9f 29 3f b3 5f 2b 3f 28 f5 5e bf 70 0b 28 40
       0.66259617 0.669429 -0.8709283 2.625698
000120 e3 73 61 bf ff f5 26 40 5e d0 41 3f 5d 40 17 3f
       -0.88067454 2.6087644 0.7570857 0.59082586
000130 26 6d f3 be 39 99 e9 3e ea df bf 3c 60 c9 77 3e
       -0.4754421 0.45624712 0.0234222 0.24197912
000140 37 c5 fa be 2b 53 5b 3f 37 ea 0b 3f 4a 8a 8f be
       -0.48978588 0.8567378 0.5465426 -0.28035194
000150 ab 9f 15 40 ef f1 b0 3f cb e1 65 3f f2 46 4f be
       2.3378704 1.3823832 0.8979766 -0.20241907
000160 5b 8b 04 bf 29 fa 1f 3d 67 71 15 40 92 0d 75 3f
       -0.5177514 0.03905693 2.3350465 0.9572383
000170 e2 10 e0 3e 5b 9a 98 bd 64 eb dc 3f cf 82 35 3e
       0.4376288 -0.07451316 1.7259336 0.17725681
000180 6f 3e 53 bd a9 b7 e3 3f 05 9c cf 3f 8b 0a cb 3e
       -0.051573213 1.7790424 1.6219488 0.3965648
000190 60 4e b5 3d 6a a3 53 3e bf ec ae 3e 9b 16 0c bf
       0.088528395 0.20667806 0.34164998 -0.54721993
0001a0 da 75 9f be f6 0e 23 3f 73 65 9f 3e e1 53 a6 3f
       -0.311446 0.63694704 0.31132087 1.2994348
0001b0 4d b6 e0 3d 20 99 a0 3e ac 0a 0f 3f b2 68 04 3f
       0.10972271 0.31366825 0.5587566 0.5172225
0001c0 00 ce 25 3f 0d 6b e4 3e 76 8b 32 3e b4 75 ab 3f
       0.64767456 0.44612923 0.17436013 1.3395295
0001d0 fc a5 3d 40 22 fe 82 3e 07 01 c6 3e fd 10 71 3e
       2.963256 0.25584513 0.3867266 0.23541637
0001e0 2e 35 38 3f fb 30 6d 3e 55 ce 33 3f e5 0f cd 3e
       0.71956146 0.23163216 0.7023671 0.4005119
0001f0 ae bd 5c bf 4e 58 08 40 7c 5a 05 40 04 80 1c 3f
       -0.8622693 2.1303897 2.0836477 0.61132836

arith.constant11 f4 [64]
000000 9b 98 b6 3e ce cc 2a 3f 24 e7 79 3e ad 65 32 3e
       0.35663304 0.6671876 0.2440458 0.17421599
000010 a5 c1 a8 be 26 7b 2f bf c5 34 64 3f 91 bf 1a bf
       -0.3296024 -0.68547285 0.8914302 -0.6044856
000020 e5 51 19 be 64 93 99 3e bf 4f 3e 3e 86 e0 82 be
       -0.14972647 0.29995263 0.18585108 -0.25561923
000030 e1 80 21 be 32 7a 30 3f cd f7 eb bf 61 a7 25 3f
       -0.1577182 0.68936455 -1.8434998 0.64708525
000040 07 e9 89 3e fc 1f 09 3e 73 7a 5d bf 1c dd 0b 3e
       0.26935598 0.13391107 -0.8651497 0.13658565
000050 30 72 97 be 7b c9 81 bf d2 c5 c4 bf 59 82 9a 3e
       -0.29579306 -1.0139612 -1.537287 0.30177572
000060 0d 88 a6 3e 5a 35 ad bf 8b ff 14 3f ab a1 ba bd
       0.32525674 -1.3531907 0.5820243 -0.09112867
000070 96 d1 01 3f cd b6 43 3e a5 2b 16 3e 2b 94 be 3e
       0.5071043 0.19112702 0.14665087 0.37222418
000080 94 b3 ef 3d d0 cc 06 3f 96 d1 21 3f b7 30 e1 3e
       0.11704174 0.5265627 0.6321043 0.4398248
000090 6a 3b 39 bf ec ef ed bf bd a0 1a 3e 26 03 c6 3e
       -0.72356284 -1.8588843 0.1510038 0.38674277
0000a0 26 d3 b5 3e 4e 72 c3 bf 6b b7 b1 bd 90 46 25 3f
       0.35512656 -1.5269258 -0.08677562 0.64560795
0000b0 65 db 41 bf 27 b2 ed bd c6 d3 8d 3e 7f 86 9b 3e
       -0.75725394 -0.116062455 0.27700633 0.3037605
0000c0 61 9e 64 bf 7b 37 53 3d af 11 4d 3e fd 00 74 3e
       -0.8930417 0.051566582 0.20026277 0.23828502
0000d0 41 54 d8 be 85 0d 8f bf 74 ee d9 bf 03 8f 76 bf
       -0.4225178 -1.1176001 -1.7025895 -0.9631197
0000e0 0e 6f 6c 3e ac 59 aa 3e 3d b9 1d 3f 9a 80 46 bf
       0.23089239 0.3327154 0.61610776 -0.7753998
0000f0 d4 d5 9a bf 2e 8e a6 3e 58 06 fa bc a1 93 01 3d
       -1.2096505 0.3253035 -0.030520603 0.03163493

arith.constant12 f4 [32]
000000 06 28 44 3f 4a 3e 97 3f 78 36 2c bd 0d f7 ec be
       0.7662357 1.1815884 -0.042044133 -0.46282235
000010 47 d8 32 3f 33 ad eb 3e ec f1 04 40 62 f7 dd 3e
       0.69861263 0.46030578 2.0772657 0.433528
000020 bf c2 e0 bf 17 43 ad bf d2 c7 f7 bf eb 64 ba bf
       -1.7559432 -1.3536099 -1.9357855 -1.4562048
000030 01 9f a4 3e 13 21 82 bf 40 8f 7a 3a af fa ff 3e
       0.3215256 -1.0166343 0.0009558089 0.49995944
000040 c5 ea fe bf a6 7e d5 bf c2 5a ba 3f 76 4c 89 3f
       -1.9915396 -1.6679275 1.4558947 1.0726459
000050 9b 14 3c bf cf a9 b0 3f ca da e0 bf b4 7c fb bf
       -0.7346894 1.3801821 -1.7566769 -1.9647431
000060 30 94 33 3f 26 41 c0 3f 23 ff 6e 3f 17 f1 16 3f
       0.7014799 1.5019882 0.9335806 0.58961624
000070 18 5d 26 3f 88 18 0b 3f 25 c1 ee bd ea 05 09 c0
       0.649858 0.54334307 -0.11657933 -2.140986

tfl.pseudo_qconst i1 [128, 1, 5, 64]
000000 e8 4f 0b e5 28 59 dd ee 19 db 40 1f 18 37 25 3e
       -24 79 11 -27 40 89 -35 -18 25 -37 64 31 24 55 37 62
000010 1c cd 49 e6 40 d3 15 19 da f3 03 fd 09 fc c1 ef
       28 -51 73 -26 64 -45 21 25 -38 -13 3 -3 9 -4 -63 -17
000020 02 2e d6 e8 61 53 1b ba d2 fe 2a 2d fb 14 17 d3
       2 46 -42 -24 97 83 27 -70 -46 -2 42 45 -5 20 23 -45
000030 24 d7 bd dc f5 43 30 3a e7 ed 12 18 4d fb 14 04
       36 -41 -67 -36 -11 67 48 58 -25 -19 18 24 77 -5 20 4
000040 f1 39 e1 13 10 15 e5 48 e2 07 35 37 31 33 2e 55
       -15 57 -31 19 16 21 -27 72 -30 7 53 55 49 51 46 85
000050 34 da 12 ea 47 26 30 b1 df 0d e9 d9 ec 08 b7 1c
       52 -38 18 -22 71 38 48 -79 -33 13 -23 -39 -20 8 -73 28
000060 e4 31 ff f5 7e 08 04 a5 d2 45 09 31 25 e9 e0 d6
       -28 49 -1 -11 126 8 4 -91 -46 69 9 49 37 -23 -32 -42
000070 f6 1c f2 c2 d0 50 29 41 f5 e5 0c 3c 26 b0 cc f8
       -10 28 -14 -62 -48 80 41 65 -11 -27 12 60 38 -80 -52 -8
000080 dc 22 dd fb fc 39 2a 4d 00 cb 3c 17 e0 29 26 3a
       -36 34 -35 -5 -4 57 42 77 0 -53 60 23 -32 41 38 58
000090 42 ce ee cc 55 ef 1c d8 dc 33 bb 0d e7 f4 0b dc
       66 -50 -18 -52 85 -17 28 -40 -36 51 -69 13 -25 -12 11 -36
0000a0 c3 2e d7 c5 7f 0b b8 a9 ae 01 eb 27 4b 41 09 a7
       -61 46 -41 -59 127 11 -72 -87 -82 1 -21 39 75 65 9 -89
0000b0 46 cb c3 f1 0c f0 ee fd 02 ec 43 03 46 d3 df fc
       70 -53 -61 -15 12 -16 -18 -3 2 -20 67 3 70 -45 -33 -4
0000c0 d0 f8 93 e8 c8 3a f5 63 d5 dd 21 24 f8 03 27 ff
       -48 -8 -109 -24 -56 58 -11 99 -43 -35 33 36 -8 3 39 -1
0000d0 05 fe 1b 03 3e eb f8 d8 f4 d1 9d 10 07 1e d4 08
       5 -2 27 3 62 -21 -8 -40 -12 -47 -99 16 7 30 -44 8
0000e0 d1 07 ea b4 74 31 dc 8c c5 f4 cf 1a 29 3a dc bf
       -47 7 -22 -76 116 49 -36 -116 -59 -12 -49 26 41 58 -36 -65
0000f0 53 22 e9 c9 09 0e f9 1e c7 e2 12 4f 19 a6 bd fd
       83 34 -23 -55 9 14 -7 30 -57 -30 18 79 25 -90 -67 -3

tfl.pseudo_qconst1 i1 [64, 1, 7, 32]
000000 f8 18 f3 d7 26 a8 14 fd 03 d2 06 f5 f8 e0 ef 97
       -8 24 -13 -41 38 -88 20 -3 3 -46 6 -11 -8 -32 -17 -105
000010 e7 06 19 21 0a 1b d1 0e e0 19 03 f2 c9 1c b0 02
       -25 6 25 33 10 27 -47 14 -32 25 3 -14 -55 28 -80 2
000020 fb f8 ed e1 07 b8 15 fa 12 ed f1 09 f6 df e1 8f
       -5 -8 -19 -31 7 -72 21 -6 18 -19 -15 9 -10 -33 -31 -113
000030 e8 d4 18 29 02 0b 06 f7 de fb d8 0e 9a ee e3 ee
       -24 -44 24 41 2 11 6 -9 -34 -5 -40 14 -102 -18 -29 -18
000040 fc 1b 01 f1 07 e8 00 f1 05 da 11 f0 c9 0a e1 c1
       -4 27 1 -15 7 -24 0 -15 5 -38 17 -16 -55 10 -31 -63
000050 fe 03 f7 e7 ec 0e fc f7 d5 f7 e0 e5 c7 d3 da fc
       -2 3 -9 -25 -20 14 -4 -9 -43 -9 -32 -27 -57 -45 -38 -4
000060 1a e9 14 ea 0d a9 fe e5 ec ee 1c 09 ec ed 1d 91
       26 -23 20 -22 13 -87 -2 -27 -20 -18 28 9 -20 -19 29 -111
000070 fd e3 ce e1 26 f8 0e eb ee 0b c9 0c 96 f0 c9 04
       -3 -29 -50 -31 38 -8 14 -21 -18 11 -55 12 -106 -16 -55 4
000080 fd f1 2a 08 f5 de 13 0a 04 0d 01 ed d1 26 ea 87
       -3 -15 42 8 -11 -34 19 10 4 13 1 -19 -47 38 -22 -121
000090 0b f0 dc c0 0e d0 fc 0f e1 d9 b8 bf 81 e2 da ee
       11 -16 -36 -64 14 -48 -4 15 -31 -39 -72 -65 -127 -30 -38 -18
0000a0 05 d0 35 f3 e5 ff 07 27 21 23 fe 1a fa 4d 17 0f
       5 -48 53 -13 -27 -1 7 39 33 35 -2 26 -6 77 23 15
0000b0 23 08 c9 c7 53 d9 1c 4c f0 c7 af bc 02 07 ff 01
       35 8 -55 -57 83 -39 28 76 -16 -57 -81 -68 2 7 -1 1
0000c0 38 b7 14 15 f6 06 0a 20 2b 09 f2 2b 2d 4a 29 fe
       56 -73 20 21 -10 6 10 32 43 9 -14 43 45 74 41 -2
0000d0 3e 05 ba df 2a c1 26 33 8f c5 b2 f2 0b d2 e2 13
       62 5 -70 -33 42 -63 38 51 -113 -59 -78 -14 11 -46 -30 19
0000e0 e2 ea e1 f2 cd 21 e7 ee e9 ec d7 03 ee f3 f3 16
       -30 -22 -31 -14 -51 33 -25 -18 -23 -20 -41 3 -18 -13 -13 22
0000f0 d6 e1 fd d4 d7 e8 f0 e7 d3 f9 f3 e8 f9 da f3 c5
       -42 -31 -3 -44 -41 -24 -16 -25 -45 -7 -13 -24 -7 -38 -13 -59

tfl.pseudo_qconst2 i1 [64, 128]
000000 04 da e0 e5 f4 00 e0 1a ed 16 e7 e8 f9 de a1 be
       4 -38 -32 -27 -12 0 -32 26 -19 22 -25 -24 -7 -34 -95 -66
000010 02 e1 ff dd 01 b8 1e ef 13 15 e6 02 1b 04 ea 02
       2 -31 -1 -35 1 -72 30 -17 19 21 -26 2 27 4 -22 2
000020 fc 0e b7 cc 03 28 e3 f7 d9 eb cc fb 28 f1 fe 0f
       -4 14 -73 -52 3 40 -29 -9 -39 -21 -52 -5 40 -15 -2 15
000030 12 25 07 f5 1a f0 fb 1e f0 15 23 0f fe f0 00 16
       18 37 7 -11 26 -16 -5 30 -16 21 35 15 -2 -16 0 22
000040 e1 0c eb f7 18 f7 bc 06 04 bd fa df f1 05 26 1f
       -31 12 -21 -9 24 -9 -68 6 4 -67 -6 -33 -15 5 38 31
000050 ff e8 1e 0b 07 de e7 e6 ea e5 f3 03 e5 03 13 fd
       -1 -24 30 11 7 -34 -25 -26 -22 -27 -13 3 -27 3 19 -3
000060 01 f8 0a 20 11 f0 81 fb f8 09 fc 12 03 06 12 18
       1 -8 10 32 17 -16 -127 -5 -8 9 -4 18 3 6 18 24
000070 1f 23 e1 0a e7 0f fa e7 10 09 df d5 fe d8 ef 08
       31 35 -31 10 -25 15 -6 -25 16 9 -33 -43 -2 -40 -17 8
000080 18 1c f0 06 27 06 fa 0a 22 18 d6 03 d2 fc 26 ec
       24 28 -16 6 39 6 -6 10 34 24 -42 3 -46 -4 38 -20
000090 e0 fd 0c e5 27 03 d9 db ea 11 fa d7 db e6 15 20
       -32 -3 12 -27 39 3 -39 -37 -22 17 -6 -41 -37 -26 21 32
0000a0 22 de 0a f6 29 f7 0b fe ff 0f ed 1f e7 f5 fa db
       34 -34 10 -10 41 -9 11 -2 -1 15 -19 31 -25 -11 -6 -37
0000b0 2d f0 f6 fb ff 2a 2b d6 05 0f fb 21 ba 19 ff 11
       45 -16 -10 -5 -1 42 43 -42 5 15 -5 33 -70 25 -1 17
0000c0 f1 e4 81 f7 f3 dc d4 1e 29 f6 1c f9 f8 2f ed 10
       -15 -28 -127 -9 -13 -36 -44 30 41 -10 28 -7 -8 47 -19 16
0000d0 f5 d7 ec 1f e8 dc d8 f4 fe e2 df d9 23 3e ec 16
       -11 -41 -20 31 -24 -36 -40 -12 -2 -30 -33 -39 35 62 -20 22
0000e0 18 10 12 f9 f4 17 f7 e5 07 1b e9 d4 e3 de e4 f0
       24 16 18 -7 -12 23 -9 -27 7 27 -23 -44 -29 -34 -28 -16
0000f0 01 26 02 fd db 12 f9 1e f6 03 20 ef 0a e1 f5 fb
       1 38 2 -3 -37 18 -7 30 -10 3 32 -17 10 -31 -11 -5

tfl.pseudo_qconst3 i1 [128, 128]
000000 a2 a4 d0 ac 32 0d 19 26 14 91 fe 07 61 d4 27 08
       -94 -92 -48 -84 50 13 25 38 20 -111 -2 7 97 -44 39 8
000010 e7 a2 f8 19 96 10 fc e0 91 db ca b7 c0 09 a4 46
       -25 -94 -8 25 -106 16 -4 -32 -111 -37 -54 -73 -64 9 -92 70
000020 8f 2f 32 81 63 87 21 a0 1b 9d dd dc e2 df a1 89
       -113 47 50 -127 99 -121 33 -96 27 -99 -35 -36 -30 -33 -95 -119
000030 a6 59 5d 8c 98 b0 ed bd 9d 58 f3 16 f8 ee a4 3c
       -90 89 93 -116 -104 -80 -19 -67 -99 88 -13 22 -8 -18 -92 60
000040 4a 5f 1b 25 2a fb ef 99 ae a5 28 29 4f c9 4d ee
       74 95 27 37 42 -5 -17 -103 -82 -91 40 41 79 -55 77 -18
000050 17 b7 59 2e d6 45 30 bd c0 b8 8d 13 02 56 8e 27
       23 -73 89 46 -42 69 48 -67 -64 -72 -115 19 2 86 -114 39
000060 14 36 ec ea 64 35 2d a4 4f 27 f2 81 e1 a4 c9 f6
       20 54 -20 -22 100 53 45 -92 79 39 -14 -127 -31 -92 -55 -10
000070 02 46 20 06 f2 4e b4 bb 1d b3 e8 db dc 87 4b 45
       2 70 32 6 -14 78 -76 -69 29 -77 -24 -37 -36 -121 75 69
000080 86 a1 2e 6a 01 d0 65 af 84 55 5e b3 26 d1 c4 12
       -122 -95 46 106 1 -48 101 -81 -124 85 94 -77 38 -47 -60 18
000090 a8 c7 44 83 4a fe fc 52 c8 2d 26 0d a6 f3 ba 51
       -88 -57 68 -125 74 -2 -4 82 -56 45 38 13 -90 -13 -70 81
0000a0 13 3c 8d 24 8b c4 a8 b9 e4 82 3b 5b 4a 51 49 87
       19 60 -115 36 -117 -60 -88 -71 -28 -126 59 91 74 81 73 -121
0000b0 1a ba b9 1c 47 0f cd f9 9c 10 6e 82 e7 18 83 98
       26 -70 -71 28 71 15 -51 -7 -100 16 110 -126 -25 24 -125 -104
0000c0 c3 f7 99 10 ae ee 14 a9 41 93 25 26 18 5a 8a dd
       -61 -9 -103 16 -82 -18 20 -87 65 -109 37 38 24 90 -118 -35
0000d0 9b 9e b3 0f 15 9e cd 36 c8 4f b7 5e c0 89 27 0f
       -101 -98 -77 15 21 -98 -51 54 -56 79 -73 94 -64 -119 39 15
0000e0 ed 62 96 b3 6f c8 18 5d eb 8a 23 8f 5e 52 0a 6c
       -19 98 -106 -77 111 -56 24 93 -21 -118 35 -113 94 82 10 108
0000f0 cd 58 d5 b2 05 68 db 81 27 bd 21 e4 44 e5 f9 08
       -51 88 -43 -78 5 104 -37 -127 39 -67 33 -28 68 -27 -7 8
