ML/models/conv1d_angle_toro_ossaba/seed1_20260116_234517_026/model.tflite (tflite, 96000 bytes, 11 tensors)

arith.constant2 f4 [1, 64]
000000 00 1d a0 3d a2 8f 9e 3b bb 1f 15 be e3 ff 85 3e
       0.07818031 0.0048388997 -0.14562885 0.2617179
000010 a2 0d 5b 3e f3 dc 2b 3e 2d 27 84 be 65 a5 01 be
       0.2139192 0.16783504 -0.2581114 -0.1266075
000020 e3 71 23 be c1 b7 2f be a5 78 1e bc d2 4e 36 3e
       -0.15961413 -0.1715994 -0.009672319 0.17803505
000030 15 b0 b5 3e 4a f2 87 bc 15 0a 3d 3e cf 89 25 be
       0.35485902 -0.016595025 0.18460877 -0.16165851
000040 10 b8 12 3d 88 6e 16 3e 34 fa 58 be 08 4c 8d be
       0.035820067 0.14690602 -0.21189195 -0.2759707
000050 47 f3 73 3e 13 6a 1a 3c ec 4d 79 be a6 29 98 bd
       0.23823272 0.009424704 -0.24346131 -0.07429819
000060 62 a1 e4 bd da 76 10 bc 8d 7c 93 3d 00 d8 81 bc
       -0.11163594 -0.008817399 0.072014906 -0.015850067
000070 b0 7d 7e 3e a4 7c 9b 3e 34 cc 6c bc 7e 03 fd bd
       0.24852633 0.3036853 -0.014452983 -0.12354182
000080 b0 d0 8a 3e 9b 72 e3 bd 22 2e 9f be 0d 08 36 3e
       0.2711234 -0.11105844 -0.31089884 0.17776509
000090 cd 78 58 be f4 91 68 3d f8 ab e0 3c 39 27 d7 3d
       -0.21139832 0.056779817 0.027425751 0.10505528
0000a0 c7 25 e9 bd ea 77 4d be 70 b7 94 be 8b 16 4a bd
       -0.113841586 -0.20065275 -0.29046202 -0.049337905
0000b0 53 79 8a 3e 42 8b 03 be 86 25 46 be 50 26 8e be
       0.27045688 -0.12846091 -0.19350252 -0.27763605
0000c0 2e ad 5c be 90 a5 9a be 4b cb 84 3e e7 ef 45 be
       -0.21550438 -0.3020444 0.2593635 -0.19329797
0000d0 ef 40 6f bd 3d 01 52 3c d6 09 7e 3e 96 98 8b 3b
       -0.058411535 0.012817678 0.2480844 0.004260133
0000e0 a4 70 75 be 09 42 f8 3d ad 15 81 3e 56 05 82 3e
       -0.2396875 0.1212197 0.2521185 0.25394696
0000f0 2c fd f9 bd a5 ce 42 3e da ed df bd 6f 80 51 be
       -0.12206492 0.19024141 -0.109340385 -0.2045915

arith.constant7 f4 [128]
000000 67 bf 19 3c 4c a8 60 bc a2 7c c3 bc f3 15 b3 bc
       0.009384013 -0.013712 -0.02386314 -0.021861052
000010 d1 ef 5c bb 1b b7 ea 3b f1 ab 3a bc ab 12 b1 3b
       -0.0033712278 0.007162941 -0.011393533 0.0054038367
000020 32 e2 83 bc 91 cc 13 bc 20 1b 62 3b 72 69 62 bc
       -0.01609907 -0.00902094 0.003450103 -0.013819085
000030 00 97 c3 bc a1 5a 31 bc 33 0b 05 bc ee 56 ab bb
       -0.023875713 -0.01082483 -0.008120346 -0.0052288687
000040 f6 fe a9 3c 1c 6f 14 bc fe 14 8b bc 7e 31 e8 bc
       0.020751458 -0.009059694 -0.016977783 -0.028343912
000050 75 87 ec ba f1 21 57 bc 3a 03 81 bc d4 42 08 bc
       -0.001804574 -0.013130651 -0.015748609 -0.008316714
000060 65 81 db bb 57 19 48 bc be 9e 0c bc c0 e8 48 bb
       -0.0066987746 -0.012213073 -0.008582769 -0.0030656308
000070 a2 45 50 bc 2e 30 87 bc 5e 6d de 3b c5 6d 06 bc
       -0.012711914 -0.016502466 0.00678794 -0.008204882
000080 e1 f8 40 bc 4e b9 8c bb eb 52 c1 bc 5f 1f c1 ba
       -0.011778087 -0.004294551 -0.023599109 -0.0014734081
000090 54 36 01 bc 45 58 e9 3b a4 0e cb bb 86 04 ef bc
       -0.007886488 0.0071211183 -0.0061968137 -0.029176962
0000a0 66 02 a8 bb d0 79 87 bc f4 fd 8b 3a 74 63 7c bb
       -0.005127239 -0.016537577 0.0010680542 -0.0038511427
0000b0 d2 2d 16 bc de ae f4 bb 53 57 44 bb b3 d8 f0 bc
       -0.009166198 -0.007467135 -0.0029959276 -0.029400205
0000c0 d6 11 8e bb cb eb 01 bc 90 cb 55 bc 9c 7e 63 bc
       -0.0043356223 -0.007929753 -0.013049021 -0.0138851665
0000d0 56 ea 8b bc a5 c1 28 bc e1 ca 21 bc 61 11 73 bb
       -0.017079514 -0.010300075 -0.00987503 -0.0037089216
0000e0 4d 33 0f 3b ad 02 4d 3b 10 db 0d bc 43 0d 11 bc
       0.0021850646 0.0031282112 -0.008658186 -0.0088532595
0000f0 01 60 41 bc 1e bf b7 bc 33 f9 15 bb ac da 56 bb
       -0.011802674 -0.022429999 -0.002288413 -0.0032784147
000100 93 e9 00 bc 24 65 29 bc 81 69 ee 3b c2 81 6c ba
       -0.007868188 -0.010339055 0.0072757606 -0.0009022021
000110 4a 14 41 bb c7 1c d6 bc bb 1d dd bb 23 43 85 bc
       -0.0029461556 -0.026136769 -0.006747929 -0.016267365
000120 6a c2 f4 3b ff 92 c5 3a 60 57 46 bc 3b 4d 35 bc
       0.007469465 0.0015073715 -0.012105793 -0.011065776
000130 31 70 3e bc e3 b9 6d bb c5 11 78 bc 00 00 00 00
       -0.011623428 -0.0036274127 -0.015140955 0.0
000140 cb 06 4d bc 90 42 b0 bc 67 75 b6 bb 3b 2d 76 bc
       -0.012513827 -0.021516114 -0.0055681947 -0.015025432
000150 49 ff 49 bc 15 b1 40 bc 83 15 01 bc 74 56 b4 bc
       -0.012328931 -0.01176097 -0.007878664 -0.02201388
000160 4a 2b cb bc 1b 17 be bc c5 2f 85 bc 29 74 b5 bb
       -0.024800915 -0.023204377 -0.01625813 -0.005537529
000170 03 dc 17 bb 46 8e 4f bc b1 be 07 bc 92 b5 27 bb
       -0.0023171909 -0.012668198 -0.0082852105 -0.0025590402
000180 69 11 c8 bb e6 77 3b bc 54 41 36 3a af c1 cb bb
       -0.006105591 -0.01144216 0.00069524837 -0.0062181572
000190 b6 b7 28 bc 9e 92 f3 bb b3 78 87 bc 63 da b8 bb
       -0.010297706 -0.0074332496 -0.016537046 -0.005641268
0001a0 0f 65 98 bc 0a bc 10 bd 6e 17 75 bc e0 32 51 bc
       -0.018602876 -0.035335578 -0.014959199 -0.012768477
0001b0 47 e5 28 bc 0b e1 a7 3b a9 42 25 bb 33 aa 1e bc
       -0.01030857 0.0051232628 -0.0025216735 -0.009684133
0001c0 0e d3 0f bb f6 14 b6 bb 41 03 40 bc 8e 53 47 bc
       -0.0021945867 -0.005556698 -0.011719526 -0.012165917
0001d0 36 ab f1 ba 85 dd 1f bc 2b 9f 6f bc 12 8c e3 bc
       -0.0018437866 -0.009757404 -0.014625351 -0.027776752
0001e0 c7 c0 67 3a f0 a7 10 bc 17 8e 19 bc 7b 68 88 bc
       0.0008840677 -0.008829102 -0.009372256 -0.016651383
0001f0 54 14 9c ba 2b 1b 72 bb 00 00 00 00 c8 f6 b7 bc
       -0.0011907914 -0.0036942463 0.0 -0.022456542

arith.constant8 f4 [64]
000000 73 92 7d bc 34 4a ad bc e0 db 5c 3d 73 a7 17 3d
       -0.015476811 -0.021153547 0.053920627 0.037024926
000010 7c cc 01 3c 05 f4 48 3d c3 2a bd 3c 6e 10 48 3d
       0.007922288 0.04906084 0.02309168 0.048843794
000020 11 3f 2f 3c bc e3 86 bb 84 88 cc bb 5f eb 40 bc
       0.010696189 -0.0041165035 -0.00624186 -0.011774867
000030 a0 ae 10 3d 1a e9 eb bb 39 a6 b3 3d ac 4a 22 3b
       0.035322785 -0.0071994187 0.08771939 0.0024763746
000040 99 47 28 bd 77 17 36 3c 92 3f 46 3c b6 50 29 3d
       -0.041083906 0.011113993 0.012100117 0.041336738
000050 08 6d 06 3d bc ed 27 bd 14 17 e1 3c c9 7d 8d bc
       0.032818824 -0.040998206 0.027476825 -0.017271893
000060 bf 4c d2 bc 10 25 8e bc 3f 30 88 3c 47 21 05 bd
       -0.025671361 -0.017351657 0.016624568 -0.03250244
000070 f4 b5 69 3d e9 79 d9 3c 0d 20 b8 bc 4e 3a a0 3c
       0.05705829 0.02654739 -0.02247622 0.019559052
000080 8a 36 26 3d 69 3d 5f 3c 7c 49 27 3d 70 57 45 3d
       0.040579356 0.013625481 0.040841565 0.04817909
000090 49 5c 25 3d db 18 0b bc 26 2d 12 bd 73 e1 7b bc
       0.040371213 -0.008489813 -0.03568759 -0.0153735755
0000a0 1a 77 3c 3d a7 5b 99 3c 21 f1 a5 3d e9 b8 3c bc
       0.04601202 0.018720461 0.08102632 -0.011518695
0000b0 6f e4 37 bc b9 29 91 3c 81 f4 72 bb 76 f1 c2 3c
       -0.011223896 0.01772009 -0.0037072005 0.023796778
0000c0 2f d1 2d 3c af 3d 91 3b 49 08 0d 3d 56 d4 ff 3c
       0.010608955 0.004432402 0.03443173 0.03122918
0000d0 18 65 6b bc 17 5f 94 3b 06 d6 7f 3c 52 43 ce bc
       -0.014367364 0.004527937 0.015614992 -0.025178585
0000e0 26 0e c4 39 82 34 09 3d d9 60 c7 3c 1f aa 4a 3a
       0.00037394575 0.03349734 0.024338173 0.00077310385
0000f0 5b 66 14 3d 69 f3 81 3c cb fb a3 3b 61 67 06 bc
       0.036230426 0.015863137 0.0050043813 -0.008203358

arith.constant9 f4 [32, 1, 9, 3]
000000 e9 df 4b bf 69 a6 ae 3f 5f 58 0d 3f f9 e9 47 3f
       -0.79638535 1.3644534 0.5521297 0.7809139
000010 21 57 f3 3f 73 74 8a 3f 24 95 83 bf b3 c9 9c bf
       1.9010965 1.0816787 -1.0279889 -1.2249054
000020 e2 06 fc 3f 10 43 4a bf 30 fc ef 3e d7 9a ed 3f
       1.96896 -0.7900858 0.4687209 1.8562878
000030 cd 9b 4d be da 7d 66 3f 3b 25 80 bf 5c f1 2d 3f
       -0.20078965 0.90035784 -1.0011362 0.6794641
000040 2b 89 95 3f 48 6c 94 bf 82 32 e3 3f 68 34 b0 bf
       1.1682485 -1.1595545 1.7749789 -1.3765993
000050 a6 18 15 3f ee 0a e7 be 44 4b 9e bf c4 86 5a be
       0.58240736 -0.45125526 -1.2366719 -0.21340472
000060 ae bf 9b bf b8 ce 7f 3d 43 e3 09 bb c9 12 3d bf
       -1.2167871 0.062453 -0.002104 -0.7385679
000070 3f ba 10 bf 85 3c 64 c0 fc 63 ee 3f 73 be a9 3e
       -0.5653419 -3.5661938 1.8624263 0.33153114
000080 63 00 53 c0 b1 ae 7a 3e 47 88 8f 3f e0 26 9f bf
       -3.2968986 0.24480702 1.1213464 -1.2433739
000090 3f 8f 83 3f 68 a3 cc 3d 3c 87 19 3f 9e 2b 99 bf
       1.027809 0.09992105 0.59971976 -1.1966436
0000a0 91 2b 21 40 0f a2 2b 40 7e 98 0d 40 c9 55 3d c0
       2.518284 2.6817663 2.2124324 -2.958361
0000b0 ed bc bb 3f b2 1b cf bf aa de 3b 3f 72 79 b0 3f
       1.466703 -1.6180327 0.73386633 1.3787062
0000c0 4b f6 fe 3f 48 ef 5b c0 3d 1c 07 c0 4f b5 a8 bf
       1.9918913 -3.4364796 -2.1110985 -1.3180331
0000d0 22 ef c0 3f ce 4d 5a 40 6c 58 09 40 d0 f0 99 be
       1.5072978 3.4109988 2.1460218 -0.30066538
0000e0 7e cb fe 3e 19 9b 95 bf 83 8d ad bd 95 25 b8 3f
       0.49764627 -1.1687957 -0.08474257 1.4386469
0000f0 86 70 0a c0 32 84 7b 3f 1c 06 73 3f c2 af 8e 3d
       -2.163118 0.9824859 0.949312 0.06967117
000100 6c 86 c9 bf ad 2d 34 3f be 5d 6c 3f 43 c4 41 3f
       -1.5744147 0.70382196 0.9233054 0.75690097
000110 61 8e 46 c0 45 37 da bc 86 ba a5 3f f1 a7 2d bf
       -3.10244 -0.026637683 1.2947547 -0.67834383
000120 51 25 2d bf 7c 32 32 40 36 fe f5 3f 20 06 82 bf
       -0.67635065 2.7843313 1.9218204 -1.0158119
000130 31 24 13 c0 ca f9 e1 bf 90 56 ff bf 36 e9 28 40
       -2.299084 -1.7654355 -1.9948292 2.639234
000140 fb a3 bd bf 5e 45 4d 3f cd e4 05 bf 09 79 69 bf
       -1.4815668 0.8018397 -0.5230225 -0.9120031
000150 b8 80 80 3e 08 cb 5d be 43 96 18 bf e9 a9 4c 3f
       0.25098205 -0.21659482 -0.5960428 0.7994676
000160 7a 45 d6 3e 83 b4 ed 3e 53 3c 21 bf 2b f9 49 bf
       0.4184988 0.46426782 -0.6298267 -0.78895825
000170 36 26 11 3e 6a 32 2f 3e 6f 0b c5 3e 30 eb 3c bf
       0.14174733 0.17109075 0.38485286 -0.7379637
000180 7f b5 8f 3c 12 4b 39 3f d9 56 b3 bf b5 f9 c0 3e
       0.017542599 0.72380173 -1.4010879 0.3769051
000190 56 b9 1d 3f 76 1c 29 bf d6 ec 1d be b4 4c 2e bf
       0.61610925 -0.6605905 -0.15422377 -0.6808579
0001a0 7a 2e e6 3d 86 a2 77 bf f8 09 fc 3e d3 bd 83 be
       0.112393335 -0.96732366 0.49226356 -0.25730762
0001b0 ff d7 88 bf 6a a2 55 3f 8a a6 31 bf 54 b7 4b 3f
       -1.0690917 0.8345095 -0.69394743 0.7957661
0001c0 a0 64 49 bf 12 ea db 3f 55 37 30 40 cb aa 9f be
       -0.78669167 1.7180808 2.7533772 -0.31184992
0001d0 8f f2 b1 3e 51 4d 02 c0 12 0b 16 40 13 f4 44 40
       0.3475537 -2.035969 2.3444257 3.077397
0001e0 d7 09 e1 bf d3 44 21 3f 67 46 25 c0 4b 43 39 c0
       -1.7581128 0.6299564 -2.582422 -2.8947322
0001f0 86 82 f4 3f d5 09 7f bf d8 11 f0 3f fb 81 08 bf
       1.9102333 -0.9962438 1.8755445 -0.53323334
000200 60 6c f6 bf 44 84 f3 3f 88 68 22 40 33 31 e0 3f
       -1.9251823 1.9024739 2.53763 1.7515014
000210 65 f4 1b 40 80 44 fb bf 25 19 8b 3f e3 2d 56 c0
       2.4367917 -1.963028 1.0867049 -3.3465507
000220 6c b2 09 40 28 7b e8 3f 6e 07 2e 3f ba f2 10 bf
       2.151515 1.8162584 0.67980087 -0.5662037
000230 97 62 33 3f dd a3 ba 3f 2c 1a fa bf 82 e4 8b bf
       0.7007231 1.4581257 -1.9539237 -1.092911
000240 11 64 8c 3f 73 ec 38 3f 9e 8c 9c 3f e5 9b 1d c0
       1.0968038 0.7223579 1.2230413 -2.46264
000250 f6 82 04 40 fd eb 08 c0 7c 12 68 c0 94 ca 07 c0
       2.0704932 -2.1394036 -3.6261282 -2.1217394
000260 fc 42 49 40 e9 a4 10 40 05 80 ad 3f 56 74 fa bf
       3.1447134 2.2600653 1.3554693 -1.9566753
000270 fb d0 26 40 81 f8 3c 40 85 c2 3e 3f 59 cd 5c 3f
       2.6065052 2.9526675 0.74515563 0.86250836
000280 be 47 3f c0 9f 21 77 c0 13 9d 8e 3f 40 93 cc 3e
       -2.9887538 -3.861427 1.1141685 0.39956093
000290 b7 d5 ff be 4d 23 51 3f be 22 82 bf 5b b9 57 bf
       -0.4996774 0.8169449 -1.0166852 -0.84267205
0002a0 fd bb c9 3e 70 b9 6f 3f 82 a0 87 bd bb 59 62 bf
       0.39401236 0.9364233 -0.06622411 -0.8841817
0002b0 92 ab cb be 69 bf 13 3f e7 1c 30 be ba bc 27 3d
       -0.39779335 0.57713944 -0.17198525 0.040951468
0002c0 b4 58 fe be 79 e3 83 3f d5 1b c1 3e 45 ef 11 3f
       -0.4967705 1.0303794 0.37716547 0.5700572
0002d0 28 1e 8a be a8 95 4f 3d c5 af 34 3e f0 83 d1 bf
       -0.26976132 0.050679833 0.17645176 -1.6368389
0002e0 b7 d3 20 bf f9 2e d0 bf ef c0 84 3e ad a9 4c be
       -0.6282305 -1.6264335 0.25928447 -0.19986601
0002f0 56 fd c5 bf 58 0d cf bf 65 51 7c bf db 94 31 c0
       -1.5467937 -1.6175947 -0.985617 -2.7747104
000300 47 b5 50 40 b0 e1 27 c0 5b 07 bc bf 05 b7 30 40
       3.2610643 -2.6231499 -1.4689745 2.7611706
000310 29 db 7e 40 99 10 ab 3f ec 98 f4 bf d0 1b ff 3f
       3.9821265 1.336444 -1.9109168 1.9930363
000320 c4 26 af 3f 80 97 a5 bf da 5f 29 bf 03 50 0a 40
       1.3683705 -1.2936859 -0.6616188 2.1611335
000330 5f 11 81 bf 9b 41 b4 3f 4f ed f8 3f 66 3c d3 bf
       -1.0083426 1.4082521 1.9447421 -1.6502807
000340 7a c1 0c bf 55 82 2d 40 86 ee 0c 3f 53 8a 26 c0
       -0.5498272 2.7110798 0.5505146 -2.6021926
000350 96 13 10 3e e8 33 2c 40 96 5d 57 bf d4 57 47 c0
       0.14069971 2.690668 -0.84127176 -3.1147356
000360 4b 56 bb 3d 41 84 e2 bf 7a 79 0f 3f 27 6d ef bf
       0.091473185 -1.7696611 0.56044734 -1.8705186
000370 59 7f 78 3f ab 12 50 bf 0c 9a f0 be 3e 67 ab 3f
       0.9706932 -0.81278485 -0.46992528 1.3390882
000380 9f 9b e3 bf 32 5d 2b bf b5 af 1d bd cf 0e cf 3f
       -1.7781867 -0.6693908 -0.038497645 1.6176394
000390 9a 91 b1 3e bd ad d9 3f 71 42 02 40 b8 54 dd be
       0.34681398 1.7006146 2.0353053 -0.43228698
0003a0 7a 3b 13 bf 80 40 05 40 9b 2a 1d bf b3 17 a1 bf
       -0.5751263 2.0820618 -0.61393136 -1.2585357
0003b0 66 24 a8 3f 4a 66 69 bf ad a5 c8 3f 6c 5b 39 bf
       1.3136108 -0.91171706 1.567556 -0.72405124
0003c0 e0 2b 37 3f 07 2e 2d 3d 0f 55 80 bf 6c 37 33 3f
       0.7155132 0.042280223 -1.0025958 0.7000644
0003d0 07 8e 12 3f d2 db 8b 3f 53 6d b7 bf 92 c6 e6 be
       0.57247967 1.0926459 -1.4330238 -0.45073372
0003e0 89 1a 91 3f a7 71 8b 3f 3b b7 d2 3e 70 42 fd bf
       1.1336223 1.0894059 0.4115542 -1.97859
0003f0 73 c5 16 40 82 01 82 3f 7c 79 2e 3f bf c5 78 bf
       2.3558013 1.015671 0.6815412 -0.97176737

arith.constant10 f4 [128]
000000 ac c1 22 bf 50 b5 54 be 8c f6 0b bf 87 39 29 3f
       -0.6357677 -0.2077229 -0.54673076 0.66103405
000010 2f a7 de 3d 07 fd bc 3d b2 37 6c 3f f7 1e 87 3f
       0.108717315 0.09227949 0.92272484 1.0556325
000020 2e dd 38 bd b9 6f a1 3e 5e be 12 40 ff 25 9a 3f
       -0.04513281 0.3153055 2.292869 1.2042845
000030 4e 89 27 3f 26 70 72 bc ed ce 06 bf 5d 4a ad bd
       0.65443885 -0.014797246 -0.52659494 -0.08461449
000040 50 23 06 3e 2a 55 b0 be 80 ca 78 bf 34 65 ad bf
       0.13099408 -0.34439975 -0.9718399 -1.354651
000050 99 08 18 3f 3d fc 2e 3f 75 68 a6 be 29 1f b7 3f
       0.5938812 0.68353635 -0.3250157 1.4306384
000060 d1 d7 9f 3f 9a a0 04 bf a1 be 52 bf 4c 5f d3 bd
       1.2487737 -0.5180756 -0.82322127 -0.10320911
000070 2c ca 36 bf 86 d6 69 3f e4 a0 28 3d 0f 55 a2 3f
       -0.7140224 0.9134296 0.041169062 1.2682208
000080 bb f7 69 bf 90 84 82 be d4 32 b2 3f b1 15 e5 be
       -0.9139363 -0.25491762 1.3921762 -0.44743112
000090 ee f3 3f 3f 88 71 0c 3f 3e da 18 3f 3e 60 07 3f
       0.7498158 0.54860735 0.5970801 0.5288123
0000a0 53 18 8a be ca 47 c9 3e f8 aa a4 3f ab 51 2f be
       -0.26971683 0.39312583 1.2864676 -0.17120998
0000b0 67 77 0a bf b3 b9 33 be 22 9a 8e 3f 35 00 00 40
       -0.54088444 -0.17551307 1.1140788 2.0000126
0000c0 f8 80 2b 3f ca d6 5f be 4f 3e 20 bf f8 a8 db be
       0.66993666 -0.2185928 -0.62595075 -0.4290235
0000d0 87 9e e6 3f c7 7e 49 3e 9d c9 fb be 72 35 02 bf
       1.8017129 0.19677268 -0.49177256 -0.508628
0000e0 1a 06 9f 3e 79 4e cf be e1 f9 0f 40 a0 ec 5a bf
       0.31059343 -0.40489557 2.2496264 -0.8551731
0000f0 ed 79 ae 3f 6a c4 36 3f 2f 0b 87 3f 9b 85 1d bf
       1.3630959 0.71393454 1.0550288 -0.6153199
000100 dd 69 8e 3f 83 33 5e be 62 85 40 be 4b 4d 25 3f
       1.1126057 -0.21699338 -0.18800882 0.64571065
000110 86 29 03 3f 4f 91 e8 3e 30 61 83 3f 17 88 ba 3f
       0.51235235 0.45423362 1.0264034 1.4572781
000120 81 4a d2 3f 5e a9 52 3f 0e 62 a7 3f a5 d3 ec be
       1.6428987 0.82289684 1.3076799 -0.46255222
000130 93 1c 85 3f f6 1e 81 3f 52 1f 8a be d6 d7 7b be
       1.0399345 1.0087574 -0.2697702 -0.24594054
000140 80 fd 1d 3f f3 53 85 3f af 54 17 3e 93 06 2b bc
       0.61714935 1.0416244 0.14778398 -0.010438579
000150 1b f2 88 3e fe 49 51 3f fa 15 5a bf cd 95 bd 3f
       0.26747212 0.8175353 -0.85189784 1.481134
000160 15 91 01 3f ff 14 92 be d4 11 ff 3d 7e 48 0c 40
       0.50612 -0.28531644 0.12454572 2.1919246
000170 e6 15 06 3f b8 2f b0 3f 94 b2 55 3f d8 82 8d 3f
       0.52377164 1.3764563 0.83475614 1.1055555
000180 14 64 4f 3f 28 05 5c 3f 6c 6c 45 3f f3 0e 77 3f
       0.8101208 0.8594537 0.77118564 0.96507186
000190 64 cf 8a 3f 4a bb c5 3f b1 70 0b 3f f4 14 4e bf
       1.084454 1.5447781 0.5446883 -0.8050072
0001a0 55 a8 8f bd 27 50 cc be 80 00 00 3f 19 65 5e 3e
       -0.07014529 -0.399049 0.5000076 0.21718253
0001b0 0c a2 3f 3e c0 24 d9 be 1e 01 c4 be 14 ed 1c 3f
       0.1871416 -0.4241085 -0.38282102 0.6129925
0001c0 8f 63 40 3f 4d 43 b1 3f e1 25 1b be 0b 83 92 3e
       0.75151914 1.3848664 -0.15151168 0.28615603
0001d0 75 f2 aa be b7 70 39 be 79 b4 c4 3e 29 c6 ec 3e
       -0.33388105 -0.18109404 0.3841894 0.46244934
0001e0 51 19 55 3d 5f 3e bd be 67 55 80 3f 5b f3 2e be
       0.052026097 -0.36961648 1.0026063 -0.1708502
0001f0 d8 52 82 3f 4c 5e 23 3f 17 0d 2e 3f 91 5b 43 3f
       1.0181532 0.6381576 0.67988724 0.76311594

arith.constant11 f4 [64]
000000 88 b6 3b bf c6 94 0b bf 34 c6 02 3f 89 fa 0d 3f
       -0.73325396 -0.54523885 0.51083684 0.5546041
000010 ad 75 09 bf cf ce a1 3f 3e b6 10 bf b9 73 f1 3d
       -0.53695184 1.2641238 -0.5652808 0.117896505
000020 25 9f 31 3f 30 30 9d be c6 e3 3c 3f 52 37 f3 3e
       0.6938346 -0.30700827 0.73785055 0.47503144
000030 95 94 59 3e 42 46 bc be ac 8d 4f 3f 22 e1 2d 3d
       0.21248086 -0.36772352 0.8107555 0.04245103
000040 1f 0d db 3d 4b 56 bc bf 0d 3a 9c bf 98 84 55 3f
       0.10695862 -1.4713835 -1.2205216 0.83405447
000050 a2 20 7b 3f 9c 2c f6 3e 8a 0f 9d bf 64 cf 7e 3f
       0.9809667 0.4808091 -1.2270367 0.995352
000060 25 aa 51 3f 11 57 26 bf ef 5a 28 bf 7d 7e 37 bf
       0.81900245 -0.649766 -0.65763754 -0.7167738
000070 f3 b8 69 be 22 2b af be 12 f5 17 3f 13 b9 e1 be
       -0.22824459 -0.34212595 0.5935832 -0.44086513
000080 e1 c6 09 3f 5a 8a fe 3e 17 96 60 3f e6 17 38 3f
       0.5381909 0.4971493 0.8772902 0.71911466
000090 ea 10 04 3f 7c d6 49 bf e3 f8 00 3f 75 e7 bf bd
       0.5158831 -0.788429 0.5037977 -0.09370319
0000a0 82 99 e1 3e d8 6e 5e 3e 90 a0 1c bf 9f 0a 30 3f
       0.4406243 0.21721971 -0.611825 0.68766207
0000b0 e4 14 a1 be 96 08 89 3d 7f f0 ca 3f 8d ba ad bf
       -0.3146125 0.06691091 1.5854644 -1.3572556
0000c0 57 e6 d3 bf aa 65 11 bf f7 96 eb 3e d7 64 0a 3e
       -1.6554669 -0.5679575 0.46013615 0.1351503
0000d0 11 03 91 3f d3 e6 06 bf 9f ce 07 3f d8 39 f3 3e
       1.1329061 -0.5269596 0.53049654 0.4750507
0000e0 2b fb e8 3e 8b 57 cb 3e 35 15 a6 bf 40 fe 8e 3e
       0.45504126 0.39715227 -1.2975222 0.27928352
0000f0 fa 67 82 3e 1a be a9 3f 41 ee ca 3e 06 aa 31 3f
       0.25469953 1.3261139 0.39634898 0.6940006

arith.constant12 f4 [32]
000000 e2 8f dc bf 5b bc 90 3e 00 69 3b 3f 6e d8 c6 3f
       -1.723141 0.28268704 0.7320709 1.5534799
000010 33 38 99 bf d2 ce e3 3e 3f a0 cd 3f 10 94 a0 bf
       -1.1970276 0.4449373 1.6064528 -1.2545185
000020 db 3a c0 bf 7c c1 a6 3f 5c 2b d0 3f 8b a2 dc 3f
       -1.5017961 1.3027797 1.6263232 1.7237104
000030 47 02 d0 3f d7 2b e7 3c 95 7b e4 3f 91 11 eb bf
       1.6250695 0.028219147 1.7850214 -1.8364736
000040 71 be b5 bf 3b d9 82 bf 74 88 42 bf 2a ba 94 3f
       -1.4198743 -1.0222543 -0.7598946 1.1619313
000050 40 9b c2 3f 18 72 cf bf 96 30 a4 3e 33 11 da 3f
       1.5203629 -1.6206694 0.32068318 1.7036499
000060 80 81 ba 3f 2d 2b 5d 3f ea 1e af 3f de 24 c5 3d
       1.457077 0.86394006 1.3681309 0.096261725
000070 68 67 7c bf 58 78 a5 3d 99 ac 86 bf 67 68 b4 bf
       -0.98595285 0.080795944 -1.0521423 -1.4094361

tfl.pseudo_qconst i1 [128, 1, 5, 64]
000000 32 fa f0 21 48 58 fc c4 c2 02 c0 c5 d6 2f c1 3b
       50 -6 -16 33 72 88 -4 -60 -62 2 -64 -59 -42 47 -63 59
000010 f4 2b d9 e1 09 48 30 15 3e fc 63 13 d4 ba 43 19
       -12 43 -39 -31 9 72 48 21 62 -4 99 19 -44 -70 67 25
000020 d6 ca f3 1c af 28 4c b7 cf 36 2f 1b b4 00 5c df
       -42 -54 -13 28 -81 40 76 -73 -49 54 47 27 -76 0 92 -33
000030 2f 0a 4e 1a 2c 19 13 eb 03 09 ff f0 c7 54 26 b0
       47 10 78 26 44 25 19 -21 3 9 -1 -16 -57 84 38 -80
000040 55 32 ec c1 5e 69 5d 45 1a dc 55 2c 08 10 17 1e
       85 50 -20 -63 94 105 93 69 26 -36 85 44 8 16 23 30
000050 2f 0d c7 eb ea ec 0a 47 d7 08 22 cd e2 f9 14 f6
       47 13 -57 -21 -22 -20 10 71 -41 8 34 -51 -30 -7 20 -10
000060 62 14 f6 ec be ce da 22 f7 e4 bb bc d1 2f 52 59
       98 20 -10 -20 -66 -50 -38 34 -9 -28 -69 -68 -47 47 82 89
000070 ef 29 1b d0 c4 cc 10 3b 34 24 46 67 b4 4d 0c 1c
       -17 41 27 -48 -60 -52 16 59 52 36 70 103 -76 77 12 28
000080 d4 1f 3d d8 3b 0c 18 c5 c8 65 29 c1 0a d9 05 ee
       -44 31 61 -40 59 12 24 -59 -56 101 41 -63 10 -39 5 -18
000090 0c 6d f4 15 e6 f4 e5 2f c9 51 f8 17 0a 16 cd 5a
       12 109 -12 21 -26 -12 -27 47 -55 81 -8 23 10 22 -51 90
0000a0 19 a3 3c 3a e9 d2 24 f7 27 ff 60 fb 23 40 f7 fc
       25 -93 60 58 -23 -46 36 -9 39 -1 96 -5 35 64 -9 -4
0000b0 cf fa df 10 fa 47 ec 1e 0c 19 26 fc ed fa e7 d1
       -49 -6 -33 16 -6 71 -20 30 12 25 38 -4 -19 -6 -25 -47
0000c0 11 0e 48 2e e8 ee 14 df e8 36 d9 e8 f8 49 d1 ae
       17 14 72 46 -24 -18 20 -33 -24 54 -39 -24 -8 73 -47 -82
0000d0 56 05 20 08 4f 09 65 53 33 12 29 f9 69 ad 74 12
       86 5 32 8 79 9 101 83 51 18 41 -7 105 -83 116 18
0000e0 2a 36 01 25 02 5b 07 53 17 4d 53 2a b3 dc 6e cd
       42 54 1 37 2 91 7 83 23 77 83 42 -77 -36 110 -51
0000f0 e3 ab c5 2c 1b cd cb 62 39 e4 04 33 bf fc ad eb
       -29 -85 -59 44 27 -51 -53 98 57 -28 4 51 -65 -4 -83 -21

tfl.pseudo_qconst1 i1 [64, 1, 7, 32]
000000 dd 01 b8 1d fa 5b b5 66 fe d6 cf f5 c4 01 b9 e9
       -35 1 -72 29 -6 91 -75 102 -2 -42 -49 -11 -60 1 -71 -23
000010 10 17 59 cf b5 de 3d ed 13 48 df 45 0a d2 02 e3
       16 23 89 -49 -75 -34 61 -19 19 72 -33 69 10 -46 2 -29
000020 2d 2a e2 31 0e 3f c3 2a f2 29 f5 c5 36 ad df 28
       45 42 -30 49 14 63 -61 42 -14 41 -11 -59 54 -83 -33 40
000030 e8 2a 3d 3f d0 d4 a6 01 1b 20 10 ff e5 ec d9 2a
       -24 42 61 63 -48 -44 -90 1 27 32 16 -1 -27 -20 -39 42
000040 fd 26 39 0e 0f 05 fe fa 00 2b 2a f6 d5 1f 41 34
       -3 38 57 14 15 5 -2 -6 0 43 42 -10 -43 31 65 52
000050 15 29 06 26 25 3d ef 44 d4 7a 45 d9 26 02 48 da
       21 41 6 38 37 61 -17 68 -44 122 69 -39 38 2 72 -38
000060 dd 08 24 57 df d0 db e9 da 3b de 3e 41 d1 5c a5
       -35 8 36 87 -33 -48 -37 -23 -38 59 -34 62 65 -47 92 -91
000070 04 fb 29 eb 03 e6 a3 32 f5 3f 37 c4 e2 ba 25 d5
       4 -5 41 -21 3 -26 -93 50 -11 63 55 -60 -30 -70 37 -43
000080 d5 24 e3 ca 1a 23 e1 21 33 d9 06 db 12 03 f0 05
       -43 36 -29 -54 26 35 -31 33 51 -39 6 -37 18 3 -16 5
000090 c2 a6 1c 39 32 41 c1 13 f0 fa e9 f4 cf ed 12 ba
       -62 -90 28 57 50 65 -63 19 -16 -6 -23 -12 -49 -19 18 -70
0000a0 29 da 25 ee b0 43 20 2f 33 d1 12 23 07 9d 01 36
       41 -38 37 -18 -80 67 32 47 51 -47 18 35 7 -99 1 54
0000b0 42 32 e4 35 5d 33 10 42 e6 dc 1f fe 4a c5 49 e2
       66 50 -28 53 93 51 16 66 -26 -36 31 -2 74 -59 73 -30
0000c0 ed 10 4b 43 00 61 54 11 e2 0e e7 2f 5a eb 41 5e
       -19 16 75 67 0 97 84 17 -30 14 -25 47 90 -21 65 94
0000d0 fe 3d e1 7f 0a cc f4 5f 36 21 ef 89 0b 8b 3f 09
       -2 61 -31 127 10 -52 -12 95 54 33 -17 -119 11 -117 63 9
0000e0 12 2c c0 9a 12 1c 17 fa c5 40 a4 a7 e7 44 48 06
       18 44 -64 -102 18 28 23 -6 -59 64 -92 -89 -25 68 72 6
0000f0 be de 03 ab ed bb 9f ed 27 25 e7 3d 17 6b 35 1e
       -66 -34 3 -85 -19 -69 -97 -19 39 37 -25 61 23 107 53 30

tfl.pseudo_qconst2 i1 [64, 128]
000000 55 0b e8 68 21 55 bf 13 11 36 c1 b9 58 66 b3 e0
       85 11 -24 104 33 85 -65 19 17 54 -63 -71 88 102 -77 -32
000010 88 5d ca 72 f6 fc 40 d8 69 fd de dc 10 08 b5 a1
       -120 93 -54 114 -10 -4 64 -40 105 -3 -34 -36 16 8 -75 -95
000020 52 fd 13 8c 37 a4 98 59 fe f1 1a a7 43 fa 6f d4
       82 -3 19 -116 55 -92 -104 89 -2 -15 26 -89 67 -6 111 -44
000030 b6 c4 a3 7c 51 20 67 de a6 1f 4c eb 52 b7 19 1e
       -74 -60 -93 124 81 32 103 -34 -90 31 76 -21 82 -73 25 30
000040 d8 cb a0 63 a3 17 88 6f 24 5a 9e f0 be f0 f4 43
       -40 -53 -96 99 -93 23 -120 111 36 90 -98 -16 -66 -16 -12 67
000050 cc 79 18 6f 8c 48 ee 18 31 81 22 73 61 9a bf 19
       -52 121 24 111 -116 72 -18 24 49 -127 34 115 97 -102 -65 25
000060 2b d6 53 09 78 af d5 35 da bb de 10 c9 f1 9c 77
       43 -42 83 9 120 -81 -43 53 -38 -69 -34 16 -55 -15 -100 119
000070 4f bb ea e1 c0 9f fa a0 37 d6 c5 6d 96 6f aa 34
       79 -69 -22 -31 -64 -97 -6 -96 55 -42 -59 109 -106 111 -86 52
000080 81 3e 40 de f5 db 6a 47 ae f3 11 dd 21 38 53 35
       -127 62 64 -34 -11 -37 106 71 -82 -13 17 -35 33 56 83 53
000090 23 69 2c 07 b8 b5 ee 68 b1 07 f3 eb 5d 22 a8 49
       35 105 44 7 -72 -75 -18 104 -79 7 -13 -21 93 34 -88 73
0000a0 b8 ae 30 42 f5 ce ec ed fd ec 19 b1 31 44 57 c7
       -72 -82 48 66 -11 -50 -20 -19 -3 -20 25 -79 49 68 87 -57
0000b0 e2 56 fe 4a 2f bd 06 e8 e2 2b 52 47 ba e1 42 d4
       -30 86 -2 74 47 -67 6 -24 -30 43 82 71 -70 -31 66 -44
0000c0 c0 39 b8 01 e3 1a ba dd 5f 99 0d d3 9e 4d 30 a6
       -64 57 -72 1 -29 26 -70 -35 95 -103 13 -45 -98 77 48 -90
0000d0 35 c9 42 4e 20 25 5a cc b4 c7 3a c9 fe 37 b3 30
       53 -55 66 78 32 37 90 -52 -76 -57 58 -55 -2 55 -77 48
0000e0 c1 54 ef 4e d9 47 34 29 2f 23 f0 21 37 de ca 00
       -63 84 -17 78 -39 71 52 41 47 35 -16 33 55 -34 -54 0
0000f0 3c 04 af ea 4c 9a 49 00 33 e5 b6 2f 31 1e 38 53
       60 4 -81 -22 76 -102 73 0 51 -27 -74 47 49 30 56 83

tfl.pseudo_qconst3 i1 [128, 128]
000000 b7 25 05 bb eb ca 1d 1c ec 33 e6 44 ad 69 4f 6b
       -73 37 5 -69 -21 -54 29 28 -20 51 -26 68 -83 105 79 107
000010 f7 41 23 86 91 e8 bf 4c 12 81 d1 da ee da f7 e8
       -9 65 35 -122 -111 -24 -65 76 18 -127 -47 -38 -18 -38 -9 -24
000020 40 a2 45 22 b0 b5 74 4d d5 19 5f 71 72 98 2f a2
       64 -94 69 34 -80 -75 116 77 -43 25 95 113 114 -104 47 -94
000030 de 71 0c 54 b5 f6 dd ed a3 13 db 3f 16 00 1f 32
       -34 113 12 84 -75 -10 -35 -19 -93 19 -37 63 22 0 31 50
000040 16 f9 88 15 45 e9 e3 66 3d 11 58 af 08 a8 b0 e3
       22 -7 -120 21 69 -23 -29 102 61 17 88 -81 8 -88 -80 -29
000050 63 d4 d1 28 01 2a c7 56 05 1f 93 18 24 b8 24 0d
       99 -44 -47 40 1 42 -57 86 5 31 -109 24 36 -72 36 13
000060 28 e3 4d e7 66 54 48 ec fb 02 e9 f8 57 30 0d 21
       40 -29 77 -25 102 84 72 -20 -5 2 -23 -8 87 48 13 33
000070 e5 92 fd 0f cc 23 f7 f5 33 bf d5 86 d8 ae e1 a3
       -27 -110 -3 15 -52 35 -9 -11 51 -65 -43 -122 -40 -82 -31 -93
000080 9a 33 25 d2 1a 0d dc e2 08 e6 02 cc f9 a0 f9 d6
       -102 51 37 -46 26 13 -36 -30 8 -26 2 -52 -7 -96 -7 -42
000090 ce bb 33 05 ae d6 05 ab c9 b3 eb f4 3c 1a bc a5
       -50 -69 51 5 -82 -42 5 -85 -55 -77 -21 -12 60 26 -68 -91
0000a0 51 2f 21 5e 1a f0 fa bb 9e 31 8d 09 95 16 2b f2
       81 47 33 94 26 -16 -6 -69 -98 49 -115 9 -107 22 43 -14
0000b0 fa b2 c5 b9 c8 0d aa ea 16 a6 af 0e 14 2c 51 3b
       -6 -78 -59 -71 -56 13 -86 -22 22 -90 -81 14 20 44 81 59
0000c0 3c 3c c5 28 51 18 5c 21 a9 df 12 ce b7 43 35 16
       60 60 -59 40 81 24 92 33 -87 -33 18 -50 -73 67 53 22
0000d0 15 34 a3 ee bb 0e c0 be c2 2d 29 f9 cf 4c d3 95
       21 52 -93 -18 -69 14 -64 -66 -62 45 41 -7 -49 76 -45 -107
0000e0 4f 39 36 81 c8 2b dc a6 19 03 08 e0 9d 00 de ca
       79 57 54 -127 -56 43 -36 -90 25 3 8 -32 -99 0 -34 -54
0000f0 22 ae 47 c0 1a f0 35 2a 4f 0c 57 2b 55 12 de 31
       34 -82 71 -64 26 -16 53 42 79 12 87 43 85 18 -34 49
