SensaLimbNucleoU575ZIQ/model_int8.tflite (tflite, 99296 bytes, 6 tensors)

tfl.pseudo_qconst1 i1 [1, 64] scale=0.004264157 zero_point=0
00000000: 19d3 e118 e52c d409 3906 f61a 36bd 19e3
00000010: daf6 e57f 0712 d4a9 dccd 1deb 3d45 8a22
00000020: ede2 f40a 27de dadd 0abc f6ee 351d c30f
00000030: de23 0f0d 9c55 3fe2 28d6 ea24 3bee f51d
0.10660392 -0.19188705 -0.13218886 0.10233976 -0.115132235 0.1876229 -0.1876229 0.03837741
0.24305694 0.02558494 -0.04264157 0.110868074 0.23026447 -0.2856985 0.10660392 -0.12366055
-0.16203795 -0.04264157 -0.115132235 0.5415479 0.029849097 0.07675482 -0.1876229 -0.37098163
-0.15350965 -0.217472 0.12366055 -0.08954729 0.26011357 0.29422683 -0.5031705 0.14498132
-0.08101898 -0.12792471 -0.05116988 0.04264157 0.16630211 -0.14498132 -0.16203795 -0.14924549
0.04264157 -0.28996265 -0.04264157 -0.07675482 0.22600031 0.12366055 -0.26011357 0.063962355
-0.14498132 0.14924549 0.063962355 0.055434037 -0.42641568 0.36245334 0.2686419 -0.12792471
0.17056628 -0.17909458 -0.09381145 0.15350965 0.25158525 -0.07675482 -0.046905726 0.12366055

tfl.pseudo_qconst3 i1 [64, 128]
00000000: d7f8 30d2 35eb 1f34 ff42 c924 ecef d9dd
00000010: bc0b f1c5 3ec7 f6d3 4a0d f6e8 d4ff 331d
00000020: e715 4a26 20bd f9f9 1d1f cfec 1849 3e3e
00000030: e812 222f 480b 46be eeed bafd 232f fbee
00000040: 1ec2 c345 ccf4 d44a dbf2 d5f4 b522 fed6
00000050: 353a 3907 4ed9 c305 0a2b 33c5 d218 e925
00000060: 39ee 2fdf c6cd f61a 09f0 50ea b30e 452a
00000070: be9b c5c4 cc0f 9a81 62b8 1c4f 4bed 1220
00000080: f030 ee20 c017 15d6 0aee fc0f c5c8 c21e
00000090: 1706 02fc 25de 39c6 d9fe 3112 0ff7 cee7
000000a0: de1c 2aec 37fc 19de a022 faf7 c5fc 45fc
000000b0: 1ae2 1d0a 1e2c 1109 00bb 3a21 38ea 9936
000000c0: e6f5 2a1e 1402 0735 e01c 3be6 b70c dac3
000000d0: 2efd 13f8 3a26 1a05 0020 36d2 0ff4 39ea
000000e0: 18e5 1b2c f3fa d7fc d904 0794 d8ff 2f02
000000f0: f2ec eec6 fe1d 179b bacc bdfc 2781 0513
-41 -8 48 -46 53 -21 31 52
-1 66 -55 36 -20 -17 -39 -35
-68 11 -15 -59 62 -57 -10 -45
74 13 -10 -24 -44 -1 51 29
-25 21 74 38 32 -67 -7 -7
29 31 -49 -20 24 73 62 62
-24 18 34 47 72 11 70 -66
-18 -19 -70 -3 35 47 -5 -18
30 -62 -61 69 -52 -12 -44 74
-37 -14 -43 -12 -75 34 -2 -42
53 58 57 7 78 -39 -61 5
10 43 51 -59 -46 24 -23 37
57 -18 47 -33 -58 -51 -10 26
9 -16 80 -22 -77 14 69 42
-66 -101 -59 -60 -52 15 -102 -127
98 -72 28 79 75 -19 18 32
-16 48 -18 32 -64 23 21 -42
10 -18 -4 15 -59 -56 -62 30
23 6 2 -4 37 -34 57 -58
-39 -2 49 18 15 -9 -50 -25
-34 28 42 -20 55 -4 25 -34
-96 34 -6 -9 -59 -4 69 -4
26 -30 29 10 30 44 17 9
0 -69 58 33 56 -22 -103 54
-26 -11 42 30 20 2 7 53
-32 28 59 -26 -73 12 -38 -61
46 -3 19 -8 58 38 26 5
0 32 54 -46 15 -12 57 -22
24 -27 27 44 -13 -6 -41 -4
-39 4 7 -108 -40 -1 47 2
-14 -20 -18 -58 -2 29 23 -101
-70 -52 -67 -4 39 -127 5 19

tfl.pseudo_qconst5 i1 [128, 128]
00000000: b1d6 39d8 f136 3ef2 c426 e1fc 38d1 02f2
00000010: 5293 57e8 deb0 221d b1f2 c6d8 24fb f450
00000020: 3a46 28dc d1e6 01b2 d9c7 26c3 aea4 e4b6
00000030: ac14 125a ed4d b7e0 d2b1 e4cf 9de4 26ea
00000040: a700 18ea e3ed c5cf 99e4 2c3e 3800 cfdf
00000050: 14ca d8eb 2af8 a9a7 d232 f8f6 bad9 4ebd
00000060: 4b19 c240 2d5a cfb1 b8c3 1fbe 1c27 cfeb
00000070: fe18 fb81 94ff e6bf e604 c723 ed0e 2c84
00000080: 89b1 e91e fd08 1ab5 c7b0 369a 3731 24f3
00000090: 1f8c 232a e2a9 2e5c f020 f7f9 a643 191d
000000a0: 27aa c2d0 20dc febf 0905 37d9 1bd2 1f33
000000b0: d727 4304 06c4 4850 ecef 0548 1946 1beb
000000c0: e018 032b a325 81e6 06ec 07fe 323f f7ae
000000d0: 089e 9424 1f5c 9cff dc11 3716 b23f 55b5
000000e0: c30f 4600 242a f23c f508 4699 4e0e fdab
000000f0: 30f2 9e8f d03c 15fb dfc3 103c 4bec 01e9
-79 -42 57 -40 -15 54 62 -14
-60 38 -31 -4 56 -47 2 -14
82 -109 87 -24 -34 -80 34 29
-79 -14 -58 -40 36 -5 -12 80
58 70 40 -36 -47 -26 1 -78
-39 -57 38 -61 -82 -92 -28 -74
-84 20 18 90 -19 77 -73 -32
-46 -79 -28 -49 -99 -28 38 -22
-89 0 24 -22 -29 -19 -59 -49
-103 -28 44 62 56 0 -49 -33
20 -54 -40 -21 42 -8 -87 -89
-46 50 -8 -10 -70 -39 78 -67
75 25 -62 64 45 90 -49 -79
-72 -61 31 -66 28 39 -49 -21
-2 24 -5 -127 -108 -1 -26 -65
-26 4 -57 35 -19 14 44 -124
-119 -79 -23 30 -3 8 26 -75
-57 -80 54 -102 55 49 36 -13
31 -116 35 42 -30 -87 46 92
-16 32 -9 -7 -90 67 25 29
39 -86 -62 -48 32 -36 -2 -65
9 5 55 -39 27 -46 31 51
-41 39 67 4 6 -60 72 80
-20 -17 5 72 25 70 27 -21
-32 24 3 43 -93 37 -127 -26
6 -20 7 -2 50 63 -9 -82
8 -98 -108 36 31 92 -100 -1
-36 17 55 22 -78 63 85 -75
-61 15 70 0 36 42 -14 60
-11 8 70 -103 78 14 -3 -85
48 -14 -98 -113 -48 60 21 -5
-33 -61 16 60 75 -20 1 -23

tfl.pseudo_qconst7 i1 [128, 1, 5, 64]
00000000: f12d 24bd 48c2 08d7 0d1c e714 0a01 220f
00000010: fafb ccfe 1cf9 0525 e7fe 44e8 0ae6 0af9
00000020: 3d01 d2fe ec2f 2620 2802 e1e9 0421 1ff3
00000030: bd20 0ee0 09d7 0500 faf9 14b8 24e9 ebef
00000040: ea1e 2bed 71d1 f5ea 1f34 f632 1003 2315
00000050: fbe8 d50d 3804 162b 0e2b 4bde 1c0b 3817
00000060: 1a29 f513 fe29 3423 470b fbf6 2d19 31ef
00000070: cbfe fade 11e6 2f3e 0ff3 2707 2909 d809
00000080: d40d 16e0 4dd8 03fb 202e d903 1f0d 0d13
00000090: faf8 f819 3bf9 1121 0d05 44de 0e0a 4113
000000a0: 3421 1209 f81e 22fb 2412 faea 0e0e 02d6
000000b0: bd23 0dc9 2bf9 e917 f7ff 19f5 07db de0e
000000c0: e521 23cf 7feb 24e7 2224 f730 1ef7 1526
000000d0: 05e8 f61d 360d 290e e4f4 31dc fde8 1b07
000000e0: 2b06 0611 e61f 2410 2f20 f1de 0f10 0cce
000000f0: e514 28bf 09dc 0002 efec 10f4 04ee e70e
-15 45 36 -67 72 -62 8 -41
13 28 -25 20 10 1 34 15
-6 -5 -52 -2 28 -7 5 37
-25 -2 68 -24 10 -26 10 -7
61 1 -46 -2 -20 47 38 32
40 2 -31 -23 4 33 31 -13
-67 32 14 -32 9 -41 5 0
-6 -7 20 -72 36 -23 -21 -17
-22 30 43 -19 113 -47 -11 -22
31 52 -10 50 16 3 35 21
-5 -24 -43 13 56 4 22 43
14 43 75 -34 28 11 56 23
26 41 -11 19 -2 41 52 35
71 11 -5 -10 45 25 49 -17
-53 -2 -6 -34 17 -26 47 62
15 -13 39 7 41 9 -40 9
-44 13 22 -32 77 -40 3 -5
32 46 -39 3 31 13 13 19
-6 -8 -8 25 59 -7 17 33
13 5 68 -34 14 10 65 19
52 33 18 9 -8 30 34 -5
36 18 -6 -22 14 14 2 -42
-67 35 13 -55 43 -7 -23 23
-9 -1 25 -11 7 -37 -34 14
-27 33 35 -49 127 -21 36 -25
34 36 -9 48 30 -9 21 38
5 -24 -10 29 54 13 41 14
-28 -12 49 -36 -3 -24 27 7
43 6 6 17 -26 31 36 16
47 32 -15 -34 15 16 12 -50
-27 20 40 -65 9 -36 0 2
-17 -20 16 -12 4 -18 -25 14

tfl.pseudo_qconst9 i1 [64, 1, 7, 32]
00000000: bafc f7db db07 f92c ce23 fcb2 0ebc 99d8
00000010: edce fcfa eff8 23cf dff2 10e9 fd07 d7f0
00000020: d6ec 1cef d5d1 db02 cb31 ffdb fabd 81cb
00000030: d6f5 0118 e924 22b4 d011 e51e d3ef d122
00000040: f316 2ded e2da 2116 ba36 1e05 c7c6 e3dd
00000050: ba11 1cff 0626 0cb6 ef15 fffa 150d 0c21
00000060: f2e9 280e f4c7 2b29 2234 10e8 1ee9 0df3
00000070: 200b 1e14 f626 14e0 e9f3 d30d 0739 f814
00000080: f2fa 14ef a4cd f00c be3a 1f05 d7e1 09fd
00000090: a90c fbff f510 0bac fee7 ce21 fc25 f31f
000000a0: 09f6 26ee d3ba 100f 1412 2e10 01f9 fc09
000000b0: 0923 19e3 1a1e f8ea 20ff b816 e425 1222
000000c0: 16fb 15fb b8b1 0afa cb11 15ef b5cc f8e9
000000d0: 842c f70c f818 0185 d71e d7f6 e41a 061c
000000e0: ef01 f4cb 0d12 16ec f400 04f2 f004 f8f0
000000f0: 160e 01fd 04ec 1b0f d801 f90e bc0d 02ef
-70 -4 -9 -37 -37 7 -7 44
-50 35 -4 -78 14 -68 -103 -40
-19 -50 -4 -6 -17 -8 35 -49
-33 -14 16 -23 -3 7 -41 -16
-42 -20 28 -17 -43 -47 -37 2
-53 49 -1 -37 -6 -67 -127 -53
-42 -11 1 24 -23 36 34 -76
-48 17 -27 30 -45 -17 -47 34
-13 22 45 -19 -30 -38 33 22
-70 54 30 5 -57 -58 -29 -35
-70 17 28 -1 6 38 12 -74
-17 21 -1 -6 21 13 12 33
-14 -23 40 14 -12 -57 43 41
34 52 16 -24 30 -23 13 -13
32 11 30 20 -10 38 20 -32
-23 -13 -45 13 7 57 -8 20
-14 -6 20 -17 -92 -51 -16 12
-66 58 31 5 -41 -31 9 -3
-87 12 -5 -1 -11 16 11 -84
-2 -25 -50 33 -4 37 -13 31
9 -10 38 -18 -45 -70 16 15
20 18 46 16 1 -7 -4 9
9 35 25 -29 26 30 -8 -22
32 -1 -72 22 -28 37 18 34
22 -5 21 -5 -72 -79 10 -6
-53 17 21 -17 -75 -52 -8 -23
-124 44 -9 12 -8 24 1 -123
-41 30 -41 -10 -28 26 6 28
-17 1 -12 -53 13 18 22 -20
-12 0 4 -14 -16 4 -8 -16
22 14 1 -3 4 -20 27 15
-40 1 -7 14 -68 13 2 -17

tfl.pseudo_qconst11 i1 [32, 1, 9, 3]
00000000: b23b 5c04 eae3 07f8 1f0b ca48 2211 1e29
00000010: 47ba 3c12 90c5 39ad d722 81ed 40a1 1907
00000020: b7dc f38b de13 0422 e6ff 1fd4 2def 0d49
00000030: 302b 4cca c27f 0232 05ee e9f2 10e3 ebef
00000040: 03d5 f9ee ff10 1a2f e5f2 0d24 c949 14d2
00000050: 7f0e 05e5 f216 bdee f113 f20f 2c1c 0f0f
00000060: 0ef6 72f3 eb7f f609 e605 eb17 0bee 2f01
00000070: f832 f0e6 ed0f 19fe 0ef3 c015 0bdd 0020
00000080: 810b ef10 e418 d802 f936 1cef 13f6 df01
00000090: fc17 bafa fb81 0915 0de5 f4c2 ea1a 15fc
000000a0: f6db 4cf0 f0d0 cee3 c52d df30 dd7f 43da
000000b0: 66d7 1224 fa0f cdde 6bad 2c2e d216 2338
000000c0: f91f 26bd 3af0 d2e3 16f0 0119 852e c181
000000d0: eadd b43b 250a 0ed1 fa13 42df 1253 0ceb
000000e0: 00da dc30 042b d7ee 0097 f60c 81b7 0ec5
000000f0: 1624 f3ee f5ca 22d7 2028 f350 02bf 7d11
-78 59 92 4 -22 -29 7 -8
31 11 -54 72 34 17 30 41
71 -70 60 18 -112 -59 57 -83
-41 34 -127 -19 64 -95 25 7
-73 -36 -13 -117 -34 19 4 34
-26 -1 31 -44 45 -17 13 73
48 43 76 -54 -62 127 2 50
5 -18 -23 -14 16 -29 -21 -17
3 -43 -7 -18 -1 16 26 47
-27 -14 13 36 -55 73 20 -46
127 14 5 -27 -14 22 -67 -18
-15 19 -14 15 44 28 15 15
14 -10 114 -13 -21 127 -10 9
-26 5 -21 23 11 -18 47 1
-8 50 -16 -26 -19 15 25 -2
14 -13 -64 21 11 -35 0 32
-127 11 -17 16 -28 24 -40 2
-7 54 28 -17 19 -10 -33 1
-4 23 -70 -6 -5 -127 9 21
13 -27 -12 -62 -22 26 21 -4
-10 -37 76 -16 -16 -48 -50 -29
-59 45 -33 48 -35 127 67 -38
102 -41 18 36 -6 15 -51 -34
107 -83 44 46 -46 22 35 56
-7 31 38 -67 58 -16 -46 -29
22 -16 1 25 -123 46 -63 -127
-22 -35 -76 59 37 10 14 -47
-6 19 66 -33 18 83 12 -21
0 -38 -36 48 4 43 -41 -18
0 -105 -10 12 -127 -73 14 -59
22 36 -13 -18 -11 -54 34 -41
32 40 -13 80 2 -65 125 17
