ML/models/conv1d_angle_toro_ossaba/seed8_20260116_234517_176/model.tflite (tflite, 96000 bytes, 11 tensors)

arith.constant2 f4 [1, 64]
00000000: e2f7 71bd c272 a23d c8d7 49be 7a5c 183d
00000010: 7997 99bd 0446 083e 8fbd 4f3e 3d67 72be
00000020: 3ade 22be 575d 803e b37f 793e 6f59 b1bd
00000030: 4a68 f03d 2600 333e 432a 373e 8d59 05be
00000040: 2268 933d 01a8 2ebe 489f 953e 232d 4cbd
00000050: b8fe 2ebe 7521 a93e e62b 983c 1a9b 3a3e
00000060: 324d 2d3e 28a7 69be be6e 923d e403 c13d
00000070: 0365 0b3e ab65 ecbd e998 473e 561d 55be
00000080: eee5 4dbd 20bc c23d a7c8 873e 4ab2 e8bd
00000090: 4fb9 953d c976 d73d c64e e6bc 2c43 a2bd
000000a0: 5561 343e 4758 ec3d d6e4 2abe 9ef7 723d
000000b0: ac5f 3bbe f7aa 6c3e 1f28 0a3e fbf1 8f3e
000000c0: 33c1 753e 0863 803e c5f8 5f3e de07 7b3e
000000d0: 695f 64be 2a0c 653e d7f2 48be dfb5 7dbd
000000e0: 6155 4c3e 635f 1a3d 474b 533e b76c 343e
000000f0: ab06 6cbe 54c8 dbbd f7a3 2cbe 42b1 063e
-0.05907429 0.079320446 -0.1971122 0.037197568 -0.07499594 0.13307959 0.20287155 -0.23672195
-0.15905085 0.25071213 0.2436512 -0.08659636 0.117386416 0.17480525 0.17887215 -0.13022442
0.07197596 -0.17056276 0.29223084 -0.049847733 -0.17089355 0.33033338 0.01857562 0.18223229
0.16923979 -0.22817671 0.07150029 0.0942457 0.13612752 -0.11542829 0.19491924 -0.20811972
-0.050268106 0.09508538 0.26520273 -0.11362131 0.073107354 0.10520703 -0.028113734 -0.07922968
0.17615254 0.11540275 -0.16688856 0.059318177 -0.18298215 0.23112093 0.13491867 0.28114304
0.23999481 0.25075555 0.21872242 0.2451472 -0.22302021 0.22367921 -0.19623886 -0.061941024
0.19954444 0.037688624 0.20634185 0.17619596 -0.23049419 -0.10731569 -0.16859423 0.13153556

arith.constant7 f4 [128]
00000000: 5b35 96bc 0e0e 9abc aae9 03bc 1f64 c4bc
00000010: 378c 68bb 7363 d7bc e415 963b dcde 8cbb
00000020: 6479 0cbc 4d0e a0bb 47fd c7bc 3f2c b0bc
00000030: e55c dbbc db0f dfbc 157a 45bc 9dff 30bb
00000040: 7b7f ebbb df04 37bc d1e4 e9bc 8ecb 33bc
00000050: 239e ec3a 8883 71bc 0450 94bb 3c47 013b
00000060: 0c09 fcbb d522 2bbc d8fb 87bc 5101 85bc
00000070: 8bd1 81bc f563 c2bc 29eb 01bc 0000 0000
00000080: ddcb 35ba 87b0 a1bb fd40 3dbc f376 0dbc
00000090: 409f a0bc fbd4 44bc 69a8 8cbc 903a 3cbc
000000a0: 10a2 bebc 61a1 15bc 3879 00bc 11cb adbc
000000b0: 60dd 8abb 7dc0 83bb acc7 0abc bc77 4cbc
000000c0: 8dcd 153b 3c8e 06bc 7449 5ebc 83c0 c4bc
000000d0: d113 12bc 404f a4bb 65a2 ebba c30c e7bb
000000e0: 52e4 dcbc a2cd 95bb 9d89 1d3c 3dfe 773b
000000f0: 5767 d3bc fa9f e53b a156 f7bb 6cda e63a
00000100: 6353 a6bc d829 78bc 1fc1 96bc 321a a2bc
00000110: 397a dc3b 0386 75bb 2b1b 6e39 eb86 29bc
00000120: 8595 87bc e073 05ba 360e 9ebc ef7e a83b
00000130: 72e7 eb38 f849 a83c 94ef 60ba a620 a4bc
00000140: 3013 9bbc 498d 08bd 5386 95bc c34b 13bc
00000150: 9afc 14bc d456 e1bb 5ef1 98bc ca5d 25bc
00000160: 7081 7ebc 9fb8 7bb9 5341 8fbc 2e27 9dbc
00000170: 7c65 89bb 59d6 3cbc 3c55 b7bc 4835 1ebc
00000180: dc74 9ebc e354 99bb 6be9 56bc 2ff6 3cbc
00000190: f2d8 5dbc 5f27 61bc 9061 d7bb 3640 89bc
000001a0: ad9d b939 7489 573b eb6e 00bc 3a35 953c
000001b0: 466a 973a b648 e7bc f686 05bc deb6 4abc
000001c0: c1cc d23b d997 19bc f14f 11bc 0000 0000
000001d0: f943 a5bc e2f3 c4bb dbd2 48bc 0c7b 80bc
000001e0: dd9f f7bb f813 b5bc 6703 92bb 7e8c fbbb
000001f0: 5b48 85bc 0310 213b 3f76 583b 7f9a a4bc
-0.018335989 -0.01880553 -0.008051315 -0.023973523 -0.0035483965 -0.026292538 0.0045802463 -0.004299028
-0.008573864 -0.0048845173 -0.024412764 -0.021505473 -0.026777694 -0.02722924 -0.012053032 -0.0027007826
-0.0071868277 -0.011170595 -0.028551491 -0.010973824 0.00180525 -0.014740832 -0.00452614 0.0019726297
-0.007691508 -0.010445316 -0.01659958 -0.01623598 -0.015846988 -0.023729304 -0.007929602 0.0
-0.000693498 -0.004934374 -0.011551139 -0.008634317 -0.019607186 -0.012013669 -0.017170148 -0.011488572
-0.023270637 -0.009132714 -0.007841401 -0.021214994 -0.0042378157 -0.004020749 -0.008470457 -0.012479719
0.0022858114 -0.008212622 -0.013567317 -0.024017578 -0.008915857 -0.00501433 -0.0017977474 -0.007051082
-0.02696434 -0.0045716325 0.009615329 0.0037840747 -0.025806112 0.007007596 -0.007548169 0.0017612702
-0.020303434 -0.015146695 -0.018402634 -0.019787882 0.0067284373 -0.003746391 0.0002270757 -0.010347108
-0.016550789 -0.0005090814 -0.019293886 0.005142085 0.00011248783 0.020543084 -0.0008580622 -0.0200351
-0.018930048 -0.033337865 -0.018252527 -0.008990231 -0.009093428 -0.006876806 -0.01866978 -0.010093162
-0.01553379 -0.00024006002 -0.017487204 -0.019183721 -0.004193006 -0.011525714 -0.02237951 -0.009656258
-0.019342832 -0.0046793087 -0.013117175 -0.011533304 -0.013540493 -0.013742297 -0.0065729097 -0.016754251
0.00035403427 0.0032888325 -0.007838945 0.018213857 0.0011552058 -0.028232913 -0.008149853 -0.0123727005
0.0064331 -0.009374582 -0.008869157 0.0 -0.020174013 -0.0060105184 -0.012257303 -0.015683673
-0.007556899 -0.022104248 -0.004455972 -0.00767666 -0.016269853 0.0024576194 0.0033029465 -0.0200932

arith.constant8 f4 [64]
00000000: faef 9bbc 4e1c edbb 6a72 593d a628 4a3c
00000010: d7ea 9f3c 1ce3 bfbc b890 663c e244 e03c
00000020: e83f 6d3d 0d54 da3d 5382 7aba 4bce ed3b
00000030: de66 e7bc 8b5b aebc c2ec 2b3d 67ea 2cbb
00000040: 419b 1bbd 5188 583d 02ec d73c d2fb 0d3c
00000050: c215 223d 9613 953d 3c47 34bd efd3 45bc
00000060: 919a 053d 9953 9e3c 2f18 3ebc 606b c73b
00000070: 03df 333c 3699 493d d61b 03bc 7ec2 283d
00000080: 46bc 08bb 084e 3ebd 1942 283c fe2f ce3c
00000090: 47d4 9a3b 8a8c 3abd a37d 9cbc a9e3 293c
000000a0: 66b2 77bb 1b58 213d 2dad 2c3d 5743 bcbc
000000b0: 05cb 0dbb 95c6 823c b666 babc c25a d23c
000000c0: 813f 21bb 8479 113c d4ea f63c f7bf 893c
000000d0: 28ba 223d ccae 30bc 2a4f 8b3c f715 253b
000000e0: 01ef f43c c588 40bd 45b1 9cbb 44ed a1bb
000000f0: 239d 533d 57f8 0f3d 981d ea3c 98aa 1b3b
-0.019035328 -0.00723604 0.05308763 0.012338793 0.01952116 -0.023423724 0.01407259 0.027376596
0.057922274 0.10660563 -0.0009556163 0.007257258 -0.028247293 -0.021283885 0.041973837 -0.0026384832
-0.03798986 0.052864376 0.026357654 0.008665996 0.03957153 0.07279126 -0.044013247 -0.012074455
0.03261811 0.019326972 -0.0116024455 0.006085798 0.010978463 0.04921838 -0.008002242 0.041201107
-0.0020864173 -0.046461135 0.010269665 0.025169369 0.0047250125 -0.045544185 -0.019102877 0.01036922
-0.0037795543 0.039390665 0.04215734 -0.022981329 -0.0021635902 0.015963832 -0.022754055 0.025678042
-0.0024604502 0.008879069 0.030141272 0.016815169 0.039728314 -0.010783862 0.017005522 0.0025190094
0.029899122 -0.047005434 -0.0047818744 -0.0049416143 0.05166353 0.035148945 0.028578565 0.0023752805

arith.constant9 f4 [32, 1, 9, 3]
00000000: 4316 25c0 fd43 0c40 e70b 7f3f 3cad 803f
00000010: 3a95 723e 310f 0740 006d 6dbf 8cd3 25c0
00000020: 1ea4 81be 8755 d13f f1c5 9dbe 221f b33f
00000030: 6617 6e3f 13c4 0fc0 87bf 9f3f 5344 0e3f
00000040: c6ba e23f 3528 0040 d229 013f 4a47 d73f
00000050: b469 94bf 530a cdbf bc0e 5c3e 8c96 b4bf
00000060: a873 a6be 8b68 0cbf 16b3 82c0 0bab e5bf
00000070: 4998 8b3f 484f 3e3f 3c7d 2bc0 e3fc fe3f
00000080: 5ed2 603e 03fc 86bf 6162 db3f baa6 04c0
00000090: fc7d 8f3e d5c4 043f 91ce 96bf 15d7 02c0
000000a0: 995a a0bf 4fe8 973f 9f4d 9abf f9b4 89bf
000000b0: 6960 9e3f 1b79 cbbf 4c1f 90bf 3f62 edbf
000000c0: e005 84bf 8d0d cc3f 6fb0 a53d fd83 0ac0
000000d0: fff1 333f 6241 f93f f79e 323f 8ac3 3ebf
000000e0: bed0 ccbe 8b66 d1be ab8b 5cbf 802b 803f
000000f0: 24e9 f33e 634f 903f b460 c53f a52b b4bf
00000100: 9983 5abf c083 f33f b7b7 443f 4049 b4bf
00000110: 07c2 19be b7d1 893f 8e15 453f 6393 ae3e
00000120: 1736 aebe 866a b2bf f8b9 97bf a379 85bf
00000130: 2f3a fcbe 45d0 a33f 1afd 923f f0cb 463f
00000140: a93a 8dbf c6b4 b73e 23f9 0cbf d6a4 d9bf
00000150: 54b5 aabe 0499 f9be 0848 89bf 229e e0be
00000160: 7243 abbf 0925 26bf 9636 9abe 5640 1b3d
00000170: a0de f5be 1fd2 ca3e 1e9c 0dbf c653 24c0
00000180: b706 d4bd 5b57 f43e 7299 2bbe ae48 87bf
00000190: 4f77 d2bf 3fe7 c63f 3c26 3f3f 3eb6 f03b
000001a0: 22cb 4a40 b033 36bf 086c 9a3f b9e7 8540
000001b0: fe44 c13b e988 3d3f 2572 adbf d6ec 79be
000001c0: 83bc 2bbf c361 58bf edb8 a33f 2d8d a9be
000001d0: bc74 563f da38 98bf 01c3 d43f 6602 c13e
000001e0: 9dbb 93bf 7462 113f 8e76 6a3f 20af 76be
000001f0: e4db 39bf 9562 56bc 9268 d93e d970 ad3e
00000200: 223f c73f aeec 383f d831 2c3f ae5a 113f
00000210: be15 063f 1c05 883e fe99 b23f f215 75bf
00000220: 7cfd 2c3f 5ff3 4dc0 504c f8bf c781 dc3f
00000230: 261c 70c0 d793 ae3f 202d 2140 e420 af3d
00000240: 69b4 94be 37a0 453f afcf 493f 96d9 1c40
00000250: 4c77 babf f79a 553f afd6 82bd b57a ccbf
00000260: a2e9 10c0 4f5b 5a3f 7251 4cbf 222c 2f40
00000270: e225 dd3c e138 ba3f 99cf 2c40 b75c e3bf
00000280: 8ba9 2bc0 133c 5140 a1a0 813f 3c0f 923f
00000290: e9dd 1840 90c9 9a3f 0435 843f cf76 3240
000002a0: fa14 b33f cb50 9b3e 9630 1ac0 2fd0 d6bf
000002b0: e50a 86bf 3efb 6abe a3fa 10c0 da75 ee3f
000002c0: 2986 11c0 193d 963f 6862 ae3f 548f 8e3e
000002d0: 6d73 08be 6301 dcbf 1d0b a2be 32ba 73bf
000002e0: 90ff 703f 4bf2 bdbf d5de 93bf 7e27 88be
000002f0: acc7 c7be 062c a63f 7f50 85bf ebeb 7f3f
00000300: 7422 14bf de07 48bf e861 73be bb7e f23e
00000310: 08c7 4bbf 01be acbf e2f6 ecbd cd29 c6bf
00000320: 515a dbbf e996 793e 4d00 c53f d2be 8ebe
00000330: 96d0 b8be 7d45 b23f 68ff aebf d7c1 66bf
00000340: 2c2c 5ebe 3435 583e d0df 82bf 5d70 823f
00000350: 74aa 18bd cb84 053f 9448 6c3e ed97 0f3d
00000360: 33a7 18c0 be75 2340 ddc0 27c0 639c d23f
00000370: f972 af3f 965e 12c0 75fa 393f fa7a e6bf
00000380: 2462 6b3f 7fa2 643f 18e1 b43f d408 1840
00000390: f1da 453e 326e 603f 6f6b d8bf 9cc9 91bf
000003a0: 2347 ee3f 5915 2740 c69f 13be 6a1e 44bf
000003b0: 4757 3f40 a646 533f ef61 6fbe ace4 0c40
000003c0: 6f7f dfbc d180 e0bf e059 cdbf a2fa 2340
000003d0: 8e1f 323f 7c76 2ac0 898d 93bf a982 8d3f
000003e0: e893 d9bf a9ab 153e b80b 31c0 9f7e 6d3f
000003f0: e710 0640 bf14 8bbf cec9 12c0 52a9 54c0
-2.5794837 2.1916497 0.99627537 1.0052867 0.23689738 2.1103022 -0.92744446 -2.5910368
-0.25320524 1.6354226 -0.3081508 1.3993876 0.93004453 -2.2463424 1.2480325 0.55573004
1.7713249 2.002454 0.5045444 1.6818631 -1.1594758 -1.6018776 0.21489996 -1.4108443
-0.32510114 -0.5484702 -4.084361 -1.7942823 1.0905849 0.74339724 -2.6795187 1.9920925
0.21955249 -1.0545658 1.7139398 -2.0726762 0.28025806 0.5186284 -1.1781789 -2.0443776
-1.2527648 1.186777 -1.2054938 -1.0758353 1.2373172 -1.5896333 -1.1259551 -1.8545607
-1.0314293 1.5941635 0.08090293 -2.164306 0.7029113 1.9473078 0.6977381 -0.7451712
-0.40003008 -0.40898547 -0.86150616 1.0013275 0.4763881 1.1274227 1.5420136 -1.4075819
-0.8535705 1.9024582 0.76842827 -1.4084854 -0.15015422 1.0767125 0.76986015 0.34096822
-0.34025642 -1.3938758 -1.1853628 -1.0427746 -0.4926314 1.2797934 1.148349 0.77654934
-1.1033527 0.35880107 -0.5506765 -1.7003429 -0.33341467 -0.48749554 -1.0725107 -0.43870646
-1.3379958 -0.6490026 -0.3011977 0.037903152 -0.48021412 0.39613435 -0.5531634 -2.5676131
-0.10352843 0.47722897 -0.16757753 -1.0569055 -1.644266 1.5539321 0.74667716 0.0073459437
3.1686482 -0.7117262 1.2064219 4.1845365 0.005898117 0.74037033 -1.3550459 -0.24406752
-0.6708452 -0.8452417 1.279081 -0.3311552 0.8377187 -1.189235 1.662201 0.37697142
-1.154163 0.5679085 0.9158715 -0.24090242 -0.7260115 -0.013085027 0.42462593 0.33875158
1.5566142 0.72236145 0.67263556 0.5677899 0.52376926 0.26566398 1.3953245 -0.9573661
0.67574286 -3.2179792 -1.9398289 1.7227105 -3.751718 1.3638867 2.5183792 0.08551195
-0.29043892 0.77197593 0.78832525 2.4507804 -1.4567657 0.8343958 -0.06388604 -1.5974947
-2.2642598 0.85295576 -0.79811776 2.7370687 0.026995603 1.4548608 2.7001708 -1.7762669
-2.682223 3.2692916 1.0127145 1.1410899 2.3885443 1.2092762 1.0328679 2.7885015
1.3990777 0.30335078 -2.4092155 -1.6782283 -1.0472075 -0.22947404 -2.2652977 1.8629715
-2.2738135 1.1737396 1.3623781 0.27843726 -0.13325281 -1.7187923 -0.31649104 -0.95205986
0.9413996 -1.4839567 -1.1552378 -0.2659263 -0.39019525 1.2982185 -1.041519 0.9996936
-0.5786507 -0.78137004 -0.23767817 0.47362313 -0.7960057 -1.3495485 -0.11570527 -1.5481507
-1.7136937 0.24373974 1.5390717 -0.2787996 -0.36096638 1.3927456 -1.3671694 -0.90139526
-0.21696538 0.21114045 -1.0224552 1.019054 -0.03727193 0.5215575 0.23074561 0.035056997
-2.385205 2.5540614 -2.6211464 1.6453975 1.3706962 -2.287023 0.7264779 -1.800628
0.91946626 0.8931045 1.4131193 2.3755388 0.19321801 0.87668145 -1.6907786 -1.1389651
1.8615459 2.610678 -0.14416417 -0.7660891 2.989702 0.82529676 -0.23377202 2.201457
-0.027282445 -1.7539312 -1.6043053 2.5621724 0.695794 -2.6634817 -1.1527568 1.1055499
-1.6998262 0.14616264 -2.7663403 0.92771333 2.0947816 -1.0865706 -2.2935672 -3.3228345

arith.constant10 f4 [128]
00000000: e426 21bf 56b1 313e 9621 f73d 6a73 9d3f
00000010: 2397 863d 0dda 033f f6a0 67bf ee90 323e
00000020: fb8d ac3e 6563 e0bd 626a 323f 77e1 003f
00000030: b530 ae3d 31c2 983f c77c b03f bae3 8f3f
00000040: 6045 f33e 2b1b 1bbf 72db 903f 889b a63d
00000050: ce33 243e d581 123f ab1c c73e ff55 453f
00000060: eb95 13bf a61e 2dbf 18e3 0a3f 1829 8f3f
00000070: ceae a73e 7a35 a83b 8f6a 823f 9d9e 373f
00000080: 186b 50bf d922 4dbf a583 1b3f 1325 b0bf
00000090: 928c f4be a928 3e3f efdf a73e 7508 1c3f
000000a0: e693 0840 63a1 e03e 3ba3 25bf fc75 d93e
000000b0: 444d 163f 83e4 0cbf 1fe5 ea3e 92e1 c23e
000000c0: ba63 823f 1748 6ebe 390f e43e 9e35 b4be
000000d0: 76de 6d3f bb59 0dbd 3304 fc3e 6006 0abf
000000e0: d1e0 d93e ee7d c93e 3bc1 f73e f2ca cd3c
000000f0: e051 15bf 12ba b03f fde5 bbbe 060c 6e3f
00000100: 368f 6a3e f368 4b3d a58e 9a3f 76ce 383d
00000110: a506 123e e41b 893f 8739 0ebc c3fa f83f
00000120: 2ef7 d1bd 0a28 893e e68e ffbd cc3c 8a3f
00000130: 21be c73f f579 893e 332f 923f 8cd2 883f
00000140: 6789 7e3e 4a38 d93d bd2d 7d3e 594f 863f
00000150: 04ba a83e e633 96be 7920 063f f309 28be
00000160: 6568 1a3f 9f4b c3be b354 ad3f 0add 7e3f
00000170: 8a42 9abd 3167 433f 3441 14bf 2f3b 103e
00000180: 8947 02bf c546 643e 1c02 873f 29fa 713e
00000190: b443 b13d 8dee 3ebf 2a1b b03d 85a5 5a3f
000001a0: fd83 ae3f 8bd1 aebf 5bb7 403f 376c 703f
000001b0: 9785 943b fc15 a33c cddc 503f 42e4 2b3f
000001c0: a99d 16bf ad0a 503f ff42 303e adf7 273f
000001d0: 926c 793e fed0 0fbf f8a1 933e 0051 3abe
000001e0: a8e0 3bbf abd0 d0be 16de 58be ee23 a53e
000001f0: 686d 55bd 24e6 0dbf 9ff2 8f3e ee58 e13e
-0.6294997 0.17352805 0.12066953 1.2300847 0.06571796 0.51504594 -0.9047998 0.17438099
0.33702073 -0.10956458 0.6969358 0.5034403 0.08505384 1.1934263 1.3788079 1.1241372
0.47513866 -0.6058833 1.1316969 0.08135134 0.16035387 0.5722936 0.3888906 0.77084345
-0.5765063 -0.6762489 0.5425277 1.1184416 0.32750553 0.005133328 1.0188769 0.717264
-0.8141341 -0.801313 0.6074775 -1.3761314 -0.47763497 0.7428079 0.32788035 0.60950404
2.134027 0.43873128 -0.64702195 0.42472827 0.5871165 -0.5503618 0.4587793 0.38062721
1.0186684 -0.23269688 0.44542864 -0.35197157 0.92917573 -0.0345094 0.49221954 -0.5391598
0.42554334 0.3935389 0.4838961 0.025121186 -0.58328056 1.3806784 -0.36698905 0.92987096
0.22906193 0.049660634 1.2074782 0.04511877 0.14260347 1.0711637 -0.008680708 1.9451526
-0.10252224 0.2678836 -0.124784276 1.0799804 1.5604898 0.26850858 1.1420654 1.0689254
0.24857102 0.106064394 0.24724479 1.0492965 0.3295442 -0.2933647 0.523933 -0.16410045
0.60315543 -0.38143632 1.3541473 0.9955603 -0.075322226 0.7632933 -0.5791199 0.14085077
-0.50890404 0.22292621 1.0547519 0.23630585 0.086554915 -0.7458275 0.08598931 0.8540881
1.363403 -1.3657697 0.7527978 0.9391512 0.0045325267 0.019907944 0.81586915 0.6714517
-0.5883432 0.8126629 0.17213057 0.656123 0.24357823 -0.5617827 0.2883451 -0.18194962
-0.73389673 -0.407842 -0.21178469 0.32253975 -0.05210629 -0.5542929 0.28114793 0.4401316

arith.constant11 f4 [64]
00000000: 0256 c8be 4219 003e 0fa4 253f 43e1 fabd
00000010: 068b 90be ddb2 013f 3395 d1be f34a 303f
00000020: 7fd2 61bd 8179 083f fd3f 61bf 8f0c 8bbf
00000030: 9813 0f3e 6b37 283f d45b c9be 6bd3 7fbf
00000040: f6de 07bf 9b23 cbbd 6488 5f3e 25be 8f3e
00000050: 9f5b c5bf cec4 b3bd 1dd0 47be c910 6c3e
00000060: 10a8 913f 3d4b e83e 65df 55bf 6ac2 0e3f
00000070: 69ab 1e3f 23e5 903f f161 8fbe 454c 1c3e
00000080: c3b3 eabe 4857 913f e5ad acbf 7e94 bcbf
00000090: a8e0 4f3f 326a b23e 185b 6a3f 21ea 7bbf
000000a0: 8d3a 703f 48bd 8ebf 4d74 b9be 0984 8dbf
000000b0: 6f7c e63e 4b44 57be f074 1bbd 8beb 8abf
000000c0: 95ea 6cbd 8868 b9bf 0261 833f 0d7f e3be
000000d0: c793 663e c235 253f 4b59 333e 3632 a73e
000000e0: 849b 873e 9b0f 933e 9337 303e e70f 593e
000000f0: 23a4 8dbf 2813 a4bd 45be 4f3d 308d 163f
-0.3912812 0.12509635 0.6470346 -0.122499965 -0.28231066 0.5066355 -0.40934142 0.68864363
-0.055132385 0.533104 -0.87988263 -1.0863208 0.13972318 0.6570956 -0.39327872 -0.99931973
-0.53074586 -0.099189006 0.21829373 0.28074756 -1.5418586 -0.08777772 -0.19512983 0.23053278
1.1379414 0.45369902 -0.83544 0.557654 0.619803 1.1319927 -0.2800441 0.1526347
-0.45840272 1.1354761 -1.3490568 -1.4732816 0.81202173 0.34846646 0.9154525 -0.9840413
0.9383934 -1.1151514 -0.36221543 -1.1055919 0.4501681 -0.21022145 -0.037953317 -1.0853132
-0.057840902 -1.4485025 1.026398 -0.4443287 0.2251731 0.6453515 0.17514531 0.32655495
0.26485837 0.28722844 0.172087 0.21197473 -1.1065716 -0.08011466 0.050718565 0.58809185

arith.constant12 f4 [32]
00000000: 5eb2 e5be 2504 b53e 6845 c5bf 838c 54bf
00000010: 6d20 e2bf 0f91 20bf b729 103f 9f5f d43f
00000020: cf51 d0bf 509c b33d 1641 b5bf 6241 d73e
00000030: e3d8 bc3f cbb1 093f 4d9a 103f 54c9 1f3f
00000040: d41a 263f 66d1 f73e 7231 bcbe 3e1d 7f3f
00000050: a832 a43f 5cde a8bf 52d7 37bf f2ae 4bbf
00000060: 2257 c9bf 54de d0bf 178c c63f 91e8 be3f
00000070: 1c63 75bf 75b1 063f e98d b53f cb69 633f
-0.44862646 0.35354725 -1.5411806 -0.83026904 -1.7666146 -0.6272134 0.5631365 1.6591681
-1.6274966 0.087700486 -1.4160488 0.4204207 1.4753689 0.53786916 0.56485444 0.6241658
0.64884686 0.48401946 -0.36756474 0.99653995 1.2827959 -1.3192859 -0.7181293 -0.7956382
-1.5729716 -1.6317849 1.5511502 1.4914724 -0.95854354 0.5261453 1.4183933 0.888333

tfl.pseudo_qconst i1 [128, 1, 5, 64]
00000000: e4f9 2319 2815 25cc f138 1a3e fed4 df0c
00000010: 3139 fb0a 50d3 22dc c239 3106 d5d1 1142
00000020: 0f27 f722 f34b 132f c6e9 30db 3626 0cc0
00000030: d72f dff7 de4a e9e6 0ada 1b4c 4fc2 0730
00000040: 3248 dcc3 0318 108d 0d1a f81e d7de 00c0
00000050: da08 0311 1305 3b14 f420 edef e612 12ec
00000060: 1b02 20e8 f805 eb51 03e8 2c2b 3a07 1de1
00000070: f726 2319 fe33 0bcd 1bf5 31e1 32cd 09ca
00000080: 3211 bfce dc1b 3ed3 2be2 f5e7 3727 1008
00000090: 3b47 b1f0 f72d d505 a8e3 fc24 dcfc 5240
000000a0: 081b ff56 f910 ea4c cf22 f2fc 0236 e3c7
000000b0: 00f1 d314 1be5 f342 e8fd 3737 1d26 1ed2
000000c0: 45d3 0c2f 06c4 e7fb d450 59da 4a2f 3b37
000000d0: de49 f627 efed 2a15 cb41 46ca 21f5 4e0d
000000e0: 53d7 0f1f fc7f c811 fb0e 4414 dce0 17d7
000000f0: 073a f3f0 c1ea 0c06 290f 2254 4948 cf39
-28 -7 35 25 40 21 37 -52
-15 56 26 62 -2 -44 -33 12
49 57 -5 10 80 -45 34 -36
-62 57 49 6 -43 -47 17 66
15 39 -9 34 -13 75 19 47
-58 -23 48 -37 54 38 12 -64
-41 47 -33 -9 -34 74 -23 -26
10 -38 27 76 79 -62 7 48
50 72 -36 -61 3 24 16 -115
13 26 -8 30 -41 -34 0 -64
-38 8 3 17 19 5 59 20
-12 32 -19 -17 -26 18 18 -20
27 2 32 -24 -8 5 -21 81
3 -24 44 43 58 7 29 -31
-9 38 35 25 -2 51 11 -51
27 -11 49 -31 50 -51 9 -54
50 17 -65 -50 -36 27 62 -45
43 -30 -11 -25 55 39 16 8
59 71 -79 -16 -9 45 -43 5
-88 -29 -4 36 -36 -4 82 64
8 27 -1 86 -7 16 -22 76
-49 34 -14 -4 2 54 -29 -57
0 -15 -45 20 27 -27 -13 66
-24 -3 55 55 29 38 30 -46
69 -45 12 47 6 -60 -25 -5
-44 80 89 -38 74 47 59 55
-34 73 -10 39 -17 -19 42 21
-53 65 70 -54 33 -11 78 13
83 -41 15 31 -4 127 -56 17
-5 14 68 20 -36 -32 23 -41
7 58 -13 -16 -63 -22 12 6
41 15 34 84 73 72 -49 57

tfl.pseudo_qconst1 i1 [64, 1, 7, 32]
00000000: 1bf8 cc1b ac4d c51f 172a 3981 c9c9 fdb0
00000010: a525 26c2 f12a d72b 33f1 25c3 f6bb b1c6
00000020: dbb5 0356 c40e da40 49b0 08e3 cebb d69b
00000030: c042 2b31 3cfb d4ae 23c5 2403 2dc2 ffbd
00000040: 60f1 2435 22cd d319 6b19 b9eb 48d1 c7f8
00000050: b0cb 1dd3 eef1 1adc 58c7 4838 2236 c5d7
00000060: 12f6 4c39 13ee 5cbd 4d18 4b12 d432 f11d
00000070: 084a f543 e6ed d4c3 4428 5117 3936 de0d
00000080: 3a15 4f0d e444 d4f9 440c 04dd 001d 1fa2
00000090: 4222 31ca e924 d019 1238 dde4 2956 1501
000000a0: 1f21 3331 f7ce 3631 2e40 e966 2bf2 fff2
000000b0: fe49 53fb 2fce 3a2e 47dd 28d9 e042 f0ec
000000c0: e0dd cc36 35f8 dbf3 04c4 363b a3c2 dee8
000000d0: f0ff 41ca 1e3d ce09 32ed cad5 20f3 372a
000000e0: 2281 16cf 1f36 edd1 cb50 4918 d4cd 3b1c
000000f0: f6ec 0aa9 c70e ecec 1ff2 0c2e 2f38 e0fc
27 -8 -52 27 -84 77 -59 31
23 42 57 -127 -55 -55 -3 -80
-91 37 38 -62 -15 42 -41 43
51 -15 37 -61 -10 -69 -79 -58
-37 -75 3 86 -60 14 -38 64
73 -80 8 -29 -50 -69 -42 -101
-64 66 43 49 60 -5 -44 -82
35 -59 36 3 45 -62 -1 -67
96 -15 36 53 34 -51 -45 25
107 25 -71 -21 72 -47 -57 -8
-80 -53 29 -45 -18 -15 26 -36
88 -57 72 56 34 54 -59 -41
18 -10 76 57 19 -18 92 -67
77 24 75 18 -44 50 -15 29
8 74 -11 67 -26 -19 -44 -61
68 40 81 23 57 54 -34 13
58 21 79 13 -28 68 -44 -7
68 12 4 -35 0 29 31 -94
66 34 49 -54 -23 36 -48 25
18 56 -35 -28 41 86 21 1
31 33 51 49 -9 -50 54 49
46 64 -23 102 43 -14 -1 -14
-2 73 83 -5 47 -50 58 46
71 -35 40 -39 -32 66 -16 -20
-32 -35 -52 54 53 -8 -37 -13
4 -60 54 59 -93 -62 -34 -24
-16 -1 65 -54 30 61 -50 9
50 -19 -54 -43 32 -13 55 42
34 -127 22 -49 31 54 -19 -47
-53 80 73 24 -44 -51 59 28
-10 -20 10 -87 -57 14 -20 -20
31 -14 12 46 47 56 -32 -4

tfl.pseudo_qconst2 i1 [64, 128]
00000000: 08dc 45cc fc40 200d 090f 1207 1cc3 10cf
00000010: 0813 25cb 4901 d5c9 1f1f eaec 0937 39d9
00000020: 1502 fa20 372a f832 ebf5 ccff d8d9 d721
00000030: d1db ed15 31e6 d807 2ffd 8120 de0f d016
00000040: e6ee 0922 f83a e5ec f6f4 1006 c356 47f3
00000050: 21c9 ca0a 100c 3c0d 1ef7 d62c eaf1 0ffe
00000060: 39df 3d0f e4f1 cafe 3506 2fd5 27d6 4d2c
00000070: fde5 d81c d643 1ae2 29ea f827 17c7 29d9
00000080: 9ebd a3bf a4be bc1c 04a9 00a3 0ff7 d611
00000090: 061a ef16 e120 c32f 11d1 afcc 4139 40a5
000000a0: bfe5 18a2 36e3 b13b cdf4 eda9 3be9 e6b4
000000b0: 2e9a d0bd 2caf 04af d816 a7bb 27a1 2f93
000000c0: 29c4 fb4c 5300 93a0 c431 af2a c39b 01f6
000000d0: fe01 36da e24e bfdf aee0 d016 08f6 4430
000000e0: 0097 d1b6 cec1 1cc0 8499 162e f23c 9bee
000000f0: 500d 4911 fb81 4247 331f 45b6 4bce d62a
8 -36 69 -52 -4 64 32 13
9 15 18 7 28 -61 16 -49
8 19 37 -53 73 1 -43 -55
31 31 -22 -20 9 55 57 -39
21 2 -6 32 55 42 -8 50
-21 -11 -52 -1 -40 -39 -41 33
-47 -37 -19 21 49 -26 -40 7
47 -3 -127 32 -34 15 -48 22
-26 -18 9 34 -8 58 -27 -20
-10 -12 16 6 -61 86 71 -13
33 -55 -54 10 16 12 60 13
30 -9 -42 44 -22 -15 15 -2
57 -33 61 15 -28 -15 -54 -2
53 6 47 -43 39 -42 77 44
-3 -27 -40 28 -42 67 26 -30
41 -22 -8 39 23 -57 41 -39
-98 -67 -93 -65 -92 -66 -68 28
4 -87 0 -93 15 -9 -42 17
6 26 -17 22 -31 32 -61 47
17 -47 -81 -52 65 57 64 -91
-65 -27 24 -94 54 -29 -79 59
-51 -12 -19 -87 59 -23 -26 -76
46 -102 -48 -67 44 -81 4 -81
-40 22 -89 -69 39 -95 47 -109
41 -60 -5 76 83 0 -109 -96
-60 49 -81 42 -61 -101 1 -10
-2 1 54 -38 -30 78 -65 -33
-82 -32 -48 22 8 -10 68 48
0 -105 -47 -74 -50 -63 28 -64
-124 -103 22 46 -14 60 -101 -18
80 13 73 17 -5 -127 66 71
51 31 69 -74 75 -50 -42 42

tfl.pseudo_qconst3 i1 [128, 128]
00000000: 4d34 d753 5c09 c4da 4e19 d20d 0339 a4ed
00000010: ec29 b230 a436 fcac 12bc b23f 1435 4227
00000020: d0b9 2f3c 34b5 34bd b3a0 f42f fb4e c8e1
00000030: 1a40 f92f 8e9d 07ad 0f33 cf2a e3cf 3c16
00000040: 6048 1a32 470c 0cd7 bec0 a0ab 9818 98c1
00000050: 0ea3 d649 44bd 3ebd 2f0c dc81 0b49 d12f
00000060: 423e 90cc 47d6 d5fa 92ff be98 ea54 5db1
00000070: 58eb 2622 e4a2 2aeb 3bf5 d1a3 1ce0 baf0
00000080: fdc9 8f07 32a8 0413 decd 58ee 3b40 90ee
00000090: b61c 9933 4737 81ce 1cf2 44d0 dd42 fcf6
000000a0: a8f9 d627 c9cf 258c f4cb d0b6 9ce8 4d3e
000000b0: a8a1 89c2 f3f1 ab95 11df fb0d 3730 57f8
000000c0: 5dd8 3fc2 020f 31e5 ca9c 025d 9326 23dc
000000d0: 3831 c8a5 ace2 1f3b 030b a899 39ca fd11
000000e0: 4433 3000 0cd6 348e e6f7 4017 9363 d49d
000000f0: f154 4345 040f 1561 93de 5501 63b0 b4af
77 52 -41 83 92 9 -60 -38
78 25 -46 13 3 57 -92 -19
-20 41 -78 48 -92 54 -4 -84
18 -68 -78 63 20 53 66 39
-48 -71 47 60 52 -75 52 -67
-77 -96 -12 47 -5 78 -56 -31
26 64 -7 47 -114 -99 7 -83
15 51 -49 42 -29 -49 60 22
96 72 26 50 71 12 12 -41
-66 -64 -96 -85 -104 24 -104 -63
14 -93 -42 73 68 -67 62 -67
47 12 -36 -127 11 73 -47 47
66 62 -112 -52 71 -42 -43 -6
-110 -1 -66 -104 -22 84 93 -79
88 -21 38 34 -28 -94 42 -21
59 -11 -47 -93 28 -32 -70 -16
-3 -55 -113 7 50 -88 4 19
-34 -51 88 -18 59 64 -112 -18
-74 28 -103 51 71 55 -127 -50
28 -14 68 -48 -35 66 -4 -10
-88 -7 -42 39 -55 -49 37 -116
-12 -53 -48 -74 -100 -24 77 62
-88 -95 -119 -62 -13 -15 -85 -107
17 -33 -5 13 55 48 87 -8
93 -40 63 -62 2 15 49 -27
-54 -100 2 93 -109 38 35 -36
56 49 -56 -91 -84 -30 31 59
3 11 -88 -103 57 -54 -3 17
68 51 48 0 12 -42 52 -114
-26 -9 64 23 -109 99 -44 -99
-15 84 67 69 4 15 21 97
-109 -34 85 1 99 -80 -76 -81
