ML/models/conv1d_angle_toro_ossaba/seed8_20260116_234517_176/model_int8.tflite (tflite, 99296 bytes, 6 tensors)

tfl.pseudo_qconst1 i1 [1, 64] scale=0.0026010503 zero_point=0
0	0xe9	-0.059824158
1	0x1e	0.07803151
2	0xb4	-0.19767982
3	0x0e	0.036414705
4	0xe3	-0.07543046
5	0x33	0.13265356
6	0x4e	0.20288192
7	0xa5	-0.23669557
8	0xc3	-0.15866406
9	0x60	0.24970083
10	0x5e	0.24449873
11	0xdf	-0.08583466
12	0x2d	0.117047265
13	0x43	0.17427038
14	0x45	0.17947248
15	0xce	-0.13005252
16	0x1c	0.07282941
17	0xbe	-0.17166932
18	0x70	0.29131764
19	0xed	-0.049419954
20	0xbe	-0.17166932
21	0x7f	0.33033338
22	0x07	0.018207353
23	0x46	0.18207352
24	0x41	0.16906828
25	0xa8	-0.22889243
26	0x1b	0.07022836
27	0x24	0.09363781
28	0x34	0.13525462
29	0xd4	-0.114446215
30	0x4b	0.19507878
31	0xb0	-0.20808402
32	0xed	-0.049419954
33	0x25	0.09623886
34	0x66	0.26530713
35	0xd4	-0.114446215
36	0x1c	0.07282941
37	0x28	0.10404201
38	0xf5	-0.028611554
39	0xe2	-0.07803151
40	0x44	0.17687142
41	0x2c	0.114446215
42	0xc0	-0.16646722
43	0x17	0.059824158
44	0xba	-0.18207352
45	0x59	0.23149347
46	0x34	0.13525462
47	0x6c	0.28091344
48	0x5c	0.23929663
49	0x60	0.24970083
50	0x54	0.21848823
51	0x5e	0.24449873
52	0xaa	-0.22369033
53	0x56	0.22369033
54	0xb5	-0.19507878
55	0xe8	-0.062425207
56	0x4d	0.20028087
57	0x0e	0.036414705
58	0x4f	0.20548297
59	0x44	0.17687142
60	0xa7	-0.23149347
61	0xd7	-0.106643066
62	0xbf	-0.16906828
63	0x33	0.13265356

tfl.pseudo_qconst3 i1 [64, 128]
0	0x08	8
1	0xdc	-36
2	0x45	69
3	0xcc	-52
4	0xfc	-4
5	0x40	64
6	0x20	32
7	0x0d	13
8	0x09	9
9	0x0f	15
10	0x12	18
11	0x07	7
12	0x1c	28
13	0xc3	-61
14	0x10	16
15	0xcf	-49
16	0x08	8
17	0x13	19
18	0x25	37
19	0xcb	-53
20	0x49	73
21	0x01	1
22	0xd5	-43
23	0xc9	-55
24	0x1f	31
25	0x1f	31
26	0xea	-22
27	0xec	-20
28	0x09	9
29	0x37	55
30	0x39	57
31	0xd9	-39
32	0x15	21
33	0x02	2
34	0xfa	-6
35	0x20	32
36	0x37	55
37	0x2a	42
38	0xf8	-8
39	0x32	50
40	0xeb	-21
41	0xf5	-11
42	0xcc	-52
43	0xff	-1
44	0xd8	-40
45	0xd9	-39
46	0xd7	-41
47	0x21	33
48	0xd1	-47
49	0xdb	-37
50	0xed	-19
51	0x15	21
52	0x31	49
53	0xe6	-26
54	0xd8	-40
55	0x07	7
56	0x2f	47
57	0xfd	-3
58	0x81	-127
59	0x20	32
60	0xde	-34
61	0x0f	15
62	0xd0	-48
63	0x16	22
64	0xe6	-26
65	0xee	-18
66	0x09	9
67	0x22	34
68	0xf8	-8
69	0x3a	58
70	0xe5	-27
71	0xec	-20
72	0xf6	-10
73	0xf4	-12
74	0x10	16
75	0x06	6
76	0xc3	-61
77	0x56	86
78	0x47	71
79	0xf3	-13
80	0x21	33
81	0xc9	-55
82	0xca	-54
83	0x0a	10
84	0x10	16
85	0x0c	12
86	0x3c	60
87	0x0d	13
88	0x1e	30
89	0xf7	-9
90	0xd6	-42
91	0x2c	44
92	0xea	-22
93	0xf1	-15
94	0x0f	15
95	0xfe	-2
96	0x39	57
97	0xdf	-33
98	0x3d	61
99	0x0f	15
100	0xe4	-28
101	0xf1	-15
102	0xca	-54
103	0xfe	-2
104	0x35	53
105	0x06	6
106	0x2f	47
107	0xd5	-43
108	0x27	39
109	0xd6	-42
110	0x4d	77
111	0x2c	44
112	0xfd	-3
113	0xe5	-27
114	0xd8	-40
115	0x1c	28
116	0xd6	-42
117	0x43	67
118	0x1a	26
119	0xe2	-30
120	0x29	41
121	0xea	-22
122	0xf8	-8
123	0x27	39
124	0x17	23
125	0xc7	-57
126	0x29	41
127	0xd9	-39
128	0x9e	-98
129	0xbd	-67
130	0xa3	-93
131	0xbf	-65
132	0xa4	-92
133	0xbe	-66
134	0xbc	-68
135	0x1c	28
136	0x04	4
137	0xa9	-87
138	0x00	0
139	0xa3	-93
140	0x0f	15
141	0xf7	-9
142	0xd6	-42
143	0x11	17
144	0x06	6
145	0x1a	26
146	0xef	-17
147	0x16	22
148	0xe1	-31
149	0x20	32
150	0xc3	-61
151	0x2f	47
152	0x11	17
153	0xd1	-47
154	0xaf	-81
155	0xcc	-52
156	0x41	65
157	0x39	57
158	0x40	64
159	0xa5	-91
160	0xbf	-65
161	0xe5	-27
162	0x18	24
163	0xa2	-94
164	0x36	54
165	0xe3	-29
166	0xb1	-79
167	0x3b	59
168	0xcd	-51
169	0xf4	-12
170	0xed	-19
171	0xa9	-87
172	0x3b	59
173	0xe9	-23
174	0xe6	-26
175	0xb4	-76
176	0x2e	46
177	0x9a	-102
178	0xd0	-48
179	0xbd	-67
180	0x2c	44
181	0xaf	-81
182	0x04	4
183	0xaf	-81
184	0xd8	-40
185	0x16	22
186	0xa7	-89
187	0xbb	-69
188	0x27	39
189	0xa1	-95
190	0x2f	47
191	0x93	-109
192	0x29	41
193	0xc4	-60
194	0xfb	-5
195	0x4c	76
196	0x53	83
197	0x00	0
198	0x93	-109
199	0xa0	-96
200	0xc4	-60
201	0x31	49
202	0xaf	-81
203	0x2a	42
204	0xc3	-61
205	0x9b	-101
206	0x01	1
207	0xf6	-10
208	0xfe	-2
209	0x01	1
210	0x36	54
211	0xda	-38
212	0xe2	-30
213	0x4e	78
214	0xbf	-65
215	0xdf	-33
216	0xae	-82
217	0xe0	-32
218	0xd0	-48
219	0x16	22
220	0x08	8
221	0xf6	-10
222	0x44	68
223	0x30	48
224	0x00	0
225	0x97	-105
226	0xd1	-47
227	0xb6	-74
228	0xce	-50
229	0xc1	-63
230	0x1c	28
231	0xc0	-64
232	0x84	-124
233	0x99	-103
234	0x16	22
235	0x2e	46
236	0xf2	-14
237	0x3c	60
238	0x9b	-101
239	0xee	-18
240	0x50	80
241	0x0d	13
242	0x49	73
243	0x11	17
244	0xfb	-5
245	0x81	-127
246	0x42	66
247	0x47	71
248	0x33	51
249	0x1f	31
250	0x45	69
251	0xb6	-74
252	0x4b	75
253	0xce	-50
254	0xd6	-42
255	0x2a	42

tfl.pseudo_qconst5 i1 [128, 128]
0	0x4d	77
1	0x34	52
2	0xd7	-41
3	0x53	83
4	0x5c	92
5	0x09	9
6	0xc4	-60
7	0xda	-38
8	0x4e	78
9	0x19	25
10	0xd2	-46
11	0x0d	13
12	0x03	3
13	0x39	57
14	0xa4	-92
15	0xed	-19
16	0xec	-20
17	0x29	41
18	0xb2	-78
19	0x30	48
20	0xa4	-92
21	0x36	54
22	0xfc	-4
23	0xac	-84
24	0x12	18
25	0xbc	-68
26	0xb2	-78
27	0x3f	63
28	0x14	20
29	0x35	53
30	0x42	66
31	0x27	39
32	0xd0	-48
33	0xb9	-71
34	0x2f	47
35	0x3c	60
36	0x34	52
37	0xb5	-75
38	0x34	52
39	0xbd	-67
40	0xb3	-77
41	0xa0	-96
42	0xf4	-12
43	0x2f	47
44	0xfb	-5
45	0x4e	78
46	0xc8	-56
47	0xe1	-31
48	0x1a	26
49	0x40	64
50	0xf9	-7
51	0x2f	47
52	0x8e	-114
53	0x9d	-99
54	0x07	7
55	0xad	-83
56	0x0f	15
57	0x33	51
58	0xcf	-49
59	0x2a	42
60	0xe3	-29
61	0xcf	-49
62	0x3c	60
63	0x16	22
64	0x60	96
65	0x48	72
66	0x1a	26
67	0x32	50
68	0x47	71
69	0x0c	12
70	0x0c	12
71	0xd7	-41
72	0xbe	-66
73	0xc0	-64
74	0xa0	-96
75	0xab	-85
76	0x98	-104
77	0x18	24
78	0x98	-104
79	0xc1	-63
80	0x0e	14
81	0xa3	-93
82	0xd6	-42
83	0x49	73
84	0x44	68
85	0xbd	-67
86	0x3e	62
87	0xbd	-67
88	0x2f	47
89	0x0c	12
90	0xdc	-36
91	0x81	-127
92	0x0b	11
93	0x49	73
94	0xd1	-47
95	0x2f	47
96	0x42	66
97	0x3e	62
98	0x90	-112
99	0xcc	-52
100	0x47	71
101	0xd6	-42
102	0xd5	-43
103	0xfa	-6
104	0x92	-110
105	0xff	-1
106	0xbe	-66
107	0x98	-104
108	0xea	-22
109	0x54	84
110	0x5d	93
111	0xb1	-79
112	0x58	88
113	0xeb	-21
114	0x26	38
115	0x22	34
116	0xe4	-28
117	0xa2	-94
118	0x2a	42
119	0xeb	-21
120	0x3b	59
121	0xf5	-11
122	0xd1	-47
123	0xa3	-93
124	0x1c	28
125	0xe0	-32
126	0xba	-70
127	0xf0	-16
128	0xfd	-3
129	0xc9	-55
130	0x8f	-113
131	0x07	7
132	0x32	50
133	0xa8	-88
134	0x04	4
135	0x13	19
136	0xde	-34
137	0xcd	-51
138	0x58	88
139	0xee	-18
140	0x3b	59
141	0x40	64
142	0x90	-112
143	0xee	-18
144	0xb6	-74
145	0x1c	28
146	0x99	-103
147	0x33	51
148	0x47	71
149	0x37	55
150	0x81	-127
151	0xce	-50
152	0x1c	28
153	0xf2	-14
154	0x44	68
155	0xd0	-48
156	0xdd	-35
157	0x42	66
158	0xfc	-4
159	0xf6	-10
160	0xa8	-88
161	0xf9	-7
162	0xd6	-42
163	0x27	39
164	0xc9	-55
165	0xcf	-49
166	0x25	37
167	0x8c	-116
168	0xf4	-12
169	0xcb	-53
170	0xd0	-48
171	0xb6	-74
172	0x9c	-100
173	0xe8	-24
174	0x4d	77
175	0x3e	62
176	0xa8	-88
177	0xa1	-95
178	0x89	-119
179	0xc2	-62
180	0xf3	-13
181	0xf1	-15
182	0xab	-85
183	0x95	-107
184	0x11	17
185	0xdf	-33
186	0xfb	-5
187	0x0d	13
188	0x37	55
189	0x30	48
190	0x57	87
191	0xf8	-8
192	0x5d	93
193	0xd8	-40
194	0x3f	63
195	0xc2	-62
196	0x02	2
197	0x0f	15
198	0x31	49
199	0xe5	-27
200	0xca	-54
201	0x9c	-100
202	0x02	2
203	0x5d	93
204	0x93	-109
205	0x26	38
206	0x23	35
207	0xdc	-36
208	0x38	56
209	0x31	49
210	0xc8	-56
211	0xa5	-91
212	0xac	-84
213	0xe2	-30
214	0x1f	31
215	0x3b	59
216	0x03	3
217	0x0b	11
218	0xa8	-88
219	0x99	-103
220	0x39	57
221	0xca	-54
222	0xfd	-3
223	0x11	17
224	0x44	68
225	0x33	51
226	0x30	48
227	0x00	0
228	0x0c	12
229	0xd6	-42
230	0x34	52
231	0x8e	-114
232	0xe6	-26
233	0xf7	-9
234	0x40	64
235	0x17	23
236	0x93	-109
237	0x63	99
238	0xd4	-44
239	0x9d	-99
240	0xf1	-15
241	0x54	84
242	0x43	67
243	0x45	69
244	0x04	4
245	0x0f	15
246	0x15	21
247	0x61	97
248	0x93	-109
249	0xde	-34
250	0x55	85
251	0x01	1
252	0x63	99
253	0xb0	-80
254	0xb4	-76
255	0xaf	-81

tfl.pseudo_qconst7 i1 [128, 1, 5, 64]
0	0xe4	-28
1	0xf9	-7
2	0x23	35
3	0x19	25
4	0x28	40
5	0x15	21
6	0x25	37
7	0xcc	-52
8	0xf1	-15
9	0x38	56
10	0x1a	26
11	0x3e	62
12	0xfe	-2
13	0xd4	-44
14	0xdf	-33
15	0x0c	12
16	0x31	49
17	0x39	57
18	0xfb	-5
19	0x0a	10
20	0x50	80
21	0xd3	-45
22	0x22	34
23	0xdc	-36
24	0xc2	-62
25	0x39	57
26	0x31	49
27	0x06	6
28	0xd5	-43
29	0xd1	-47
30	0x11	17
31	0x42	66
32	0x0f	15
33	0x27	39
34	0xf7	-9
35	0x22	34
36	0xf3	-13
37	0x4b	75
38	0x13	19
39	0x2f	47
40	0xc6	-58
41	0xe9	-23
42	0x30	48
43	0xdb	-37
44	0x36	54
45	0x26	38
46	0x0c	12
47	0xc0	-64
48	0xd7	-41
49	0x2f	47
50	0xdf	-33
51	0xf7	-9
52	0xde	-34
53	0x4a	74
54	0xe9	-23
55	0xe6	-26
56	0x0a	10
57	0xda	-38
58	0x1b	27
59	0x4c	76
60	0x4f	79
61	0xc2	-62
62	0x07	7
63	0x30	48
64	0x32	50
65	0x48	72
66	0xdc	-36
67	0xc3	-61
68	0x03	3
69	0x18	24
70	0x10	16
71	0x8d	-115
72	0x0d	13
73	0x1a	26
74	0xf8	-8
75	0x1e	30
76	0xd7	-41
77	0xde	-34
78	0x00	0
79	0xc0	-64
80	0xda	-38
81	0x08	8
82	0x03	3
83	0x11	17
84	0x13	19
85	0x05	5
86	0x3b	59
87	0x14	20
88	0xf4	-12
89	0x20	32
90	0xed	-19
91	0xef	-17
92	0xe6	-26
93	0x12	18
94	0x12	18
95	0xec	-20
96	0x1b	27
97	0x02	2
98	0x20	32
99	0xe8	-24
100	0xf8	-8
101	0x05	5
102	0xeb	-21
103	0x51	81
104	0x03	3
105	0xe8	-24
106	0x2c	44
107	0x2b	43
108	0x3a	58
109	0x07	7
110	0x1d	29
111	0xe1	-31
112	0xf7	-9
113	0x26	38
114	0x23	35
115	0x19	25
116	0xfe	-2
117	0x33	51
118	0x0b	11
119	0xcd	-51
120	0x1b	27
121	0xf5	-11
122	0x31	49
123	0xe1	-31
124	0x32	50
125	0xcd	-51
126	0x09	9
127	0xca	-54
128	0x32	50
129	0x11	17
130	0xbf	-65
131	0xce	-50
132	0xdc	-36
133	0x1b	27
134	0x3e	62
135	0xd3	-45
136	0x2b	43
137	0xe2	-30
138	0xf5	-11
139	0xe7	-25
140	0x37	55
141	0x27	39
142	0x10	16
143	0x08	8
144	0x3b	59
145	0x47	71
146	0xb1	-79
147	0xf0	-16
148	0xf7	-9
149	0x2d	45
150	0xd5	-43
151	0x05	5
152	0xa8	-88
153	0xe3	-29
154	0xfc	-4
155	0x24	36
156	0xdc	-36
157	0xfc	-4
158	0x52	82
159	0x40	64
160	0x08	8
161	0x1b	27
162	0xff	-1
163	0x56	86
164	0xf9	-7
165	0x10	16
166	0xea	-22
167	0x4c	76
168	0xcf	-49
169	0x22	34
170	0xf2	-14
171	0xfc	-4
172	0x02	2
173	0x36	54
174	0xe3	-29
175	0xc7	-57
176	0x00	0
177	0xf1	-15
178	0xd3	-45
179	0x14	20
180	0x1b	27
181	0xe5	-27
182	0xf3	-13
183	0x42	66
184	0xe8	-24
185	0xfd	-3
186	0x37	55
187	0x37	55
188	0x1d	29
189	0x26	38
190	0x1e	30
191	0xd2	-46
192	0x45	69
193	0xd3	-45
194	0x0c	12
195	0x2f	47
196	0x06	6
197	0xc4	-60
198	0xe7	-25
199	0xfb	-5
200	0xd4	-44
201	0x50	80
202	0x59	89
203	0xda	-38
204	0x4a	74
205	0x2f	47
206	0x3b	59
207	0x37	55
208	0xde	-34
209	0x49	73
210	0xf6	-10
211	0x27	39
212	0xef	-17
213	0xed	-19
214	0x2a	42
215	0x15	21
216	0xcb	-53
217	0x41	65
218	0x46	70
219	0xca	-54
220	0x21	33
221	0xf5	-11
222	0x4e	78
223	0x0d	13
224	0x53	83
225	0xd7	-41
226	0x0f	15
227	0x1f	31
228	0xfc	-4
229	0x7f	127
230	0xc8	-56
231	0x11	17
232	0xfb	-5
233	0x0e	14
234	0x44	68
235	0x14	20
236	0xdc	-36
237	0xe0	-32
238	0x17	23
239	0xd7	-41
240	0x07	7
241	0x3a	58
242	0xf3	-13
243	0xf0	-16
244	0xc1	-63
245	0xea	-22
246	0x0c	12
247	0x06	6
248	0x29	41
249	0x0f	15
250	0x22	34
251	0x54	84
252	0x49	73
253	0x48	72
254	0xcf	-49
255	0x39	57

tfl.pseudo_qconst9 i1 [64, 1, 7, 32]
0	0x1b	27
1	0xf8	-8
2	0xcc	-52
3	0x1b	27
4	0xac	-84
5	0x4d	77
6	0xc5	-59
7	0x1f	31
8	0x17	23
9	0x2a	42
10	0x39	57
11	0x81	-127
12	0xc9	-55
13	0xc9	-55
14	0xfd	-3
15	0xb0	-80
16	0xa5	-91
17	0x25	37
18	0x26	38
19	0xc2	-62
20	0xf1	-15
21	0x2a	42
22	0xd7	-41
23	0x2b	43
24	0x33	51
25	0xf1	-15
26	0x25	37
27	0xc3	-61
28	0xf6	-10
29	0xbb	-69
30	0xb1	-79
31	0xc6	-58
32	0xdb	-37
33	0xb5	-75
34	0x03	3
35	0x56	86
36	0xc4	-60
37	0x0e	14
38	0xda	-38
39	0x40	64
40	0x49	73
41	0xb0	-80
42	0x08	8
43	0xe3	-29
44	0xce	-50
45	0xbb	-69
46	0xd6	-42
47	0x9b	-101
48	0xc0	-64
49	0x42	66
50	0x2b	43
51	0x31	49
52	0x3c	60
53	0xfb	-5
54	0xd4	-44
55	0xae	-82
56	0x23	35
57	0xc5	-59
58	0x24	36
59	0x03	3
60	0x2d	45
61	0xc2	-62
62	0xff	-1
63	0xbd	-67
64	0x60	96
65	0xf1	-15
66	0x24	36
67	0x35	53
68	0x22	34
69	0xcd	-51
70	0xd3	-45
71	0x19	25
72	0x6b	107
73	0x19	25
74	0xb9	-71
75	0xeb	-21
76	0x48	72
77	0xd1	-47
78	0xc7	-57
79	0xf8	-8
80	0xb0	-80
81	0xcb	-53
82	0x1d	29
83	0xd3	-45
84	0xee	-18
85	0xf1	-15
86	0x1a	26
87	0xdc	-36
88	0x58	88
89	0xc7	-57
90	0x48	72
91	0x38	56
92	0x22	34
93	0x36	54
94	0xc5	-59
95	0xd7	-41
96	0x12	18
97	0xf6	-10
98	0x4c	76
99	0x39	57
100	0x13	19
101	0xee	-18
102	0x5c	92
103	0xbd	-67
104	0x4d	77
105	0x18	24
106	0x4b	75
107	0x12	18
108	0xd4	-44
109	0x32	50
110	0xf1	-15
111	0x1d	29
112	0x08	8
113	0x4a	74
114	0xf5	-11
115	0x43	67
116	0xe6	-26
117	0xed	-19
118	0xd4	-44
119	0xc3	-61
120	0x44	68
121	0x28	40
122	0x51	81
123	0x17	23
124	0x39	57
125	0x36	54
126	0xde	-34
127	0x0d	13
128	0x3a	58
129	0x15	21
130	0x4f	79
131	0x0d	13
132	0xe4	-28
133	0x44	68
134	0xd4	-44
135	0xf9	-7
136	0x44	68
137	0x0c	12
138	0x04	4
139	0xdd	-35
140	0x00	0
141	0x1d	29
142	0x1f	31
143	0xa2	-94
144	0x42	66
145	0x22	34
146	0x31	49
147	0xca	-54
148	0xe9	-23
149	0x24	36
150	0xd0	-48
151	0x19	25
152	0x12	18
153	0x38	56
154	0xdd	-35
155	0xe4	-28
156	0x29	41
157	0x56	86
158	0x15	21
159	0x01	1
160	0x1f	31
161	0x21	33
162	0x33	51
163	0x31	49
164	0xf7	-9
165	0xce	-50
166	0x36	54
167	0x31	49
168	0x2e	46
169	0x40	64
170	0xe9	-23
171	0x66	102
172	0x2b	43
173	0xf2	-14
174	0xff	-1
175	0xf2	-14
176	0xfe	-2
177	0x49	73
178	0x53	83
179	0xfb	-5
180	0x2f	47
181	0xce	-50
182	0x3a	58
183	0x2e	46
184	0x47	71
185	0xdd	-35
186	0x28	40
187	0xd9	-39
188	0xe0	-32
189	0x42	66
190	0xf0	-16
191	0xec	-20
192	0xe0	-32
193	0xdd	-35
194	0xcc	-52
195	0x36	54
196	0x35	53
197	0xf8	-8
198	0xdb	-37
199	0xf3	-13
200	0x04	4
201	0xc4	-60
202	0x36	54
203	0x3b	59
204	0xa3	-93
205	0xc2	-62
206	0xde	-34
207	0xe8	-24
208	0xf0	-16
209	0xff	-1
210	0x41	65
211	0xca	-54
212	0x1e	30
213	0x3d	61
214	0xce	-50
215	0x09	9
216	0x32	50
217	0xed	-19
218	0xca	-54
219	0xd5	-43
220	0x20	32
221	0xf3	-13
222	0x37	55
223	0x2a	42
224	0x22	34
225	0x81	-127
226	0x16	22
227	0xcf	-49
228	0x1f	31
229	0x36	54
230	0xed	-19
231	0xd1	-47
232	0xcb	-53
233	0x50	80
234	0x49	73
235	0x18	24
236	0xd4	-44
237	0xcd	-51
238	0x3b	59
239	0x1c	28
240	0xf6	-10
241	0xec	-20
242	0x0a	10
243	0xa9	-87
244	0xc7	-57
245	0x0e	14
246	0xec	-20
247	0xec	-20
248	0x1f	31
249	0xf2	-14
250	0x0c	12
251	0x2e	46
252	0x2f	47
253	0x38	56
254	0xe0	-32
255	0xfc	-4

tfl.pseudo_qconst11 i1 [32, 1, 9, 3]
0	0xb0	-80
1	0x44	68
2	0x1f	31
3	0x1f	31
4	0x07	7
5	0x42	66
6	0xe3	-29
7	0xaf	-81
8	0xf8	-8
9	0x33	51
10	0xf6	-10
11	0x2c	44
12	0x1d	29
13	0xba	-70
14	0x27	39
15	0x11	17
16	0x37	55
17	0x3e	62
18	0x10	16
19	0x34	52
20	0xdc	-36
21	0xce	-50
22	0x07	7
23	0xd4	-44
24	0xf6	-10
25	0xef	-17
26	0x81	-127
27	0xab	-85
28	0x34	52
29	0x23	35
30	0x81	-127
31	0x5e	94
32	0x0a	10
33	0xce	-50
34	0x51	81
35	0x9e	-98
36	0x0d	13
37	0x19	25
38	0xc8	-56
39	0x9f	-97
40	0xc5	-59
41	0x38	56
42	0xc7	-57
43	0xcd	-51
44	0x3b	59
45	0xb5	-75
46	0xcb	-53
47	0xa8	-88
48	0xcf	-49
49	0x4c	76
50	0x04	4
51	0x99	-103
52	0x21	33
53	0x5c	92
54	0x2f	47
55	0xce	-50
56	0xe5	-27
57	0xe5	-27
58	0xc6	-58
59	0x43	67
60	0x20	32
61	0x4b	75
62	0x67	103
63	0xa2	-94
64	0xc7	-57
65	0x7f	127
66	0x33	51
67	0xa2	-94
68	0xf6	-10
69	0x48	72
70	0x33	51
71	0x17	23
72	0xe9	-23
73	0xa3	-93
74	0xb1	-79
75	0xba	-70
76	0xdf	-33
77	0x55	85
78	0x4d	77
79	0x34	52
80	0xb6	-74
81	0x0b	11
82	0xef	-17
83	0xcc	-52
84	0xf6	-10
85	0xf1	-15
86	0xdf	-33
87	0xf3	-13
88	0xd7	-41
89	0xec	-20
90	0xf7	-9
91	0x01	1
92	0xf1	-15
93	0x0c	12
94	0xef	-17
95	0xb2	-78
96	0xfd	-3
97	0x0e	14
98	0xfb	-5
99	0xe0	-32
100	0xce	-50
101	0x2f	47
102	0x17	23
103	0x00	0
104	0x60	96
105	0xea	-22
106	0x25	37
107	0x7f	127
108	0x00	0
109	0x39	57
110	0x98	-104
111	0xed	-19
112	0xcd	-51
113	0xbf	-65
114	0x62	98
115	0xe7	-25
116	0x40	64
117	0xa5	-91
118	0x7f	127
119	0x1d	29
120	0xa8	-88
121	0x2b	43
122	0x46	70
123	0xee	-18
124	0xc9	-55
125	0xff	-1
126	0x20	32
127	0x1a	26
128	0x77	119
129	0x37	55
130	0x33	51
131	0x2b	43
132	0x28	40
133	0x14	20
134	0x6b	107
135	0xe0	-32
136	0x17	23
137	0x93	-109
138	0xbe	-66
139	0x3a	58
140	0x81	-127
141	0x2e	46
142	0x55	85
143	0x03	3
144	0xf6	-10
145	0x1a	26
146	0x1b	27
147	0x53	83
148	0xcf	-49
149	0x1c	28
150	0xfe	-2
151	0xca	-54
152	0xb3	-77
153	0x1d	29
154	0xe5	-27
155	0x5d	93
156	0x01	1
157	0x31	49
158	0x5b	91
159	0xc4	-60
160	0xa5	-91
161	0x6f	111
162	0x2e	46
163	0x34	52
164	0x6d	109
165	0x37	55
166	0x2f	47
167	0x7f	127
168	0x40	64
169	0x0e	14
170	0x92	-110
171	0xb4	-76
172	0xd0	-48
173	0xf6	-10
174	0x99	-103
175	0x55	85
176	0x98	-104
177	0x35	53
178	0x3e	62
179	0x0d	13
180	0xfa	-6
181	0xb2	-78
182	0xf2	-14
183	0xd5	-43
184	0x2b	43
185	0xbc	-68
186	0xcb	-53
187	0xf4	-12
188	0xee	-18
189	0x60	96
190	0xb3	-77
191	0x4a	74
192	0xd5	-43
193	0xc6	-58
194	0xee	-18
195	0x23	35
196	0xc5	-59
197	0x9c	-100
198	0xf7	-9
199	0x8d	-115
200	0x81	-127
201	0x12	18
202	0x72	114
203	0xeb	-21
204	0xe5	-27
205	0x67	103
206	0x9b	-101
207	0xbd	-67
208	0xf0	-16
209	0x10	16
210	0xb4	-76
211	0x4c	76
212	0xfd	-3
213	0x27	39
214	0x11	17
215	0x03	3
216	0x9b	-101
217	0x6c	108
218	0x91	-111
219	0x46	70
220	0x3a	58
221	0x9f	-97
222	0x1f	31
223	0xb4	-76
224	0x27	39
225	0x26	38
226	0x3c	60
227	0x65	101
228	0x08	8
229	0x25	37
230	0xb8	-72
231	0xd0	-48
232	0x4f	79
233	0x6f	111
234	0xfa	-6
235	0xdf	-33
236	0x7f	127
237	0x23	35
238	0xf6	-10
239	0x5e	94
240	0xff	-1
241	0xb5	-75
242	0xbc	-68
243	0x58	88
244	0x18	24
245	0xa4	-92
246	0xd8	-40
247	0x26	38
248	0xc5	-59
249	0x05	5
250	0xa1	-95
251	0x20	32
252	0x48	72
253	0xdb	-37
254	0xb1	-79
255	0x8d	-115
