ML/models/conv1d_angle_toro_ossaba/seed1_20260117_045953_562/model.tflite (tflite, 96000 bytes, 11 tensors)

arith.constant2 f4 [1, 64]
0	0x3ea45205	0.32093826
1	0x3eb7390e	0.35785717
2	0x3e6e7ddd	0.232902
3	0x3d90528a	0.07046993
4	0xbdda51e5	-0.106601514
5	0x3c7d0abf	0.015444457
6	0x3e406f74	0.18792516
7	0x3e07861c	0.13234752
8	0x3ceb435a	0.02871864
9	0xbd8f2317	-0.06989115
10	0xbe487e77	-0.19579493
11	0x3eb72489	0.35770062
12	0xbdd72c9a	-0.10506554
13	0x3da7c49c	0.08191797
14	0xbe4480e4	-0.19189793
15	0xbe2e01b4	-0.16992837
16	0x3e38b388	0.18037236
17	0x3dfb2912	0.12263693
18	0x3dd6d82a	0.10490449
19	0x3df11b95	0.11772839
20	0x3d3a7084	0.04551746
21	0x3e8c30e5	0.27381054
22	0xbe2fa9d9	-0.17154635
23	0x3e1ff438	0.15620506
24	0x3e0c6485	0.1371022
25	0xbdbffa61	-0.09373928
26	0x3dc7515b	0.09732314
27	0xbe1751e0	-0.14777327
28	0x3e0c05b8	0.13674057
29	0x3da9458c	0.08265218
30	0xbd1e649f	-0.03867018
31	0xbe1848f6	-0.14871582
32	0xbdfe5ec2	-0.12420417
33	0x3d706139	0.05868647
34	0x3d5b61ba	0.053559996
35	0xbdb3c601	-0.087780006
36	0xbe6d2cfd	-0.23161693
37	0xbe4d45fb	-0.20046227
38	0x3e078f64	0.13238293
39	0xbe3dc067	-0.18530427
40	0xbd9f0ea5	-0.07766465
41	0xbda41ce1	-0.08013321
42	0x3e4db5d6	0.20088896
43	0xbe291c17	-0.16514622
44	0xbde82a5a	-0.11336203
45	0xbd3abf07	-0.045592334
46	0x3e2bc8a6	0.1677576
47	0xbdea4c4d	-0.114403345
48	0x3ce61cde	0.028089937
49	0x3df9938b	0.12186345
50	0x3dfd4a3e	0.12367676
51	0xbe82973b	-0.25506005
52	0x3e32b4c7	0.17451774
53	0x3def359d	0.11680148
54	0xbe76c96d	-0.24100275
55	0xbe1b22e2	-0.15150025
56	0x3bef3db4	0.0073010568
57	0xbe571752	-0.2100499
58	0x3dbd7b02	0.092519775
59	0x3d83d29d	0.06436656
60	0x3e5dd16f	0.21661924
61	0x3e31943c	0.17341703
62	0xbdbfa1df	-0.09357046
63	0x3e5afa25	0.21384485

arith.constant7 f4 [128]
0	0x3d8c1413	0.06839766
1	0xbcd70e8c	-0.026252054
2	0x3d80c2d1	0.06287158
3	0x3ca3c7e5	0.019992778
4	0x3c9dbe2f	0.019255726
5	0xbccae9ab	-0.024769625
6	0xbcdfb4f1	-0.02730796
7	0xbcadbefd	-0.021209234
8	0x3d80061a	0.06251164
9	0xbd199b68	-0.037501723
10	0xbc54094d	-0.012941671
11	0x3a161075	0.0005724498
12	0xbc3ecf7b	-0.011646147
13	0xbc287551	-0.010281877
14	0xbc905bed	-0.017621959
15	0xbd16f9ca	-0.03685931
16	0xbcf631a5	-0.03005297
17	0x3b951b42	0.0045503685
18	0x3c8c8b73	0.017156338
19	0x3c00c5b3	0.007859635
20	0x3d3a3809	0.045463596
21	0x3d706208	0.05868724
22	0xbc2a7016	-0.0104027
23	0xbce4a12e	-0.027908888
24	0x3cf63169	0.030052857
25	0xbcdce951	-0.026966723
26	0x3ca9ab03	0.020711428
27	0xbcb0151f	-0.021494446
28	0x3ce70e4d	0.028205061
29	0xbcca067e	-0.024661299
30	0x3d73ddbf	0.059537645
31	0x3cec0bcb	0.028814217
32	0xbcbaab36	-0.022786718
33	0xbd6dccc0	-0.058056593
34	0x3c30ae0b	0.010783683
35	0xbc8114bf	-0.015756963
36	0xbc60b21c	-0.01371434
37	0x3b93aad8	0.00450645
38	0xbcbdec62	-0.023184005
39	0xbd6929d1	-0.056924645
40	0xbc6b486a	-0.014360527
41	0xbc9b3055	-0.018943945
42	0xbc94df6e	-0.018172946
43	0xbdc2fe5d	-0.09521172
44	0xbc1bc4c1	-0.009507359
45	0xbca14f28	-0.019691065
46	0x3d108c18	0.035289854
47	0x3dc78105	0.097414054
48	0x3b889880	0.00416857
49	0x3d45e5fd	0.048315037
50	0xbc8e2f1d	-0.01735645
51	0xbc00ca5e	-0.007860748
52	0xbb3cf175	-0.0028830443
53	0x3dee6806	0.11640935
54	0xbd30d1db	-0.043168884
55	0x3d0768c3	0.033058893
56	0x3cbe744b	0.023248812
57	0xbcb6e6ba	-0.022326816
58	0xbbc367d0	-0.005963303
59	0x3cad7d95	0.021178046
60	0xbc57d6c3	-0.013173762
61	0x3cc3c594	0.023897924
62	0x3ab83dda	0.0014056519
63	0x3c5c6a9e	0.013453154
64	0x3da6bf49	0.081419535
65	0x3d1e05b4	0.038579658
66	0x3c94acc8	0.018148795
67	0xbcfceebb	-0.030875554
68	0xbcca5a03	-0.024701124
69	0x3c2b8e32	0.010470914
70	0xbc8e311b	-0.0173574
71	0x3d363e88	0.04449323
72	0xbc03ba01	-0.008039952
73	0xbd628aac	-0.05530803
74	0x3d923f7d	0.07141016
75	0x3d8f01de	0.06982778
76	0xbcacc01e	-0.021087702
77	0x3d4577e0	0.048210025
78	0xba64c6e4	-0.0008727147
79	0x3b4a6d2a	0.003088782
80	0x3bb0509d	0.0053807036
81	0xbce67148	-0.028130189
82	0xbc10ed49	-0.008845636
83	0xbc31ced7	-0.010852537
84	0xbdacd8eb	-0.08439811
85	0x3be4bc73	0.0069804727
86	0xbd3ec981	-0.046578888
87	0x3d0c3a07	0.034235027
88	0xbcf178ef	-0.029476611
89	0xbcacf31c	-0.021112017
90	0xbc44a089	-0.012001165
91	0x3c5a2905	0.013315444
92	0xbcc77dfb	-0.024352064
93	0x3c248da7	0.010043538
94	0x3d7117b6	0.058860503
95	0xbc9aaf0b	-0.018882295
96	0x3a106652	0.0005508411
97	0x3d2b20af	0.041779216
98	0x3c8183af	0.015809862
99	0xbc10ad1f	-0.008830338
100	0x3c0ac5da	0.008470023
101	0xbca9d43b	-0.020731082
102	0xbc832a1c	-0.01601129
103	0xbcb0da35	-0.021588424
104	0x3dbc9825	0.09208707
105	0x3d7aba67	0.061212923
106	0x3cbce2b6	0.023057323
107	0x3cc61c4f	0.02418342
108	0x3bdaf4e9	0.0066820276
109	0xbbf3c583	-0.0074393167
110	0xbc678cf7	-0.01413273
111	0xbcdffd52	-0.027342472
112	0xbc86d8f3	-0.016460871
113	0x3d963f81	0.07336331
114	0xbcc57657	-0.02410428
115	0xbd00519f	-0.03132784
116	0x3d3ba019	0.045806978
117	0x3d810c67	0.06301194
118	0x3db1f3f9	0.08689112
119	0xbcd43057	-0.025901956
120	0x3d389e5c	0.0450729
121	0x3b850812	0.0040598
122	0xbcebdf8f	-0.028793124
123	0xbc3ea2ce	-0.011635495
124	0x3d88da9f	0.06682324
125	0xbcb5431b	-0.022126725
126	0x3d06a6d9	0.032873962
127	0xbd2aef6c	-0.041732237

arith.constant8 f4 [64]
0	0x3de512e5	0.111852445
1	0x3d81087c	0.063004464
2	0x3c4aa2a2	0.012367876
3	0xbd460ccd	-0.04835205
4	0xbd808151	-0.06274665
5	0xbdf795d5	-0.12089125
6	0xbcac83f7	-0.02105902
7	0x3bbae74f	0.0057038437
8	0xbd826724	-0.06367329
9	0x3c8954f8	0.01676415
10	0x3e07aa82	0.13248637
11	0x3daec5b7	0.08533805
12	0x3d5c706c	0.05381815
13	0xbd1fc4dd	-0.039006103
14	0x3d5c1982	0.053735264
15	0x3d0de4fd	0.03464221
16	0x3d80fa5f	0.062977545
17	0x3cdf9238	0.027291402
18	0x3cb3035f	0.021852193
19	0x3c8968ac	0.016773544
20	0xbb627c7c	-0.0034559062
21	0x3d2ef702	0.042716034
22	0x3dca1c60	0.09868693
23	0x3c140eed	0.009036762
24	0x3cdf772f	0.02727851
25	0x3be694ab	0.0070367656
26	0x3d86d2d1	0.06583179
27	0xbb0cc9a2	-0.0021482487
28	0x3be6b27c	0.00704032
29	0x3c298576	0.010346761
30	0x3bd50329	0.006500621
31	0x3d160c17	0.036632624
32	0x3d813505	0.06308941
33	0x3d4526c2	0.048132665
34	0xbd57e0ca	-0.05270461
35	0x3d2d3f6d	0.042296816
36	0x3c27746a	0.010220626
37	0x3e4163e9	0.18885769
38	0x3da4e366	0.08051185
39	0x3dc51353	0.096228264
40	0x3c59c21a	0.013290906
41	0x3dd208b0	0.10255563
42	0x3c9435f1	0.018092128
43	0x3d84e49f	0.064889185
44	0x3cc1ca4f	0.023656039
45	0xbdd179f9	-0.102283426
46	0x3dee1e9f	0.11626934
47	0x3ccaad2e	0.024740782
48	0xbde5ead7	-0.11226433
49	0xbd4a1100	-0.04933262
50	0xbdacc3d4	-0.08435789
51	0x3d9776cf	0.07395708
52	0x3ca60b00	0.020268917
53	0xbda688bb	-0.08131548
54	0x3d6e3d82	0.058164127
55	0x3c07b4ff	0.008282899
56	0xbd24bf27	-0.04022136
57	0x3decafc4	0.11556962
58	0x3cb3017a	0.02185129
59	0xba0239a1	-0.0004967694
60	0x3b77d10a	0.0037813806
61	0xbcbf807e	-0.0233767
62	0x3cd280e8	0.025696233
63	0x3d80926c	0.06277928

arith.constant9 f4 [32, 1, 9, 3]
0	0xbf7a8723	-0.9786245
1	0x3f89e58e	1.077318
2	0xbd75fd41	-0.060055975
3	0xbeddec5d	-0.43344393
4	0x3f53d8ea	0.8275286
5	0xbe589505	-0.21150596
6	0xbf14b8b9	-0.58094364
7	0x3f1836fb	0.59458894
8	0xbf1206ce	-0.57041633
9	0x3e85f22d	0.26161328
10	0x3c8ec19f	0.01742631
11	0xbe684884	-0.22683913
12	0xbeb7ceee	-0.35900062
13	0x3f678135	0.9043153
14	0xbd7a1a8b	-0.06106047
15	0x3f1cb182	0.61208355
16	0xbded3241	-0.11581851
17	0xbf86a554	-1.0519204
18	0xbf2f069e	-0.6836947
19	0x3f2e5ba3	0.68108577
20	0xbed73494	-0.420323
21	0xbed0f9fa	-0.40815717
22	0x3f81f792	1.0153677
23	0xbe939df5	-0.2883145
24	0xbe3c1dc6	-0.18370733
25	0x3f8ec4dc	1.1153827
26	0x3e238caa	0.15971628
27	0x3e489088	0.19586384
28	0x3f61e9fc	0.88247657
29	0x3dbc13b2	0.09183444
30	0xbf8ae049	-1.0849696
31	0x3d900f22	0.07034136
32	0x3fa58902	1.2932436
33	0xbe04bfb4	-0.12963754
34	0xbe408f6d	-0.18804713
35	0x3fbb6032	1.4638731
36	0x3d6411ba	0.055680968
37	0x3f805f28	1.0029039
38	0x3f484d38	0.78242826
39	0x3ca33e9b	0.019927314
40	0xbe1c88fa	-0.15286627
41	0x3f0a0ab9	0.5392261
42	0xbe047ad0	-0.12937474
43	0x3e5aee2f	0.21379922
44	0x3f71ad2a	0.9440485
45	0xbf84047a	-1.0313866
46	0xbe8c10e8	-0.27356648
47	0xbf3d73dc	-0.7400491
48	0xbf075e62	-0.5287839
49	0x3d9ff523	0.07810428
50	0x3e049d5f	0.12950657
51	0xbfcfebb5	-1.6243807
52	0x3f12de3e	0.57370365
53	0xbf882568	-1.0636415
54	0xbebc5d89	-0.36790112
55	0xbd47129d	-0.048601735
56	0xbb4c0154	-0.0031128721
57	0xbd784d53	-0.060620617
58	0xbe8cce5a	-0.27501184
59	0xbe66020c	-0.22461718
60	0xbd575f46	-0.052581094
61	0x3e747936	0.23874363
62	0x3fb298eb	1.3952917
63	0x3e85fa78	0.26167655
64	0xbef5c6d9	-0.4800327
65	0x40076b19	2.1159117
66	0xbf3fabdf	-0.7487163
67	0x3f258991	0.64663035
68	0x3da06320	0.078314066
69	0xbe5fd859	-0.21859874
70	0x3f281eb0	0.65671825
71	0x3f55c959	0.8351036
72	0xbd98a2e3	-0.07452943
73	0xbee66675	-0.45000044
74	0xbf32bbde	-0.6981791
75	0xbde2dedb	-0.110776626
76	0xbd9f51f4	-0.07779303
77	0xbe38dc84	-0.1805287
78	0xbdfb95e2	-0.12284447
79	0x3f094c89	0.5363241
80	0x3cf6448b	0.03006198
81	0x3e39d386	0.18147096
82	0xbd92b505	-0.07163433
83	0xbeb3b754	-0.35100806
84	0xbedc416d	-0.43018666
85	0xbe7520ce	-0.23938295
86	0x3ea5e9ea	0.32405025
87	0x3e12c2d3	0.14332132
88	0x3e899151	0.2686868
89	0xbd0aa9d8	-0.033853382
90	0x3e52709a	0.20550767
91	0x3e8eed40	0.27915382
92	0x3e700dad	0.23442717
93	0x3e6a3bb5	0.22874339
94	0xbebb6dca	-0.366072
95	0xbcb3e4cb	-0.021959683
96	0xbeb1111a	-0.3458336
97	0xbddfb6ba	-0.10923524
98	0x3e879e37	0.26487896
99	0xbdae2f2a	-0.085050896
100	0x3e6c4b16	0.23075518
101	0x3fa6ca12	1.3030417
102	0x3e83b881	0.25726703
103	0x3e1bea38	0.15226066
104	0x3fe551eb	1.7915624
105	0xbe9a858b	-0.3018001
106	0x3bb76050	0.005596198
107	0x3d866911	0.065630086
108	0x3f8af085	1.0854651
109	0x3feaaf6e	1.8334787
110	0xbfc59356	-1.5435588
111	0xbf71e0a9	-0.9448343
112	0x3f0fe4d9	0.5620857
113	0xbfbb52ea	-1.4634678
114	0x3e1c9fff	0.15295409
115	0x3f8c1d39	1.0946418
116	0xbeb3ac52	-0.35092407
117	0xbe1d9e95	-0.15392525
118	0x3f54fff6	0.83203065
119	0xbfdfba2e	-1.7478693
120	0x3f377352	0.7166034
121	0x3e9a728d	0.3016552
122	0xbf97eb0f	-1.1868609
123	0x3f99917a	1.1997521
124	0xbf1815a9	-0.5940805
125	0x4000c297	2.0118768
126	0xbf251575	-0.64485866
127	0x3f68b073	0.9089424
128	0x405597fc	3.3374014
129	0xbf76c2d1	-0.96391016
130	0xbf70e3f9	-0.9409786
131	0x407935c5	3.8939068
132	0x3f858b98	1.0433226
133	0x3eb37d8b	0.3505672
134	0xbee3f72f	-0.44524524
135	0xbeca879e	-0.39556593
136	0x3e223988	0.15842259
137	0x3f8350d5	1.0259043
138	0xbdbe5f33	-0.092955016
139	0xbe7c0580	-0.24611473
140	0x3ef0c663	0.47026357
141	0x3c26eb53	0.010187942
142	0x3e9117a9	0.28338364
143	0xbf8f96d9	-1.121791
144	0x3e98ed89	0.29868725
145	0xbe958cee	-0.29209083
146	0xc00ba9c9	-2.1822379
147	0x3e929a6b	0.28633437
148	0xbe4f39cf	-0.20236896
149	0x3e459b3d	0.192975
150	0xbde41ef4	-0.11138716
151	0xbe63cb6c	-0.22245568
152	0xbf9b7789	-1.2145854
153	0xbdaa390c	-0.08311662
154	0x3ef8d5cc	0.48600614
155	0x3eb0ad74	0.34507334
156	0x3de34d0e	0.110986814
157	0x3e9a37e0	0.30120754
158	0xbe9008bf	-0.28131673
159	0xbdf30e1b	-0.11867925
160	0xbe0ea7c0	-0.13931179
161	0xbf5732ca	-0.8406187
162	0xbee26588	-0.44218087
163	0xc018ecc9	-2.3894522
164	0x3f357d58	0.70894384
165	0x3f55b60c	0.83480906
166	0xbf87af90	-1.0600452
167	0xbf9adb78	-1.2098227
168	0x3f0f3f86	0.55956304
169	0xc003c0a6	-2.0586333
170	0xbf0540f9	-0.52052265
171	0x3f71fb59	0.9452415
172	0xbf8aceef	-1.0844401
173	0x3f8d1724	1.1022687
174	0xbd885b34	-0.066580206
175	0xbff64cef	-1.9242228
176	0xbf03160c	-0.51205516
177	0x3eb9888f	0.36236998
178	0xc007f82f	-2.124523
179	0xbf242d9e	-0.64132106
180	0x3e09daf8	0.13462436
181	0xc0234e31	-2.5516474
182	0x3e6c3355	0.23066457
183	0x3f8a4852	1.080332
184	0xbfe5ba6b	-1.7947515
185	0x3f5bc92c	0.8585384
186	0x3f03b878	0.5145335
187	0xc0261907	-2.5952775
188	0xbfb97d06	-1.4491279
189	0x3f33e76d	0.70275
190	0x3f96482a	1.1740773
191	0xc014b93f	-2.3238065
192	0x3e6a43e5	0.22877462
193	0x3fc3290a	1.5246899
194	0xbf1778f1	-0.59168917
195	0xbea7c7d7	-0.32769653
196	0xbdd92d9c	-0.106044024
197	0xbea6e4ed	-0.32596532
198	0xbf4cadaa	-0.7995249
199	0x3e2137e0	0.15743971
200	0x3f4bf497	0.7967009
201	0x3d3ada8a	0.04561857
202	0xbf9349f3	-1.1506943
203	0x3f82107a	1.0161278
204	0x3f78b177	0.9714579
205	0xbeee2a93	-0.46516857
206	0xbe89ff50	-0.269526
207	0xbe82e1c8	-0.25562882
208	0x3f63cc69	0.8898378
209	0x401cdaaf	2.4508474
210	0x3f5e925e	0.8694209
211	0x3d9f510e	0.07779132
212	0x400aa7b9	2.166487
213	0xbf3d0748	-0.73839235
214	0xbfd46de8	-1.6596041
215	0xbeb68056	-0.35644788
216	0xbf07978b	-0.5296561
217	0x3ecfb5c1	0.40568355
218	0xc084d41e	-4.150893
219	0x3f9ae14a	1.2100003
220	0xc004d855	-2.0757039
221	0x3ec6be13	0.3881689
222	0x3f0351aa	0.51296484
223	0xbec44c3e	-0.38339418
224	0xc05f8394	-3.492406
225	0xbfe48efe	-1.7856138
226	0x3fec1c04	1.844605
227	0xbecf9a87	-0.40547583
228	0x3f6c7428	0.9236474
229	0x3ea711d3	0.32630786
230	0xbfe2587d	-1.7683254
231	0x3db28c23	0.08718135
232	0xbde9547e	-0.11393069
233	0xbf2112e6	-0.6291946
234	0xbfe1ecf8	-1.7650442
235	0xbf809fb4	-1.0048738
236	0x40223583	2.534516
237	0x3e956c98	0.29184413
238	0x3f2f3d5f	0.6845302
239	0x40823749	4.0692487
240	0x3faa358f	1.3297595
241	0xbfd6fc48	-1.679574
242	0x409c94ec	4.893179
243	0x3ffef4ba	1.9918435
244	0xbf1ecb28	-0.6202874
245	0x4086b478	4.20953
246	0x3e569ec0	0.20958996
247	0x3dec7ed8	0.11547631
248	0x40049308	2.071474
249	0xbed0a185	-0.4074823
250	0xbf759f79	-0.9594646
251	0x40268b2e	2.6022449
252	0xbcfa6058	-0.030563518
253	0xbfbf25f9	-1.4933463
254	0xc026f8bc	-2.6089315
255	0xbf067145	-0.52516586

arith.constant10 f4 [128]
0	0x3f22b217	0.63552994
1	0x3c085d8f	0.008323087
2	0x3f20284f	0.62561506
3	0x4035c818	2.8403378
4	0x3ec33bb3	0.38131484
5	0x3f0b1b58	0.543386
6	0xbddf2725	-0.10896138
7	0x3dfa9bcf	0.122367494
8	0xbec3df96	-0.3825652
9	0x3e919a2a	0.2843793
10	0xbd7ea90b	-0.06217293
11	0x3f18730a	0.59550536
12	0xbf2cde8c	-0.6752708
13	0xbc61cafa	-0.013781304
14	0xbd1facd5	-0.038983185
15	0xbd1ac552	-0.037785836
16	0x3fa083ca	1.2540219
17	0xbf1508ae	-0.5821637
18	0x3f2a3f87	0.66503185
19	0x3fafbd39	1.3729621
20	0xbe1c55bc	-0.1526708
21	0x3ffbb50a	1.9664624
22	0x3f9d4404	1.2286382
23	0x3e7a3a86	0.24436387
24	0xbf24c03b	-0.6435582
25	0x3d52e09f	0.051483747
26	0x40143f58	2.3163662
27	0x3f8f0bba	1.1175454
28	0x3fd88fdb	1.6918901
29	0x3f378e91	0.71701914
30	0xbf5c1abf	-0.8597831
31	0x3f4c08ba	0.79700816
32	0xbeeb39cd	-0.45942536
33	0xbf165880	-0.5872879
34	0x3d4f0cfc	0.050549492
35	0x3ed0d05d	0.4078397
36	0xbf067dc7	-0.5253567
37	0x3a58747f	0.00082571054
38	0xbc1b5760	-0.009481281
39	0x3df8f14b	0.12155398
40	0x3efa19b3	0.48847732
41	0xbee2d024	-0.44299424
42	0x3e1b9d40	0.15196705
43	0x3eec03d5	0.46096674
44	0x3ef9967a	0.48747617
45	0xbe12d93b	-0.1434068
46	0xbf024214	-0.5088208
47	0x3ddb7ba5	0.10716943
48	0x3efdd1f5	0.49574247
49	0x401ebfa1	2.480446
50	0x402d7191	2.7100565
51	0xbeb7e49e	-0.3591661
52	0x3fb62b91	1.4232045
53	0xbd8fb755	-0.0701739
54	0x3fa0f67c	1.2575221
55	0x3f250760	0.6446438
56	0x3f089d26	0.5336479
57	0x3e238390	0.15968156
58	0xbed47987	-0.41498968
59	0x402d30f0	2.706112
60	0x3f28b593	0.6590206
61	0xbd4d1f0f	-0.050078448
62	0x3fad96f4	1.3561692
63	0x3f19507c	0.59888434
64	0x3f9b701b	1.2143587
65	0xbcc18bd7	-0.023626251
66	0x3deb5a47	0.114918284
67	0x3f4dc205	0.80374175
68	0x3fea91bc	1.8325725
69	0xbf3b86d4	-0.73252606
70	0x3f1165bd	0.56795865
71	0x3efe0ab9	0.49617556
72	0x3f15cc2e	0.5851468
73	0xbdfc0fc3	-0.12307694
74	0x3fb01751	1.3757116
75	0x402272c8	2.5382557
76	0x3ef03485	0.4691507
77	0x3f8612fa	1.0474541
78	0xbd6580df	-0.056031104
79	0x401e0420	2.4690018
80	0x3e873e16	0.26414555
81	0x3e80c6ff	0.25151822
82	0x3e9a8765	0.30181423
83	0xbecf72d5	-0.40517297
84	0x3dbc5fa1	0.09197927
85	0xbd2eea5c	-0.04270397
86	0x4001515c	2.0205908
87	0x400401b6	2.0626044
88	0x3efafe43	0.4902211
89	0xbe9c2b29	-0.3050168
90	0x3f7096b9	0.93979985
91	0xbdf85dbd	-0.12127254
92	0x3e60762c	0.21920079
93	0x3fb4628d	1.4092575
94	0x3f40e157	0.7534384
95	0xbddb6e88	-0.107144415
96	0xbecf2fe2	-0.4046622
97	0xbf4d76de	-0.802595
98	0xbef4ec42	-0.478365
99	0xbe16bb43	-0.14719872
100	0x3ff8b348	1.9429712
101	0x404ce6d0	3.2015877
102	0xbea9af3d	-0.3314151
103	0x40062115	2.0957692
104	0x3ee1666c	0.44023454
105	0x4009f529	2.1555884
106	0x3d309e90	0.043119967
107	0x3eb1c97c	0.34724033
108	0x3eda3a25	0.42622486
109	0x3ebd815c	0.37012756
110	0xbe210fc8	-0.15728676
111	0x3e878b8d	0.26473656
112	0x400da1fb	2.2130115
113	0xbee050ba	-0.4381159
114	0x3f3bdc54	0.7338307
115	0x3d572528	0.05252567
116	0x3bcee3d1	0.006313779
117	0x3f7477e1	0.9549542
118	0x3fc9e084	1.5771642
119	0x4048b33c	3.1359396
120	0x4008f4cf	2.139942
121	0x4045378a	3.0815148
122	0x402d7660	2.71035
123	0x3ebb6505	0.3660051
124	0x3e8cbfe3	0.27490148
125	0x3f3ddbd2	0.74163544
126	0x3f10f715	0.5662702
127	0x3eb232e5	0.34804454

arith.constant11 f4 [64]
0	0x3eb909ba	0.36140233
1	0xbff8c6c3	-1.9435657
2	0x3ec6a5e7	0.38798448
3	0x3eabbe4b	0.3354362
4	0x3eccfb34	0.40035403
5	0x3ec93d54	0.39304602
6	0xbfce8756	-1.6135051
7	0x3d79763e	0.06090378
8	0x3e75c44c	0.24000663
9	0xbeae1e72	-0.34007603
10	0x3ec13a57	0.37739822
11	0x3e9e7d3d	0.30954924
12	0xbf5658d9	-0.8372932
13	0xbf45b9e0	-0.7723675
14	0xbed933ad	-0.42422238
15	0xbf6aa9c0	-0.9166527
16	0x3e906c16	0.28207463
17	0xbdda66b5	-0.10664121
18	0x3e01f187	0.12689792
19	0xbf0f5687	-0.55991405
20	0x3e8b7cfc	0.27243793
21	0x3ec7d913	0.39032802
22	0xbf120813	-0.5704357
23	0x3e155201	0.14582063
24	0x3ea50707	0.32231924
25	0x3de6fd9b	0.1127884
26	0x3ed3cdcd	0.4136795
27	0x3ef06b56	0.4695689
28	0x3e4d92db	0.20075552
29	0x3eb39e56	0.35081738
30	0x3eb2bb91	0.34908727
31	0xbfec5e6d	-1.8466316
32	0xbeb7e823	-0.35919294
33	0x3ebf3294	0.37343276
34	0x3e3dbe35	0.1852959
35	0x3e1d41d4	0.15357143
36	0x3e8d5f77	0.27611896
37	0xbfe8cff1	-1.8188459
38	0x3e914edb	0.28380474
39	0x3ec948b8	0.39313293
40	0x3eaac254	0.33351386
41	0x3eb8c4d4	0.36087668
42	0x3e8a4fae	0.27013916
43	0x3e908e35	0.28233495
44	0x3e9bae46	0.30406398
45	0xc006b02c	-2.1045027
46	0x3e2d8995	0.16947015
47	0xbec5fee8	-0.3867104
48	0xbeb16bfd	-0.346527
49	0xbfab62a1	-1.3389474
50	0x3e5e7198	0.2172302
51	0x3e91fbcf	0.28512427
52	0x3f0fc56e	0.5616063
53	0x3e025e36	0.12731251
54	0x3f04b133	0.51832885
55	0xbd9d82c3	-0.076909564
56	0x3f2e9330	0.6819334
57	0x3f0d6842	0.5523721
58	0x3e960ccd	0.2930664
59	0xbf72c926	-0.9483818
60	0x3dd3f5d1	0.1034962
61	0xbe783f01	-0.24242784
62	0xbed80fb0	-0.4219947
63	0xbef150f1	-0.47132066

arith.constant12 f4 [32]
0	0x3f64a398	0.89312124
1	0xbfcd500d	-1.6040055
2	0xbff96eb7	-1.9486912
3	0xc002c3c7	-2.0431993
4	0xbfd781af	-1.6836451
5	0x3fba574e	1.4557893
6	0x3f901292	1.1255667
7	0xbfdeebd3	-1.7415718
8	0xbf2e53e2	-0.68096745
9	0x3f84f37a	1.0386803
10	0xbfb79d8d	-1.4344956
11	0xbfe68673	-1.8009781
12	0x3ebe8ad3	0.3721529
13	0xbfa8b5df	-1.3180503
14	0x3f9c2560	1.2198906
15	0xbef26beb	-0.4734796
16	0xbfdaae63	-1.7084469
17	0x3f11ff52	0.5703021
18	0x3fd421bf	1.6572798
19	0x3fb4ecb8	1.4134741
20	0xbfe82274	-1.8135514
21	0x3f2bf2ef	0.6716756
22	0x3dcbdde3	0.09954431
23	0xc0045f8a	-2.0683312
24	0xbf001afb	-0.5004117
25	0xbfa73cc6	-1.3065422
26	0x3f9d4356	1.2286174
27	0x3fea455e	1.8302419
28	0xbf3522ee	-0.70756423
29	0xbefcc55a	-0.49369317
30	0x3f9cda70	1.2254162
31	0x3f39a256	0.7251333

tfl.pseudo_qconst i1 [128, 1, 5, 64]
0	0x3e	62
1	0xc2	-62
2	0xe0	-32
3	0x03	3
4	0x10	16
5	0xce	-50
6	0xe8	-24
7	0x09	9
8	0x02	2
9	0xf2	-14
10	0xeb	-21
11	0xfc	-4
12	0xc8	-56
13	0xfa	-6
14	0x05	5
15	0x9a	-102
16	0xf6	-10
17	0xeb	-21
18	0x10	16
19	0x0b	11
20	0x02	2
21	0x0a	10
22	0x08	8
23	0x24	36
24	0xf3	-13
25	0xeb	-21
26	0xf5	-11
27	0xea	-22
28	0x1f	31
29	0xed	-19
30	0xf5	-11
31	0xda	-38
32	0xe4	-28
33	0xff	-1
34	0x12	18
35	0xec	-20
36	0xf1	-15
37	0xa8	-88
38	0x14	20
39	0xff	-1
40	0x1e	30
41	0xf4	-12
42	0x15	21
43	0x00	0
44	0x12	18
45	0x81	-127
46	0xce	-50
47	0x12	18
48	0xdb	-37
49	0xf6	-10
50	0xd8	-40
51	0xe2	-30
52	0xee	-18
53	0x1a	26
54	0x17	23
55	0x35	53
56	0x13	19
57	0x0f	15
58	0xf5	-11
59	0xb5	-75
60	0x15	21
61	0x15	21
62	0x0f	15
63	0xe3	-29
64	0x24	36
65	0x08	8
66	0xe0	-32
67	0x0b	11
68	0xf8	-8
69	0xd8	-40
70	0xda	-38
71	0xdf	-33
72	0xe3	-29
73	0x07	7
74	0xff	-1
75	0x1c	28
76	0xc3	-61
77	0x0b	11
78	0xfd	-3
79	0xd3	-45
80	0xcd	-51
81	0xfb	-5
82	0xfe	-2
83	0x01	1
84	0xde	-34
85	0xf6	-10
86	0x05	5
87	0xee	-18
88	0xe4	-28
89	0xe9	-23
90	0x05	5
91	0xeb	-21
92	0x16	22
93	0x04	4
94	0xe5	-27
95	0xdf	-33
96	0xf0	-16
97	0xe6	-26
98	0x17	23
99	0xd6	-42
100	0xce	-50
101	0xce	-50
102	0x15	21
103	0x02	2
104	0x22	34
105	0xf2	-14
106	0xf0	-16
107	0x07	7
108	0xe9	-23
109	0x97	-105
110	0xbd	-67
111	0x06	6
112	0x0d	13
113	0xf0	-16
114	0x0b	11
115	0xd0	-48
116	0x0f	15
117	0x23	35
118	0x07	7
119	0x1d	29
120	0x07	7
121	0xf4	-12
122	0x13	19
123	0xac	-84
124	0x2f	47
125	0x05	5
126	0xf5	-11
127	0xdc	-36
128	0x10	16
129	0xe3	-29
130	0xfd	-3
131	0x13	19
132	0xf8	-8
133	0x08	8
134	0xdf	-33
135	0xfe	-2
136	0xe4	-28
137	0xf5	-11
138	0xed	-19
139	0xf6	-10
140	0xc0	-64
141	0x01	1
142	0x00	0
143	0xc4	-60
144	0xcd	-51
145	0x18	24
146	0x0c	12
147	0x02	2
148	0xf3	-13
149	0xe2	-30
150	0xfc	-4
151	0x17	23
152	0x05	5
153	0xef	-17
154	0xf5	-11
155	0xff	-1
156	0x2d	45
157	0x06	6
158	0xea	-22
159	0xf4	-12
160	0xc6	-58
161	0xd1	-47
162	0x08	8
163	0xed	-19
164	0xd5	-43
165	0xb2	-78
166	0x0c	12
167	0xf3	-13
168	0x10	16
169	0x00	0
170	0xd4	-44
171	0x08	8
172	0x01	1
173	0xc5	-59
174	0xeb	-21
175	0x03	3
176	0x0b	11
177	0x01	1
178	0x06	6
179	0xf0	-16
180	0xef	-17
181	0x1d	29
182	0xe4	-28
183	0x41	65
184	0xff	-1
185	0xf8	-8
186	0xf8	-8
187	0xcf	-49
188	0x04	4
189	0x0e	14
190	0xfc	-4
191	0xda	-38
192	0x09	9
193	0x0f	15
194	0xf3	-13
195	0x08	8
196	0xff	-1
197	0xfa	-6
198	0xdf	-33
199	0x0b	11
200	0xf2	-14
201	0xfb	-5
202	0x00	0
203	0x14	20
204	0xc0	-64
205	0xf5	-11
206	0xf2	-14
207	0xd1	-47
208	0xf2	-14
209	0x09	9
210	0xff	-1
211	0xf7	-9
212	0xeb	-21
213	0xfe	-2
214	0xf9	-7
215	0x38	56
216	0x01	1
217	0x05	5
218	0xe8	-24
219	0x10	16
220	0x13	19
221	0xf6	-10
222	0xf3	-13
223	0x03	3
224	0xe3	-29
225	0xd8	-40
226	0x0d	13
227	0xe4	-28
228	0xea	-22
229	0xa5	-91
230	0x04	4
231	0xfb	-5
232	0x20	32
233	0x09	9
234	0x0b	11
235	0x03	3
236	0x14	20
237	0xaf	-81
238	0xdd	-35
239	0xfc	-4
240	0x02	2
241	0xfc	-4
242	0xf6	-10
243	0xec	-20
244	0xff	-1
245	0x10	16
246	0xfd	-3
247	0x11	17
248	0xff	-1
249	0xff	-1
250	0x07	7
251	0xc3	-61
252	0x12	18
253	0xf7	-9
254	0xfe	-2
255	0xda	-38

tfl.pseudo_qconst1 i1 [64, 1, 7, 32]
0	0xf5	-11
1	0x22	34
2	0x1d	29
3	0x33	51
4	0xe6	-26
5	0x01	1
6	0x05	5
7	0x02	2
8	0xc4	-60
9	0x00	0
10	0x0a	10
11	0x0b	11
12	0x28	40
13	0x11	17
14	0xfa	-6
15	0x21	33
16	0x2f	47
17	0x29	41
18	0xf6	-10
19	0x0c	12
20	0x0f	15
21	0x22	34
22	0xdf	-33
23	0x37	55
24	0xa7	-89
25	0x1d	29
26	0x0a	10
27	0x05	5
28	0xbe	-66
29	0xd4	-44
30	0x05	5
31	0x46	70
32	0x04	4
33	0x18	24
34	0x1c	28
35	0x2a	42
36	0xe5	-27
37	0x00	0
38	0xfe	-2
39	0xf3	-13
40	0xd1	-47
41	0x06	6
42	0x0a	10
43	0xf5	-11
44	0x13	19
45	0xf8	-8
46	0x04	4
47	0xef	-17
48	0x25	37
49	0xf8	-8
50	0xfd	-3
51	0x06	6
52	0x20	32
53	0x10	16
54	0xfb	-5
55	0x17	23
56	0xba	-70
57	0x1c	28
58	0x07	7
59	0xf2	-14
60	0xe1	-31
61	0xe0	-32
62	0x12	18
63	0x22	34
64	0x0d	13
65	0x11	17
66	0x16	22
67	0x13	19
68	0xf8	-8
69	0x03	3
70	0xf4	-12
71	0xf4	-12
72	0xae	-82
73	0xfa	-6
74	0x00	0
75	0xf4	-12
76	0xf8	-8
77	0x07	7
78	0x0a	10
79	0xe5	-27
80	0x14	20
81	0xf8	-8
82	0xe8	-24
83	0xfe	-2
84	0x0d	13
85	0xfe	-2
86	0x0a	10
87	0x0b	11
88	0xa6	-90
89	0x0a	10
90	0xfd	-3
91	0x05	5
92	0xc0	-64
93	0xc9	-55
94	0x0e	14
95	0xe9	-23
96	0xee	-18
97	0x09	9
98	0x11	17
99	0x19	25
100	0xe2	-30
101	0x0d	13
102	0x07	7
103	0xdb	-37
104	0xc3	-61
105	0xf4	-12
106	0x0a	10
107	0xf8	-8
108	0xe8	-24
109	0xe7	-25
110	0xf7	-9
111	0xe3	-29
112	0x0e	14
113	0xe9	-23
114	0xfc	-4
115	0xf4	-12
116	0x00	0
117	0xf5	-11
118	0x09	9
119	0x11	17
120	0xd8	-40
121	0x07	7
122	0x08	8
123	0x1a	26
124	0xd7	-41
125	0xe7	-25
126	0xf1	-15
127	0xeb	-21
128	0x01	1
129	0x04	4
130	0x10	16
131	0x0f	15
132	0xe8	-24
133	0x03	3
134	0x1e	30
135	0xe3	-29
136	0xb5	-75
137	0xfa	-6
138	0x0e	14
139	0xff	-1
140	0x07	7
141	0xea	-22
142	0x0c	12
143	0xed	-19
144	0x0e	14
145	0xf8	-8
146	0xf6	-10
147	0x00	0
148	0x08	8
149	0xfc	-4
150	0xfc	-4
151	0x07	7
152	0xb8	-72
153	0x0d	13
154	0xf2	-14
155	0x0b	11
156	0xcf	-49
157	0xde	-34
158	0x06	6
159	0xfe	-2
160	0xf8	-8
161	0x06	6
162	0x06	6
163	0xfb	-5
164	0xdd	-35
165	0x07	7
166	0x03	3
167	0xd5	-43
168	0xb0	-80
169	0xf8	-8
170	0x08	8
171	0xf4	-12
172	0x00	0
173	0xf7	-9
174	0x0e	14
175	0xf0	-16
176	0x10	16
177	0xff	-1
178	0xfa	-6
179	0xf4	-12
180	0xea	-22
181	0xff	-1
182	0xd0	-48
183	0x13	19
184	0x90	-112
185	0x02	2
186	0xf6	-10
187	0xfc	-4
188	0xbe	-66
189	0xc3	-61
190	0xee	-18
191	0xfd	-3
192	0xf5	-11
193	0xf8	-8
194	0xfe	-2
195	0xf1	-15
196	0xd1	-47
197	0xe4	-28
198	0x06	6
199	0xcd	-51
200	0xa3	-93
201	0x02	2
202	0x01	1
203	0xf0	-16
204	0x04	4
205	0xde	-34
206	0x00	0
207	0xdd	-35
208	0x0d	13
209	0xf9	-7
210	0xfa	-6
211	0xfb	-5
212	0xee	-18
213	0x04	4
214	0xd1	-47
215	0x08	8
216	0x81	-127
217	0xf8	-8
218	0xf5	-11
219	0xfd	-3
220	0xba	-70
221	0xa9	-87
222	0xf8	-8
223	0x02	2
224	0xfe	-2
225	0xff	-1
226	0x1f	31
227	0x26	38
228	0x07	7
229	0x14	20
230	0x25	37
231	0xf5	-11
232	0xd6	-42
233	0xf5	-11
234	0x02	2
235	0x1d	29
236	0x50	80
237	0x21	33
238	0xf5	-11
239	0x06	6
240	0x1d	29
241	0x03	3
242	0x09	9
243	0x21	33
244	0x26	38
245	0xe7	-25
246	0xbe	-66
247	0xf9	-7
248	0xdc	-36
249	0x11	17
250	0xf0	-16
251	0xe8	-24
252	0xcf	-49
253	0xef	-17
254	0x0c	12
255	0xdc	-36

tfl.pseudo_qconst2 i1 [64, 128]
0	0xd0	-48
1	0x16	22
2	0xca	-54
3	0x10	16
4	0x81	-127
5	0x18	24
6	0xc7	-57
7	0xe1	-31
8	0xe5	-27
9	0xfd	-3
10	0xfe	-2
11	0xf4	-12
12	0x08	8
13	0x07	7
14	0x01	1
15	0xf9	-7
16	0x15	21
17	0x36	54
18	0xf4	-12
19	0x2c	44
20	0xd5	-43
21	0xc6	-58
22	0xe0	-32
23	0x23	35
24	0xf1	-15
25	0x2f	47
26	0xc9	-55
27	0xd2	-46
28	0x1e	30
29	0xf7	-9
30	0xff	-1
31	0x05	5
32	0x27	39
33	0x2b	43
34	0xf6	-10
35	0x47	71
36	0xed	-19
37	0xfc	-4
38	0xee	-18
39	0x0b	11
40	0xdf	-33
41	0x28	40
42	0xcd	-51
43	0x12	18
44	0xf5	-11
45	0xf4	-12
46	0xf9	-7
47	0xe4	-28
48	0x4f	79
49	0xfe	-2
50	0xed	-19
51	0x24	36
52	0x54	84
53	0xf0	-16
54	0x36	54
55	0x05	5
56	0xfc	-4
57	0xdf	-33
58	0xd0	-48
59	0xeb	-21
60	0x32	50
61	0xa6	-90
62	0x1b	27
63	0xb6	-74
64	0xd4	-44
65	0xeb	-21
66	0xda	-38
67	0xd4	-44
68	0xe9	-23
69	0xfb	-5
70	0xfd	-3
71	0xd7	-41
72	0xdb	-37
73	0xc3	-61
74	0x03	3
75	0xf1	-15
76	0x24	36
77	0x1d	29
78	0x04	4
79	0xa9	-87
80	0x15	21
81	0xab	-85
82	0xfe	-2
83	0x08	8
84	0x2b	43
85	0xf9	-7
86	0x0d	13
87	0xb1	-79
88	0xd9	-39
89	0xef	-17
90	0xdd	-35
91	0x34	52
92	0x07	7
93	0xcc	-52
94	0xb9	-71
95	0xe0	-32
96	0xf9	-7
97	0xe6	-26
98	0xff	-1
99	0xc7	-57
100	0x12	18
101	0x21	33
102	0x37	55
103	0xfd	-3
104	0xcb	-53
105	0xb2	-78
106	0xe8	-24
107	0xf9	-7
108	0x02	2
109	0xd4	-44
110	0xeb	-21
111	0x2b	43
112	0x33	51
113	0xbf	-65
114	0xfa	-6
115	0xf1	-15
116	0xeb	-21
117	0x03	3
118	0xc3	-61
119	0xf8	-8
120	0xfa	-6
121	0x03	3
122	0x29	41
123	0xcb	-53
124	0x15	21
125	0xc9	-55
126	0xbf	-65
127	0xe6	-26
128	0xfc	-4
129	0xda	-38
130	0xd8	-40
131	0xf0	-16
132	0xab	-85
133	0x2f	47
134	0xfe	-2
135	0xf8	-8
136	0x0c	12
137	0x19	25
138	0xeb	-21
139	0xc8	-56
140	0xf1	-15
141	0x05	5
142	0x2d	45
143	0x00	0
144	0xfd	-3
145	0xf2	-14
146	0xee	-18
147	0xfc	-4
148	0xfc	-4
149	0xb7	-73
150	0xcc	-52
151	0x25	37
152	0x1f	31
153	0x0b	11
154	0x0f	15
155	0xf4	-12
156	0xf3	-13
157	0xfd	-3
158	0xf2	-14
159	0xcd	-51
160	0xfe	-2
161	0xf5	-11
162	0xf0	-16
163	0x10	16
164	0x1a	26
165	0x05	5
166	0xed	-19
167	0xe4	-28
168	0x31	49
169	0xed	-19
170	0x2e	46
171	0x05	5
172	0x1e	30
173	0xf7	-9
174	0xdd	-35
175	0x81	-127
176	0x0c	12
177	0x2d	45
178	0x18	24
179	0xf5	-11
180	0x16	22
181	0xca	-54
182	0x27	39
183	0x12	18
184	0xcd	-51
185	0x11	17
186	0x09	9
187	0xc6	-58
188	0xff	-1
189	0x2c	44
190	0x1e	30
191	0xf8	-8
192	0xb7	-73
193	0xb4	-76
194	0xf9	-7
195	0x2d	45
196	0x14	20
197	0x04	4
198	0x02	2
199	0xdd	-35
200	0x02	2
201	0x15	21
202	0x0c	12
203	0xc2	-62
204	0xe1	-31
205	0xd0	-48
206	0xc4	-60
207	0xde	-34
208	0x18	24
209	0x02	2
210	0x18	24
211	0x24	36
212	0xcd	-51
213	0xfb	-5
214	0xfe	-2
215	0xf3	-13
216	0x0b	11
217	0xe4	-28
218	0x26	38
219	0x01	1
220	0x1f	31
221	0xe5	-27
222	0xe7	-25
223	0x03	3
224	0xc9	-55
225	0x1d	29
226	0x14	20
227	0x1d	29
228	0x07	7
229	0xef	-17
230	0xf9	-7
231	0x17	23
232	0xdb	-37
233	0xfb	-5
234	0xd5	-43
235	0xff	-1
236	0xfc	-4
237	0xe0	-32
238	0xe8	-24
239	0xda	-38
240	0x20	32
241	0xd1	-47
242	0xe6	-26
243	0x0f	15
244	0xd5	-43
245	0x0e	14
246	0xc7	-57
247	0x2d	45
248	0x02	2
249	0x23	35
250	0x0e	14
251	0xce	-50
252	0xeb	-21
253	0xd8	-40
254	0xc9	-55
255	0x1f	31

tfl.pseudo_qconst3 i1 [128, 128]
0	0x2b	43
1	0x40	64
2	0x28	40
3	0xef	-17
4	0xf4	-12
5	0xd6	-42
6	0xd5	-43
7	0xfc	-4
8	0x3d	61
9	0x3b	59
10	0x1f	31
11	0x2a	42
12	0xa8	-88
13	0xe2	-30
14	0x13	19
15	0xc8	-56
16	0x0b	11
17	0xf7	-9
18	0x17	23
19	0xbf	-65
20	0x16	22
21	0xdf	-33
22	0x06	6
23	0xc3	-61
24	0x19	25
25	0x35	53
26	0x1f	31
27	0xea	-22
28	0xbd	-67
29	0x3c	60
30	0xdd	-35
31	0x92	-110
32	0xbe	-66
33	0xf0	-16
34	0xbb	-69
35	0x38	56
36	0xfc	-4
37	0xf9	-7
38	0x15	21
39	0x02	2
40	0xe6	-26
41	0xa6	-90
42	0x59	89
43	0xb2	-78
44	0x16	22
45	0xa5	-91
46	0xa4	-92
47	0xfd	-3
48	0x09	9
49	0x29	41
50	0xac	-84
51	0xc2	-62
52	0xd3	-45
53	0x0c	12
54	0xbd	-67
55	0xfe	-2
56	0x1c	28
57	0xa7	-89
58	0xda	-38
59	0xfc	-4
60	0x9c	-100
61	0xd7	-41
62	0xec	-20
63	0x1c	28
64	0x0d	13
65	0x4b	75
66	0xf2	-14
67	0x0c	12
68	0x00	0
69	0xdd	-35
70	0x11	17
71	0xf7	-9
72	0x3a	58
73	0xd4	-44
74	0xdc	-36
75	0xd4	-44
76	0x45	69
77	0xe2	-30
78	0xfb	-5
79	0x15	21
80	0xdf	-33
81	0x14	20
82	0xb2	-78
83	0x2e	46
84	0xd9	-39
85	0xc5	-59
86	0xdb	-37
87	0xe3	-29
88	0x32	50
89	0x1e	30
90	0x0a	10
91	0xad	-83
92	0xa7	-89
93	0xd7	-41
94	0x1a	26
95	0xef	-17
96	0xf8	-8
97	0x03	3
98	0x26	38
99	0xd3	-45
100	0x09	9
101	0xe4	-28
102	0xb9	-71
103	0xde	-34
104	0x43	67
105	0xc7	-57
106	0x38	56
107	0xee	-18
108	0xe9	-23
109	0xec	-20
110	0x11	17
111	0xee	-18
112	0xd9	-39
113	0xe7	-25
114	0xfd	-3
115	0xc1	-63
116	0x81	-127
117	0x0b	11
118	0x11	17
119	0xf3	-13
120	0xe3	-29
121	0x14	20
122	0xda	-38
123	0xf4	-12
124	0x8a	-118
125	0x9e	-98
126	0xc8	-56
127	0xde	-34
128	0xcf	-49
129	0xbd	-67
130	0x0c	12
131	0x42	66
132	0xb8	-72
133	0x07	7
134	0xaf	-81
135	0x9e	-98
136	0xaa	-86
137	0x38	56
138	0x8e	-114
139	0x45	69
140	0x57	87
141	0xae	-82
142	0xee	-18
143	0x00	0
144	0x00	0
145	0x92	-110
146	0x9c	-100
147	0xac	-84
148	0xae	-82
149	0x8f	-113
150	0x96	-106
151	0x26	38
152	0xe0	-32
153	0x44	68
154	0x15	21
155	0x39	57
156	0x9e	-98
157	0xc3	-61
158	0xa5	-91
159	0x32	50
160	0xfe	-2
161	0xa9	-87
162	0xc0	-64
163	0xe8	-24
164	0xfe	-2
165	0x2b	43
166	0xa7	-89
167	0x1f	31
168	0xd2	-46
169	0xc3	-61
170	0xa0	-96
171	0xf3	-13
172	0x1b	27
173	0xbd	-67
174	0xff	-1
175	0xc3	-61
176	0x04	4
177	0x4d	77
178	0xf5	-11
179	0xf0	-16
180	0xb8	-72
181	0xa7	-89
182	0xb3	-77
183	0xd7	-41
184	0x2c	44
185	0xa6	-90
186	0xc2	-62
187	0x10	16
188	0x1a	26
189	0x3c	60
190	0xdf	-33
191	0xa4	-92
192	0xfa	-6
193	0x99	-103
194	0xe0	-32
195	0xe3	-29
196	0xaf	-81
197	0x03	3
198	0x52	82
199	0x38	56
200	0x3e	62
201	0x01	1
202	0x61	97
203	0xc2	-62
204	0x28	40
205	0xcb	-53
206	0x50	80
207	0xb4	-76
208	0xba	-70
209	0x3f	63
210	0x91	-111
211	0x94	-108
212	0x3e	62
213	0xfa	-6
214	0xa8	-88
215	0x49	73
216	0x81	-127
217	0x69	105
218	0x31	49
219	0x6a	106
220	0xb5	-75
221	0xcb	-53
222	0x89	-119
223	0x20	32
224	0xe3	-29
225	0x3e	62
226	0x0f	15
227	0xc5	-59
228	0x52	82
229	0x36	54
230	0xec	-20
231	0x5f	95
232	0x35	53
233	0x10	16
234	0x4a	74
235	0x3f	63
236	0x4c	76
237	0xa8	-88
238	0xf3	-13
239	0x2e	46
240	0xe7	-25
241	0xf6	-10
242	0x61	97
243	0xcc	-52
244	0x10	16
245	0x58	88
246	0xd6	-42
247	0x08	8
248	0x3a	58
249	0xfa	-6
250	0xb0	-80
251	0xba	-70
252	0x9b	-101
253	0xa3	-93
254	0xf7	-9
255	0xfd	-3
