ML/models/mlp_velocity/model.tflite (tflite, 91104 bytes, 9 tensors)

arith.constant f4 [1, 150]
000000 29 b7 0d 3f d5 2b 0f 3f e2 de ce 3b a5 d3 a9 40
       0.55357605 0.5592626 0.006313191 5.3070855
000010 e2 a6 d0 3e 26 a4 da 3e 29 c8 3a 3c d4 36 d6 40
       0.4075232 0.4270336 0.011400261 6.694193
000020 44 70 d0 3f 5f 97 e3 3f 74 fe 83 3f 36 67 07 3e
       1.6284261 1.778057 1.0312028 0.13222966
000030 bc 8e 15 3e cf 8c b1 bf 53 e7 4c bf 13 ab 0d 3f
       0.1460523 -1.3871096 -0.8004047 0.55339164
000040 28 20 0f 3f a4 ff ce 3b 16 e0 a9 40 cd c8 d0 3e
       0.5590844 0.006317096 5.3086042 0.407782
000050 93 c3 da 3e c6 ac 3a 3c ac 27 d6 40 2c 54 d0 3f
       0.42727336 0.011393731 6.6923428 1.6275687
000060 f4 71 e3 3f 32 1e 84 3f 6c f9 06 3e af 1a 15 3e
       1.7769151 1.0321715 0.13181084 0.1456096
000070 b8 1e b1 bf 9a be 4c bf d9 a0 0d 3f ff 15 0f 3f
       -1.38375 -0.79978335 0.5532356 0.5589294
000080 04 fc ce 3b b0 e2 a9 40 60 e7 d0 3e 5a e0 da 3e
       0.0063166637 5.308922 0.40801525 0.42749292
000090 36 99 3a 3c 85 1b d6 40 6f 3f d0 3f 00 56 e3 3f
       0.011389067 6.6908593 1.6269358 1.776062
0000a0 27 3a 84 3f 62 97 06 3e 7b b4 14 3e 9d e3 b0 bf
       1.0330247 0.13143685 0.14521973 -1.3819462
0000b0 27 a5 4c bf 79 96 0d 3f dd 0b 0f 3f 80 06 cf 3b
       -0.799395 0.5530773 0.55877477 0.0063179135
0000c0 da e7 a9 40 21 04 d1 3e c2 fb da 3e 29 8d 3a 3c
       5.309552 0.40823463 0.427702 0.011386194
0000d0 32 10 d6 40 18 2d d0 3f b6 3d e3 3f 4d 60 84 3f
       6.689477 1.6263762 1.7753208 1.0341889
0000e0 22 38 06 3e 9f 51 14 3e c7 a1 b0 bf ec 9c 4c bf
       0.1310735 0.14484261 -1.379937 -0.79926944
0000f0 1e 91 0d 3f 85 06 0f 3f 19 fc ce 3b a3 e5 a9 40
       0.55299556 0.55869323 0.0063166735 5.309282
000100 f3 1d d1 3e 55 14 db 3e 3c 81 3a 3c 48 05 d6 40
       0.40843162 0.4278895 0.011383351 6.6881447
000110 cd 20 d0 3f 5a 2c e3 3f a2 70 84 3f 86 f1 05 3e
       1.626001 1.774791 1.0346873 0.13080415
000120 80 08 14 3e 96 7e b0 bf 82 ac 4c bf 0d 8c 0d 3f
       0.14456367 -1.3788631 -0.79950726 0.55291826
000130 88 01 0f 3f bd fd ce 3b 5d e7 a9 40 cb 37 d1 3e
       0.5586171 0.006316869 5.3094926 0.4086288
000140 01 2d db 3e 0a 74 3a 3c d3 f7 d5 40 d9 16 d0 3f
       0.42807773 0.011380205 6.686502 1.6256973
000150 d3 1d e3 3f dc 7f 84 3f 28 ac 05 3e 85 c0 13 3e
       1.7743477 1.035152 0.13053954 0.14428909
000160 ec 41 b0 bf a5 c4 4c bf 3e 87 0d 3f d2 fc 0e 3f
       -1.3770118 -0.79987556 0.5528449 0.55854523
000170 28 07 cf 3b c4 e9 a9 40 2f 51 d1 3e 65 45 db 3e
       0.0063179918 5.309786 0.4088225 0.4282638
000180 99 6a 3a 3c 11 ea d5 40 99 0d d0 3f 22 11 e3 3f
       0.011377954 6.6848226 1.625415 1.7739604
000190 c7 9a 84 3f ab 68 05 3e a2 7a 13 3e 77 01 b0 bf
       1.0359734 0.13028209 0.1440225 -1.3750447
0001a0 fc d4 4c bf 2e 83 0d 3f d4 f8 0e 3f 52 08 cf 3b
       -0.8001249 0.5527829 0.5584843 0.0063181305
0001b0 68 ec a9 40 97 6a d1 3e 78 5e db 3e c5 6a 3a 3c
       5.310108 0.40901634 0.4284551 0.011377995
0001c0 42 e2 d5 40 86 03 d0 3f d4 04 e3 3f 99 b9 84 3f
       6.6838694 1.6251075 1.7735848 1.036914
0001d0 84 26 05 3e 5f 37 13 3e 68 d7 af bf d5 d1 4c bf
       0.13002974 0.14376591 -1.3737612 -0.8000768
0001e0 c2 7e 0d 3f 7b f4 0e 3f 40 01 cf 3b 8c ef a9 40
       0.5527154 0.558418 0.0063172877 5.3104916
0001f0 7b 84 d1 3e 00 78 db 3e 35 6b 3a 3c c5 de d5 40
       0.40921387 0.4286499 0.011378099 6.6834435
000200 5d f9 cf 3f 9d f8 e2 3f fb cd 84 3f 0a e2 04 3e
       1.6247975 1.7732121 1.037536 0.12976852
000210 08 f2 12 3e da bc af bf c6 d6 4c bf fc 79 0d 3f
       0.1435014 -1.3729508 -0.8001522 0.5526426
000220 bf ef 0e 3f 9c ec ce 3b bf e9 a9 40 de 9e d1 3e
       0.55834574 0.006314827 5.3097835 0.4094152
000230 0b 92 db 3e ca 6e 3a 3c 44 e0 d5 40 e0 ed cf 3f
       0.4288486 0.011378953 6.683626 1.6244469
000240 02 eb e2 3f 60 ce 84 3f b2 9a 04 3e 3d aa 12 3e
       1.7727969 1.0375481 0.12949637 0.14322753
000250 3b da af bf c1 cc 4c bf
       -1.3738474 -0.7999993

arith.constant1 f4 [1, 150]
000000 df 91 0e 41 ea a8 0e 41 58 af f0 43 64 1c 88 3f
       8.910613 8.916239 481.36987 1.0633664
000010 93 a5 a5 40 f8 ad b1 40 1a 3c 10 43 d5 c9 b8 3e
       5.1764617 5.5524864 144.23477 0.36091486
000020 57 14 a6 3f 84 cd 8c 3f e5 0b c7 3f 6b 09 5d 40
       1.2974957 1.1000218 1.5550505 3.4536998
000030 17 9c 53 40 ed 87 e7 3e 21 9f 5a 40 46 53 0e 41
       3.306402 0.4522089 3.4159625 8.89533
000040 49 6a 0e 41 ad 3e f0 43 e9 e9 87 3f 94 77 a5 40
       8.900949 480.48965 1.0618259 5.170847
000050 e1 75 b1 40 7d 4c 10 43 79 c9 b8 3e 23 08 a6 3f
       5.5456395 144.29878 0.3609121 1.2971233
000060 f2 cd 8c 3f e3 99 c6 3f 58 b5 5c 40 fd 50 53 40
       1.100035 1.5515712 3.4485683 3.3018181
000070 d0 9a e7 3e f6 9f 5a 40 b1 0b 0e 41 55 23 0e 41
       0.452353 3.4160132 8.877854 8.883626
000080 9a d7 ef 43 6c b8 87 3f d7 45 a5 40 b2 39 b1 40
       479.6844 1.0603156 5.1647754 5.538293
000090 7b 5c 10 43 d1 c6 b8 3e b0 f4 a5 3f 12 c9 8c 3f
       144.36125 0.36089185 1.2965298 1.0998862
0000a0 1b 22 c6 3f 7a 5a 5c 40 17 ff 52 40 b7 7b e7 3e
       1.5479158 3.4430223 3.2968194 0.45211574
0000b0 ab 8c 5a 40 4a c4 0d 41 e4 dc 0d 41 ea a1 ef 43
       3.4148357 8.860422 8.866428 479.26495
0000c0 27 9e 87 3f 0c 12 a5 40 b0 fb b0 40 f9 61 10 43
       1.0595139 5.158453 5.5307236 144.3827
0000d0 8b b7 b8 3e b1 de a5 3f cb c1 8c 3f 0c 85 c5 3f
       0.36077532 1.2958585 1.0996641 1.5431228
0000e0 28 fe 5b 40 21 ab 52 40 40 39 e7 3e 49 6f 5a 40
       3.4373875 3.2916949 0.45160866 3.4130423
0000f0 c3 8e 0d 41 1d a8 0d 41 7e 93 ef 43 34 84 87 3f
       8.847354 8.853543 479.15228 1.058722
000100 e5 e1 a4 40 10 c2 b0 40 18 67 10 43 aa af b8 3e
       5.152575 5.5236893 144.40271 0.3607152
000110 58 ce a5 3f a5 bd 8c 3f 9a 54 c5 3f 0d b0 5b 40
       1.2953596 1.0995375 1.5416443 3.4326203
000120 60 64 52 40 09 1d e7 3e b0 b1 5a 40 d3 52 0d 41
       3.2873764 0.4513934 3.4170952 8.832721
000130 e1 6b 0d 41 c8 13 ef 43 7a 3f 87 3f 0c af a4 40
       8.838838 478.15454 1.0566247 5.146368
000140 65 85 b0 40 c6 6b 10 43 7c a5 b8 3e 77 b9 a5 3f
       5.5162835 144.42099 0.36063755 1.2947224
000150 de b5 8c 3f 04 44 c5 3f 39 5b 5b 40 06 18 52 40
       1.0993001 1.5411382 3.4274428 3.2827163
000160 6b 18 e7 3e 13 28 5b 40 86 17 0d 41 f5 30 0d 41
       0.45135817 3.424321 8.818243 8.824452
000170 f9 e4 ee 43 2a 1c 87 3f f2 7b a4 40 12 49 b0 40
       477.78885 1.055547 5.14013 5.5089197
000180 4a 6c 10 43 4e 91 b8 3e 26 a4 a5 3f 2f ac 8c 3f
       144.423 0.3604836 1.2940719 1.0990046
000190 30 03 c5 3f 3e 07 5b 40 a8 cb 51 40 6b 10 e7 3e
       1.5391598 3.422317 3.2780552 0.45129713
0001a0 6b 94 5b 40 84 df 0c 41 8e f9 0c 41 80 10 ef 43
       3.4309337 8.804569 8.810926 478.1289
0001b0 24 38 87 3f 5a 48 a4 40 0b 0d b0 40 2e 67 10 43
       1.0564008 5.133832 5.501592 144.40305
0001c0 75 7a b8 3e 06 93 a5 3f 23 a4 8c 3f 74 9d c4 3f
       0.36030927 1.2935493 1.098759 1.5360551
0001d0 51 b6 5a 40 84 81 51 40 cb e8 e6 3e 09 c2 5b 40
       3.4173777 3.27353 0.45099482 3.433718
0001e0 38 a5 0c 41 38 c0 0c 41 11 2d ef 43 54 51 87 3f
       8.790337 8.796928 478.35208 1.0571694
0001f0 ea 13 a4 40 0c d0 af 40 cd 62 10 43 2d 6e b8 3e
       5.127431 5.4941463 144.38594 0.36021557
000200 30 80 a5 3f 62 9a 8c 3f 20 55 c4 3f 65 63 5a 40
       1.2929745 1.0984614 1.5338478 3.4123166
000210 56 35 51 40 ea c0 e6 3e 2b 22 5c 40 1c 6c 0c 41
       3.2688804 0.45069057 3.4395854 8.776394
000220 81 88 0c 41 ac 4f ef 43 0b 66 87 3f 29 e0 a3 40
       8.783326 478.62244 1.0578016 5.1211133
000230 c2 93 af 40 c1 61 10 43 86 6a b8 3e 09 6e a5 3f
       5.486787 144.38185 0.3601877 1.2924205
000240 8a 91 8c 3f 31 41 c4 3f 3c 12 5a 40 93 ea 50 40
       1.0981915 1.5332395 3.407363 3.2643173
000250 48 b0 e6 3e be 2f 5c 40
       0.45056367 3.440414

arith.constant2 f4 [64]
000000 ef a9 e2 bb 89 6a 85 bc df d9 88 bc 0a 97 97 bc
       -0.0069172303 -0.016286151 -0.016705452 -0.018504638
000010 3f d1 c3 bb 26 e5 31 bc 3e 9a 70 bc 11 3e 84 3c
       -0.005975872 -0.010857856 -0.014685212 0.016142877
000020 79 ab 06 bc 32 c0 36 bc ef 7d 11 3c 86 35 b8 3b
       -0.008219593 -0.011154221 0.008880123 0.005621615
000030 9d 4b a6 ba 40 fe 26 bc c6 11 bd bb a5 e3 6f bc
       -0.001268733 -0.010192454 -0.005769941 -0.014641677
000040 71 35 61 bb de 55 50 b9 69 c2 9d bc 6b 3b be 3c
       -0.003436413 -0.00019868414 -0.019257741 0.023221692
000050 81 fc d3 bb 2e 16 04 bd 9e 9f b3 bb ef d5 ab bc
       -0.00646931 -0.032247715 -0.0054816743 -0.020976035
000060 32 0f aa bc 59 ef af 3b 5c 7d 4a bc c3 a4 0b 3b
       -0.020759199 0.0053691086 -0.01235899 0.0021307922
000070 ea a2 68 bc 17 60 01 3c 89 ff 26 bc 0b 29 b6 3b
       -0.014198998 0.007896445 -0.01019276 0.005559092
000080 e8 75 85 bb 63 db 37 bb 13 d1 61 bc 4f 7f 45 3b
       -0.0040728934 -0.0028054349 -0.013782757 0.0030135696
000090 ec 51 7a bb 29 70 04 bd f5 29 12 bc a0 e2 12 bc
       -0.0038195802 -0.032333527 -0.008921136 -0.008965164
0000a0 32 9e 6e bc 66 51 50 3b a6 d9 0f bc e5 89 33 ba
       -0.014564084 0.0031786798 -0.008779919 -0.0006848856
0000b0 e2 08 40 3b 11 1c 3f 3a 05 a3 47 bc 6c a3 e8 bb
       0.002930217 0.0007290254 -0.012184863 -0.0070995595
0000c0 7d d9 43 bb c2 18 5b bc c4 7c 92 3c 00 49 9c bb
       -0.0029884272 -0.013372602 0.017881759 -0.0047694445
0000d0 0b 99 c8 bb 44 24 89 bb fb 35 01 bc a6 2a 62 bc
       -0.00612176 -0.0041852314 -0.007886405 -0.0138041135
0000e0 2f bb 88 3b e2 dd 2a bd a4 6e 5b bc a6 ec 0b bc
       0.0041727046 -0.04171551 -0.013393078 -0.008540308
0000f0 fe a5 9c 3a ef 45 04 bc f4 4e b6 bc 77 d9 b8 3c
       0.0011951325 -0.008073314 -0.022254445 0.022564633

arith.constant3 f4 [128]
000000 1e 7d 4e bc 72 e3 c7 bb 2c 68 c1 bb 8d 82 05 bc
       -0.012603072 -0.0061001116 -0.005902311 -0.0081488015
000010 7d 7e 9c bc cf f1 f0 bb 59 50 12 bc 38 b5 a6 3b
       -0.019103283 -0.0073530446 -0.008930289 0.005087521
000020 3e 81 a5 bc d7 1b bf bb 51 e1 85 bc ad 84 99 bb
       -0.020203229 -0.005832176 -0.01634279 -0.0046850056
000030 50 e6 c0 3b cf e6 2e bc 06 d7 d5 ba 1c 1b 41 bc
       0.0058868304 -0.010675146 -0.0016314692 -0.011786249
000040 11 4f 2b bc eb 88 36 3c 20 16 4c bb c4 af 0a bc
       -0.010455863 0.011141042 -0.0031141117 -0.008464757
000050 0f 06 03 bc 82 71 46 bc b2 bd 26 bc a5 b8 84 3a
       -0.00799705 -0.012112023 -0.010177063 0.0010125829
000060 5a 27 28 3c 60 cf 9a bb 26 09 fb bb 78 76 06 bc
       0.010263288 -0.004724428 -0.0076610027 -0.008206956
000070 5f c3 fd bb 43 d4 87 bc 77 c1 8d bc 59 a0 b2 bc
       -0.0077442373 -0.016580706 -0.017304165 -0.021804975
000080 8a c1 39 bc 74 dd a9 bb 83 9e 05 bc 0b a4 28 bc
       -0.011337647 -0.00518387 -0.008155468 -0.010293017
000090 fc 4c 44 bb 6b b4 2e bc 96 ec 5e bc d0 12 01 bc
       -0.0029953113 -0.010663132 -0.013606211 -0.00787802
0000a0 e9 7d 81 3c 82 4d 04 bc 8a 5c 36 bb bc e2 53 bb
       0.015807109 -0.00807512 -0.0027826154 -0.003233119
0000b0 6f 06 9f bb 4e b9 18 bb 84 50 c3 bb 19 b4 ed bb
       -0.004853062 -0.002330381 -0.005960526 -0.0072541353
0000c0 1a 53 15 bb 5f e3 79 bc 97 96 5e bb 1b 1c a7 bb
       -0.0022785128 -0.015251963 -0.003396427 -0.005099786
0000d0 cb 6d 0e bc 7b e6 ac bb 11 e8 43 bb 43 7c 59 bc
       -0.008693169 -0.005276499 -0.002989296 -0.013274255
0000e0 97 fd 2f bc 90 a8 3b bc 3a dc 0a bc b9 3b 10 bc
       -0.010741613 -0.011453763 -0.008475358 -0.0088033015
0000f0 77 33 83 3a ac 02 ac bb 7e ec cc 3a 75 37 8c bc
       0.0010009845 -0.005249342 0.0015634445 -0.017116288
000100 2b 16 51 bc 78 ef 4f bc 1a dd 1f bc 05 e2 84 bb
       -0.012761633 -0.012691371 -0.009757305 -0.004055264
000110 96 95 c3 3b 2a d1 8b bc 7f 85 9b bc 9c 80 b1 bb
       0.00596876 -0.01706751 -0.018984554 -0.0054169428
000120 6a cc 16 bc 34 fd 0d bc 7e 60 96 3a 8b 33 87 bc
       -0.00920401 -0.008666325 0.0011472849 -0.01650407
000130 fd 47 89 bc 6b 5c f1 bb a8 27 8d bb 9c 21 e0 bb
       -0.01675796 -0.0073657534 -0.004307706 -0.006839944
000140 99 f4 85 bb 63 9c 95 bc ea 53 24 3a 8d d2 85 bc
       -0.004087996 -0.018263048 0.00062686077 -0.01633575
000150 9a 75 6d bb 62 f3 1a bb a0 8b df bb d4 94 bd 3c
       -0.0036233426 -0.0023643603 -0.0068220645 0.023142256
000160 24 b9 88 3b 7e 3e 0c 3b 30 35 2a bc eb cc b7 bb
       0.004172461 0.0021399553 -0.010388657 -0.005609145
000170 4e b7 72 bc 98 11 9b bb 6c b3 ea bb 18 9c 36 bc
       -0.014814211 -0.004732322 -0.007162502 -0.011145614
000180 e4 dc 82 3b c8 9f 55 3b af 48 d4 bb d9 3f a1 38
       0.0039936174 0.0032596458 -0.006478391 7.688971e-05
000190 d7 a0 27 bb 77 00 16 bc a8 a0 07 bc 7e b8 50 bb
       -0.0025578046 -0.009155384 -0.0082780495 -0.0031848247
0001a0 b3 d9 57 bc 6a 9d 0a bc 8d ef fd bb 25 b9 82 bb
       -0.013174462 -0.008460382 -0.007749504 -0.003989356
0001b0 68 af 9c bc 45 8e 57 bb 4f da 73 ba be 20 0b bc
       -0.019126609 -0.0032891196 -0.0009302245 -0.008491693
0001c0 6b ca 52 bc 6a 9e 6d bc 9d d7 61 bc 4a 61 a4 38
       -0.012865643 -0.014503101 -0.013784316 7.838251e-05
0001d0 99 30 b4 bc 47 bc fd 39 74 34 90 b8 3d e9 1a bc
       -0.02199583 0.00048396198 -6.876225e-05 -0.009455022
0001e0 75 4c 11 bc f8 c5 ad 3a 19 99 56 bc 2b b8 23 bc
       -0.008868326 0.0013257852 -0.013098025 -0.0099926395
0001f0 a7 67 5b bc 16 14 98 bb 6d 7a be bc 73 9f b8 bb
       -0.013391412 -0.0046410663 -0.023251737 -0.005634242

arith.constant4 f4 [256]
000000 a1 43 09 bc 19 31 10 bc b5 34 5f bc 17 c0 cc bb
       -0.00837794 -0.008800768 -0.013623406 -0.006248485
000010 bd ab 6e bc 38 3d 39 bc 2a 17 76 ba 97 5a b0 bc
       -0.014567313 -0.0113061 -0.0009387607 -0.021527572
000020 45 c8 14 bb d6 99 8e bc b6 e9 5b 3b 9b bc 6a bc
       -0.0022702378 -0.017407339 0.003355605 -0.014327194
000030 34 9c ee bc ba 70 68 bc ff 1a 6c bb 1d ec 3d ba
       -0.029127218 -0.014187032 -0.0036026833 -0.00072449615
000040 39 5e 99 bb 3f 85 58 bc 12 cc 2c bc 5c bb 0f bc
       -0.0046804217 -0.013215362 -0.010546701 -0.008772697
000050 98 80 32 3a 6c ef e3 bb b6 41 d0 ba 08 2c 87 bc
       0.0006809323 -0.0069560315 -0.0015888724 -0.016500488
000060 98 56 89 bc 95 fb e6 bb 7f 6d 56 bc 8a b4 49 3b
       -0.016764924 -0.007049034 -0.013087629 0.0030777776
000070 6f 8d b1 bb 69 3d cc bc a3 3d a3 3a c9 f7 80 ba
       -0.0054184715 -0.024931626 0.0012454282 -0.0009839471
000080 1d d2 86 3a 31 e2 f5 bc a0 7a ce bb 2a 60 ab bc
       0.0010286007 -0.030015083 -0.006301239 -0.020919878
000090 36 bf 4d bc 43 4a c7 bb 58 7d 84 3c a3 ed 0e bc
       -0.012557795 -0.0060818507 0.01617305 -0.008723649
0000a0 27 19 cf 3b 00 46 ce bc af 64 bc 3b 73 dd ff 3b
       0.006320137 -0.025179863 0.005749307 0.007808381
0000b0 da 7e 64 bc c5 30 cb bb fc 51 09 bb 0c e4 b3 bb
       -0.013946259 -0.006200882 -0.0020953408 -0.005489832
0000c0 31 90 88 bb 51 24 40 bb 38 ad 35 bc 4a ef f2 bb
       -0.0041675796 -0.0029318521 -0.011088662 -0.0074137794
0000d0 dd 34 75 bc f0 df 7d bc f7 41 af 39 16 59 4a bc
       -0.014966217 -0.015495285 0.0003342775 -0.012350341
0000e0 59 fc e6 ba 3b 46 a1 bc 80 a7 0f bd a5 93 dd bb
       -0.0017622813 -0.019686809 -0.03507185 -0.0067619854
0000f0 92 28 5e bb 98 cb f1 ba a7 c3 82 bc 79 61 d5 bc
       -0.0033898694 -0.0018447516 -0.015962435 -0.026047455
000100 c0 7f c4 3a aa 91 1d bb 85 f1 ad bc 0d f7 8c bc
       0.0014991686 -0.0024043121 -0.02123333 -0.017207647
000110 40 ce 9c ba c1 63 40 bc e9 24 cf bb a4 a8 ae bb
       -0.0011963323 -0.011742533 -0.0063215387 -0.005330162
000120 f2 7f 4c bc 5b 9c 97 3a 6f 8b d9 bb a5 1f ab 3b
       -0.012481676 0.0011566983 -0.006638936 0.005222278
000130 22 98 6b bc aa 31 8e bc 1d a1 76 bb 92 6c df ba
       -0.014379533 -0.017357666 -0.0037632652 -0.0017045906
000140 99 30 17 bc 7b c2 3a bb 5c ab 47 bc 9d 96 49 bc
       -0.009227895 -0.0028497267 -0.012186851 -0.012303975
000150 d4 36 0e bc 78 bf 97 3c b9 0c ad 3b 47 0a 1c bc
       -0.008680064 0.018523917 0.0052810577 -0.009523935
000160 e2 ab 6b bc e8 9d fc bc a8 68 5e bc 73 60 b9 bb
       -0.014384242 -0.030837014 -0.013574757 -0.0056572496
000170 84 0b 59 bc 2a 0c c9 bb 09 64 83 bc 89 be ae bc
       -0.013247374 -0.0061354833 -0.016038911 -0.021331089
000180 14 28 17 bc ce 43 cc bb 98 57 99 bc f3 f6 0f bc
       -0.009225864 -0.006233669 -0.018718526 -0.008786905
000190 73 fd 6a 3a 74 ab 91 3b e0 db 8c bc 5b 6a 21 bb
       0.00089641585 0.0044454876 -0.017194688 -0.0024630043
0001a0 3e ab 8b bb 3e cd 94 bc e4 23 e7 bc 3d b3 a3 bc
       -0.004262357 -0.018164273 -0.028215356 -0.019982928
0001b0 a0 90 31 bc 04 46 ba ba ae 4d d9 ba 76 cd 13 bb
       -0.010837704 -0.001421154 -0.0016578936 -0.0022552884
0001c0 48 67 a0 bc 49 6b 96 bc 69 9e 71 bc 13 af c7 bc
       -0.019580498 -0.018361704 -0.014747241 -0.024375474
0001d0 a1 66 1f bc 2b 46 a9 bb c0 20 ea bb 24 aa aa bc
       -0.0097290585 -0.0051658354 -0.0071450174 -0.020833082
0001e0 aa ff f3 bc 66 31 82 bc 4b 15 ff ba 38 a5 fa bb
       -0.029784996 -0.015892696 -0.0019461302 -0.00764909
0001f0 a4 7a 84 bb 8d 78 b3 bc ac 3a e8 3b 43 e7 1d bc
       -0.00404294 -0.021908069 0.0070870724 -0.009637657
000200 0a 03 d7 bb 34 9a 70 bb b6 54 27 3c 3e 29 b8 3b
       -0.0065616416 -0.0036713006 0.010213068 0.005620151
000210 24 a4 8f bc 99 e6 16 bc e6 b2 1b bc 86 46 ad bc
       -0.017534323 -0.009210252 -0.009503102 -0.021151792
000220 02 79 82 bc ed 18 0c bc c2 15 b3 bc 50 95 49 bb
       -0.015926842 -0.008550865 -0.02186096 -0.0030759163
000230 d3 65 ed bc 5c 5a 65 bc ac 02 c6 3b 40 30 c9 bc
       -0.028979218 -0.013998594 0.006042799 -0.02455914
000240 63 f9 81 bb d5 1e 3b bc 67 9a 57 bb 1c 0a 1d bb
       -0.003966497 -0.011420925 -0.0032898427 -0.0023962324
000250 19 da 83 bc 5a 01 13 bc 0d b3 a8 bb 26 4d 7c bc
       -0.016095208 -0.00897249 -0.0051482976 -0.015399253
000260 e9 7b bd ba d6 aa 56 bb f5 cd 5f bc e0 d4 30 bb
       -0.0014456484 -0.0032755635 -0.013659944 -0.0026982352
000270 2a c1 e1 bb 52 c7 d2 bc ed bf 09 bc 3c 06 32 bc
       -0.006889482 -0.025729809 -0.008407575 -0.010865744
000280 26 b4 3f bc c2 b4 5e bb 76 4a 94 bc 66 f9 97 bc
       -0.011700666 -0.0033982252 -0.018101912 -0.01855154
000290 78 9b 82 bc 09 81 5c bc 72 39 86 bc 0e dc 22 bc
       -0.015943274 -0.013458499 -0.016384814 -0.00994016
0002a0 30 0b ff 3c 96 36 67 bb 7f 6f 12 bc 96 a0 05 3c
       0.031133264 -0.0035280338 -0.008937716 0.008155962
0002b0 31 eb f3 bc d6 6e cf bc c8 5a 7b bc e6 98 47 bb
       -0.029775234 -0.025321405 -0.015341468 -0.0030456125
0002c0 40 72 e6 bb 66 30 db bb a5 f6 c1 3a bd 1a 6c b8
       -0.0070326626 -0.006689119 0.0014798237 -5.6291687e-05
0002d0 d8 e0 0b bb fb 39 a6 bc 58 da 5f bc a5 2b b5 bc
       -0.0021343734 -0.02029132 -0.013662897 -0.022115538
0002e0 ca 54 a4 bb 7a 4b 36 bc 04 0d a5 bc 80 62 8e bc
       -0.0050149905 -0.011126393 -0.020147808 -0.017380953
0002f0 a2 18 d6 b9 07 67 ce bc fa 44 85 bc 50 51 75 ba
       -0.00040835614 -0.025195612 -0.016268242 -0.0009358125
000300 61 2f 00 bc 43 0a dc bb 04 56 d2 bc dd 98 c4 bc
       -0.007823796 -0.0067150905 -0.025675781 -0.023998672
000310 c2 ae b6 bc 62 bc 19 bb 43 75 21 bc 57 84 45 bc
       -0.022300128 -0.0023458232 -0.0098546175 -0.012055478
000320 e0 0b 07 bc bb 60 84 3a e5 a7 cc bb ad 17 32 bc
       -0.008242577 0.0010099629 -0.0062456005 -0.010869903
000330 53 ee ed ba e3 8c aa bc 97 3e 6a ba f1 97 d3 b9
       -0.0018152691 -0.020819133 -0.0008935718 -0.0004035826
000340 7a 88 08 bc 69 ce 24 3c 02 75 a2 bb f2 84 a6 bc
       -0.00833332 0.010058978 -0.004957796 -0.020327065
000350 28 47 f1 bb 3d 61 bb bb 45 62 86 bb ec 3b 34 bc
       -0.007363219 -0.005718379 -0.00410107 -0.011000615
000360 30 58 a5 bb 74 29 8a bc ab c7 11 bc e0 87 c0 39
       -0.005045913 -0.01686547 -0.008897702 0.00036722329
000370 0c ca a9 bb 70 3c 1e 39 50 6a 1b bc 65 a3 01 bc
       -0.0051815566 0.00015090569 -0.009485796 -0.007912491
000380 74 d6 c3 bc 38 7a 1a bc 1a 37 11 bd 44 a4 48 bc
       -0.02390597 -0.009428553 -0.03545294 -0.012246195
000390 df 9a 22 bd 47 3f 21 bc 10 47 3c bc 50 35 25 bc
       -0.039698478 -0.009841747 -0.011491552 -0.0100835115
0003a0 9f c1 90 bc a8 8b 7f bc a3 5c 82 bb 59 89 84 bc
       -0.01767045 -0.0155972615 -0.0039783283 -0.016178774
0003b0 4d 0b ba bb 45 ce ea bb 3b d9 a8 bb ca cc a6 bb
       -0.0056776167 -0.0071657025 -0.005152849 -0.0050903307
0003c0 16 b5 87 bc 00 2c 90 bc 61 79 bc bc 6d d8 24 bb
       -0.01656584 -0.017599106 -0.023007097 -0.0025153414
0003d0 c5 ca 02 bc ac ea 2e 3c ff 51 45 bc ad 26 49 bc
       -0.007982914 0.010676067 -0.012043475 -0.012277287
0003e0 53 a1 31 bc 09 42 d2 bc 3a 5a dd bb b5 bd 3a bc
       -0.010841685 -0.025666254 -0.0067551406 -0.011397769
0003f0 6b f3 5f bc cd 6b cc bc 35 57 84 bc 5a 65 08 bc
       -0.013668875 -0.024953747 -0.016154865 -0.008324945

arith.constant6 f4 [1, 64]
000000 3b 50 85 bd e9 bd 84 be a0 2e 2c be 63 18 d4 bd
       -0.06509443 -0.2592614 -0.16814661 -0.10356214
000010 1a 14 54 be 24 0b 2f bd 3a e2 92 3d c8 bd bf bc
       -0.20710793 -0.042735234 0.071720555 -0.023405924
000020 3d 5e 80 3e ba b8 14 be 1e 91 b5 3b 6e 9f 2d bd
       0.25071898 -0.14523593 0.005540981 -0.042388372
000030 fc be 80 3e 58 45 67 3e cf 0b 7e 3e 07 4e 8b 3e
       0.2514571 0.22585046 0.24809192 0.27207968
000040 d9 ad f7 bc 76 7b a6 bc e2 2d 75 be 38 f2 67 3c
       -0.030234264 -0.020322543 -0.23943284 0.014156871
000050 0c 71 11 3e 0a 17 45 bd cb c9 89 be 28 92 6c bd
       0.1420328 -0.048117675 -0.26911768 -0.057756573
000060 4e a6 d6 bc 77 62 3d 3e 4e e7 2e be ed 54 fa 3d
       -0.026202347 0.18494593 -0.17080423 0.122232296
000070 ed a3 3a be e0 aa 15 3e cd 6e 4a 3e 65 de d9 3d
       -0.18226595 0.14615965 0.1976883 0.106381215
000080 1c 3d e2 3d cd 73 e0 3d 19 92 7d 3e 8b dc 5b 3d
       0.11046812 0.10959587 0.24762763 0.053677123
000090 2b 68 f7 3d 98 b2 2a 3e b0 46 8b 3e 7a 7a 88 bd
       0.12080415 0.1666969 0.27202368 -0.066639856
0000a0 10 c9 dd 3d 07 bb 14 3e 36 79 92 3d 37 c2 46 be
       0.10829365 0.1452447 0.071520254 -0.19410025
0000b0 9b 5c 40 3c 6e d7 f8 3c b7 61 48 3e ba ae 35 3d
       0.011740829 0.030376162 0.19568525 0.044356085
0000c0 37 e2 4a 3e 85 6b 68 be 1f 17 ea 3d c7 dd b2 ba
       0.19812857 -0.22697265 0.11430191 -0.0013646417
0000d0 84 59 86 bd 1b ec 49 3d 9b b2 7b bd 01 11 2e bd
       -0.065600425 0.049297433 -0.06144963 -0.042496685
0000e0 90 76 35 3e db 57 5a be a1 bc 78 be 8a 26 8b be
       0.17721009 -0.21322577 -0.24290706 -0.2717784
0000f0 6f 82 f5 bd ff 40 dc 3d a1 c8 77 bd b8 11 0d 3d
       -0.11987769 0.107545845 -0.06049407 0.034440726

tfl.pseudo_qconst i1 [64, 128]
000000 cd 01 4d 70 87 5c ef 27 49 4c 5c ff 58 90 fc 10
       -51 1 77 112 -121 92 -17 39 73 76 92 -1 88 -112 -4 16
000010 6c d3 3f f6 81 1c 70 f7 83 e2 31 ed cc 6d 6f f7
       108 -45 63 -10 -127 28 112 -9 -125 -30 49 -19 -52 109 111 -9
000020 e5 ed 54 71 b0 44 35 65 3e 46 72 10 fe 90 49 ac
       -27 -19 84 113 -80 68 53 101 62 70 114 16 -2 -112 73 -84
000030 5f 3a ff 02 2c 3b 6b 61 9c 0c 19 e7 6a 21 16 4e
       95 58 -1 2 44 59 107 97 -100 12 25 -25 106 33 22 78
000040 ab 58 ec 3a d9 1c 37 24 44 f2 73 92 94 4b 9c d3
       -85 88 -20 58 -39 28 55 36 68 -14 115 -110 -108 75 -100 -45
000050 6f 3f 0a 77 ca 11 1f 8a 74 a0 55 62 cb e2 19 a9
       111 63 10 119 -54 17 31 -118 116 -96 85 98 -53 -30 25 -87
000060 bc ad db b3 9f 10 a7 fa 65 26 17 50 b5 d5 18 8a
       -68 -83 -37 -77 -97 16 -89 -6 101 38 23 80 -75 -43 24 -118
000070 7e be cf d7 13 b0 39 6e f4 c3 bb 18 b0 01 9c b0
       126 -66 -49 -41 19 -80 57 110 -12 -61 -69 24 -80 1 -100 -80
000080 f2 90 8f c8 ee d0 61 32 ba fb e3 15 39 f3 50 5b
       -14 -112 -113 -56 -18 -48 97 50 -70 -5 -29 21 57 -13 80 91
000090 96 fb bb 0a 11 ae 42 e5 34 c3 55 63 8c 12 2a ab
       -106 -5 -69 10 17 -82 66 -27 52 -61 85 99 -116 18 42 -85
0000a0 0a cf 4e 15 c3 06 18 bd 27 f9 ce af c1 63 b5 d9
       10 -49 78 21 -61 6 24 -67 39 -7 -50 -81 -63 99 -75 -39
0000b0 89 b8 17 32 2d c4 c0 c8 95 bf 5a b4 63 1c 32 bb
       -119 -72 23 50 45 -60 -64 -56 -107 -65 90 -76 99 28 50 -69
0000c0 5d 16 61 0d fb 49 9f f5 20 61 b9 fc 94 42 25 30
       93 22 97 13 -5 73 -97 -11 32 97 -71 -4 -108 66 37 48
0000d0 1e 6a 23 fa be 54 c4 1d 84 14 c0 81 6e 39 dd a4
       30 106 35 -6 -66 84 -60 29 -124 20 -64 -127 110 57 -35 -92
0000e0 de 48 10 ae 44 a2 62 ca 99 33 9b 9e c7 5b ee b7
       -34 72 16 -82 68 -94 98 -54 -103 51 -101 -98 -57 91 -18 -73
0000f0 dc 26 1f ca 36 88 e4 e9 ed 3b b3 3a b6 41 a6 56
       -36 38 31 -54 54 -120 -28 -23 -19 59 -77 58 -74 65 -90 86

tfl.pseudo_qconst1 i1 [128, 256]
000000 e2 24 be b8 05 69 95 99 b1 23 09 bf 93 93 46 2e
       -30 36 -66 -72 5 105 -107 -103 -79 35 9 -65 -109 -109 70 46
000010 96 0d 5f 9f 67 4a 61 2d 57 8d 4e 9a cd 02 39 51
       -106 13 95 -97 103 74 97 45 87 -115 78 -102 -51 2 57 81
000020 59 17 99 d7 ba 8a c8 be 32 af 44 48 e7 23 b4 a5
       89 23 -103 -41 -70 -118 -56 -66 50 -81 68 72 -25 35 -76 -91
000030 f9 37 bf de c3 32 9e a1 04 61 5c d1 62 40 f2 8e
       -7 55 -65 -34 -61 50 -98 -95 4 97 92 -47 98 64 -14 -114
000040 14 13 08 29 2b c5 30 e2 ed 81 d0 09 d0 9c a1 e7
       20 19 8 41 43 -59 48 -30 -19 -127 -48 9 -48 -100 -95 -25
000050 0c 95 0c a1 a3 3a c7 01 ee 20 48 29 f6 15 44 2f
       12 -107 12 -95 -93 58 -57 1 -18 32 72 41 -10 21 68 47
000060 10 d9 18 64 34 b9 fe 2a 18 5f d8 1f 17 a3 12 ab
       16 -39 24 100 52 -71 -2 42 24 95 -40 31 23 -93 18 -85
000070 45 50 f9 fd c1 3d 35 4c 4a d3 0a 99 9e 57 a9 1d
       69 80 -7 -3 -63 61 53 76 74 -45 10 -103 -98 87 -87 29
000080 e3 e2 91 12 94 c7 58 a9 da 34 2f c1 2c ef f9 e1
       -29 -30 -111 18 -108 -57 88 -87 -38 52 47 -63 44 -17 -7 -31
000090 af a1 61 4b 12 85 d2 df d8 43 33 fa 16 da be 3e
       -81 -95 97 75 18 -123 -46 -33 -40 67 51 -6 22 -38 -66 62
0000a0 0e 2b 2e 96 8f b4 24 4d 5f 84 5a 36 b6 40 60 18
       14 43 46 -106 -113 -76 36 77 95 -124 90 54 -74 64 96 24
0000b0 db 93 f5 de d6 98 dc 00 cd ae 4a 6c cf 18 9a be
       -37 -109 -11 -34 -42 -104 -36 0 -51 -82 74 108 -49 24 -102 -66
0000c0 d1 2c dc 23 1c 0d 2b 63 66 c6 95 10 92 d0 2b 54
       -47 44 -36 35 28 13 43 99 102 -58 -107 16 -110 -48 43 84
0000d0 41 d8 8d a3 aa 08 ce 98 b5 33 af 94 61 ee 67 0c
       65 -40 -115 -93 -86 8 -50 -104 -75 51 -81 -108 97 -18 103 12
0000e0 04 ed 44 49 d9 15 fc 6b 5c 00 00 42 bd 3e 18 51
       4 -19 68 73 -39 21 -4 107 92 0 0 66 -67 62 24 81
0000f0 c6 a3 f5 c8 86 17 45 e9 e4 ba ec fe fa e2 10 61
       -58 -93 -11 -56 -122 23 69 -23 -28 -70 -20 -2 -6 -30 16 97

tfl.pseudo_qconst2 i1 [256, 150]
000000 38 f1 68 d3 77 6b 72 54 39 25 4a 8c ca 9a fc 27
       56 -15 104 -45 119 107 114 84 57 37 74 -116 -54 -102 -4 39
000010 c9 05 6c 1b fb 27 91 e3 eb cb 6e 51 ef 9f 56 01
       -55 5 108 27 -5 39 -111 -29 -21 -53 110 81 -17 -97 86 1
000020 0d ea a5 ae 9b 37 21 61 0a 1f e4 eb cb a5 d5 4f
       13 -22 -91 -82 -101 55 33 97 10 31 -28 -21 -53 -91 -43 79
000030 cd 11 36 1f 0c 5c a9 89 28 11 de 0e 8f d4 45 2b
       -51 17 54 31 12 92 -87 -119 40 17 -34 14 -113 -44 69 43
000040 5f f1 67 3d 78 68 60 45 ec 18 0d 49 75 a8 bf 27
       95 -15 103 61 120 104 96 69 -20 24 13 73 117 -88 -65 39
000050 28 e7 2b dc f6 ad bf 02 3e 49 69 81 39 b7 58 01
       40 -25 43 -36 -10 -83 -65 2 62 73 105 -127 57 -73 88 1
000060 b0 ad c1 9f c1 39 dc 05 f0 d8 b5 51 e2 68 c7 e3
       -80 -83 -63 -97 -63 57 -36 5 -16 -40 -75 81 -30 104 -57 -29
000070 df e4 e4 ca 57 13 5f 8e ab 8b 81 e9 12 fa a8 38
       -33 -28 -28 -54 87 19 95 -114 -85 -117 -127 -23 18 -6 -88 56
000080 8a 76 f6 3e e9 95 27 5b 43 fc ef 60 36 db 85 c2
       -118 118 -10 62 -23 -107 39 91 67 -4 -17 96 54 -37 -123 -62
000090 3d 7e 2b d9 59 3a e1 08 f5 42 d7 00 b5 1e 08 a8
       61 126 43 -39 89 58 -31 8 -11 66 -41 0 -75 30 8 -88
0000a0 2b a4 ef f1 07 ad 48 ae bc 09 5c 67 7b 29 ae 4b
       43 -92 -17 -15 7 -83 72 -82 -68 9 92 103 123 41 -82 75
0000b0 ac c7 58 a9 34 4d 45 be ac 6c 7a 03 c6 72 34 bd
       -84 -57 88 -87 52 77 69 -66 -84 108 122 3 -58 114 52 -67
0000c0 a6 56 12 3c 43 7f bc b6 99 d8 13 22 08 04 c0 b5
       -90 86 18 60 67 127 -68 -74 -103 -40 19 34 8 4 -64 -75
0000d0 ab f0 54 b9 d1 df 42 0d c4 64 96 0c 50 05 9d cc
       -85 -16 84 -71 -47 -33 66 13 -60 100 -106 12 80 5 -99 -52
0000e0 3b 41 a9 29 e6 5f c1 b4 c9 6e b8 ca 37 d8 37 c8
       59 65 -87 41 -26 95 -63 -76 -55 110 -72 -54 55 -40 55 -56
0000f0 54 e9 66 bf 13 a4 b1 57 bc 06 b1 33 d4 a2 99 42
       84 -23 102 -65 19 -92 -79 87 -68 6 -79 51 -44 -94 -103 66
