ML/models/conv1d_angle_toro_ossaba/seed6_20260116_234517_154/model.tflite (tflite, 96000 bytes, 11 tensors)

arith.constant2 f4 [1, 64]
-0.08884602 0.13539097 0.17263976 0.24148586 -0.014747459 -0.18879785 -0.24906202 -0.18888317
0.18903035 0.05341469 -0.16589655 0.05949739 0.06757869 0.218463 -0.07422387 0.25554228
0.057514727 0.012276861 0.16673885 -0.11850183 -0.09070129 0.12122076 0.15832725 -0.061711308
0.23700169 -0.04262016 -0.17756914 -0.18595777 0.21996759 -0.15270296 -0.20895219 -0.21985689
0.14360094 0.20855728 -0.116986915 -0.006953695 0.09937657 -0.19555141 -0.06164923 -0.14337154
0.26734978 0.23353653 0.2282799 -0.09954621 -0.02701896 -0.046978034 0.16263051 0.073229775
0.060264412 -0.09140639 -0.18878578 -0.17529352 0.11777779 -0.12956852 -0.2256013 -0.037025798
0.1880815 -0.09426503 0.16282253 -0.12239601 0.17293337 -0.09570002 0.15433447 -0.18282148
00000000: e7f4 b5bd eea3 0a3e 7ac8 303e 1248 773e
00000010: 549f 71bc 3954 41be 1d0a 7fbe 976a 41be
00000020: 2c91 413e 5dc9 5a3d c9e0 29be 89b3 733d
00000030: b266 8a3d c4b4 5f3e af02 98bd 70d6 823e
00000040: 9094 6b3d e324 493c 97bd 2a3e 16b1 f2bd
00000050: 99c1 b9bd 9742 f83d 8a20 223e ffc4 7cbd
00000060: 92b0 723e 7a92 2ebd afd4 35be b76b 3ebe
00000070: 2f3f 613e 2a5e 1cbe 90f7 55be 2a22 61be
00000080: 200c 133e 0a90 553e d696 efbd d2db e3bb
00000090: f185 cb3d a13e 48be e783 7cbd fdcf 12be
000000a0: 12e2 883e 3324 6f3e 35c2 693e e2de cbbd
000000b0: de56 ddbc 0a6c 40bd 9d88 263e 7ef9 953d
000000c0: d1d7 763d 4633 bbbd 0f51 41be 2580 33be
000000d0: 7b35 f13d 9cad 04be 0704 67be 5da8 17bd
000000e0: 7098 403e 060e c1bd f3ba 263e c2aa fabd
000000f0: 7215 313e 5ffe c3bd db09 1e3e 8e35 3bbe

arith.constant7 f4 [128]
-0.0061398386 -0.022456558 -0.013796499 0.008218944 -0.0025637127 -0.007650301 -0.01163443 -0.0116166435
-0.011809154 -0.012491208 -0.016645933 -0.020379197 -0.020138713 -0.0053170603 -0.0030189503 -0.030087551
-0.010680289 -0.011174174 -0.008372461 -0.01200732 -0.022008562 -0.012019651 -0.0075967866 -0.01651148
-0.018254507 -0.0058625476 -0.007048775 -0.007329478 0.02955889 -0.01670851 -0.009320946 -0.017796664
-0.02542727 -0.002310045 -0.020253984 0.014600432 -0.021651953 -0.0041394737 -0.0076124007 -0.0024398773
-0.009917433 -0.0036454934 -0.014955991 -0.013347848 -0.016542545 -0.013004031 -0.01960502 -0.0058279787
0.008063882 -0.008575311 -0.0056722783 -0.02201064 -0.011434926 -0.010140053 0.007982821 -0.009131938
-0.02211589 0.0049559716 -0.0130325835 0.014570572 -0.016143104 -0.025366275 -0.0023391107 0.0
0.00017698543 -0.025774706 0.0136047155 -0.014032674 -0.026805088 0.00074740325 -0.0058207605 -0.010207539
-0.01485576 -0.02567256 -0.013906508 -0.008694186 -0.0061535086 -0.023465035 -0.0022953565 -0.0014683115
0.0024199323 -0.008478172 0.015416637 -0.022238519 -0.008371405 0.009518248 -0.01245895 -0.007130054
-0.0046920017 0.0044201734 0.003936645 0.01091902 -0.0029471326 0.00012398223 0.015109221 -0.019457435
6.3255546e-05 0.0068444437 -0.03944408 -0.014088998 -0.0013489821 -8.649446e-05 -0.01860952 -0.014812574
-0.021928722 -0.01699549 0.0026321365 -0.018890748 -0.0015012646 -0.0052759144 -0.0073079253 -0.009272255
-0.007484106 -0.0026517655 -0.0033217522 -0.0010374604 -0.0058990233 0.002768683 -0.03288041 -0.01593305
-0.039431486 0.0042211115 -0.033000894 -0.02977345 -0.005460275 0.0047759637 -0.013055957 -0.013219321
00000000: b330 c9bb d1f6 b7bc b60a 62bc c0a8 063c
00000010: f603 28bb 60af fabb 569e 3ebc bc53 3ebc
00000020: 2f7b 41bc eca7 4cbc 0d5d 88bc 46f2 a6bc
00000030: f1f9 a4bc bc3a aebb 95d9 45bb 2b7a f6bc
00000040: 61fc 2ebc e213 37bc a62c 09bc 5aba 44bc
00000050: 4d4b b4bc 12ee 44bc 77ee f8bb 1543 87bc
00000060: 7a8a 95bc 9d1a c0bb 69f9 e6bb 1e2c f0bb
00000070: 7c25 f23c 49e0 88bc e2b6 18bc 4fca 91bc
00000080: da4c d0bc 2064 17bb afeb a5bc a636 6f3c
00000090: 705f b1bc 6ca4 87bb 7271 f9bb 59e6 1fbb
000000a0: bb7c 22bc 3be9 6ebb f909 75bc efb0 5abc
000000b0: 3b84 87bc dc0e 55bc b59a a0bc a1f8 bebb
000000c0: 5f1e 043c 767f 0cbc 85de b9bb a84f b4bc
000000d0: 8e59 3bbc 7722 26bc 61ca 023c 209e 15bc
000000e0: 622c b5bc b465 a23b 9e86 55bc 69b9 6e3c
000000f0: 8b3e 84bc efcc cfbc c44b 19bb 0000 0000
00000100: 2a95 3939 7a25 d3bc 50e6 5e3c 4de9 65bc
00000110: 5896 dbbc 62ed 433a 14bc bebb 863d 27bc
00000120: 9365 73bc 434f d2bc 1fd8 63bc 0f72 0ebc
00000130: 5fa3 c9bb bf39 c0bc b16d 16bb 5c74 c0ba
00000140: ba97 1e3b 08e8 0abc 1096 7c3c 8e2d b6bc
00000150: 3828 09bc 6df2 1b3c a020 4cbc 3aa3 e9bb
00000160: 5dbf 99bb 1ad7 903b f9fe 803b b0e5 323c
00000170: ae24 41bb 3a01 0239 ab8c 773c 3365 9fbc
00000180: 10a8 8438 5b47 e03b 1e90 21bd 8ad5 66bc
00000190: 54d0 b0ba 5c64 b5b8 fe72 98bc 70b0 72bc
000001a0: dda3 b3bc 203a 8bbc ec7f 2c3b c5c0 9abc
000001b0: 15c6 c4ba 94e1 acbb 5277 efbb a8ea 17bc
000001c0: 3b3d f5bb 3ec9 2dbb c1b1 59bb 65fb 87ba
000001d0: 984c c1bb cb72 353b 9cad 06bd 0786 82bc
000001e0: e982 21bd 4051 8a3b f22b 07bd 73e7 f3bc
000001f0: 1bec b2bb b07f 9c3b a7e8 55bc da95 58bc

arith.constant8 f4 [64]
-0.033903137 -0.0065933103 0.0030773326 0.015510482 -0.044177596 0.03224144 0.03311904 0.03648249
0.05490689 -0.013739617 -0.045183875 0.00915199 0.0061692838 0.039884802 0.09102108 0.038999934
0.003441249 -0.015851045 0.05949743 0.001364172 -0.032442536 0.048086442 0.0442721 -0.026292717
0.057869896 -0.011143001 0.028798485 0.038885757 0.016263904 0.023049405 -0.0073078442 0.042843107
0.058832496 0.025826076 0.027579157 -0.013080595 0.0014130373 -0.05034841 0.016584756 0.0079106
0.053210754 -0.027369399 0.033265594 0.03385654 -0.026365392 -0.035132576 0.052995604 0.0065827407
-0.002629469 -0.04153477 0.06441995 -0.017627755 0.065917574 -0.014284973 -0.001409618 -0.03331586
0.06439539 0.036392327 0.08431489 -0.010634499 0.022468893 0.0023032206 0.04111378 0.023703523
00000000: 04de 0abd b20c d8bb 13ad 493b ad1f 7e3c
00000010: 91f3 34bd 9a0f 043d d5a7 073d aa6e 153d
00000020: 0ce6 603d 211c 61bc ba12 39bd 3af2 153c
00000030: b427 ca3b 3f5e 233d 4369 ba3d 65be 1f3d
00000040: 9486 613b 0dda 81bc 94b3 733d 04ce b23a
00000050: 77e2 04bd 4af6 443d a956 353d d363 d7bc
00000060: fc08 6d3d 2291 36bc cdea eb3c ac46 1f3d
00000070: e13b 853c 1bd2 bc3c a476 efbb 417c 2f3d
00000080: 58fa 703d 3591 d33c afed e13c fe4f 56bc
00000090: aa35 b93a 223a 4ebd c1dc 873c 769b 013c
000000a0: 85f3 593d ca35 e0bc 8141 083d 28ad 0a3d
000000b0: 3cfc d7bc 2de7 0fbd eb11 593d 08b4 d73b
000000c0: 2b53 2cbb 5d20 2abd 9bee 833d 1568 90bc
000000d0: cbff 863d 850b 6abc eec2 b8ba 3676 08bd
000000e0: bbe1 833d 1f10 153d 49ad ac3d 523c 2ebc
000000f0: af10 b83c a1f1 163b ec66 283d e42d c23c

arith.constant9 f4 [32, 1, 9, 3]
0.9466183 -0.8700941 -1.1880224 0.18189764 -0.6580622 1.1778916 -1.2593274 0.4411591
-0.91115373 -0.4862646 -0.36186755 -1.3521856 -0.10474545 -0.33166736 -1.5472707 0.61675936
0.6915138 -0.36638495 0.08717828 -0.5918814 1.142085 -1.6403885 1.2811238 -1.6357142
0.20020857 -0.8924587 0.78785807 0.38425615 0.7962427 -0.5406672 -0.31276757 0.7874171
-0.7226661 0.19281557 0.81384903 0.78742874 -0.4729925 0.050016973 0.32181987 -0.03716336
1.0582799 -1.3156298 -0.09795979 -0.13936603 -0.82109374 -1.4385324 0.13107564 -0.95695066
-0.29105577 1.171069 0.11976592 0.012953903 0.8932308 0.2069921 -0.5486032 -0.9460567
-3.0975273 0.917918 -1.2424122 -0.6074121 -2.7761757 1.7746837 2.899805 1.2505369
-3.3978412 -1.7167275 -0.03372663 1.1020528 2.789932 -2.1016028 3.1035147 1.5397015
2.1923144 1.3539982 -1.2884895 -2.9481764 -3.002953 -1.8941165 2.1453023 -1.2822136
3.1252632 0.91367525 -0.68854785 1.4841232 -3.05466 0.028497001 2.608099 0.88034266
1.3496304 0.9915702 -1.9793916 -2.055111 1.3447369 -1.963162 1.0386772 -3.6255379
0.10997682 -0.21374707 0.093121745 3.5639641 1.1134545 -1.8064172 3.0222247 -0.9763142
-0.36135325 -2.4346762 -1.0111454 -0.86977196 1.2312341 -2.9281847 -3.9696076 -0.12460844
1.4111443 -1.1812967 0.22180358 -1.5011026 -1.7081978 -0.72829145 2.530352 -1.3044869
1.4106421 1.7579033 1.5815606 -3.1421804 -3.1979094 3.1561737 -0.26032636 1.7590548
2.8969717 0.017679991 -1.6692106 3.2720115 2.6336803 1.2668226 -1.5341041 -2.03416
0.4606524 3.4151769 0.33193767 -2.9303606 2.6041164 -2.1521156 2.3588068 2.3445525
1.4715285 2.611635 -0.2651947 -0.034137577 -1.1343073 -3.1156206 1.4227788 1.4922183
-0.27572075 2.4699566 -2.1064498 -2.1369467 -0.39728406 0.478421 -0.16880709 -1.5691688
-0.9121626 -3.4499488 2.3360934 -1.7911648 2.5987422 2.4396272 2.2718253 3.1848497
-3.8529134 -0.9772316 1.3924294 -0.8934394 -3.1362903 0.5444796 -0.27754167 2.2276356
-3.8106544 2.6494975 2.618709 -3.4286594 0.9048384 -2.5854115 -0.22750069 -3.1785812
-1.4135475 0.22816262 1.941597 2.0778713 -1.7244633 0.11401157 0.80544853 -0.021617034
-0.82208836 -0.88026536 1.0494534 1.7083489 0.618127 3.0028017 -1.0109779 -0.119491756
3.0536067 -0.59326386 -1.592203 -0.05965052 0.26956183 -0.067334495 -1.1472367 -0.6394344
-0.52871877 -1.8602214 1.322845 1.8316036 -2.975148 -0.51502305 1.1133399 -2.4580078
0.13683124 0.4586188 -0.15469286 -0.26007748 -0.6388558 0.87122077 -0.5672111 0.26953122
0.8703782 -0.13939713 -0.3117179 1.1944082 -0.4023455 -0.6430149 0.86526275 -0.06935096
-0.24955104 -0.048639186 -0.22543615 -0.45894793 0.020091737 -0.26770318 -0.6125941 0.117117144
0.34720218 -0.2358843 0.070072606 -1.3820837 0.17361107 0.84657425 -0.99262774 0.75720906
1.3953935 1.3368365 -0.35340047 1.7402405 0.8439627 -0.04962668 -0.79951006 0.32129803
00000000: 9455 723f 7dbe 5ebf 1e11 98bf 6043 3a3e
00000010: c476 28bf 27c5 963f a431 a1bf 9bdf e13e
00000020: 5f41 69bf acf7 f8be b446 b9be 6b14 adbf
00000030: c884 d6bd 4ed0 a9be f70c c6bf f1e3 1d3f
00000040: 0c07 313f cf96 bbbe 878a b23d 8a85 17bf
00000050: d72f 923f 40f8 d1bf ddfb a33f 155f d1bf
00000060: 7a03 4d3e 2c78 64bf 11b1 493f 39bd c43e
00000070: 90d6 4b3f 2a69 0abf 1223 a0be 2b94 493f
00000080: a500 39bf 7271 453e 6958 503f ee94 493f
00000090: 132c f2be 99de 4c3d 93c5 a43e 9b38 18bd
000000a0: b775 873f 8f66 a8bf 249f c8bd f8b5 0ebe
000000b0: 3333 52bf d421 b8bf b138 063e b8fa 74bf
000000c0: 4305 95be 97e5 953f d647 f53d 9b3c 543c
000000d0: c6aa 643f bdf5 533e 4271 0cbf c630 72bf
000000e0: e33d 46c0 adfc 6a3f 5d07 9fbf 5c7f 1bbf
000000f0: ddac 31c0 d628 e33f 6896 3940 9811 a03f
00000100: 3b76 59c0 babd dbbf ef24 0abd 1110 8d3f
00000110: 3f8e 3240 a980 06c0 fc9f 4640 f014 c53f
00000120: e14e 0c40 d04f ad3f 39ed a4bf ecae 3cc0
00000130: 6230 40c0 6972 f2bf a24c 0940 931f a4bf
00000140: 5004 4840 9fe6 693f ac44 30bf c0f7 bd3f
00000150: 8d7f 43c0 8b72 e93c 18eb 2640 235e 613f
00000160: b0c0 ac3f 8bd7 7d3f b45c fdbf f086 03c0
00000170: 5720 ac3f e448 fbbf 60f3 843f d008 68c0
00000180: 873b e13d 83e0 5abe 9db6 be3d fd17 6440
00000190: ad85 8e3f ae38 e7bf 216c 4140 baef 79bf
000001a0: 4b03 b9be bcd1 1bc0 366d 81bf 60a9 5ebf
000001b0: 1499 9d3f 6167 3bc0 0d0e 7ec0 b632 ffbd
000001c0: 60a0 b43f bb34 97bf 7a20 633e 2124 c0bf
000001d0: 3aa6 dabf 4f71 3abf 4af1 2140 6df9 a6bf
000001e0: ec8f b43f fa02 e13f 9470 ca3f 7c19 49c0
000001f0: 8caa 4cc0 c0fe 4940 7f49 85be b528 e13f
00000200: fc67 3940 a1d5 903c b1a8 d5bf a368 5140
00000210: 388e 2840 3e27 a23f 865d c4bf ad2f 02c0
00000220: a2da eb3e 4292 5a40 bcf3 a93e 078b 3bc0
00000230: d8a9 2640 43bc 09c0 b1f6 1640 260d 1640
00000240: 0c5b bc3f 0725 2740 9ac7 87be d8d3 0bbd
00000250: fb30 91bf 5466 47c0 9e1d b63f 0201 bf3f
00000260: 452b 8dbe c513 1e40 13d0 06c0 bcc3 08c0
00000270: d168 cbbe 99f3 f43e c4db 2cbe 86da c8bf
00000280: 7d83 69bf f6cb 5cc0 8e82 1540 e344 e5bf
00000290: cb51 2640 da22 1c40 9665 1140 94d4 4b40
000002a0: 2296 76c0 da2b 7abf 203b b23f 72b8 64bf
000002b0: fbb8 48c0 0463 0b3f f119 8ebe 9591 0e40
000002c0: c3e1 73c0 5e91 2940 ee98 2740 286f 5bc0
000002d0: 7da3 673f 6277 25c0 f1f5 68be e06d 4bc0
000002e0: 20ef b4bf 76a3 693e 4086 f83f d8fb 0440
000002f0: 37bb dcbf e67e e93d e031 4e3f 3516 b1bc
00000300: 6274 52bf 1259 61bf 7d54 863f 2dab da3f
00000310: 923d 1e3f e72d 4040 b967 81bf 18b8 f4bd
00000320: 4b6e 4340 24e0 17bf 4fcd cbbf 1b54 74bd
00000330: 0204 8a3e abe6 89bd a7d8 92bf f9b1 23bf
00000340: 1d5a 07bf bc1b eebf fc52 a93f fd71 ea3f
00000350: d368 3ec0 8dd8 03bf ec81 8e3f 0050 1dc0
00000360: 7d1d 0c3e 15d0 ea3e ce67 1ebe e028 85be
00000370: 0e8c 23bf 5308 5f3f bf34 11bf ffff 893e
00000380: 1bd1 5e3f 1fbe 0ebe 7d99 9fbe 5ee2 983f
00000390: 3b00 cebe a09c 24bf dc81 5d3f e007 8ebd
000003a0: 4f8a 7fbe e239 47bd bcd8 66be 39fb eabe
000003b0: 6d97 a43c 6410 89be f8d2 1cbf 1ddb ef3d
000003c0: 7cc4 b13e a78b 71be 3a82 8f3d 1ee8 b0bf
000003d0: 1ac7 313e 17b9 583f da1c 7ebf 74d8 413f
000003e0: 419c b23f 751d ab3f e8f0 b4be 33c0 de3f
000003f0: f10d 583f 5845 4bbd b1ac 4cbf 2d81 a43e

arith.constant10 f4 [128]
0.6847588 0.653468 0.7342014 0.6580426 0.90580106 -0.085966684 0.1854296 0.16025881
1.000492 1.2407302 0.19863215 -0.1498887 0.7545815 -0.24680625 -0.036632918 -0.17126308
-1.1270134 -0.2337958 0.42199606 0.76172745 -0.52548903 -0.39923483 1.5639638 -0.43760657
-0.18113908 0.811125 0.9688847 -0.17727125 -1.0085902 0.433435 0.09366323 0.22336373
0.20644397 0.031516813 0.83295006 -0.4254126 1.0451884 0.093878336 -0.43748915 -0.15862752
1.1494726 0.0470279 -0.35622713 -0.5932493 -0.04666265 1.1009071 0.11771117 0.60999924
-0.06106132 0.49373376 -8.589659e-05 -0.26598266 0.9914942 0.0728304 0.22925252 0.48719445
0.090601526 2.0904698 -0.68731314 0.39786586 -0.4785668 1.1004792 -0.5543632 0.2975132
2.0194123 1.5337274 1.0991249 -0.28389964 -0.07655169 0.63088495 1.0474471 0.6280635
0.53041184 1.0379124 1.4417286 0.708688 0.1419367 -0.21340707 0.9275563 -0.28332248
-0.13149998 -0.07652129 1.8284546 -0.19753577 0.2829551 -0.9317259 1.2768121 0.08595466
1.2711804 1.5349829 -0.247674 0.84779245 -0.7516732 0.69226724 0.82350636 2.4651322
-0.294745 -0.45350736 -0.16819173 -0.086669475 2.176033 0.07861976 0.18992728 0.99646574
-0.1154519 1.5821908 -0.570183 0.64570993 2.6713548 0.61570185 0.15224007 -0.4197376
-0.5419212 -0.4066363 -0.5001378 -0.81196934 -0.79583603 -0.54013824 -0.103061356 0.48820105
0.7181275 0.4436729 0.87593675 -0.6988867 -0.49296242 0.27491608 0.7266659 -0.55456835
00000000: 5a4c 2f3f ae49 273f 9ff4 3b3f 7b75 283f
00000010: 94e2 673f 4d0f b0bd 42e1 3d3e e31a 243e
00000020: 1f10 803f 3fd0 9e3f 3a66 4b3e 6c7c 19be
00000030: 412c 413f c7ba 7cbe 660c 16bd 975f 2fbe
00000040: fa41 90bf 2b68 6fbe de0f d83e 9200 433f
00000050: 7386 06bf 8268 ccbe f72f c83f f80d e0be
00000060: 867c 39be e3a5 4f3f d408 783f 9886 35be
00000070: 7c19 81bf 31eb dd3e 82d2 bf3d 76b9 643e
00000080: 0c66 533e c617 013d 373c 553f aecf d9be
00000090: bcc8 853f 4943 c03d 94fe dfbe 416f 22be
000000a0: eb21 933f 54a0 403d 6763 b6be 30df 17bf
000000b0: 5621 3fbd 86ea 8c3f 8e12 f13d e928 1c3f
000000c0: 6f1b 7abd acca fc3e 6123 b4b8 e12e 88be
000000d0: 90d2 7d3f 1b28 953d 2cc1 6a3e 8d71 f93e
000000e0: 4b8d b93d 42ca 0540 c1f3 2fbf 13b5 cb3e
000000f0: b506 f5be 81dc 8c3f bfea 0dbf a653 983e
00000100: 0d3e 0140 2e51 c43f 20b0 8c3f 4b5b 91be
00000110: 22c7 9cbd ad81 213f bf12 863f c5c8 203f
00000120: 12c9 073f 50da 843f 908a b83f 946c 353f
00000130: db57 113e 6287 5abe 5474 6d3f a50f 91be
00000140: eea7 06be 32b7 9cbd cd0a ea3f d146 4abe
00000150: 7edf 903e 9785 6ebf 946e a33f ff08 b03d
00000160: 0ab6 a23f 527a c43f 419e 7dbe ed08 593f
00000170: a86d 40bf 6d38 313f 50d1 523f bac4 1d40
00000180: d1e8 96be 1e32 e8be 743a 2cbe c47f b1bd
00000190: 2044 0b40 6603 a13d 4c7c 423e 6118 7f3f
000001a0: 0c72 ecbd 3a85 ca3f 83f7 11bf 3f4d 253f
000001b0: 7af7 2a40 a39e 1d3f d2e4 1b3e d9e7 d6be
000001c0: 59bb 0abf a232 d0be 0809 00bf 39dd 4fbf
000001d0: e9bb 4bbf 8046 0abf d511 d3bd 7df5 f93e
000001e0: 34d7 373f 1829 e33e 643d 603f 3dea 32bf
000001f0: 9265 fcbe cdc1 8c3e c706 3a3f 31f8 0dbf

arith.constant11 f4 [64]
0.40281826 0.50347424 0.53517014 -0.57940763 0.7823473 0.5465501 0.56105685 -1.6793479
-0.16322522 1.06017 -1.5075853 0.13241328 -0.50839776 0.4767456 -0.9696569 1.2138422
-0.43558815 -0.6939898 -0.5988722 0.6144476 -1.173701 -0.9519898 0.84478873 1.2739651
0.76605463 0.10243133 0.4112406 -0.9423536 -0.61336446 -0.99613327 -0.83300906 0.48792934
0.11117799 -0.467332 0.8382793 -1.6298481 0.20157756 0.41367915 -0.9563404 0.4523647
1.2375786 -0.29254925 0.029737303 0.28598404 -1.0176482 0.089036115 -0.93431294 0.54183215
1.1137938 0.17543197 -0.09205214 -0.44220784 -0.06119143 0.17448282 -0.60482657 0.578722
-0.6907729 -1.3075293 -0.22725518 0.43031287 1.0607531 0.62235343 0.57157004 -0.29596254
00000000: 323e ce3e b0e3 003f e900 093f 0f54 14bf
00000010: ea47 483f b5ea 0b3f 6ca1 0f3f dff4 d6bf
00000020: 8324 27be a7b3 873f 8ef8 c0bf 5997 073e
00000030: 5b26 02bf 0018 f43e 6f3b 78bf 2e5f 9b3f
00000040: 6905 dfbe 51a9 31bf b04f 19bf 704c 1d3f
00000050: d63b 96bf 9bb5 73bf 1344 583f 4a11 a33f
00000060: 281c 443f 84c7 d13d 218e d23e 163e 71bf
00000070: 7405 1dbf 9702 7fbf 1540 55bf e0d1 f93e
00000080: 49b1 e33d 2446 efbe 7999 563f dd9e d0bf
00000090: 596a 4e3e c1cd d33e b9d2 74bf 599c e73e
000000a0: fa68 9e3f 04c9 95be a59b f33c 806c 923e
000000b0: 4c42 82bf 9158 b63d 222f 6fbf 83b5 0a3f
000000c0: cc90 8e3f 70a4 333e d585 bcbd 1169 e2be
000000d0: dda3 7abd a0ab 323e ead5 1abf 2027 143f
000000e0: 7ed6 30bf 1f5d a7bf 95b5 68be f851 dc3e
000000f0: c2c6 873f 8e52 1f3f 6a52 123f 6788 97be

arith.constant12 f4 [32]
1.804775 1.0911425 -0.48937115 0.34690362 -0.67663544 0.4601967 0.66301185 0.54517657
-1.5451798 1.3207383 1.1236756 -1.2848097 1.7147979 1.6521673 1.4294294 1.5572846
-0.8978173 -1.4090933 1.7949951 1.1332996 -1.7944306 -1.1847099 1.5643505 -0.32772204
-0.98533964 -1.4340559 -1.4760845 0.18439202 1.6002907 0.64429575 1.4682126 1.2788358
00000000: de02 e73f 8faa 8b3f db8e fabe 5a9d b13e
00000010: fb37 2dbf e79e eb3e 25bb 293f b190 0b3f
00000020: 74c8 c5bf f40d a93f 9ad4 8f3f a574 a4bf
00000030: 7f7e db3f 387a d33f 8bf7 b63f 1a55 c73f
00000040: 5bd7 65bf 2b5d b4bf 66c2 e53f f60f 913f
00000050: e7af e5bf 93a4 97bf a33c c83f 2fcb a7be
00000060: 383f 7cbf 258f b7bf 56f0 bcbf 43d1 3c3e
00000070: 53d6 cc3f 91f0 243f 64ee bb3f e4b0 a33f

tfl.pseudo_qconst i1 [128, 1, 5, 64]
-63 -41 -65 -21 48 -103 91 36
-62 41 31 -43 9 36 -15 32
16 70 -53 -81 -12 -19 -95 13
-64 28 41 -15 -54 22 -52 43
7 60 -70 -58 16 59 35 -79
74 28 43 -70 -57 -61 59 -14
63 -84 -20 -68 -35 -6 34 -8
20 -25 -97 -1 -11 -106 45 59
-112 15 -6 -34 -100 7 26 -23
-19 -53 -38 34 -62 -101 -4 24
38 -60 13 -90 51 -63 -82 59
-35 -16 55 41 49 -36 -58 1
-56 -10 35 -52 -41 -44 27 -111
42 -11 -78 -13 27 -13 -53 -14
52 -59 -32 -30 5 -66 4 3
-52 -58 37 -12 -28 -56 68 32
-6 -40 -63 -16 -97 -26 9 -16
-22 7 61 -38 27 -96 -31 -50
72 80 -28 21 -30 42 -8 33
-20 68 -23 33 -7 26 -39 11
-58 -17 -4 -41 22 -63 38 -68
70 43 -12 -29 -74 -53 51 15
39 -40 -16 -18 -95 -12 -41 -99
-59 -65 -83 -11 -4 -18 66 -62
21 -75 34 -81 -62 -57 -8 1
25 -45 50 -25 -93 -56 9 20
2 -34 -32 -97 -32 40 23 86
-83 -96 14 71 -31 25 67 44
59 -3 36 32 -34 78 62 -112
-43 -33 11 12 -36 -6 3 5
29 -62 -16 3 25 -76 88 -72
-85 17 -83 -112 -4 10 26 69
00000000: c1d7 bfeb 3099 5b24 c229 1fd5 0924 f120
00000010: 1046 cbaf f4ed a10d c01c 29f1 ca16 cc2b
00000020: 073c bac6 103b 23b1 4a1c 2bba c7c3 3bf2
00000030: 3fac ecbc ddfa 22f8 14e7 9fff f596 2d3b
00000040: 900f fade 9c07 1ae9 edcb da22 c29b fc18
00000050: 26c4 0da6 33c1 ae3b ddf0 3729 31dc c601
00000060: c8f6 23cc d7d4 1b91 2af5 b2f3 1bf3 cbf2
00000070: 34c5 e0e2 05be 0403 ccc6 25f4 e4c8 4420
00000080: fad8 c1f0 9fe6 09f0 ea07 3dda 1ba0 e1ce
00000090: 4850 e415 e22a f821 ec44 e921 f91a d90b
000000a0: c6ef fcd7 16c1 26bc 462b f4e3 b6cb 330f
000000b0: 27d8 f0ee a1f4 d79d c5bf adf5 fcee 42c2
000000c0: 15b5 22af c2c7 f801 19d3 32e7 a3c8 0914
000000d0: 02de e09f e028 1756 ada0 0e47 e119 432c
000000e0: 3bfd 2420 de4e 3e90 d5df 0b0c dcfa 0305
000000f0: 1dc2 f003 19b4 58b8 ab11 ad90 fc0a 1a45

tfl.pseudo_qconst1 i1 [64, 1, 7, 32]
65 19 -21 -94 3 -73 -110 61
-7 -13 66 69 -47 -65 41 -22
57 22 13 -68 -51 44 -18 -1
-49 -5 7 13 -3 -75 98 37
32 -51 1 -92 -93 -35 -126 32
-66 -35 -59 -67 8 -28 63 -127
-8 36 43 -36 80 -43 -96 39
0 -18 85 -1 -39 55 -56 38
63 -13 51 68 49 29 -53 -103
-85 -1 5 87 26 -52 59 -41
90 71 -69 -56 -68 -33 -33 1
26 -44 -71 -55 -44 -86 0 23
-87 -8 -8 60 -32 56 107 -74
-74 20 -26 91 -7 -100 -24 -15
32 76 17 -36 60 1 -59 96
1 -17 -66 -5 -60 75 15 -64
-8 60 -19 65 36 0 -53 66
-77 -105 53 -8 -93 -106 -21 -68
29 4 -91 68 30 46 -52 -53
73 2 -78 56 -97 -66 -70 -89
18 17 91 117 49 9 -46 -36
-63 2 0 93 -39 -34 51 -109
-52 41 -41 84 28 54 -12 116
-22 -35 -26 -4 -104 -36 20 -103
4 34 52 -12 103 8 -20 38
77 45 -69 -33 13 -9 18 -117
74 90 -18 49 71 24 -63 59
67 -27 22 -60 -67 0 2 55
-14 12 -44 -17 -53 -54 -127 -51
-62 -102 -88 11 -88 -31 -57 -55
60 40 -6 -95 -62 74 -54 -8
44 -53 -18 19 -79 -19 43 26
00000000: 4113 eba2 03b7 923d f9f3 4245 d1bf 29ea
00000010: 3916 0dbc cd2c eeff cffb 070d fdb5 6225
00000020: 20cd 01a4 a3dd 8220 bedd c5bd 08e4 3f81
00000030: f824 2bdc 50d5 a027 00ee 55ff d937 c826
00000040: 3ff3 3344 311d cb99 abff 0557 1acc 3bd7
00000050: 5a47 bbc8 bcdf df01 1ad4 b9c9 d4aa 0017
00000060: a9f8 f83c e038 6bb6 b614 e65b f99c e8f1
00000070: 204c 11dc 3c01 c560 01ef befb c44b 0fc0
00000080: f83c ed41 2400 cb42 b397 35f8 a396 ebbc
00000090: 1d04 a544 1e2e cccb 4902 b238 9fbe baa7
000000a0: 1211 5b75 3109 d2dc c102 005d d9de 3393
000000b0: cc29 d754 1c36 f474 eadd e6fc 98dc 1499
000000c0: 0422 34f4 6708 ec26 4d2d bbdf 0df7 128b
000000d0: 4a5a ee31 4718 c13b 43e5 16c4 bd00 0237
000000e0: f20c d4ef cbca 81cd c29a a80b a8e1 c7c9
000000f0: 3c28 faa1 c24a caf8 2ccb ee13 b1ed 2b1a

tfl.pseudo_qconst2 i1 [64, 128]
56 97 18 -49 25 55 -56 91
92 -30 -82 11 10 -55 -28 -52
62 1 -26 38 83 80 -38 -111
74 77 82 11 -93 -47 45 -51
54 48 75 40 -69 -45 52 -59
-53 52 94 70 44 -59 -71 1
-127 -28 -79 63 -67 -57 30 14
96 -98 70 104 38 62 -29 98
-30 79 -25 37 16 -32 66 -5
-42 -36 -59 -97 -89 -88 27 -41
97 -2 2 -97 57 -78 99 -41
66 13 50 -1 87 34 -4 -44
26 -24 -85 -30 40 50 -93 -8
47 38 103 -29 -45 94 -66 15
-81 96 -69 -56 -70 12 19 26
49 -28 -57 86 112 -33 -102 -4
100 -115 -99 -47 -37 -39 7 -64
-30 -57 39 53 -32 23 -66 19
-77 -47 -121 -1 39 -127 -127 14
-26 55 -100 -54 15 21 -15 -85
-29 -98 34 34 -7 71 98 -82
94 -34 -61 8 -60 -44 -59 56
-102 -32 -39 49 50 25 -117 108
-4 51 87 9 -1 -42 -110 55
-126 -15 10 -5 -125 34 12 2
-104 39 26 79 30 4 -64 -87
36 -72 -11 -89 39 -54 1 -71
-59 -105 -69 13 59 -77 30 -76
-9 19 93 -74 -102 34 -1 0
15 -16 -53 33 -58 22 65 -47
5 53 -89 -3 -7 -86 42 76
-6 -110 -78 22 18 26 46 35
00000000: 3861 12cf 1937 c85b 5ce2 ae0b 0ac9 e4cc
00000010: 3e01 e626 5350 da91 4a4d 520b a3d1 2dcd
00000020: 3630 4b28 bbd3 34c5 cb34 5e46 2cc5 b901
00000030: 81e4 b13f bdc7 1e0e 609e 4668 263e e362
00000040: e24f e725 10e0 42fb d6dc c59f a7a8 1bd7
00000050: 61fe 029f 39b2 63d7 420d 32ff 5722 fcd4
00000060: 1ae8 abe2 2832 a3f8 2f26 67e3 d35e be0f
00000070: af60 bbc8 ba0c 131a 31e4 c756 70df 9afc
00000080: 648d 9dd1 dbd9 07c0 e2c7 2735 e017 be13
00000090: b3d1 87ff 2781 810e e637 9cca 0f15 f1ab
000000a0: e39e 2222 f947 62ae 5ede c308 c4d4 c538
000000b0: 9ae0 d931 3219 8b6c fc33 5709 ffd6 9237
000000c0: 82f1 0afb 8322 0c02 9827 1a4f 1e04 c0a9
000000d0: 24b8 f5a7 27ca 01b9 c597 bb0d 3bb3 1eb4
000000e0: f713 5db6 9a22 ff00 0ff0 cb21 c616 41d1
000000f0: 0535 a7fd f9aa 2a4c fa92 b216 121a 2e23

tfl.pseudo_qconst3 i1 [128, 128]
-83 21 43 67 17 -92 44 -3
-64 -65 27 62 1 10 73 -32
34 13 -85 21 95 8 -67 81
-114 65 -50 -38 99 -39 75 16
-36 -87 -35 -92 6 -79 -44 88
29 -18 -42 -113 95 88 3 -27
-86 -63 -16 -50 -57 -102 -89 25
-96 86 -42 7 87 75 17 9
-2 6 72 80 40 -40 -112 -32
-44 -15 78 -79 -67 -28 61 76
-62 -127 58 -38 4 22 29 -15
-59 8 -103 101 31 -93 29 -33
89 -8 -46 81 -54 -6 -80 12
-42 -22 9 -23 63 89 -4 55
73 47 -34 -89 57 86 -5 57
-73 -15 10 -60 75 16 44 30
-30 -58 58 -39 -46 -1 17 52
77 53 -105 -43 -72 -38 34 -47
41 -52 -18 -96 45 62 24 25
-53 62 7 9 11 20 -19 21
-49 -49 -75 2 -36 -41 -38 -54
-11 -31 -17 -58 -5 -70 -94 -22
-3 -12 11 31 -101 -20 -41 63
36 -35 31 -13 -76 9 60 -67
-67 -10 -10 73 -37 -44 12 -38
-45 38 -38 49 43 47 -92 -25
-103 -41 -52 -14 -37 -35 43 -17
-34 18 46 71 41 -2 -51 -33
-2 46 49 62 -53 29 -127 -25
-59 -68 -30 -88 -57 -67 59 63
40 35 -9 -42 63 -100 3 -62
68 -28 37 50 44 35 16 -14
00000000: ad15 2b43 11a4 2cfd c0bf 1b3e 010a 49e0
00000010: 220d ab15 5f08 bd51 8e41 ceda 63d9 4b10
00000020: dca9 dda4 06b1 d458 1dee d68f 5f58 03e5
00000030: aac1 f0ce c79a a719 a056 d607 574b 1109
00000040: fe06 4850 28d8 90e0 d4f1 4eb1 bde4 3d4c
00000050: c281 3ada 0416 1df1 c508 9965 1fa3 1ddf
00000060: 59f8 d251 cafa b00c d6ea 09e9 3f59 fc37
00000070: 492f dea7 3956 fb39 b7f1 0ac4 4b10 2c1e
00000080: e2c6 3ad9 d2ff 1134 4d35 97d5 b8da 22d1
00000090: 29cc eea0 2d3e 1819 cb3e 0709 0b14 ed15
000000a0: cfcf b502 dcd7 daca f5e1 efc6 fbba a2ea
000000b0: fdf4 0b1f 9bec d73f 24dd 1ff3 b409 3cbd
000000c0: bdf6 f649 dbd4 0cda d326 da31 2b2f a4e7
000000d0: 99d7 ccf2 dbdd 2bef de12 2e47 29fe cddf
000000e0: fe2e 313e cb1d 81e7 c5bc e2a8 c7bd 3b3f
000000f0: 2823 f7d6 3f9c 03c2 44e4 2532 2c23 10f2
