NUCLEO/model/model_int8.tflite (tflite, 99296 bytes, 6 tensors)

tfl.pseudo_qconst1 i1 [1, 64] scale=0.004211551 zero_point=0
-0.30744323 -0.054750163 0.0 0.09686568 0.08423102 0.06738482 -0.07580792 0.021057755
0.07159637 -0.109500326 -0.534867 0.18530825 -0.11792343 -0.18109669 0.29480857 0.13898118
0.11371188 0.021057755 -0.28217393 -0.050538614 0.11792343 0.12213498 0.18109669 0.1726736
-0.26953927 -0.47590527 -0.029480858 0.12213498 -0.12634653 -0.10107723 -0.08423102 -0.16003893
0.016846204 -0.2147891 -0.14740428 -0.13476963 -0.11792343 -0.22321221 -0.1642505 -0.06738482
-0.03369241 0.03790396 0.09686568 -0.050538614 -0.1895198 -0.2569046 -0.30744323 0.058961716
0.058961716 0.28217393 0.18530825 0.16003893 0.09686568 -0.12634653 0.050538614 -0.08844257
-0.07159637 -0.2147891 0.07580792 -0.22742376 0.22742376 0.13055809 0.1895198 0.2316353
00000000: b7f3 0017 1410 ee05 11e6 812c e4d5 4621
00000010: 1b05 bdf4 1c1d 2b29 c08f f91d e2e8 ecda
00000020: 04cd dde0 e4cb d9f0 f809 17f4 d3c3 b70e
00000030: 0e43 2c26 17e2 0ceb efcd 12ca 361f 2d37

tfl.pseudo_qconst3 i1 [64, 128]
4 -38 -32 -27 -12 0 -32 26
-19 22 -25 -24 -7 -34 -95 -66
2 -31 -1 -35 1 -72 30 -17
19 21 -26 2 27 4 -22 2
-4 14 -73 -52 3 40 -29 -9
-39 -21 -52 -5 40 -15 -2 15
18 37 7 -11 26 -16 -5 30
-16 21 35 15 -2 -16 0 22
-31 12 -21 -9 24 -9 -68 6
4 -67 -6 -33 -15 5 38 31
-1 -24 30 11 7 -34 -25 -26
-22 -27 -13 3 -27 3 19 -3
1 -8 10 32 17 -16 -127 -5
-8 9 -4 18 3 6 18 24
31 35 -31 10 -25 15 -6 -25
16 9 -33 -43 -2 -40 -17 8
24 28 -16 6 39 6 -6 10
34 24 -42 3 -46 -4 38 -20
-32 -3 12 -27 39 3 -39 -37
-22 17 -6 -41 -37 -26 21 32
34 -34 10 -10 41 -9 11 -2
-1 15 -19 31 -25 -11 -6 -37
45 -16 -10 -5 -1 42 43 -42
5 15 -5 33 -70 25 -1 17
-15 -28 -127 -9 -13 -36 -44 30
41 -10 28 -7 -8 47 -19 16
-11 -41 -20 31 -24 -36 -40 -12
-2 -30 -33 -39 35 62 -20 22
24 16 18 -7 -12 23 -9 -27
7 27 -23 -44 -29 -34 -28 -16
1 38 2 -3 -37 18 -7 30
-10 3 32 -17 10 -31 -11 -5
00000000: 04da e0e5 f400 e01a ed16 e7e8 f9de a1be
00000010: 02e1 ffdd 01b8 1eef 1315 e602 1b04 ea02
00000020: fc0e b7cc 0328 e3f7 d9eb ccfb 28f1 fe0f
00000030: 1225 07f5 1af0 fb1e f015 230f fef0 0016
00000040: e10c ebf7 18f7 bc06 04bd fadf f105 261f
00000050: ffe8 1e0b 07de e7e6 eae5 f303 e503 13fd
00000060: 01f8 0a20 11f0 81fb f809 fc12 0306 1218
00000070: 1f23 e10a e70f fae7 1009 dfd5 fed8 ef08
00000080: 181c f006 2706 fa0a 2218 d603 d2fc 26ec
00000090: e0fd 0ce5 2703 d9db ea11 fad7 dbe6 1520
000000a0: 22de 0af6 29f7 0bfe ff0f ed1f e7f5 fadb
000000b0: 2df0 f6fb ff2a 2bd6 050f fb21 ba19 ff11
000000c0: f1e4 81f7 f3dc d41e 29f6 1cf9 f82f ed10
000000d0: f5d7 ec1f e8dc d8f4 fee2 dfd9 233e ec16
000000e0: 1810 12f9 f417 f7e5 071b e9d4 e3de e4f0
000000f0: 0126 02fd db12 f91e f603 20ef 0ae1 f5fb

tfl.pseudo_qconst5 i1 [128, 128]
-94 -92 -48 -84 50 13 25 38
20 -111 -2 7 97 -44 39 8
-25 -94 -8 25 -106 16 -4 -32
-111 -37 -54 -73 -64 9 -92 70
-113 47 50 -127 99 -121 33 -96
27 -99 -35 -36 -30 -33 -95 -119
-90 89 93 -116 -104 -80 -19 -67
-99 88 -13 22 -8 -18 -92 60
74 95 27 37 42 -5 -17 -103
-82 -91 40 41 79 -55 77 -18
23 -73 89 46 -42 69 48 -67
-64 -72 -115 19 2 86 -114 39
20 54 -20 -22 100 53 45 -92
79 39 -14 -127 -31 -92 -55 -10
2 70 32 6 -14 78 -76 -69
29 -77 -24 -37 -36 -121 75 69
-122 -95 46 106 1 -48 101 -81
-124 85 94 -77 38 -47 -60 18
-88 -57 68 -125 74 -2 -4 82
-56 45 38 13 -90 -13 -70 81
19 60 -115 36 -117 -60 -88 -71
-28 -126 59 91 74 81 73 -121
26 -70 -71 28 71 15 -51 -7
-100 16 110 -126 -25 24 -125 -104
-61 -9 -103 16 -82 -18 20 -87
65 -109 37 38 24 90 -118 -35
-101 -98 -77 15 21 -98 -51 54
-56 79 -73 94 -64 -119 39 15
-19 98 -106 -77 111 -56 24 93
-21 -118 35 -113 94 82 10 108
-51 88 -43 -78 5 104 -37 -127
39 -67 33 -28 68 -27 -7 8
00000000: a2a4 d0ac 320d 1926 1491 fe07 61d4 2708
00000010: e7a2 f819 9610 fce0 91db cab7 c009 a446
00000020: 8f2f 3281 6387 21a0 1b9d dddc e2df a189
00000030: a659 5d8c 98b0 edbd 9d58 f316 f8ee a43c
00000040: 4a5f 1b25 2afb ef99 aea5 2829 4fc9 4dee
00000050: 17b7 592e d645 30bd c0b8 8d13 0256 8e27
00000060: 1436 ecea 6435 2da4 4f27 f281 e1a4 c9f6
00000070: 0246 2006 f24e b4bb 1db3 e8db dc87 4b45
00000080: 86a1 2e6a 01d0 65af 8455 5eb3 26d1 c412
00000090: a8c7 4483 4afe fc52 c82d 260d a6f3 ba51
000000a0: 133c 8d24 8bc4 a8b9 e482 3b5b 4a51 4987
000000b0: 1aba b91c 470f cdf9 9c10 6e82 e718 8398
000000c0: c3f7 9910 aeee 14a9 4193 2526 185a 8add
000000d0: 9b9e b30f 159e cd36 c84f b75e c089 270f
000000e0: ed62 96b3 6fc8 185d eb8a 238f 5e52 0a6c
000000f0: cd58 d5b2 0568 db81 27bd 21e4 44e5 f908

tfl.pseudo_qconst7 i1 [128, 1, 5, 64]
-24 79 11 -27 40 89 -35 -18
25 -37 64 31 24 55 37 62
28 -51 73 -26 64 -45 21 25
-38 -13 3 -3 9 -4 -63 -17
2 46 -42 -24 97 83 27 -70
-46 -2 42 45 -5 20 23 -45
36 -41 -67 -36 -11 67 48 58
-25 -19 18 24 77 -5 20 4
-15 57 -31 19 16 21 -27 72
-30 7 53 55 49 51 46 85
52 -38 18 -22 71 38 48 -79
-33 13 -23 -39 -20 8 -73 28
-28 49 -1 -11 126 8 4 -91
-46 69 9 49 37 -23 -32 -42
-10 28 -14 -62 -48 80 41 65
-11 -27 12 60 38 -80 -52 -8
-36 34 -35 -5 -4 57 42 77
0 -53 60 23 -32 41 38 58
66 -50 -18 -52 85 -17 28 -40
-36 51 -69 13 -25 -12 11 -36
-61 46 -41 -59 127 11 -72 -87
-82 1 -21 39 75 65 9 -89
70 -53 -61 -15 12 -16 -18 -3
2 -20 67 3 70 -45 -33 -4
-48 -8 -109 -24 -56 58 -11 99
-43 -35 33 36 -8 3 39 -1
5 -2 27 3 62 -21 -8 -40
-12 -47 -99 16 7 30 -44 8
-47 7 -22 -76 116 49 -36 -116
-59 -12 -49 26 41 58 -36 -65
83 34 -23 -55 9 14 -7 30
-57 -30 18 79 25 -90 -67 -3
00000000: e84f 0be5 2859 ddee 19db 401f 1837 253e
00000010: 1ccd 49e6 40d3 1519 daf3 03fd 09fc c1ef
00000020: 022e d6e8 6153 1bba d2fe 2a2d fb14 17d3
00000030: 24d7 bddc f543 303a e7ed 1218 4dfb 1404
00000040: f139 e113 1015 e548 e207 3537 3133 2e55
00000050: 34da 12ea 4726 30b1 df0d e9d9 ec08 b71c
00000060: e431 fff5 7e08 04a5 d245 0931 25e9 e0d6
00000070: f61c f2c2 d050 2941 f5e5 0c3c 26b0 ccf8
00000080: dc22 ddfb fc39 2a4d 00cb 3c17 e029 263a
00000090: 42ce eecc 55ef 1cd8 dc33 bb0d e7f4 0bdc
000000a0: c32e d7c5 7f0b b8a9 ae01 eb27 4b41 09a7
000000b0: 46cb c3f1 0cf0 eefd 02ec 4303 46d3 dffc
000000c0: d0f8 93e8 c83a f563 d5dd 2124 f803 27ff
000000d0: 05fe 1b03 3eeb f8d8 f4d1 9d10 071e d408
000000e0: d107 eab4 7431 dc8c c5f4 cf1a 293a dcbf
000000f0: 5322 e9c9 090e f91e c7e2 124f 19a6 bdfd

tfl.pseudo_qconst9 i1 [64, 1, 7, 32]
-8 24 -13 -41 38 -88 20 -3
3 -46 6 -11 -8 -32 -17 -105
-25 6 25 33 10 27 -47 14
-32 25 3 -14 -55 28 -80 2
-5 -8 -19 -31 7 -72 21 -6
18 -19 -15 9 -10 -33 -31 -113
-24 -44 24 41 2 11 6 -9
-34 -5 -40 14 -102 -18 -29 -18
-4 27 1 -15 7 -24 0 -15
5 -38 17 -16 -55 10 -31 -63
-2 3 -9 -25 -20 14 -4 -9
-43 -9 -32 -27 -57 -45 -38 -4
26 -23 20 -22 13 -87 -2 -27
-20 -18 28 9 -20 -19 29 -111
-3 -29 -50 -31 38 -8 14 -21
-18 11 -55 12 -106 -16 -55 4
-3 -15 42 8 -11 -34 19 10
4 13 1 -19 -47 38 -22 -121
11 -16 -36 -64 14 -48 -4 15
-31 -39 -72 -65 -127 -30 -38 -18
5 -48 53 -13 -27 -1 7 39
33 35 -2 26 -6 77 23 15
35 8 -55 -57 83 -39 28 76
-16 -57 -81 -68 2 7 -1 1
56 -73 20 21 -10 6 10 32
43 9 -14 43 45 74 41 -2
62 5 -70 -33 42 -63 38 51
-113 -59 -78 -14 11 -46 -30 19
-30 -22 -31 -14 -51 33 -25 -18
-23 -20 -41 3 -18 -13 -13 22
-42 -31 -3 -44 -41 -24 -16 -25
-45 -7 -13 -24 -7 -38 -13 -59
00000000: f818 f3d7 26a8 14fd 03d2 06f5 f8e0 ef97
00000010: e706 1921 0a1b d10e e019 03f2 c91c b002
00000020: fbf8 ede1 07b8 15fa 12ed f109 f6df e18f
00000030: e8d4 1829 020b 06f7 defb d80e 9aee e3ee
00000040: fc1b 01f1 07e8 00f1 05da 11f0 c90a e1c1
00000050: fe03 f7e7 ec0e fcf7 d5f7 e0e5 c7d3 dafc
00000060: 1ae9 14ea 0da9 fee5 ecee 1c09 eced 1d91
00000070: fde3 cee1 26f8 0eeb ee0b c90c 96f0 c904
00000080: fdf1 2a08 f5de 130a 040d 01ed d126 ea87
00000090: 0bf0 dcc0 0ed0 fc0f e1d9 b8bf 81e2 daee
000000a0: 05d0 35f3 e5ff 0727 2123 fe1a fa4d 170f
000000b0: 2308 c9c7 53d9 1c4c f0c7 afbc 0207 ff01
000000c0: 38b7 1415 f606 0a20 2b09 f22b 2d4a 29fe
000000d0: 3e05 badf 2ac1 2633 8fc5 b2f2 0bd2 e213
000000e0: e2ea e1f2 cd21 e7ee e9ec d703 eef3 f316
000000f0: d6e1 fdd4 d7e8 f0e7 d3f9 f3e8 f9da f3c5

tfl.pseudo_qconst11 i1 [32, 1, 9, 3]
47 -60 -25 28 -40 0 46 -101
70 47 -56 45 42 -83 23 9
-62 -28 36 -127 -45 30 -64 -83
-11 -68 -13 33 -33 76 -40 18
-7 1 32 -43 -14 41 -127 -29
37 -55 -30 -11 -73 50 -23 -4
-24 43 -26 32 -8 -76 -21 -32
-90 1 98 -19 -34 23 -102 -20
-30 -127 43 24 -75 49 62 35
121 89 88 122 63 95 100 -38
54 -38 -8 13 5 -32 -5 -31
-13 110 -12 80 90 -9 -17 60
-33 -1 -20 -106 35 -76 -82 -15
-64 -127 75 -40 -61 111 -46 -50
105 27 -93 102 40 -19 -15 60
10 63 10 -25 17 -96 -102 67
-16 56 53 -127 -117 5 -52 25
-66 127 36 49 76 -5 -41 43
-54 6 -44 3 -10 28 -35 -55
-35 34 38 -91 66 10 -34 -37
6 -81 -14 -127 -8 72 -118 -56
7 -126 -58 -58 -94 -42 21 -110
11 11 -26 -64 -35 -41 32 -39
-84 -10 -69 -51 -13 -21 -39 58
-31 56 3 50 -16 10 -2 -11
58 19 -62 -21 15 -30 -32 -19
-25 -111 31 42 -69 -56 51 -127
-28 56 -21 -85 21 17 -64 -12
40 3 73 83 -82 63 81 34
66 127 -75 37 40 -30 -63 50
-86 35 -44 -13 -23 -83 6 -20
-61 5 -42 -7 -21 55 6 34
00000000: 2fc4 e71c d800 2e9b 462f c82d 2aad 1709
00000010: c2e4 2481 d31e c0ad f5bc f321 df4c d812
00000020: f901 20d5 f229 81e3 25c9 e2f5 b732 e9fc
00000030: e82b e620 f8b4 ebe0 a601 62ed de17 9aec
00000040: e281 2b18 b531 3e23 7959 587a 3f5f 64da
00000050: 36da f80d 05e0 fbe1 f36e f450 5af7 ef3c
00000060: dfff ec96 23b4 aef1 c081 4bd8 c36f d2ce
00000070: 691b a366 28ed f13c 0a3f 0ae7 11a0 9a43
00000080: f038 3581 8b05 cc19 be7f 2431 4cfb d72b
00000090: ca06 d403 f61c ddc9 dd22 26a5 420a dedb
000000a0: 06af f281 f848 8ac8 0782 c6c6 a2d6 1592
000000b0: 0b0b e6c0 ddd7 20d9 acf6 bbcd f3eb d93a
000000c0: e138 0332 f00a fef5 3a13 c2eb 0fe2 e0ed
000000d0: e791 1f2a bbc8 3381 e438 ebab 1511 c0f4
000000e0: 2803 4953 ae3f 5122 427f b525 28e2 c132
000000f0: aa23 d4f3 e9ad 06ec c305 d6f9 eb37 0622
