ML/models/mlp_3class/model.tflite (tflite, 318712 bytes, 10 tensors)

arith.constant f4 [1, 1010]
00000000: f42f 003f 6a4a 003f 4655 e839 84c7 9e3f
00000010: 043a 103f 2e4e 143f 1697 b03c 5d9f b440
00000020: e6a1 873f 9117 8e3f acb7 583f 561a a0bd
00000030: de4f 80bd 7aed 8cc0 4e0c b13d d949 96c0
00000040: 29e9 97c0 a036 91c0 77d6 53c0 ac1d 2cc0
00000050: 3f0f 93c0 6a4a 9dc0 1bd8 a5c0 852d a4c0
00000060: 21b1 a3c0 9d17 a1c0 71f4 abc0 0ca1 b0c0
00000070: 62d2 b6c0 7960 b6c0 7d93 adc0 b85b a1c0
00000080: b1fe b3c0 eb47 b9c0 3196 bdc0 12c4 bdc0
00000090: ac9b bcc0 e668 b8c0 85c0 bbc0 0ce6 bec0
000000a0: 3e42 c5c0 6c2f c6c0 7b1a bec0 6b76 aec0
000000b0: 193d bfc0 8094 c5c0 43a4 cac0 6ace cec0
000000c0: 6dae ccc0 6844 c8c0 c257 c3c0 de66 c1c0
000000d0: 5040 cfc0 3fd1 d0c0 21b8 cbc0 e70f bfc0
000000e0: e232 cac0 65f2 cec0 2097 99c0 3fd8 98c0
000000f0: dd8c 90c0 cad2 27c0 8fe8 ecbf cc11 8fc0
00000100: e5af 98c0 c1c3 a4c0 f1eb a2c0 2c57 a4c0
00000110: aa61 9dc0 9eea abc0 2a10 aec0 52f5 b3c0
00000120: 1c73 b2c0 e54a a9c0 d7fd 94c0 916e b1c0
00000130: f97c b6c0 87a1 bac0 c5ee bbc0 796b b9c0
00000140: 66f3 b4c0 16fc b7c0 4930 bcc0 4e9d bfc0
00000150: 4371 c0c0 ff68 b7c0 8e4f a3c0 3280 b8c0
00000160: 0feb bfc0 d261 c3c0 98e9 c7c0 d206 c5c0
00000170: 7170 c1c0 1fca bec0 7da5 bec0 a631 c6c0
00000180: 3f01 c8c0 6dde c1c0 f428 b4c0 54c6 bfc0
00000190: b842 c4c0 6030 003f db4a 003f 5e59 e839
000001a0: 57c8 9e3f fa39 103f db4d 143f 1b96 b03c
000001b0: dd9e b440 2fa2 873f c217 8e3f 8db8 583f
000001c0: 1918 a0bd e74d 80bd c8ec 8cc0 452a b13d
000001d0: f048 96c0 a9e8 97c0 2c35 91c0 43d6 53c0
000001e0: 801d 2cc0 500e 93c0 6a49 9dc0 85d7 a5c0
000001f0: 2b2d a4c0 eeaf a3c0 d716 a1c0 a8f3 abc0
00000200: 5da0 b0c0 07d2 b6c0 c75f b6c0 7693 adc0
00000210: 295b a1c0 28fd b3c0 f346 b9c0 a095 bdc0
00000220: 50c4 bdc0 709b bcc0 4968 b8c0 49c0 bbc0
00000230: 0ce6 bec0 9142 c5c0 b12f c6c0 891a bec0
00000240: 1f76 aec0 9f3c bfc0 0494 c5c0 1fa4 cac0
00000250: c8cd cec0 05ae ccc0 c343 c8c0 5257 c3c0
00000260: 7f66 c1c0 cb3f cfc0 00d1 d0c0 7ab8 cbc0
00000270: 7210 bfc0 bb31 cac0 a2f1 cec0 7796 99c0
00000280: 08d8 98c0 f38b 90c0 73d4 27c0 bae8 ecbf
00000290: 9710 8fc0 17af 98c0 c4c3 a4c0 fbeb a2c0
000002a0: 6f57 a4c0 0362 9dc0 3aea abc0 e70f aec0
000002b0: 9ff5 b3c0 3f73 b2c0 bd4b a9c0 dffd 94c0
000002c0: 026e b1c0 2a7d b6c0 f9a1 bac0 0bef bbc0
000002d0: c26b b9c0 aaf3 b4c0 a2fb b7c0 9e30 bcc0
000002e0: cf9d bfc0 d971 c0c0 d869 b7c0 984f a3c0
000002f0: 7a7f b8c0 9eea bfc0 f861 c3c0 f2e9 c7c0
00000300: 2707 c5c0 4570 c1c0 31ca bec0 0ea5 bec0
00000310: 6532 c6c0 9501 c8c0 bdde c1c0 f128 b4c0
00000320: 34c6 bfc0 b741 c4c0 7a30 003f 404b 003f
00000330: 785d e839 b9c9 9e3f 3f3a 103f 134e 143f
00000340: ff94 b03c b29e b440 68a2 873f f317 8e3f
00000350: 58b9 583f df15 a0bd 884b 80bd 86ec 8cc0
00000360: e447 b13d 8d47 96c0 32e7 97c0 9233 91c0
00000370: f6d5 53c0 e81c 2cc0 270d 93c0 1448 9dc0
00000380: d2d6 a5c0 722c a4c0 95af a3c0 8916 a1c0
00000390: 51f3 abc0 739f b0c0 93d1 b6c0 a75e b6c0
000003a0: af93 adc0 1a5b a1c0 5dfc b3c0 dd46 b9c0
000003b0: 6e95 bdc0 d1c3 bdc0 279b bcc0 3367 b8c0
000003c0: dabf bbc0 e6e5 bec0 f042 c5c0 632f c6c0
000003d0: 761b bec0 b675 aec0 323c bfc0 7293 c5c0
000003e0: 43a3 cac0 7fcd cec0 48ad ccc0 3544 c8c0
000003f0: 1657 c3c0 8766 c1c0 c23f cfc0 7ad0 d0c0
0.5007317 0.50113547 0.00044314022 1.2404637 0.56338525 0.5793179 0.021556418 5.6444535
1.0596282 1.1100942 0.8465526 -0.07817523 -0.062652335 -4.403989 0.08644925 -4.6965146
-4.747212 -4.537918 -3.309965 -2.689311 -4.595611 -4.9153337 -5.18263 -5.1305566
-5.115372 -5.0341325 -5.373589 -5.519659 -5.7131815 -5.6992764 -5.424254 -5.042446
-5.6248403 -5.790029 -5.924584 -5.9301844 -5.894003 -5.762805 -5.867251 -5.965582
-6.164336 -6.193289 -5.9407325 -5.4519553 -5.976208 -6.1743774 -6.3325515 -6.462697
-6.396292 -6.2583504 -6.1044626 -6.043807 -6.4766006 -6.5255427 -6.3662267 -5.970691
-6.3187113 -6.467089 -4.799698 -4.776397 -4.517195 -2.6222405 -1.8508471 -4.4709225
-4.7714715 -5.1488957 -5.0913014 -5.135641 -4.918172 -5.37239 -5.439473 -5.6236963
-5.5765514 -5.2903924 -4.6559863 -5.544747 -5.7027555 -5.8322177 -5.8728967 -5.794369
-5.6547117 -5.749522 -5.880894 -5.987952 -6.013826 -5.731567 -5.1034613 -5.765649
-5.9974437 -6.105691 -6.247265 -6.1570826 -6.0449758 -5.962173 -5.957701 -6.1935606
-6.250152 -6.0584016 -5.629999 -5.99296 -6.1331444 0.50073814 0.5011422 0.00044317072
1.2404889 0.56338465 0.579313 0.02155595 5.6443925 1.059637 1.1101 0.846566
-0.07817096 -0.06264859 -4.403904 0.086506404 -4.6964035 -4.747151 -4.5377407 -3.3099525
-2.6893005 -4.595497 -4.9152117 -5.1825585 -5.1305137 -5.115226 -5.034038 -5.373493
-5.5195756 -5.713138 -5.6991916 -5.4242506 -5.042378 -5.624653 -5.789911 -5.924515
-5.930214 -5.8939743 -5.76273 -5.8672223 -5.965582 -6.164376 -6.1933217 -5.940739
-5.451919 -5.97615 -6.1743183 -6.3325343 -6.46262 -6.3962426 -6.2582717 -6.104409
-6.0437617 -6.476537 -6.5255127 -6.366269 -5.9707575 -6.3185706 -6.466996 -4.7996173
-4.776371 -4.5170836 -2.6223419 -1.8508523 -4.470775 -4.7713733 -5.148897 -5.091306
-5.135673 -4.9182143 -5.372342 -5.439441 -5.623733 -5.576568 -5.2904954 -4.65599
-5.5446787 -5.702779 -5.832272 -5.87293 -5.794404 -5.654744 -5.749467 -5.8809347
-5.9880137 -6.0138974 -5.7316704 -5.103466 -5.765561 -5.99739 -6.105709 -6.247308
-6.157123 -6.044955 -5.9621816 -5.9576483 -6.1936517 -6.250193 -6.0584397 -5.6299977
-5.9929447 -6.133022 0.5007397 0.5011482 0.00044320128 1.2405311 0.56338876 0.5793163
0.021555422 5.644372 1.0596437 1.1101059 0.8465781 -0.078166716 -0.062644064 -4.4038725
0.0865629 -4.696234 -4.746972 -4.537545 -3.3099341 -2.6892643 -4.5953555 -4.9150486
-5.182473 -5.1304255 -5.1151834 -5.034001 -5.3734517 -5.519464 -5.713083 -5.6990542
-5.424278 -5.042371 -5.624556 -5.7899003 -5.924491 -5.9301534 -5.8939395 -5.7625976
-5.8671694 -5.965564 -6.164421 -6.1932845 -5.940852 -5.451869 -5.976098 -6.1742487
-6.3324294 -6.462585 -6.3961525 -6.258326 -6.1043806 -6.0437655 -6.476533 -6.525449

arith.constant1 f4 [1, 1010]
00000000: faf4 9440 94e7 9440 cda2 4944 aad9 8a3f
00000010: 34bb 9240 8383 9840 8d38 d741 3b90 fe3d
00000020: 4e3f cc3f 67fd c23f 7198 843f ece5 2d40
00000030: 06b8 2940 a874 033e e819 ba3f 9552 743f
00000040: 8280 6d3f ef6f 673f ebfa 833f dc06 6f3f
00000050: c8d5 793f d72d 7e3f 6162 833f 92c2 8c3f
00000060: 2a43 8d3f 2617 943f be7b 823f adc0 883f
00000070: 1d9f 863f b691 873f 7446 9a3f 69ad 983f
00000080: ba6f 843f 4ab7 873f 4b2e 903f 6bc4 973f
00000090: 4b3d 923f e471 963f 7765 8d3f 6f28 943f
000000a0: 4ea7 8d3f 6c09 903f 0212 9c3f cbff 973f
000000b0: f50e 8c3f d7ca 913f 6951 943f 5fb1 973f
000000c0: ff15 9d3f d2d1 a13f 6671 ad3f 7a16 b63f
000000d0: 2928 9e3f f91b a03f 4a6c ab3f 9d5e a53f
000000e0: 7e29 9d3f f90f a53f cf2b 633f 0196 573f
000000f0: 2cf9 473f 12e7 2e3f b0dc 2d3f 3be8 3c3f
00000100: 494e 423f 833f 4f3f 208d 513f e76f 5b3f
00000110: 9e59 4c3f 22a7 6c3f aa65 623f fc65 633f
00000120: 9f7f 603f 137f 593f 9b6e 493f 9c1d 6f3f
00000130: c5d4 723f 86c4 6f3f 033e 723f ec55 763f
00000140: 448d 723f 95cf 7d3f 34ff 823f 6dba 793f
00000150: 4a29 753f e051 613f ffd8 4f3f 4cf3 743f
00000160: 9628 883f 1839 833f 0656 843f c25c 833f
00000170: daab 873f d3ea 8c3f d7e1 923f 6863 8b3f
00000180: 2d44 823f 4caf 673f 3c62 523f c700 813f
00000190: 8419 923f 0cf6 9440 99e8 9440 98a2 4944
000001a0: 6cd9 8a3f 71bb 9240 9483 9840 e539 d741
000001b0: 8a90 fe3d 6440 cc3f 33fe c23f 1d99 843f
000001c0: 4ee6 2d40 3fb8 2940 1075 033e 891b ba3f
000001d0: 4f51 743f 0381 6d3f fe72 673f b4fb 833f
000001e0: b005 6f3f f1d6 793f 8032 7e3f 1565 833f
000001f0: 06c6 8c3f 0a47 8d3f 8217 943f b07c 823f
00000200: 91c2 883f 3da0 863f 3e95 873f 8549 9a3f
00000210: 7cab 983f 8a70 843f 3eb7 873f 8731 903f
00000220: e8c4 973f 1540 923f d272 963f cb65 8d3f
00000230: 882a 943f 26a9 8d3f 700c 903f 6915 9c3f
00000240: 6d02 983f 5510 8c3f bbcd 913f 6952 943f
00000250: 9bb2 973f ff16 9d3f 3ad3 a13f 1e73 ad3f
00000260: ba19 b63f 2027 9e3f 4720 a03f 726c ab3f
00000270: 1a5e a53f 652b 9d3f 4a12 a53f 4428 633f
00000280: f693 573f 4cf8 473f 91e5 2e3f 13dc 2d3f
00000290: 4fe8 3c3f a84d 423f ff40 4f3f fd8c 513f
000002a0: 2e70 5b3f 7558 4c3f 0da6 6c3f df61 623f
000002b0: f465 633f 9c7f 603f 6c7e 593f 0a6e 493f
000002c0: 991a 6f3f 88d0 723f e3c3 6f3f 123a 723f
000002d0: 3f54 763f 2a8f 723f dbce 7d3f effd 823f
000002e0: 35bb 793f 6027 753f fe50 613f 34d8 4f3f
000002f0: 03f3 743f d029 883f d436 833f c253 843f
00000300: 795a 833f fdab 873f 29eb 8c3f 8ee4 923f
00000310: ea5f 8b3f da42 823f 9dad 673f 3564 523f
00000320: f8fe 803f 4c19 923f fdf6 9440 8ae9 9440
00000330: 58a2 4944 50d9 8a3f c1bb 9240 b283 9840
00000340: 683b d741 4891 fe3d 6741 cc3f f1fe c23f
00000350: 9299 843f abe6 2d40 a1b8 2940 8a75 033e
00000360: 021d ba3f 7c52 743f b182 6d3f 8d75 673f
00000370: 7efc 833f 3d06 6f3f e4da 793f a736 7e3f
00000380: cb66 833f c1c7 8c3f 1e48 8d3f ac16 943f
00000390: 9f7d 823f 74c5 883f 32a3 863f 6d9a 873f
000003a0: ff4b 9a3f b7a8 983f d272 843f 7db5 873f
000003b0: e130 903f bfc7 973f 6c43 923f d172 963f
000003c0: 7064 8d3f e52b 943f a9a9 8d3f ff0e 903f
000003d0: 8814 9c3f 0d04 983f 4911 8c3f 0cd0 913f
000003e0: a653 943f 31b3 973f 2018 9d3f 71d2 a13f
000003f0: 6675 ad3f de1a b63f 1825 9e3f 5923 a03f
4.6549044 4.653269 806.54376 1.0847676 4.585352 4.7660537 26.902613 0.124298535
1.5956819 1.5233582 1.0359021 2.7171583 2.651857 0.1283747 1.4539156 0.9543851
0.9277421 0.9040517 1.0310949 0.9336984 0.9759183 0.99288696 1.0264398 1.0996878
1.1036122 1.1569564 1.0194013 1.06838 1.0517308 1.0591342 1.205275 1.192792
1.0346596 1.060281 1.1264127 1.1856817 1.1424955 1.1753507 1.104659 1.1574839
1.1066682 1.1252875 1.2192996 1.1874937 1.0942065 1.1390027 1.1587344 1.1851004
1.2272338 1.2642157 1.3550231 1.4225609 1.2356006 1.2508537 1.3392422 1.2919499
1.2278287 1.28955 0.8873872 0.8421326 0.7811458 0.68321335 0.6791487 0.73791856
0.75900704 0.80956286 0.81855965 0.85717624 0.79824245 0.92442524 0.8843638 0.8882749
0.87694734 0.84959525 0.78684396 0.93404555 0.9485591 0.93659246 0.9462587 0.96224856
0.94746804 0.9914487 1.0234132 0.9755009 0.9576613 0.88015556 0.81190485 0.9568374
1.0637386 1.0251799 1.0338752 1.0262682 1.059932 1.1009163 1.1475171 1.0889711
1.0177056 0.90501857 0.82181144 1.0078362 1.1414037 4.655035 4.6533933 806.5405
1.0847602 4.585381 4.766062 26.903269 0.124299124 1.595715 1.5233825 1.0359226
2.7171817 2.6518705 0.12837625 1.4539653 0.9543657 0.9277498 0.9040984 1.0311189
0.93368053 0.975936 0.99295807 1.0265223 1.0997932 1.1037304 1.1569674 1.0194302
1.0684377 1.0517651 1.059242 1.2053686 1.1927333 1.0346844 1.0602796 1.1265115
1.1856966 1.1425806 1.175379 1.104669 1.157548 1.1067245 1.1253796 1.2194034
1.187574 1.0942484 1.1390909 1.158765 1.1851381 1.2272643 1.2642586 1.3550756
1.4226601 1.235569 1.250985 1.339247 1.2919343 1.2278868 1.2896206 0.88733315
0.84210145 0.78113246 0.6831904 0.6791393 0.73791975 0.75899744 0.8095855 0.81855756
0.8571805 0.79822475 0.92440873 0.8843059 0.88827443 0.87694716 0.8495853 0.7868353
0.9339996 0.94849443 0.93658274 0.9461986 0.962223 0.947497 0.9914376 1.0233744
0.9755128 0.95763206 0.8801421 0.81189275 0.95683306 1.063776 1.0251107 1.0338061
1.0261985 1.0599362 1.1009265 1.1475999 1.0888646 1.0176651 0.9049929 0.82184154
1.007781 1.141397 4.65515 4.653508 806.5366 1.0847569 4.585419 4.766076
26.904007 0.12430054 1.5957459 1.5234052 1.0359366 2.7172039 2.6518939 0.12837806
1.4540102 0.9543836 0.92777544 0.90413743 1.031143 0.93368894 0.97599626 0.9930214
1.0265745 1.099846 1.1037633 1.1569419 1.0194587 1.0685258 1.0518553 1.0594002
1.2054442 1.1926488 1.034754 1.0602261 1.1264917 1.1857833 1.1426826 1.1753789
1.1046276 1.1575896 1.1067401 1.1254576 1.2193766 1.1876236 1.0942775 1.1391616
1.1588027 1.185156 1.2272987 1.2642347 1.3551452 1.4226949 1.235507 1.2510787

arith.constant2 f4 [64]
00000000: 0e7e 273c efa8 7a3b 88f8 c83a d47f 4a3d
00000010: 4d48 8fbc 3d0d 2abb f4b0 ac3b 12b1 093d
00000020: d03b 21bd dbce 3dbc aae1 9fbc 3f59 353c
00000030: 952a 433a e601 2a3d b626 2b3d bec6 1f3d
00000040: 4c13 65bc 7b16 39bc c9a3 763d 9b1f 1dbd
00000050: 45db 203c e3a3 d3bb 3127 9dbb ede9 bc3b
00000060: d818 173c 3576 503c 252f 8b3b 1420 06bd
00000070: 4925 45bb 24d5 02bc b9a6 d0bc bf4a 1fbd
00000080: 0fe4 db3b 5827 ea3c 3114 013b 6b0c ba3a
00000090: 2c33 b7bb d403 4cbc 0e78 d1bc 48fc 14bc
000000a0: 85a7 0e3d 04a3 d2bc 9f5c 98bc 7c3a 9d3c
000000b0: 7de5 f3bc 4312 17bd 5479 5eba 8ea9 8c3c
000000c0: e25a bb3c 770e 20bd b8e1 7e3d 1faf c13c
000000d0: 7a34 f9bc baa2 13bc e36f 24bc ceec 163b
000000e0: 38ae 08bc ebb4 fabb 49c6 e5bc 30dd d5bb
000000f0: 5c3f 86bc ab3f be3b cbb9 943c b8bf 9fbb
0.010222925 0.0038247665 0.0015332857 0.049438313 -0.01749053 -0.0025947832 0.005270118 0.033616133
-0.039363682 -0.011584963 -0.019516785 0.011068641 0.0007445005 0.041505717 0.041784965 0.039007895
-0.0139816515 -0.011296864 0.06021479 -0.03836022 0.009817903 -0.006458746 -0.0047959317 0.005765191
0.009222232 0.012723495 0.0042475634 -0.032745436 -0.0030082038 -0.007985387 -0.025470125 -0.038889643
0.0067105363 0.028583214 0.0019695873 0.0014194375 -0.005590817 -0.012452085 -0.025569942 -0.009093352
0.034827728 -0.025712498 -0.018598853 0.019192927 -0.029772514 -0.03688265 -0.0008486707 0.017170694
0.022870485 -0.039076295 0.06222698 0.023643075 -0.03042053 -0.009010965 -0.0100364415 0.002302933
-0.008342318 -0.0076509616 -0.028048651 -0.0065266117 -0.016387634 0.0058059297 0.018155 -0.0048751496

arith.constant3 f4 [128]
00000000: d857 9dbc 3f29 cfbc 5189 26bc 2df7 1cbc
00000010: 30f1 58bc ccb0 4abc 0b96 a4bb 99fe 66bc
00000020: 35ab 2bbc f745 8cbc ad15 373c 600c 82bc
00000030: fe0e f73c b7aa 04ba fe79 d03c 23e9 4cbc
00000040: 60a4 ecbb 2651 693b 808b 10bc 6797 fbbb
00000050: bfa9 02bc e753 25bc 09f6 61bb 13d8 a1bc
00000060: e066 8c3c d86a 963c 3691 e0bc 5d40 e4bc
00000070: 77ed ab3c 322d f6bb 22f5 c1ba b55a a93c
00000080: 908e 68bc a9f1 eabc 335b 9cbc 3277 4bbc
00000090: 0ec6 4cbc fde6 70bc 2737 88bc 3233 67bc
000000a0: 9093 be3c b925 92bc 53d2 1cbc 2333 d4bc
000000b0: 8cfc 81bb 4525 9bbc 9d84 12bc 9462 08bc
000000c0: b0e3 c6bb 95cb fbbb 2caa 81bc e7ef 63bc
000000d0: 2659 b0bc e13c ccbc 5c22 71bc f5a1 063d
000000e0: ea74 42bc aca8 ccbb eecd a8bc 1155 d7bc
000000f0: 9136 f2bb 70bb b7bc 42e8 a4bc e755 573c
00000100: 2961 19bc 767e cebc 9852 8abc 27b2 85bc
00000110: ca6b 513a 330b 01bc 9ae2 2a3b 7480 043d
00000120: 8529 cc3c d995 d73b fecf 95bc e890 a2bc
00000130: e31f d73a f229 87bb 64ea 05bc 3b2f 273c
00000140: 1e17 b1bc 0362 77bc 2888 483c fb47 e4bb
00000150: 4077 033d e40f 98bc 9038 2bbc 9dbc cbbb
00000160: 2f35 a4bc 88de 47bc 2c26 b5bb 10ea 8d3b
00000170: 21a0 1ebc 8c71 96bb 4f7a 7c3c d276 f9bb
00000180: 7e2c 03bb 387a 98bb a583 703b 7626 74bc
00000190: 9828 01bd f731 82bc 2b7e 7fbc 91eb 94ba
000001a0: f40c 6439 7178 7abc 45d3 7ebc 3469 a2bb
000001b0: 8446 243a 863a 1abc 94f3 2eba df00 dfbc
000001c0: df14 faba 825f 5abb e4e6 68bc 5942 143c
000001d0: 4ff8 94bc b9b7 23bc d0ca 1dbb fd01 26bc
000001e0: 781e d43b 9a80 98bc c653 41bc 9e42 0fbc
000001f0: c8c0 053b 2c4e 813b 6f4b c5bc 6fea 0bbc
-0.019206926 -0.025288222 -0.010164575 -0.009580416 -0.013241097 -0.012371253 -0.0050227693 -0.014098787
-0.010477831 -0.017123206 0.0111746015 -0.015875041 0.030158516 -0.0005060839 0.025448795 -0.012506756
-0.0072217435 0.0035601347 -0.008822322 -0.0076779607 -0.007975041 -0.010090805 -0.0034478924 -0.019756353
0.017138898 0.018361494 -0.027412992 -0.027862722 0.020987255 -0.007512712 -0.0014797787 0.020673135
-0.014194146 -0.028679686 -0.019086456 -0.012418555 -0.012498392 -0.014703509 -0.016627861 -0.014111327
0.023263723 -0.017840253 -0.00957163 -0.02590329 -0.0039668735 -0.01893867 -0.00894275 -0.008324284
-0.006069623 -0.007684181 -0.015828215 -0.013912178 -0.021526884 -0.024931373 -0.014717665 0.032869298
-0.011868695 -0.006245693 -0.020606007 -0.02628568 -0.0073917587 -0.022428244 -0.02013028 0.013143039
-0.009361544 -0.025206786 -0.016885087 -0.016320301 0.0007988779 -0.007876205 0.0026075006 0.032349065
0.024922142 0.0065791425 -0.018287655 -0.019844487 0.0016412701 -0.0041248733 -0.008173559 0.010204132
-0.021617468 -0.015099051 0.012239493 -0.0069665886 0.032096148 -0.018562265 -0.010450497 -0.006217553
-0.020044891 -0.012199052 -0.005528232 0.004330881 -0.009681732 -0.0045911726 0.01541002 -0.0076130414
-0.0020015533 -0.0046532415 0.003669956 -0.014901748 -0.031532854 -0.015892966 -0.015594046 -0.0011361708
0.000217486 -0.0152875045 -0.0155533 -0.004956389 0.0006266611 -0.009413367 -0.0006673869 -0.027222095
-0.0019079706 -0.0033321087 -0.014215205 0.009049022 -0.018184809 -0.009992533 -0.0024077184 -0.01013231
0.0064733587 -0.01861601 -0.011799758 -0.00874391 0.0020409096 0.0039460864 -0.024083821 -0.00853978

arith.constant4 f4 [256]
00000000: 175b ce3c eec8 acbc 3403 e03c 553a 71bc
00000010: ea8d 5bbb fe06 833a 069d a53c 04b1 afbc
00000020: 8746 abbc ef1a b9bc 6e97 a83b 955b a5bc
00000030: 6285 713b 4e4d 10bd 4f55 45bc c767 f1bb
00000040: 5d98 5f3c 9373 c0bc 47b4 e23b 417d 8dbc
00000050: 5745 6abc ed2b 5abc 6844 4ebc 620a 14bb
00000060: 10c8 ebbb 002d e1bc 8145 a7bc 38de fb3b
00000070: d058 c9bc 61a7 25bd e9c9 9c3c 57b8 20bd
00000080: a06c 20bc 05f3 71bb f7a1 5c3c bf09 dabc
00000090: 0b2a bebc 7b28 153b e2eb a8bc 6796 85bc
000000a0: a13f e9bc c533 4bbc 3001 10bd 2690 ee3c
000000b0: a31f 0fbd bc04 b5bc 3ff2 113c 8d39 c4bc
000000c0: b134 46bc d6d4 f0bc 53cc 96bc add9 0bbd
000000d0: 23c7 83bb fa09 3fbd 94c9 b23b 3c08 083d
000000e0: 2dc4 f5bb 84f3 273b b445 c03b e9d9 ffbc
000000f0: ed5e df3c 65a0 cabc 3b70 b0bc 9f4d a3bc
00000100: 01f3 223c 3d56 4ebc 6599 16bd 900f e4bc
00000110: 6d95 52ba ccfb e6bc eace 81bc 6b7b 91bc
00000120: d3d9 fdbc d8da 983c 8e8f c638 c063 8dbc
00000130: 8173 e3bb c963 d9bc 3f3c eebb 527e 5bbc
00000140: 3b06 1cbd 6b11 1fbd 6e79 f0bc 4724 10bc
00000150: e916 1b3b 28e3 0abc fa1e a5bc 46b9 f1bc
00000160: c4f2 e0bc 5916 78bc 2b36 e9bc da74 8b3b
00000170: e9ad 463c b824 77ba 742e 96bc bcf2 37bd
00000180: dc22 21bc 0103 d2bb 8eae 8abc 033e a7bc
00000190: a1b2 40bc ed4b b0bc 3e56 a6bc 725e 2dbc
000001a0: 6877 b6bc e754 07bc b8f9 0d3c e012 6dbc
000001b0: 8895 3dbc bc9a 61bb b597 4abc 4ba7 fdbc
000001c0: 05c4 05bc b9e3 0fbc e89d c8bc c7d4 14bd
000001d0: 4a3a b7ba 9999 9fbc b886 7438 f09e 25bd
000001e0: f362 05bd 2ccb 8abc 9da8 5fbc d77b 7dbc
000001f0: b712 a2bc 154a 01bd ad2f 2cbd d99e 2cbc
00000200: 7b8e 0f3b afd5 c1bc 944f c0bc f2b8 9abc
00000210: 6155 08bd 491a 20bd 6343 f7bc 4961 983c
00000220: b9df f6bc ff00 edbc c2f0 71bc 5cf1 6bbc
00000230: a6b5 e0bc 8a79 043d 3684 3bbc a39e 0dbc
00000240: f14b 1a3b 7532 1abd 9a50 92bc f599 38bc
00000250: e125 ff3b 7291 afbc 3122 0c3c dd50 9fbc
00000260: b39b adbc 7c7c 8abb 50d1 b6bc 97e6 d0bc
00000270: c125 75bc 32a3 ffbc 5d68 ccbb 4be1 35bb
00000280: 67a9 f5bb d490 dcbb 5d14 e7bb 7b52 3bbd
00000290: 7b69 aabc 8ff1 84bb da39 e93a 8046 90bc
000002a0: 3f12 d1bb abe2 34bc f57f e13b 0139 953b
000002b0: 6a29 06bc a934 55bc 64c1 d5bc aa02 46bc
000002c0: a912 80bc 0893 edbc ba95 81ba 9414 2bbd
000002d0: 7aff d2bc 0071 afbb edb5 febc 0714 9fbb
000002e0: 3f48 00bd fe2f 0fbd 0a21 bdbc 6181 073c
000002f0: 18c6 7d3c c906 f1bb bafa 8cbc 4014 3bbc
00000300: 31d6 f6bc c193 37bc ede6 06bd 4464 b0bc
00000310: 17b4 65bc 63c5 053b c3e0 15bd 3acb 2abd
00000320: 7add 8bbb e0c2 b3bc 4939 9bbc f4b2 fdbb
00000330: fed4 0ebd 1a65 04bd ca41 2fbd f2f6 c8bc
00000340: 500b f0bb 4c80 39bc e252 053c 2ecb c9bc
00000350: e34a 14bd 48d5 32bd aea4 fabc a288 093b
00000360: b95d 1ebb ec1f dd3a 3cea bcbc 3f5e 6cbc
00000370: ad6a 703c fe97 063c a863 ffbc 3989 09bd
00000380: d199 b9bc 998a bcbc 860f a0bc 6a17 1f3c
00000390: ce6e abbc 082c 8ebc 2065 3dbc f89c d7bc
000003a0: 5fbb 97bc e5d0 0bbd c1ef 7fbc 5115 b5bc
000003b0: 46d3 6c3c 857a 3dbc 041d a6bb c480 4cbb
000003c0: 1bf1 e1bc 46ae 313b d24a 223c a28d 70bc
000003d0: e9fb b93b 8ec1 3cbc aaef cfbc fe4b e5bb
000003e0: 62b5 65bc 110f cbbb c02b 58bc bc71 a9bc
000003f0: fd2b 96bc e0c8 08bd 0173 ef3a 3c57 c3bc
0.02518992 -0.021091904 0.027345277 -0.01472338 -0.0033501335 0.0009996591 0.020216476 -0.021446712
-0.020907653 -0.02259585 0.005145005 -0.020185271 0.0036853184 -0.035229973 -0.012044265 -0.0073671076
0.013647166 -0.02349261 0.0069184634 -0.01727164 -0.0142987585 -0.013316137 -0.0125895515 -0.0022589196
-0.00719548 -0.027487278 -0.020418884 0.0076864026 -0.024578482 -0.040442828 0.019139247 -0.0392383
-0.009791523 -0.0036918533 0.01346635 -0.026615975 -0.023213407 0.0022759724 -0.02062029 -0.016307069
-0.028472723 -0.01240248 -0.035157382 0.02912147 -0.03494228 -0.022096984 0.008907854 -0.023953224
-0.012097524 -0.029398363 -0.018407976 -0.03414314 -0.0040215417 -0.046640374 0.005456159 0.033210978
-0.0075001926 0.0025627324 0.0058676843 -0.031231837 0.027266944 -0.024734685 -0.02153789 -0.019934474
0.009945632 -0.012593803 -0.036767382 -0.027839452 -0.00080331304 -0.028196238 -0.015845735 -0.017759046
-0.030987656 0.01865904 9.468115e-05 -0.017259479 -0.0069412594 -0.02653684 -0.0072703655 -0.013396816
-0.03809188 -0.03883497 -0.029354777 -0.008797712 0.0023664779 -0.00847701 -0.020156372 -0.02950729
-0.02745951 -0.015142047 -0.028468212 0.004255873 0.012126424 -0.0009427774 -0.018332697 -0.044909224
-0.009834971 -0.0064090495 -0.016928937 -0.020415312 -0.011761338 -0.02152058 -0.020304795 -0.0105816
-0.022273734 -0.008259988 0.008665495 -0.014469832 -0.011571296 -0.0034424504 -0.012365271 -0.03096356
-0.0081644105 -0.008782321 -0.024489358 -0.036335733 -0.0013979163 -0.01948242 5.82996e-05 -0.040434778
-0.03256507 -0.016942583 -0.01365104 -0.01547142 -0.019784315 -0.03156479 -0.042037655 -0.010535919
0.0021904993 -0.023661463 -0.023475446 -0.018887017 -0.03328455 -0.039087567 -0.0301835 0.018601077
-0.030135976 -0.028931139 -0.014766874 -0.014400806 -0.027430367 0.03234247 -0.011445096 -0.008643779
0.00235438 -0.037645776 -0.0178607 -0.011267175 0.007786498 -0.021431658 0.008553074 -0.019447738
-0.021192407 -0.0042262655 -0.022316605 -0.025500579 -0.0149626145 -0.031205747 -0.006238027 -0.0027752693
-0.007497001 -0.006731132 -0.007051988 -0.045732956 -0.02080225 -0.0040571163 0.001779373 -0.017611742
-0.006380349 -0.01104037 0.0068817087 0.0045539145 -0.008188585 -0.013013043 -0.026093192 -0.012085596
-0.015633898 -0.029000774 -0.0009886541 -0.04176767 -0.025756586 -0.005354047 -0.031092608 -0.0048546824
-0.0313189 -0.03495788 -0.023087043 0.008270592 0.015489124 -0.007355545 -0.0172094 -0.011418402
-0.030131431 -0.011204661 -0.03293507 -0.021532185 -0.014019988 0.002041184 -0.036591303 -0.04169772
-0.0042683454 -0.02194351 -0.018948214 -0.00774228 -0.034871094 -0.03232298 -0.04278735 -0.024531815
-0.0073255673 -0.011322092 0.008137437 -0.024633016 -0.03620423 -0.043660432 -0.030596104 0.002098598
-0.002416475 0.0016870475 -0.02306091 -0.014426767 0.014673871 0.008214949 -0.03117545 -0.03357813
-0.022656353 -0.023015307 -0.019538652 0.009710172 -0.02092686 -0.01735498 -0.011559755 -0.026319966
-0.018521963 -0.034134764 -0.015621127 -0.022104891 0.014454668 -0.011564855 -0.005069377 -0.003120468
-0.027580788 0.0027111932 0.009905534 -0.014682205 0.005675782 -0.011520756 -0.025382835 -0.0069975844
-0.014020296 -0.0061968644 -0.013194025 -0.020684116 -0.018331522 -0.033394694 0.0018268527 -0.023845308

arith.constant5 f4 [3]
00000000: 8b7a d1bc 8424 9a3c 730f 133b
-0.025571128 0.01881624 0.0022439628

arith.constant6 f4 [3, 64]
00000000: 64d7 393e 1931 ebbd 784f 7dbe 7de0 8abe
00000010: 6c09 afbc aa63 ba3d 0659 3cbe b2a7 88be
00000020: b185 c33d add0 803e a4d2 1e3e 24ed 43be
00000030: e84c 14be be94 34be 6d1d f8bc 133f 83be
00000040: e4be 973d 2385 873e e4d3 37be 9aec 77bd
00000050: d15d b83d ab11 7bbd f7d2 3d3e fe9b f8bc
00000060: cb66 b1bd e0e9 093e 8bfe c4ba a620 c43c
00000070: c569 71be 3554 403e ccd7 703e 0d39 21be
00000080: b774 853e 0f40 4dbe 5c7f 3dbe ca1c 48be
00000090: 989b 133e 32d3 44be ffae 44be 05b4 19be
000000a0: 9bde f9bd d437 ad3c b4cd 53bd 5862 5ebe
000000b0: 952f 153e 159a b7bd c6de 913e f7ba fc3c
000000c0: 1eba ad3d 8495 0bbc 2452 fb3d 7176 adbc
000000d0: 9108 80be 6e44 ed3d 5f55 0abc 861d 3bbd
000000e0: b314 263e d33c fc3d 1160 55bd 82fd e33d
000000f0: 7b8e 4f3c 43ae 09be bc94 47bd d5cd 55bd
00000100: bc7c 513e 7373 04be 159d f1bd c355 653b
00000110: 576a cc3c a465 b0bd 2872 d43c 2966 d63d
00000120: 151d 343e bf92 8bbe bdbc 11bd 834d 51be
00000130: 4c3d 62be 9330 47bc 966f ad3d bece 893d
00000140: 8055 4b3e 32de 6e3e 5256 a43d ce74 e7bd
00000150: 40be 183e 9b80 2e3e 90f1 503e 654e 18be
00000160: ab7e 7cbd be1e c03d d20b 4abd cf56 7a3d
00000170: 95ae 96bd cd0b b63d 0f4c 2abe b78f f73d
00000180: fba7 3b3e c5d9 f53d 8073 58be edf2 183e
00000190: 0d1a 083e 35ca 83be 9b27 c23d 191a 13be
000001a0: 6184 4e3d e7d0 793e fb11 34be 2f50 16bb
000001b0: a16f 843e 2e1a fe3d 8c20 9d3d 95eb 7bbd
000001c0: 514f 2ebe 32a2 503e 45a6 633e 147b cfbd
000001d0: ffbc 61be e330 353e 8e2e 5fbe cc2b 80bc
000001e0: da03 5ebe 8461 de3d 9183 353d 6a5c 913d
000001f0: e564 afbd 9651 1dbe 006d 693b 1f1b 7abd
00000200: 3fc0 923d e671 71be 3d55 113e e589 84bd
00000210: 5944 43be bf6e 783e 9414 2bbd 5fd4 b73d
00000220: 2fe3 0bbe f50a 32bc e299 40be 838c cfbd
00000230: 873a 55be 93c8 c43c b98b 643d 6671 4e3d
00000240: 7f90 3dbe 94a4 433e 56de f93c 2336 8cbe
00000250: e972 9a3e 70e1 753d 0983 07be d9d1 94be
00000260: e975 eb3c 3d23 e1bc 25a3 793e 9dbb 8abe
00000270: ef52 463d ca0c 7dbe f07b 873e 0ca8 47be
00000280: a1fd f9bc 9ccc ed3d 0a21 083e 7ad4 223e
00000290: 21a6 843e 2201 e3bd 010e 86be c6f4 42be
000002a0: cc54 b43c 4259 8c3e acdc 7bbe 1b45 283e
000002b0: f4c5 0a3e a699 5dbe cd92 5a3e 4519 f13d
000002c0: 6b4e 28bd 51ea c6bd 8830 803e 7351 513c
000002d0: 898a 343e 87ad 98bd baf6 8dbd e7df 643e
000002e0: 5e94 bdbd f060 4fbe 1132 06bd 7f41 94be
000002f0: 1230 d1bb 6d60 7a3e 54fb 06bd 5a99 683e
0.18148571 -0.11483974 -0.24737346 -0.27124396 -0.021366797 0.09101041 -0.18393335 -0.2669044
0.09546984 0.25159207 0.1551004 -0.1913343 -0.14482462 -0.17634866 -0.030287469 -0.2563406
0.07409456 0.26468763 -0.17951924 -0.060528375 0.09002269 -0.061296146 0.18537508 -0.03034782
-0.08662184 0.13468122 -0.0015029473 0.02394135 -0.23575504 0.18782122 0.2351982 -0.1574442
0.2606561 -0.20043968 -0.18505615 -0.19542232 0.14414823 -0.1922119 -0.1920738 -0.15010078
-0.12200662 0.021144785 -0.051709846 -0.21717203 0.14568932 -0.08964936 0.28490275 0.03085087
0.08482765 -0.008519534 0.122715265 -0.021174641 -0.25006536 0.115853176 -0.008443206 -0.045682453
0.16218834 0.12316289 -0.05209357 0.11132337 0.012668247 -0.13445382 -0.04872583 -0.05219825
0.20457739 -0.12934665 -0.11797539 0.0034993745 0.02495305 -0.086131364 0.02593334 0.10468704
0.17589219 -0.27260396 -0.035580385 -0.20439725 -0.22093695 -0.012157577 0.08468549 0.06728886
0.19856834 0.23326948 0.08024277 -0.113015756 0.14916325 0.17041247 0.20404649 -0.14873655
-0.061644237 0.093808636 -0.04932768 0.061117943 -0.07357518 0.088889696 -0.16630577 0.12087958
0.18325798 0.12004427 -0.2113781 0.14936419 0.13291188 -0.2574021 0.094802104 -0.14365424
0.050419215 0.24396096 -0.17584984 -0.0022935977 0.25866416 0.12407337 0.076722234 -0.061503965
-0.17022444 0.20374373 0.22231396 -0.10130897 -0.22044753 0.1769443 -0.21795103 -0.015645884
-0.21681157 0.108584434 0.044314925 0.07097705 -0.08564166 -0.15363154 0.0035617948 -0.06106102
0.07165574 -0.23578605 0.14192672 -0.06471614 -0.19069041 0.24260996 -0.04176767 0.089760534
-0.13660882 -0.01086687 -0.18808702 -0.10134222 -0.20823108 0.024021422 0.055797312 0.050401114
-0.18512152 0.1910575 0.030501526 -0.27385053 0.30165794 0.060029447 -0.1323358 -0.2906635
0.028742747 -0.027482623 0.24378641 -0.27096263 0.048418935 -0.2471191 0.26461744 -0.19497699
-0.030516447 0.11611292 0.13293853 0.15901366 0.25907996 -0.110842004 -0.2618256 -0.19038686
0.02201309 0.27411848 -0.24595898 0.16432612 0.13552076 -0.21640643 0.21345063 0.11772398
-0.04109041 -0.09712661 0.25037026 0.012775767 0.17630972 -0.07454973 -0.06931825 0.22351037
-0.092568144 -0.20251822 -0.03276259 -0.2895622 -0.0063839043 0.24450846 -0.03295453 0.22714749

tfl.pseudo_qconst i1 [64, 128]
00000000: 9fad c0e3 0ba3 e51c 599a 61ad b5ae 98d6
00000010: 515a ac7f ee8d 5e33 dc6c ffa7 b410 4488
00000020: 1101 2052 99f3 107f 9e94 b914 066a 0cec
00000030: d43f 8206 191a 1945 06f9 4529 c02d 23f5
00000040: 6c6a 6328 bdf3 4bd5 9ee7 5b40 2148 53ae
00000050: a84f 329b 5e19 e8c3 a805 5adf a077 b804
00000060: a8c2 c064 d317 3fdb c164 e4c2 92c8 20f4
00000070: 0eb3 2cdd 5283 caa6 da99 d1e8 cc6d dfb3
00000080: 22e4 2dba 2fd2 1822 fdec 05f5 ae69 3162
00000090: 0b2c f96c d2d8 c3fb 4316 eb5e 3e14 be06
000000a0: 2d5f 1a4d f60e 38d1 afcd 64bf ce17 d559
000000b0: ce07 beee bcb2 dd99 3a00 db24 14c2 f9ef
000000c0: 4716 25f1 e2ee ffd7 3050 15c1 6220 34b7
000000d0: a7b6 104a 2ffa 33e0 98b3 9fb3 f667 425f
000000e0: f108 e011 a64e 9ab6 e922 45a5 e136 13e8
000000f0: 7f12 6317 63dc 1153 be9c 9ca8 15c0 61fd
-97 -83 -64 -29 11 -93 -27 28
89 -102 97 -83 -75 -82 -104 -42
81 90 -84 127 -18 -115 94 51
-36 108 -1 -89 -76 16 68 -120
17 1 32 82 -103 -13 16 127
-98 -108 -71 20 6 106 12 -20
-44 63 -126 6 25 26 25 69
6 -7 69 41 -64 45 35 -11
108 106 99 40 -67 -13 75 -43
-98 -25 91 64 33 72 83 -82
-88 79 50 -101 94 25 -24 -61
-88 5 90 -33 -96 119 -72 4
-88 -62 -64 100 -45 23 63 -37
-63 100 -28 -62 -110 -56 32 -12
14 -77 44 -35 82 -125 -54 -90
-38 -103 -47 -24 -52 109 -33 -77
34 -28 45 -70 47 -46 24 34
-3 -20 5 -11 -82 105 49 98
11 44 -7 108 -46 -40 -61 -5
67 22 -21 94 62 20 -66 6
45 95 26 77 -10 14 56 -47
-81 -51 100 -65 -50 23 -43 89
-50 7 -66 -18 -68 -78 -35 -103
58 0 -37 36 20 -62 -7 -17
71 22 37 -15 -30 -18 -1 -41
48 80 21 -63 98 32 52 -73
-89 -74 16 74 47 -6 51 -32
-104 -77 -97 -77 -10 103 66 95
-15 8 -32 17 -90 78 -102 -74
-23 34 69 -91 -31 54 19 -24
127 18 99 23 99 -36 17 83
-66 -100 -100 -88 21 -64 97 -3

tfl.pseudo_qconst1 i1 [128, 256]
00000000: 0844 d61c 399e 08bf 2550 b931 0cfd a502
00000010: d283 b248 91c4 b2b2 a655 d7cf b29a 4f4c
00000020: 0cc6 8c20 0df8 daf1 ecd4 dbb1 242a 22b3
00000030: 37f9 9bd5 b242 264b 1a1d 0d24 0864 4fe5
00000040: 2a59 501f 4e9b 1813 2bc5 8deb 3299 32e1
00000050: e6ab 6732 d3be 4bed 3fa0 e11f c6b7 d3ce
00000060: 8a8e 9606 fad3 1f2e 9922 3bb9 e89e 4bf0
00000070: e358 33be f2fc 5762 20fb b19c c2a4 343f
00000080: 3dbd 2c2e 0a0a 07bb b1d5 28f9 51d3 aaea
00000090: ef86 c6a1 8809 00ec e5a9 9f1b 949f ddd8
000000a0: a455 47be a20b 86fa be1a 40e7 2b95 9de7
000000b0: d743 da64 f798 3d08 47f3 d54c 2bd0 cb81
000000c0: b73b 9a35 2ed7 2b8f 69d4 50f5 d48d f1b4
000000d0: e38a e218 e1f7 e8f6 a4b6 5df3 b029 dd31
000000e0: 92e6 11c1 3115 514f 1386 9d5d 454a bf59
000000f0: 4aee 549b eb1e d038 ec0a d0c0 944d 3d99
8 68 -42 28 57 -98 8 -65
37 80 -71 49 12 -3 -91 2
-46 -125 -78 72 -111 -60 -78 -78
-90 85 -41 -49 -78 -102 79 76
12 -58 -116 32 13 -8 -38 -15
-20 -44 -37 -79 36 42 34 -77
55 -7 -101 -43 -78 66 38 75
26 29 13 36 8 100 79 -27
42 89 80 31 78 -101 24 19
43 -59 -115 -21 50 -103 50 -31
-26 -85 103 50 -45 -66 75 -19
63 -96 -31 31 -58 -73 -45 -50
-118 -114 -106 6 -6 -45 31 46
-103 34 59 -71 -24 -98 75 -16
-29 88 51 -66 -14 -4 87 98
32 -5 -79 -100 -62 -92 52 63
61 -67 44 46 10 10 7 -69
-79 -43 40 -7 81 -45 -86 -22
-17 -122 -58 -95 -120 9 0 -20
-27 -87 -97 27 -108 -97 -35 -40
-92 85 71 -66 -94 11 -122 -6
-66 26 64 -25 43 -107 -99 -25
-41 67 -38 100 -9 -104 61 8
71 -13 -43 76 43 -48 -53 -127
-73 59 -102 53 46 -41 43 -113
105 -44 80 -11 -44 -115 -15 -76
-29 -118 -30 24 -31 -9 -24 -10
-92 -74 93 -13 -80 41 -35 49
-110 -26 17 -63 49 21 81 79
19 -122 -99 93 69 74 -65 89
74 -18 84 -101 -21 30 -48 56
-20 10 -48 -64 -108 77 61 -103

tfl.pseudo_qconst2 i1 [256, 1010]
00000000: cabb a2f9 feb9 d01d 053b b2e4 2dc3 debb
00000010: e2ee ccf8 feff c2e4 0c4c 3ffc e10e e9ef
00000020: 1de2 e916 1820 42e3 2dd8 dade 5eed 2a0b
00000030: 0412 fe1b d506 1636 f4d4 04e1 ddf4 db46
00000040: cbc0 1dc3 0dc5 ff31 5119 191a ecf1 fa08
00000050: 10c3 464c 15dd 29cf ef1d 2fc1 1015 dff0
00000060: 28e8 ddfc d0fc f503 f1df 3d22 00ee 20e0
00000070: f4fa 45e3 d6bb c1c2 cf11 15e7 3cdd 2817
00000080: 16cd fc20 0306 1859 d934 2724 eb1d f1db
00000090: 3419 482f f648 10e1 fc24 19fa 120d 47c7
000000a0: 01b6 0945 24f8 f5ee 4e20 c035 3f38 0428
000000b0: 4237 1e39 28ff c852 d00f 4d20 2525 c9c9
000000c0: bef4 e8e4 bae7 4333 b72f 1c0d 91db f1ff
000000d0: f3e7 c5ea c2ee 2029 5488 c30d 08b5 b0c5
000000e0: a62a e755 21ee c3df f2fa 25f9 0adf 033e
000000f0: 4b13 3a09 214d 0604 1b39 f94a 4f52 6204
-54 -69 -94 -7 -2 -71 -48 29
5 59 -78 -28 45 -61 -34 -69
-30 -18 -52 -8 -2 -1 -62 -28
12 76 63 -4 -31 14 -23 -17
29 -30 -23 22 24 32 66 -29
45 -40 -38 -34 94 -19 42 11
4 18 -2 27 -43 6 22 54
-12 -44 4 -31 -35 -12 -37 70
-53 -64 29 -61 13 -59 -1 49
81 25 25 26 -20 -15 -6 8
16 -61 70 76 21 -35 41 -49
-17 29 47 -63 16 21 -33 -16
40 -24 -35 -4 -48 -4 -11 3
-15 -33 61 34 0 -18 32 -32
-12 -6 69 -29 -42 -69 -63 -62
-49 17 21 -25 60 -35 40 23
22 -51 -4 32 3 6 24 89
-39 52 39 36 -21 29 -15 -37
52 25 72 47 -10 72 16 -31
-4 36 25 -6 18 13 71 -57
1 -74 9 69 36 -8 -11 -18
78 32 -64 53 63 56 4 40
66 55 30 57 40 -1 -56 82
-48 15 77 32 37 37 -55 -55
-66 -12 -24 -28 -70 -25 67 51
-73 47 28 13 -111 -37 -15 -1
-13 -25 -59 -22 -62 -18 32 41
84 -120 -61 13 8 -75 -80 -59
-90 42 -25 85 33 -18 -61 -33
-14 -6 37 -7 10 -33 3 62
75 19 58 9 33 77 6 4
27 57 -7 74 79 82 98 4
