ML/models/mlp_3class/model_int8.tflite (tflite, 81640 bytes, 6 tensors)

tfl.pseudo_qconst1 i1 [3, 64]
0	0xc4	-60
1	0xcc	-52
2	0x07	7
3	0xd9	-39
4	0xfd	-3
5	0x19	25
6	0xb9	-71
7	0x45	69
8	0x33	51
9	0x62	98
10	0xd1	-47
11	0x09	9
12	0xa4	-92
13	0xbc	-68
14	0x4b	75
15	0x4c	76
16	0xf7	-9
17	0xe1	-31
18	0x14	20
19	0x2c	44
20	0xf0	-16
21	0xa7	-89
22	0x5b	91
23	0xa3	-93
24	0xc8	-56
25	0xa7	-89
26	0x37	55
27	0xe4	-28
28	0x1d	29
29	0xcb	-53
30	0x03	3
31	0xe5	-27
32	0x3e	62
33	0x72	114
34	0x4c	76
35	0x95	-107
36	0xd3	-45
37	0x48	72
38	0xb3	-77
39	0xe7	-25
40	0xaa	-86
41	0x6b	107
42	0x18	24
43	0x17	23
44	0xd5	-43
45	0xa1	-95
46	0xc6	-58
47	0x4f	79
48	0xdd	-35
49	0x26	38
50	0x0e	14
51	0x7f	127
52	0xfc	-4
53	0xa5	-91
54	0x25	37
55	0xba	-70
56	0x31	49
57	0xb3	-77
58	0x19	25
59	0x05	5
60	0xba	-70
61	0x1f	31
62	0xe6	-26
63	0x1c	28
64	0x52	82
65	0x1e	30
66	0xbd	-67
67	0x0e	14
68	0xb3	-77
69	0xbf	-65
70	0x66	102
71	0x6c	108
72	0xde	-34
73	0x6f	111
74	0x9c	-100
75	0x32	50
76	0x42	66
77	0xe6	-26
78	0x7b	123
79	0xf9	-7
80	0xec	-20
81	0x24	36
82	0x71	113
83	0xaf	-81
84	0xba	-70
85	0x3b	59
86	0x5f	95
87	0xc2	-62
88	0x5a	90
89	0x4d	77
90	0x95	-107
91	0xe5	-27
92	0x31	49
93	0xfc	-4
94	0xe0	-32
95	0x33	51
96	0x6a	106
97	0x6b	107
98	0xe5	-27
99	0x37	55
100	0x81	-127
101	0xf2	-14
102	0x37	55
103	0xda	-38
104	0xbd	-67
105	0xfe	-2
106	0xcc	-52
107	0x31	49
108	0x83	-125
109	0xf5	-11
110	0x6b	107
111	0xa9	-87
112	0x38	56
113	0x35	53
114	0xa9	-87
115	0x6b	107
116	0x05	5
117	0xc3	-61
118	0xbb	-69
119	0x59	89
120	0x38	56
121	0x05	5
122	0x07	7
123	0x2a	42
124	0x54	84
125	0x4e	78
126	0x3e	62
127	0xea	-22
128	0xb0	-80
129	0xf8	-8
130	0x8c	-116
131	0x45	69
132	0x58	88
133	0xa3	-93
134	0xf1	-15
135	0x96	-106
136	0xcf	-49
137	0xb5	-75
138	0xbf	-65
139	0xb6	-74
140	0x4f	79
141	0x94	-108
142	0xd8	-40
143	0xf3	-13
144	0xaa	-86
145	0xc9	-55
146	0x2c	44
147	0xef	-17
148	0xdb	-37
149	0xe1	-31
150	0xc3	-61
151	0xee	-18
152	0x5c	92
153	0xa4	-92
154	0xf8	-8
155	0x4a	74
156	0xfa	-6
157	0x9d	-99
158	0x63	99
159	0x66	102
160	0xf3	-13
161	0xa2	-94
162	0x26	38
163	0x19	25
164	0x8b	-117
165	0xcb	-53
166	0x14	20
167	0x58	88
168	0x4b	75
169	0x64	100
170	0xd6	-42
171	0x94	-108
172	0xd1	-47
173	0x6d	109
174	0x1b	27
175	0x2b	43
176	0xad	-83
177	0x56	86
178	0x3c	60
179	0x19	25
180	0x6b	107
181	0x81	-127
182	0xcd	-51
183	0x0c	12
184	0xf8	-8
185	0x36	54
186	0xc3	-61
187	0xa5	-91
188	0x24	36
189	0x50	80
190	0x13	19
191	0x4b	75

tfl.pseudo_qconst3 i1 [64, 128]
0	0xf0	-16
1	0x9d	-99
2	0x85	-123
3	0x87	-121
4	0xe7	-25
5	0xf5	-11
6	0x34	52
7	0xc9	-55
8	0xc8	-56
9	0x1b	27
10	0xad	-83
11	0xfe	-2
12	0xd4	-44
13	0xc6	-58
14	0x6a	106
15	0xf1	-15
16	0xa0	-96
17	0xa0	-96
18	0xd5	-43
19	0x9d	-99
20	0x04	4
21	0xdc	-36
22	0xa4	-92
23	0x3b	59
24	0x48	72
25	0xe5	-27
26	0x1a	26
27	0x5c	92
28	0x82	-126
29	0x3b	59
30	0x64	100
31	0xf3	-13
32	0x4c	76
33	0x41	65
34	0x5e	94
35	0xd7	-41
36	0xdc	-36
37	0x20	32
38	0xd2	-46
39	0xb0	-80
40	0xb7	-73
41	0x2c	44
42	0x20	32
43	0x82	-126
44	0xeb	-21
45	0xb9	-71
46	0x27	39
47	0xf1	-15
48	0x4f	79
49	0x4a	74
50	0x8e	-114
51	0x8a	-118
52	0xb4	-76
53	0xd6	-42
54	0x0d	13
55	0xa9	-87
56	0xc3	-61
57	0x68	104
58	0x99	-103
59	0x3e	62
60	0x24	36
61	0xf6	-10
62	0xd0	-48
63	0x03	3
64	0x2e	46
65	0x2c	44
66	0x81	-127
67	0xe3	-29
68	0x5b	91
69	0x50	80
70	0xf2	-14
71	0x23	35
72	0x1c	28
73	0x85	-123
74	0xc9	-55
75	0xf3	-13
76	0x66	102
77	0x85	-123
78	0xa8	-88
79	0x7d	125
80	0x1b	27
81	0x1d	29
82	0x2f	47
83	0xc5	-59
84	0xfe	-2
85	0x23	35
86	0xd8	-40
87	0x91	-111
88	0x1a	26
89	0xc4	-60
90	0xc7	-57
91	0xfc	-4
92	0xe1	-31
93	0x50	80
94	0x12	18
95	0x14	20
96	0x01	1
97	0xd8	-40
98	0x9d	-99
99	0x4d	77
100	0x04	4
101	0x66	102
102	0x99	-103
103	0x17	23
104	0x1f	31
105	0x5d	93
106	0x1d	29
107	0x2c	44
108	0x25	37
109	0xea	-22
110	0xe1	-31
111	0x75	117
112	0xdf	-33
113	0xd3	-45
114	0xce	-50
115	0xfa	-6
116	0xda	-38
117	0x37	55
118	0x78	120
119	0x15	21
120	0x06	6
121	0xf3	-13
122	0x12	18
123	0xee	-18
124	0x74	116
125	0x90	-112
126	0x42	66
127	0xb4	-76
128	0xe7	-25
129	0xd6	-42
130	0xb5	-75
131	0x29	41
132	0x41	65
133	0xe3	-29
134	0x1a	26
135	0x31	49
136	0x20	32
137	0x18	24
138	0xc2	-62
139	0x4a	74
140	0xef	-17
141	0xb8	-72
142	0x61	97
143	0xae	-82
144	0xa2	-94
145	0x0a	10
146	0xbf	-65
147	0xf3	-13
148	0xda	-38
149	0x69	105
150	0x45	69
151	0xab	-85
152	0x08	8
153	0x5b	91
154	0xdd	-35
155	0x3f	63
156	0xa0	-96
157	0x45	69
158	0x6c	108
159	0x79	121
160	0xf1	-15
161	0xc6	-58
162	0xc6	-58
163	0x42	66
164	0x92	-110
165	0xfc	-4
166	0xff	-1
167	0x4b	75
168	0x51	81
169	0xcd	-51
170	0xdc	-36
171	0x8e	-114
172	0x1a	26
173	0x69	105
174	0x72	114
175	0x1f	31
176	0x57	87
177	0xbc	-68
178	0x0f	15
179	0x99	-103
180	0x57	87
181	0xf0	-16
182	0xf7	-9
183	0x44	68
184	0x56	86
185	0xbd	-67
186	0xac	-84
187	0x45	69
188	0x51	81
189	0x16	22
190	0x2a	42
191	0x1f	31
192	0x32	50
193	0xbe	-66
194	0x8f	-113
195	0x62	98
196	0xf6	-10
197	0xd5	-43
198	0x34	52
199	0xb9	-71
200	0xae	-82
201	0xf6	-10
202	0x04	4
203	0xdc	-36
204	0x24	36
205	0xed	-19
206	0x37	55
207	0xfb	-5
208	0xa6	-90
209	0xf1	-15
210	0xec	-20
211	0x52	82
212	0xc0	-64
213	0x7f	127
214	0x0a	10
215	0xe6	-26
216	0xf2	-14
217	0xe6	-26
218	0xbe	-66
219	0x38	56
220	0x30	48
221	0x1b	27
222	0x9c	-100
223	0xcd	-51
224	0x2d	45
225	0x6a	106
226	0xa0	-96
227	0x2f	47
228	0x23	35
229	0xc0	-64
230	0xde	-34
231	0x50	80
232	0xda	-38
233	0x55	85
234	0x15	21
235	0x3e	62
236	0xd1	-47
237	0x0c	12
238	0x02	2
239	0xfb	-5
240	0xab	-85
241	0xa8	-88
242	0x17	23
243	0x0f	15
244	0x52	82
245	0x6b	107
246	0x1a	26
247	0xdb	-37
248	0x43	67
249	0x5f	95
250	0xcb	-53
251	0x04	4
252	0x71	113
253	0xd4	-44
254	0x3c	60
255	0xc9	-55

tfl.pseudo_qconst5 i1 [128, 256]
0	0x13	19
1	0xd8	-40
2	0xa2	-94
3	0xb1	-79
4	0x35	53
5	0xec	-20
6	0xca	-54
7	0xd4	-44
8	0x15	21
9	0xce	-50
10	0xda	-38
11	0xd4	-44
12	0x01	1
13	0x78	120
14	0x12	18
15	0x37	55
16	0xd7	-41
17	0xcf	-49
18	0x3f	63
19	0x36	54
20	0xdb	-37
21	0x38	56
22	0xc0	-64
23	0x63	99
24	0x20	32
25	0xf4	-12
26	0xd9	-39
27	0xe5	-27
28	0xfc	-4
29	0x0e	14
30	0xfd	-3
31	0xa7	-89
32	0x0f	15
33	0xd6	-42
34	0xb9	-71
35	0x3f	63
36	0x06	6
37	0x22	34
38	0x06	6
39	0xbb	-69
40	0x27	39
41	0x09	9
42	0x36	54
43	0x4d	77
44	0xfd	-3
45	0xa8	-88
46	0xf2	-14
47	0xf6	-10
48	0x4b	75
49	0xda	-38
50	0xaa	-86
51	0xea	-22
52	0xf5	-11
53	0xa8	-88
54	0xf9	-7
55	0xfe	-2
56	0x06	6
57	0x0d	13
58	0xda	-38
59	0x20	32
60	0x03	3
61	0xda	-38
62	0xe3	-29
63	0xe2	-30
64	0x1e	30
65	0xcf	-49
66	0xe3	-29
67	0xc4	-60
68	0xcb	-53
69	0xd1	-47
70	0xf4	-12
71	0xe4	-28
72	0xe6	-26
73	0xdb	-37
74	0x35	53
75	0xc2	-62
76	0x25	37
77	0x41	65
78	0xf9	-7
79	0xcb	-53
80	0xb8	-72
81	0x55	85
82	0xff	-1
83	0xe4	-28
84	0x99	-103
85	0x13	19
86	0xe9	-23
87	0x16	22
88	0xc0	-64
89	0xd8	-40
90	0x05	5
91	0x30	48
92	0x28	40
93	0xf7	-9
94	0x09	9
95	0xf9	-7
96	0xc9	-55
97	0x07	7
98	0xaf	-81
99	0x15	21
100	0xed	-19
101	0x1a	26
102	0x47	71
103	0xf4	-12
104	0xe0	-32
105	0xd1	-47
106	0xdc	-36
107	0x21	33
108	0x03	3
109	0xd6	-42
110	0xfd	-3
111	0xd0	-48
112	0xd8	-40
113	0x1d	29
114	0x08	8
115	0x15	21
116	0x0c	12
117	0xe7	-25
118	0x12	18
119	0x26	38
120	0x35	53
121	0x52	82
122	0xc2	-62
123	0x28	40
124	0xac	-84
125	0x2d	45
126	0x5d	93
127	0x29	41
128	0xd7	-41
129	0x06	6
130	0xb6	-74
131	0x5b	91
132	0xda	-38
133	0xdb	-37
134	0x20	32
135	0xc2	-62
136	0xe6	-26
137	0x04	4
138	0x3e	62
139	0x32	50
140	0x4b	75
141	0x0f	15
142	0xfe	-2
143	0x19	25
144	0xc5	-59
145	0x3e	62
146	0xd7	-41
147	0xda	-38
148	0xdb	-37
149	0xc8	-56
150	0xc1	-63
151	0xfa	-6
152	0xaf	-81
153	0xeb	-21
154	0xf9	-7
155	0x33	51
156	0x1d	29
157	0x53	83
158	0xe1	-31
159	0xa8	-88
160	0x70	112
161	0x3b	59
162	0xe8	-24
163	0xc0	-64
164	0x4f	79
165	0xc4	-60
166	0x7f	127
167	0xac	-84
168	0xd8	-40
169	0x03	3
170	0x11	17
171	0xf7	-9
172	0x0d	13
173	0xb9	-71
174	0x21	33
175	0xd3	-45
176	0xe0	-32
177	0x06	6
178	0x2a	42
179	0xb0	-80
180	0xc9	-55
181	0xef	-17
182	0xbf	-65
183	0xbc	-68
184	0x0f	15
185	0x25	37
186	0xeb	-21
187	0x40	64
188	0xa8	-88
189	0xbb	-69
190	0xdd	-35
191	0x53	83
192	0xe4	-28
193	0xbf	-65
194	0xe4	-28
195	0xef	-17
196	0x4e	78
197	0x13	19
198	0xe2	-30
199	0xe1	-31
200	0x35	53
201	0xd6	-42
202	0xf3	-13
203	0xf5	-11
204	0xc4	-60
205	0x08	8
206	0xf3	-13
207	0x5a	90
208	0x41	65
209	0xcd	-51
210	0x48	72
211	0xf6	-10
212	0x46	70
213	0x4d	77
214	0xae	-82
215	0x2f	47
216	0xde	-34
217	0xd2	-46
218	0xd7	-41
219	0x49	73
220	0xf3	-13
221	0xd7	-41
222	0xd4	-44
223	0x10	16
224	0xcf	-49
225	0x4c	76
226	0xb2	-78
227	0xd4	-44
228	0xb1	-79
229	0x3a	58
230	0xc7	-57
231	0x00	0
232	0x2a	42
233	0x33	51
234	0xdb	-37
235	0xc7	-57
236	0x46	70
237	0xd6	-42
238	0x24	36
239	0xbf	-65
240	0x31	49
241	0xe2	-30
242	0xe5	-27
243	0xd1	-47
244	0xdd	-35
245	0x15	21
246	0x34	52
247	0xcd	-51
248	0x46	70
249	0x15	21
250	0x0d	13
251	0xe1	-31
252	0xd4	-44
253	0x3b	59
254	0xb2	-78
255	0xdc	-36

tfl.pseudo_qconst7 i1 [256, 94]
0	0x28	40
1	0x4e	78
2	0xb8	-72
3	0x9b	-101
4	0xef	-17
5	0x9b	-101
6	0x4e	78
7	0xee	-18
8	0xc7	-57
9	0xbe	-66
10	0x2e	46
11	0xf7	-9
12	0x33	51
13	0x7f	127
14	0xa1	-95
15	0x42	66
16	0xf6	-10
17	0x39	57
18	0x49	73
19	0x21	33
20	0xdc	-36
21	0x93	-109
22	0x4a	74
23	0xdb	-37
24	0xa7	-89
25	0xe4	-28
26	0xd5	-43
27	0xa6	-90
28	0xa5	-91
29	0x24	36
30	0x46	70
31	0xec	-20
32	0xb0	-80
33	0x40	64
34	0x3a	58
35	0x54	84
36	0xb3	-77
37	0xad	-83
38	0x04	4
39	0xc2	-62
40	0x58	88
41	0xac	-84
42	0xb3	-77
43	0x24	36
44	0xec	-20
45	0x53	83
46	0x1c	28
47	0xc7	-57
48	0x36	54
49	0xf6	-10
50	0xad	-83
51	0x0e	14
52	0x02	2
53	0x23	35
54	0x31	49
55	0xba	-70
56	0x18	24
57	0xb1	-79
58	0xec	-20
59	0xf5	-11
60	0xb5	-75
61	0xef	-17
62	0x49	73
63	0xc2	-62
64	0xaf	-81
65	0x21	33
66	0xeb	-21
67	0x50	80
68	0xa9	-87
69	0xbc	-68
70	0x6b	107
71	0x13	19
72	0x67	103
73	0x0e	14
74	0x20	32
75	0xab	-85
76	0xfb	-5
77	0x09	9
78	0x8f	-113
79	0x12	18
80	0x5f	95
81	0x43	67
82	0x66	102
83	0x01	1
84	0xdd	-35
85	0xf7	-9
86	0xd2	-46
87	0x65	101
88	0x13	19
89	0xfe	-2
90	0x2a	42
91	0x5f	95
92	0x7e	126
93	0x0b	11
94	0x99	-103
95	0xdf	-33
96	0x0b	11
97	0x48	72
98	0x7c	124
99	0x38	56
100	0xc9	-55
101	0x21	33
102	0x62	98
103	0x27	39
104	0x1a	26
105	0x32	50
106	0x10	16
107	0x81	-127
108	0xd9	-39
109	0x9d	-99
110	0x2f	47
111	0xb4	-76
112	0xeb	-21
113	0x21	33
114	0x3c	60
115	0x4a	74
116	0xf1	-15
117	0x28	40
118	0x3a	58
119	0x1b	27
120	0xab	-85
121	0x51	81
122	0x23	35
123	0xec	-20
124	0xef	-17
125	0xce	-50
126	0x58	88
127	0xd1	-47
128	0x18	24
129	0x2a	42
130	0x2f	47
131	0x39	57
132	0xff	-1
133	0xf8	-8
134	0xeb	-21
135	0xb0	-80
136	0xd5	-43
137	0x3b	59
138	0x27	39
139	0xf8	-8
140	0x1e	30
141	0x12	18
142	0xbf	-65
143	0x14	20
144	0xc0	-64
145	0xca	-54
146	0xf4	-12
147	0xb9	-71
148	0xd6	-42
149	0x26	38
150	0xf2	-14
151	0x57	87
152	0x02	2
153	0x2a	42
154	0x4d	77
155	0x38	56
156	0x1a	26
157	0x25	37
158	0xf8	-8
159	0xd4	-44
160	0x34	52
161	0x5a	90
162	0x26	38
163	0xe8	-24
164	0xe8	-24
165	0x4c	76
166	0xf3	-13
167	0xe7	-25
168	0x2b	43
169	0xbb	-69
170	0xc1	-63
171	0xc8	-56
172	0xf8	-8
173	0x65	101
174	0xa4	-92
175	0x51	81
176	0x09	9
177	0x52	82
178	0xe8	-24
179	0xde	-34
180	0xf4	-12
181	0x58	88
182	0xff	-1
183	0xab	-85
184	0x5c	92
185	0x1f	31
186	0x9a	-102
187	0xfa	-6
188	0x1e	30
189	0x9d	-99
190	0x03	3
191	0xe2	-30
192	0x81	-127
193	0x89	-119
194	0xac	-84
195	0x1a	26
196	0xbb	-69
197	0xb3	-77
198	0xef	-17
199	0xe5	-27
200	0x54	84
201	0x28	40
202	0x5b	91
203	0xe4	-28
204	0x10	16
205	0x98	-104
206	0xef	-17
207	0xb5	-75
208	0x4a	74
209	0xf3	-13
210	0xb6	-74
211	0x2d	45
212	0xd3	-45
213	0xf7	-9
214	0x43	67
215	0xc0	-64
216	0xb3	-77
217	0x00	0
218	0x04	4
219	0xa4	-92
220	0x2d	45
221	0x33	51
222	0x37	55
223	0x31	49
224	0x1d	29
225	0x62	98
226	0x44	68
227	0xdb	-37
228	0xf0	-16
229	0x05	5
230	0xe2	-30
231	0xaf	-81
232	0x06	6
233	0xfa	-6
234	0x00	0
235	0x3d	61
236	0x5d	93
237	0x62	98
238	0xd9	-39
239	0x47	71
240	0xf9	-7
241	0x5d	93
242	0xeb	-21
243	0x6f	111
244	0x15	21
245	0xe8	-24
246	0x37	55
247	0xf5	-11
248	0x13	19
249	0xaf	-81
250	0xcf	-49
251	0x0a	10
252	0xe0	-32
253	0x03	3
254	0x0d	13
255	0x01	1

tfl.pseudo_qconst8 i1 [1, 94] scale=2.1118097 zero_point=-128
0	0x82	4.2236195
1	0x82	4.2236195
2	0x7f	538.5115
3	0x80	0.0
4	0x82	4.2236195
5	0x82	4.2236195
6	0x93	40.124386
7	0x80	0.0
8	0x80	0.0
9	0x80	0.0
10	0x80	0.0
11	0x81	2.1118097
12	0x80	0.0
13	0x80	0.0
14	0x81	2.1118097
15	0x81	2.1118097
16	0x81	2.1118097
17	0x81	2.1118097
18	0x81	2.1118097
19	0x81	2.1118097
20	0x81	2.1118097
21	0x81	2.1118097
22	0x81	2.1118097
23	0x81	2.1118097
24	0x81	2.1118097
25	0x81	2.1118097
26	0x81	2.1118097
27	0x81	2.1118097
28	0x81	2.1118097
29	0x81	2.1118097
30	0x81	2.1118097
31	0x81	2.1118097
32	0x81	2.1118097
33	0x81	2.1118097
34	0x81	2.1118097
35	0x81	2.1118097
36	0x81	2.1118097
37	0x81	2.1118097
38	0x81	2.1118097
39	0x81	2.1118097
40	0x81	2.1118097
41	0x81	2.1118097
42	0x81	2.1118097
43	0x81	2.1118097
44	0x81	2.1118097
45	0x81	2.1118097
46	0x81	2.1118097
47	0x81	2.1118097
48	0x81	2.1118097
49	0x81	2.1118097
50	0x81	2.1118097
51	0x80	0.0
52	0x80	0.0
53	0x80	0.0
54	0x80	0.0
55	0x80	0.0
56	0x80	0.0
57	0x80	0.0
58	0x80	0.0
59	0x80	0.0
60	0x80	0.0
61	0x80	0.0
62	0x80	0.0
63	0x80	0.0
64	0x80	0.0
65	0x80	0.0
66	0x80	0.0
67	0x80	0.0
68	0x80	0.0
69	0x80	0.0
70	0x80	0.0
71	0x80	0.0
72	0x81	2.1118097
73	0x81	2.1118097
74	0x81	2.1118097
75	0x81	2.1118097
76	0x81	2.1118097
77	0x81	2.1118097
78	0x80	0.0
79	0x80	0.0
80	0x81	2.1118097
81	0x81	2.1118097
82	0x81	2.1118097
83	0x81	2.1118097
84	0x81	2.1118097
85	0x81	2.1118097
86	0x81	2.1118097
87	0x81	2.1118097
88	0x81	2.1118097
89	0x81	2.1118097
90	0x81	2.1118097
91	0x80	0.0
92	0x81	2.1118097
93	0x81	2.1118097

tfl.pseudo_qconst9 i1 [1, 94] scale=0.036816396 zero_point=48
0	0x3e	0.51542956
1	0x3e	0.51542956
2	0x30	0.0
3	0x59	1.5094723
4	0x40	0.58906233
5	0x41	0.62587875
6	0x30	0.0
7	0x7f	2.9084952
8	0xae	-4.7861314
9	0xad	-4.822948
10	0xb3	-4.6020494
11	0xd6	-3.3134756
12	0xe7	-2.6875968
13	0xb2	-4.638866
14	0xaa	-4.933397
15	0xa3	-5.191112
16	0xa5	-5.117479
17	0xa5	-5.117479
18	0xa7	-5.043846
19	0xa0	-5.301561
20	0x9c	-5.448827
21	0x97	-5.6329083
22	0x97	-5.6329083
23	0x9d	-5.41201
24	0xa8	-5.00703
25	0x9a	-5.5224595
26	0x96	-5.669725
27	0x92	-5.8169904
28	0x91	-5.853807
29	0x93	-5.7801743
30	0x96	-5.669725
31	0x94	-5.7433577
32	0x91	-5.853807
33	0x8d	-6.0010724
34	0x8c	-6.037889
35	0x91	-5.853807
36	0x9f	-5.3383775
37	0x92	-5.8169904
38	0x8d	-6.0010724
39	0x89	-6.1483383
40	0x85	-6.2956038
41	0x87	-6.221971
42	0x8b	-6.074705
43	0x8f	-5.9274397
44	0x90	-5.890623
45	0x86	-6.258787
46	0x84	-6.33242
47	0x87	-6.221971
48	0x92	-5.8169904
49	0x8b	-6.074705
50	0x87	-6.221971
51	0x9f	-5.3383775
52	0x9f	-5.3383775
53	0xa5	-5.117479
54	0xcd	-3.644823
55	0xe1	-2.9084952
56	0xa6	-5.0806627
57	0x9f	-5.3383775
58	0x97	-5.6329083
59	0x98	-5.596092
60	0x99	-5.5592756
61	0x9d	-5.41201
62	0x95	-5.7065415
63	0x92	-5.8169904
64	0x8d	-6.0010724
65	0x8e	-5.9642563
66	0x94	-5.7433577
67	0xa2	-5.227928
68	0x91	-5.853807
69	0x8d	-6.0010724
70	0x89	-6.1483383
71	0x88	-6.1851544
72	0x8b	-6.074705
73	0x8e	-5.9642563
74	0x8d	-6.0010724
75	0x8a	-6.1115217
76	0x86	-6.258787
77	0x85	-6.2956038
78	0x8a	-6.1115217
79	0x98	-5.596092
80	0x8c	-6.037889
81	0x87	-6.221971
82	0x84	-6.33242
83	0x80	-6.479686
84	0x82	-6.406053
85	0x85	-6.2956038
86	0x88	-6.1851544
87	0x88	-6.1851544
88	0x82	-6.406053
89	0x80	-6.479686
90	0x83	-6.3692365
91	0x8c	-6.037889
92	0x87	-6.221971
93	0x84	-6.33242
