ML/models/conv1d_angle_toro_ossaba/model.tflite (tflite, 96000 bytes, 11 tensors)

arith.constant2 f4 [1, 64]
0	0x3dce74f6	0.10080902
1	0x3e2d06bb	0.16897099
2	0xbddbc69f	-0.10731243
3	0x3e29b439	0.16572656
4	0xbdb75cbd	-0.08953235
5	0x3e7afabe	0.24509713
6	0xbdf954cf	-0.12174379
7	0x3e8654f7	0.26236698
8	0xbe1494ce	-0.1450989
9	0x3e89fee1	0.2695227
10	0x3e3c1209	0.18366255
11	0xbbb7cddd	-0.0056092576
12	0x3e3f5031	0.18682934
13	0x3e8067e7	0.2507927
14	0xbd36b0c4	-0.04460217
15	0x3e122373	0.14271335
16	0xbe1c0ac0	-0.15238476
17	0xbde7dc67	-0.11321335
18	0x3e1376d4	0.14400798
19	0x3d80e315	0.062933125
20	0xbd928f60	-0.07156253
21	0x3e2126fa	0.15737525
22	0x3d8a5319	0.06754131
23	0x3e64c84c	0.22342032
24	0x3e3d5f90	0.18493485
25	0x3e6b5054	0.22979861
26	0xbe0a6199	-0.13513793
27	0xbe33f568	-0.17574084
28	0xbe198f36	-0.14996037
29	0xbe5f7d2e	-0.21825096
30	0x3e90d04b	0.28283915
31	0xbe10f39d	-0.14155431
32	0x3d66e54b	0.056371015
33	0xbe492644	-0.19643503
34	0xbe64da19	-0.22348823
35	0xbe4bac6e	-0.19889995
36	0xbd9a160f	-0.075237386
37	0x3ddeacbb	0.108727895
38	0xbd32e642	-0.043676622
39	0xbe31f772	-0.17379549
40	0x3de45ab3	0.11150112
41	0xbe8df49b	-0.27725682
42	0x3e7bc543	0.24586968
43	0x3e7342f2	0.23756006
44	0x3e099924	0.13437325
45	0xbe70370f	-0.23458503
46	0xbdbb1e35	-0.09136621
47	0xbda34f59	-0.07974119
48	0xbe496883	-0.19668774
49	0xbe356fd0	-0.17718434
50	0xbdd0faf2	-0.10204114
51	0x3e301cc8	0.17198479
52	0xbdeab63e	-0.11460541
53	0x3ce11e06	0.027480137
54	0x3e6a9557	0.22908531
55	0xbd8c8cd4	-0.06862798
56	0x3e0c6206	0.13709268
57	0xbe523019	-0.2052616
58	0x3cc3d52d	0.023905361
59	0xbde442fb	-0.11145588
60	0xbdc9c46c	-0.098519176
61	0x3e0982da	0.13428822
62	0xbe4fef50	-0.20306134
63	0xbe047834	-0.12936479

arith.constant7 f4 [128]
0	0xbc18e5e0	-0.00933215
1	0xbb3e032f	-0.0028993597
2	0xbccd2d84	-0.025046118
3	0xbbf7cb9b	-0.0075621135
4	0xbc97f3da	-0.018548895
5	0xbbb56e03	-0.005536796
6	0xbcc2cebc	-0.02378022
7	0xbb45c822	-0.0030179103
8	0x3b788822	0.0037922938
9	0xbc0a21e8	-0.008430935
10	0xbc40415f	-0.011734336
11	0x3accc8f1	0.001562385
12	0xbcbc3bc1	-0.022977712
13	0xbc652798	-0.013986491
14	0x3b7640b8	0.0037575196
15	0xbb994ee7	-0.0046785953
16	0x3bd506b1	0.006501042
17	0xbc2574e8	-0.010098673
18	0xbca51c32	-0.020155046
19	0xbb0d0634	-0.002151859
20	0x3a86eaae	0.0010293329
21	0xbbc24119	-0.0059281704
22	0xbbc93e92	-0.006141492
23	0xbb3eefee	-0.0029134708
24	0xbc4ecfb9	-0.012622767
25	0x3bbe47cd	0.005806899
26	0xbb811b5d	-0.0039400295
27	0xbc37e9e4	-0.011225197
28	0xbc2df1b9	-0.010616713
29	0xbcc7fbb6	-0.024412017
30	0xbc104287	-0.008804924
31	0xbc4f5f7b	-0.012657042
32	0xbb677330	-0.003531646
33	0xbb4db506	-0.0031388416
34	0xbcfb01fd	-0.030640597
35	0x3c7f28a8	0.015573658
36	0xbc10d7dd	-0.008840528
37	0xbc9eb6da	-0.0193743
38	0xbc2a4a2b	-0.01039366
39	0x3bd0f6a5	0.0063770586
40	0x3a6f9d02	0.00091405225
41	0x3c116f1b	0.008876587
42	0x3cadcc0f	0.021215467
43	0xbc5c9dee	-0.013465388
44	0xbc6d3307	-0.014477498
45	0xba47f4b7	-0.0007627713
46	0x3c318c78	0.010836713
47	0x3b0312a6	0.002000013
48	0xbc6355c8	-0.013875432
49	0xbbb24bd2	-0.0054411674
50	0x3c3c8f42	0.011508765
51	0xbcb17fe8	-0.021667436
52	0xbbb8f60c	-0.0056445654
53	0xbcebd836	-0.02878962
54	0x3902cbad	0.00012473641
55	0xbc6252dc	-0.0138137005
56	0xbc7a3545	-0.0152714895
57	0xbcb1bb88	-0.021695867
58	0xbc8978fc	-0.016781323
59	0xbbd3b9d4	-0.0064613614
60	0x3bf27698	0.0073993914
61	0x3b194b0d	0.002339068
62	0xbc7439b7	-0.014906338
63	0xbc148158	-0.009064041
64	0xbc826103	-0.0159154
65	0xbb435997	-0.0029808038
66	0xbc13c179	-0.009018295
67	0x3c5f686a	0.013635734
68	0xbc513c49	-0.012770721
69	0x3cc8ca3a	0.024510492
70	0xbbd1f6ea	-0.0064076083
71	0xbc5942dd	-0.01326057
72	0xbc2d867d	-0.010591147
73	0xbc23a11f	-0.009987145
74	0x3b5e89e3	0.0033956699
75	0xbb92b879	-0.0044775573
76	0x39be9cc8	0.00036356435
77	0xbc66b282	-0.0140806455
78	0xbc9372ff	-0.01799917
79	0xbc70b811	-0.014692322
80	0xbb8e4cf1	-0.004342668
81	0x3cc28387	0.023744358
82	0x3cab2a44	0.020894177
83	0xbc65799a	-0.014006043
84	0x3ce5f5d7	0.028071327
85	0xbd0e067f	-0.034674164
86	0xbb86ee07	-0.0041177305
87	0xbc35cd8a	-0.011096368
88	0xbc4fd865	-0.01268587
89	0xbb873e8b	-0.0041273287
90	0xbc46c311	-0.012131468
91	0xbc188bbf	-0.009310662
92	0x3c40bfd3	0.011764484
93	0xbc591eea	-0.013251999
94	0xbb55fa6d	-0.0032650486
95	0x3c00292e	0.007822318
96	0xbb60e77d	-0.0034317665
97	0x3c137a34	0.009001303
98	0xbc979f54	-0.01850859
99	0xbc713ad8	-0.014723502
100	0xbc68960e	-0.014195932
101	0xbc792ba3	-0.015208158
102	0x3bb706b5	0.0055855163
103	0xbbfbcd88	-0.0076844133
104	0xbd12407a	-0.03570602
105	0xbc647818	-0.013944648
106	0xbb1f1da4	-0.0024279142
107	0xbc1eea75	-0.009699454
108	0xbc96bfac	-0.018401943
109	0xbcc743c2	-0.024324302
110	0xbc698915	-0.014253874
111	0xbb94b447	-0.0045380923
112	0xbc6c43cb	-0.01442046
113	0xbc63b452	-0.013897972
114	0xbcc2a818	-0.023761794
115	0xbc6f3a67	-0.014601327
116	0xbc5a253e	-0.013314543
117	0xbc55045d	-0.013001529
118	0xbc3df59b	-0.011594201
119	0xbcb59829	-0.022167282
120	0xbc3e5863	-0.011617753
121	0x3b79322b	0.0038024287
122	0xbc4e00ee	-0.012573464
123	0x3c1cc5cd	0.009568644
124	0xbc9708bf	-0.018436788
125	0x3c30fc51	0.010802344
126	0xbb3d166a	-0.002885247
127	0x3a354c96	0.0006916014

arith.constant8 f4 [64]
0	0xbcf8eae7	-0.030385448
1	0xbb8aee54	-0.0042398367
2	0x3c4fea22	0.012690099
3	0x3b9f255d	0.004856749
4	0x3d0e8c8a	0.034801997
5	0x3d02dff6	0.031951867
6	0x3d3eaf16	0.046553694
7	0x3d0f50e8	0.034989268
8	0x3c2e4a6f	0.010637864
9	0x3cd41a4c	0.025891446
10	0x3cb9f8cf	0.022701649
11	0xbd59f275	-0.05320974
12	0x3d048ba8	0.03235975
13	0xbbb77efb	-0.005599854
14	0xbc0093a2	-0.007847698
15	0xbb33c371	-0.0027429725
16	0x3b7f9e03	0.0039004094
17	0x3d21c804	0.03949739
18	0x3cc6dd7c	0.024275534
19	0xbb86526d	-0.0040991814
20	0x3c726c0f	0.014796271
21	0x3d2542f4	0.040347055
22	0x3c9f9770	0.01948139
23	0x3cbc2320	0.022965968
24	0x3d5b78a3	0.053581845
25	0x3cb52b21	0.022115292
26	0x3c6ed7e3	0.014577839
27	0x3d627ba8	0.05529371
28	0x3c9a38b5	0.018825868
29	0xbc8327a5	-0.016010115
30	0x3d39f7b7	0.045402255
31	0x3cf37566	0.029719066
32	0xbcd4677f	-0.025928257
33	0x3c69d6ea	0.014272431
34	0x3cf81b7a	0.03028654
35	0x3c864948	0.016392365
36	0x3c806a70	0.015675753
37	0xbd159913	-0.036522936
38	0x3c82716a	0.01592322
39	0xbc187e80	-0.009307504
40	0xbc8d7f1a	-0.01727252
41	0x3d6008fa	0.05469606
42	0x3da09844	0.07841542
43	0x3d241ef2	0.040068574
44	0x3cbd51cc	0.023110293
45	0x3d5fd5cf	0.054647263
46	0x3c3b7e52	0.011443691
47	0x3d16b432	0.03679294
48	0x3c294ded	0.01033352
49	0x3c9513ef	0.018197982
50	0x3cb8c108	0.022552982
51	0x3d35e6c7	0.04440954
52	0x3cd7c463	0.026338762
53	0xbd2616df	-0.040549155
54	0x3d20ea11	0.039285723
55	0x3d65981c	0.056053266
56	0xbca137c4	-0.019679911
57	0x3beb1a2a	0.00717475
58	0xbba983e2	-0.0051731924
59	0x3c2e6f70	0.010646686
60	0x3cde1814	0.02711109
61	0x3d2d07c7	0.042243745
62	0x3cbc5c43	0.022993213
63	0x3b219cd1	0.002466012

arith.constant9 f4 [32, 1, 9, 3]
0	0x402fde1d	2.7479317
1	0xbeb929b7	-0.36164638
2	0x405ea3d6	3.4787498
3	0xbf147ec5	-0.58005935
4	0x4064b23f	3.5733793
5	0xbf92c844	-1.1467366
6	0xbfebca4a	-1.8421109
7	0xbf3c88f4	-0.73646474
8	0x400526b7	2.080488
9	0x3e905ad4	0.28194296
10	0xc05e1ea5	-3.4706204
11	0xc00b63cf	-2.1779668
12	0x3e4cc21b	0.1999592
13	0x40273384	2.6125193
14	0xc04d4237	-3.2071664
15	0x3fd69c7d	1.6766506
16	0x400e811c	2.2266302
17	0x3fcc2c95	1.5951105
18	0x3fd97559	1.6988937
19	0xbefeb653	-0.49748477
20	0x407837bb	3.8784015
21	0xc08e484f	-4.4463267
22	0x3ef32844	0.47491658
23	0xbf06c416	-0.52642953
24	0xbfe8bab2	-1.8181975
25	0x3f999b3f	1.2000502
26	0xc03f0d93	-2.9852035
27	0xbe83e8f3	-0.25763664
28	0xbf65bfa9	-0.89745575
29	0xbce63f99	-0.028106498
30	0xbfa1523b	-1.260322
31	0x402c6f1d	2.6942818
32	0xbfb0e1ee	-1.3818948
33	0xbfe10774	-1.75804
34	0x3f157e72	0.58396065
35	0xbf3982d8	-0.72465277
36	0x3f7cfc76	0.98822725
37	0x3f2cece7	0.67548984
38	0xc02e814c	-2.7266417
39	0x3fbaf76e	1.460676
40	0xbffcbc77	-1.9745015
41	0xbefbc447	-0.49173185
42	0xbec5ea76	-0.38655442
43	0x3e482ddc	0.19548744
44	0x3d6a5566	0.05721035
45	0xbfc5b28d	-1.5445114
46	0xbfc1fb4c	-1.5154815
47	0x3ff4b8c6	1.9118888
48	0x3f065e1b	0.52487344
49	0xbf1fb999	-0.62392575
50	0x401ab9b8	2.4175854
51	0x3e9cdd7c	0.3063773
52	0x3fc186f2	1.5119307
53	0x4057df68	3.3730106
54	0x3fc93239	1.5718452
55	0x3d6911f1	0.056901876
56	0x3f4d04ae	0.80085266
57	0x40094545	2.1448529
58	0x3e103492	0.14082554
59	0x40109484	2.2590647
60	0xc01298a4	-2.2905664
61	0xbefb6107	-0.49097463
62	0xc005db6d	-2.0915177
63	0x400458ab	2.0679119
64	0xbf6e7a82	-0.9315568
65	0x3dcda311	0.10040868
66	0xbf21bd50	-0.6317949
67	0x3f54c11e	0.83107173
68	0xbf1e285a	-0.6178032
69	0x3b0435ae	0.0020173597
70	0x40224895	2.53568
71	0x4015112c	2.329173
72	0x3fdf171d	1.7428929
73	0xbbd3f484	-0.0064683575
74	0xc0359d0f	-2.837711
75	0x3f697888	0.9119954
76	0xbea97b4a	-0.33101875
77	0xbfa32fd6	-1.2748973
78	0xc0290ac8	-2.641283
79	0x3fb47eb8	1.4101171
80	0xbf476b0b	-0.7789771
81	0x3e842faf	0.2581763
82	0xbfa24ff3	-1.2680649
83	0x4011d6b2	2.278729
84	0x3e62a6c4	0.22133929
85	0x3f26a189	0.65090233
86	0xbfa075c3	-1.2535938
87	0xc00f0e51	-2.2352488
88	0xbf8ac543	-1.084145
89	0xbef8dbca	-0.48605186
90	0x3f96f889	1.1794597
91	0xbfa31ea9	-1.2743732
92	0x3fe11801	1.758545
93	0x3fa40411	1.2813741
94	0x3ea1b235	0.31581274
95	0xc001ca72	-2.0279813
96	0xbf6daf5f	-0.9284572
97	0xbf71ac3c	-0.94403434
98	0x3fc44fa5	1.5336806
99	0x3f1ec2cb	0.6201598
100	0x3fc22a35	1.516913
101	0xbfc23caf	-1.5174769
102	0xc015f94a	-2.3433404
103	0x4005066f	2.0785177
104	0xbd8cc458	-0.06873387
105	0x3f6ada57	0.9173941
106	0xbcb7624f	-0.022385744
107	0xc04bb6b7	-3.183027
108	0x3fb4927d	1.4107205
109	0xbe4066c0	-0.18789196
110	0xc042e28e	-3.0450778
111	0x3e8a1038	0.269655
112	0xc05d0254	-3.453267
113	0xbbeae72d	-0.0071686716
114	0xbfc7cc1c	-1.5609164
115	0xbf15c9e3	-0.5851118
116	0x404929cf	3.1431768
117	0x3fffb350	1.9976597
118	0xbf6ea4a6	-0.93219984
119	0x3fee750f	1.8629473
120	0x3f3aee9c	0.7302034
121	0x3eac42ba	0.33644658
122	0x3fbe4d18	1.4867277
123	0x3f9aa34e	1.2081087
124	0xbe677c5d	-0.22606035
125	0xbe2a580c	-0.1663515
126	0xbeba5bd1	-0.36398175
127	0xc01f2744	-2.4867716
128	0xbfd81168	-1.6880312
129	0x3d537278	0.051622838
130	0xbfa6dbd0	-1.3035831
131	0xc034b9dc	-2.823844
132	0xbfff0493	-1.9923271
133	0x3fbb6d44	1.464272
134	0x4022324b	2.5343196
135	0x3f16bdfd	0.5888365
136	0x3eb4ad47	0.3528845
137	0x40176246	2.3653731
138	0xbf80d06e	-1.0063608
139	0xbecb9c2a	-0.3976758
140	0xbebf2602	-0.37333685
141	0x3f667027	0.9001488
142	0xbf1aff23	-0.6054556
143	0xbeb63e06	-0.35594195
144	0xbf2744f3	-0.65339583
145	0x3f9b6fcc	1.2143493
146	0xbd96f503	-0.07370951
147	0x3ec90431	0.3926101
148	0x3f93d666	1.1549804
149	0xbfd3d1db	-1.6548418
150	0x3d4d5832	0.050132938
151	0xbf7b292f	-0.98109716
152	0xc00e3118	-2.2217464
153	0xbf4c2d6d	-0.79756814
154	0xbf13893a	-0.57631266
155	0x3f70381c	0.93835616
156	0x3f235766	0.63805234
157	0x3ea643d1	0.32473615
158	0xbfcb8547	-1.5900048
159	0x3e3152c4	0.17316729
160	0xbe8ad50e	-0.27115673
161	0xbf804095	-1.0019709
162	0x3cdb2127	0.026749207
163	0x4001ce00	2.0281982
164	0xbfea31bc	-1.8296428
165	0xbf650f5f	-0.8947658
166	0x3f00e550	0.50349903
167	0xbf90fce2	-1.1327174
168	0x3fee0ae9	1.859708
169	0x3f923367	1.1421937
170	0xc0141931	-2.3140376
171	0xbff5d6a3	-1.9206127
172	0xbf4f518e	-0.8098382
173	0x3f9e05d5	1.234553
174	0x40036973	2.053311
175	0x3f4756ee	0.7786702
176	0x3fb1d25e	1.3892324
177	0xbeed0cb8	-0.46298766
178	0xc014efc4	-2.3271341
179	0xbfb87ae3	-1.4412502
180	0xbf9475f0	-1.1598492
181	0xbf1bbd45	-0.6083568
182	0x402b8caf	2.6804616
183	0x3fc60248	1.5469446
184	0xbeabf33d	-0.33584014
185	0x40864099	4.1953855
186	0xbf8cf344	-1.1011739
187	0xbfe9412c	-1.8223014
188	0x3e2e1c2a	0.17002931
189	0xbf55962f	-0.83432287
190	0xbfc6036f	-1.5469798
191	0xbf3c3804	-0.73522973
192	0x3f16b8c5	0.58875686
193	0xbf922bc7	-1.141961
194	0x408c82a8	4.3909492
195	0xc029bf0d	-2.6522858
196	0x3fa6dcc3	1.3036121
197	0x4066f4ff	3.6087034
198	0x4016f23b	2.3585346
199	0xc018a912	-2.3853192
200	0x3ebac3c4	0.36477482
201	0xbdb6c4ad	-0.08924232
202	0x40317168	2.7725468
203	0xc01daba8	-2.463602
204	0xbf6499b7	-0.8929705
205	0x3f49ebcb	0.78875417
206	0x3db76acd	0.089559175
207	0x402c2faa	2.6904092
208	0x3e810810	0.25201464
209	0xc0648a92	-3.5709577
210	0xbdc4b167	-0.09604149
211	0xbfc5f90d	-1.5466629
212	0x3f8d1aa0	1.102375
213	0x3c3e6fa1	0.011623294
214	0x3fe7607d	1.8076321
215	0xc0649e8c	-3.572177
216	0xc011a285	-2.2755444
217	0xbf9a5fe2	-1.2060511
218	0xc01d7eb7	-2.460859
219	0xbe7100a1	-0.23535396
220	0xbf59cfd2	-0.85082734
221	0xbf4b5803	-0.7943117
222	0x4001f32f	2.0304677
223	0xbf43b27d	-0.76444227
224	0xc04bc52c	-3.1839094
225	0xbe1cd636	-0.1531609
226	0x3fedfa55	1.859202
227	0x3ef42f28	0.47692227
228	0x3fec8bd2	1.848017
229	0xbc1577e3	-0.0091228215
230	0x3fc8f1f0	1.5698833
231	0xc024c6a6	-2.5746245
232	0xbe8bd812	-0.27313286
233	0xbfad6e3f	-1.354927
234	0x40009d24	2.009591
235	0x3f83f601	1.030945
236	0x40111b7b	2.2673023
237	0xc0335f4f	-2.8026922
238	0xbf6b3b95	-0.9188779
239	0x3f573471	0.84064394
240	0x4032b0d6	2.7920432
241	0x3f93df13	1.1552452
242	0x4081620f	4.04322
243	0xbf6f9120	-0.9358082
244	0xbc7920d4	-0.015205581
245	0xc02a3001	-2.65918
246	0xc03fe950	-2.9986153
247	0xbfbe0b53	-1.4847206
248	0xbf961f5c	-1.172832
249	0xbfca6e1b	-1.5814852
250	0x40200f5e	2.500938
251	0xbf65d7ee	-0.8978261
252	0xc01780e7	-2.3672426
253	0x402a7d01	2.6638796
254	0x3ff0cb15	1.8811976
255	0x3fb4bf56	1.4120891

arith.constant10 f4 [128]
0	0x3e8688a1	0.26276115
1	0xbf555e39	-0.833469
2	0xbde5822a	-0.112064674
3	0x3cb02e6e	0.021506514
4	0xbeead08e	-0.4586224
5	0x3f2db674	0.67856526
6	0x3eff61c2	0.4987927
7	0x3eee740b	0.4657291
8	0x3f8947be	1.0725019
9	0xbe165820	-0.14682055
10	0x3ee98714	0.4561087
11	0x3fb28523	1.394688
12	0xbe8c216c	-0.2736925
13	0x3f11da1e	0.56973445
14	0x3f334f94	0.700433
15	0xbdc094cd	-0.094033815
16	0xbee13315	-0.43984285
17	0x3e4fde7d	0.20299716
18	0x3f8ab978	1.083785
19	0x3e37affe	0.1793823
20	0x3fd89b05	1.6922308
21	0xbd981cd5	-0.07427374
22	0x3f088ba4	0.53338075
23	0xbb86c7c5	-0.00411317
24	0x3e86a9f0	0.26301527
25	0x3f815521	1.0104104
26	0x3f8beb81	1.0931245
27	0x3f59c3c2	0.8506433
28	0x3e1a15b1	0.15047337
29	0xbe6aec1b	-0.2294163
30	0x3ea75b16	0.3268668
31	0xbd49459a	-0.049138643
32	0xbfa762f0	-1.3077068
33	0x3f95422b	1.1660818
34	0xbf1e3b7a	-0.61809504
35	0xbf030ff3	-0.5119621
36	0xbf0ec0e8	-0.557631
37	0x3f1995b4	0.59994054
38	0xbcb344d3	-0.021883404
39	0x3f4b02ac	0.7930095
40	0xbfbb616a	-1.4639103
41	0x3f5ee3b4	0.870662
42	0x3e91548a	0.2838481
43	0xbecb0430	-0.39651632
44	0x3f2df0d8	0.67945623
45	0xbf100a09	-0.5626531
46	0xbf210ca9	-0.6290994
47	0x3f87cef4	1.0610032
48	0x3f4857b3	0.7825882
49	0x3f1cb4ef	0.6121358
50	0x3f1c4329	0.6103998
51	0x3fb957ed	1.4479958
52	0x3ee74655	0.45170847
53	0x3e9d9cd4	0.30783713
54	0xbf09eff7	-0.5388178
55	0xbe942d0e	-0.28940624
56	0xbf47f1b2	-0.7810317
57	0xbdf52d70	-0.11971557
58	0x3f14f5c8	0.5818753
59	0x3f34c1c4	0.7060816
60	0xbe691a8c	-0.22764033
61	0xbf4b8b18	-0.79509115
62	0x3f9821ee	1.1885355
63	0xbe902ed8	-0.2816074
64	0x3faeab3d	1.3646008
65	0x3f0e63e8	0.55621195
66	0x3f6fdf3b	0.937
67	0x3dae5ca5	0.08513764
68	0xbe087705	-0.13326652
69	0x3f34913f	0.7053413
70	0x3f236ce8	0.6383805
71	0xbe72c8ac	-0.23709363
72	0xbf35c2d2	-0.710004
73	0x3f79f92f	0.9764585
74	0x3d845b6b	0.06462749
75	0x3fb60fc2	1.4223559
76	0xbee1d26e	-0.44105858
77	0xbf3fb531	-0.7488585
78	0x3fe97c84	1.8241124
79	0x3f9c4500	1.2208557
80	0xbdb23927	-0.08702307
81	0xbf2a0c2d	-0.6642483
82	0xbe2c024c	-0.16797751
83	0x3f449550	0.7679033
84	0x3e57d3d2	0.21076897
85	0xbf7585a6	-0.95907056
86	0x3f4c94bb	0.79914445
87	0x3febcb00	1.8421326
88	0x3ecf2266	0.4045593
89	0x3d24bf7c	0.040221676
90	0x3c827aa9	0.01592763
91	0xbf0bd875	-0.5462716
92	0xbf27ebb2	-0.6559402
93	0xbeefc109	-0.46826962
94	0xbe47faf5	-0.19529326
95	0xbdb0f7a0	-0.08640981
96	0x3efabb47	0.48971006
97	0xbf5d55c6	-0.86459005
98	0x3faeec1c	1.3665805
99	0xbf7179eb	-0.9432666
100	0x3eb55013	0.35412654
101	0xbfac5cf6	-1.346587
102	0xbf4f645b	-0.81012505
103	0x3eb21358	0.34780383
104	0x3ee15400	0.440094
105	0xbe1441dc	-0.14478248
106	0x3e9f742d	0.31143323
107	0xbeab2d90	-0.334332
108	0x3f517c0b	0.818299
109	0xbf1b46bd	-0.60654813
110	0xbee9ab27	-0.4563839
111	0xbf206b70	-0.62663937
112	0x3e9c8dfe	0.3057708
113	0x3fa8f4de	1.3199728
114	0x3f7a661f	0.97812074
115	0x3f0fb358	0.5613303
116	0x3ec14c19	0.3775337
117	0x3dbaa234	0.09112969
118	0xbe345e2a	-0.17614046
119	0xbf267b1c	-0.650316
120	0xbc65fb86	-0.014037019
121	0x3f318346	0.6934093
122	0x3e2628e2	0.16226533
123	0x3db95e54	0.09051195
124	0x3f8c27c5	1.0949637
125	0xbe91902f	-0.28430316
126	0x3c8cc586	0.01718403
127	0x3f983780	1.1891937

arith.constant11 f4 [64]
0	0x3f8352b2	1.0259612
1	0x3e35cd63	0.1775413
2	0x3e809529	0.251138
3	0x3dc4df7b	0.09612938
4	0xbf3f4221	-0.7471028
5	0x3fa04598	1.2521238
6	0x3ed86507	0.42264578
7	0xbebd111a	-0.3692711
8	0x3f167693	0.5877468
9	0x3ed7e455	0.4216639
10	0x3e08a1f6	0.13343033
11	0x3e7ebe1e	0.24877211
12	0x3e014344	0.12623316
13	0xbfb91230	-1.4458675
14	0xbc8f2efb	-0.017478457
15	0xbf961d01	-1.1727601
16	0x3f901729	1.1257068
17	0xbec936fc	-0.39299762
18	0x3e1e19e0	0.15439558
19	0xbf3a1758	-0.7269187
20	0x3e9ed2b6	0.31020135
21	0x3f2236e6	0.6336502
22	0xbf37297b	-0.7154767
23	0xbea3b1ca	-0.3197158
24	0x3f004fea	0.5012194
25	0x3f887856	1.0661724
26	0x3f0524ec	0.52009463
27	0x3efc4154	0.4926859
28	0xbf1d3e8f	-0.6142358
29	0x3f9a8c42	1.2074053
30	0x3f014250	0.5049181
31	0xbfb5edce	-1.4213197
32	0x3f021816	0.50818
33	0xbf59d2e3	-0.8508741
34	0x3f30de79	0.69089466
35	0x3dee02f0	0.11621654
36	0xbf0ecf7a	-0.55785334
37	0xbd436f8e	-0.04771381
38	0xbecff6c6	-0.4061796
39	0x3f0c57bf	0.5482139
40	0xbfc3d0f6	-1.5298145
41	0xbed51513	-0.4161764
42	0x3f0b0650	0.5430651
43	0xbf349d2f	-0.70552343
44	0x3eb474f3	0.35245475
45	0xbef40285	-0.47658172
46	0x3fa34d39	1.2757941
47	0xbec15b91	-0.37765172
48	0xbf7a8f68	-0.9787507
49	0x3f3d7b33	0.7401611
50	0xbfb5e919	-1.4211761
51	0x3e8c69c0	0.2742443
52	0x3ec9f58c	0.3944515
53	0xbf5a91e4	-0.8537886
54	0xbf253360	-0.6453152
55	0x3dbb9095	0.09158436
56	0xbf24f259	-0.64432293
57	0xbf33539e	-0.70049465
58	0xbc770710	-0.015077367
59	0x3f02a25b	0.51028985
60	0x3f0da0c0	0.5532341
61	0x3f9389f6	1.1526477
62	0x3ec57928	0.38568997
63	0xbf90b8cd	-1.1306397

arith.constant12 f4 [32]
0	0xbd44d34f	-0.048053082
1	0xbf7b796b	-0.98232144
2	0x3f096f7c	0.53685737
3	0x3fa8baa4	1.3181958
4	0xbeca849d	-0.395543
5	0x3fcc8c3f	1.59803
6	0xbf9bfec7	-1.2187127
7	0x3ede76c5	0.4344999
8	0xbf1b6594	-0.6070187
9	0x3ee6d713	0.45085964
10	0xbf923b9f	-1.1424445
11	0xbfe97c3a	-1.8241036
12	0x3da0bd81	0.07848645
13	0xbd1e057e	-0.038579457
14	0xbfe6f6ba	-1.8044045
15	0x3fa39f7a	1.2783043
16	0x3fd043e5	1.627072
17	0x3e76e49e	0.24110648
18	0x3fbf0f55	1.4926554
19	0x3f4751b6	0.77859056
20	0x3f9e5b23	1.2371563
21	0x3fd68f72	1.6762526
22	0x3f241220	0.64090157
23	0x3fcf867d	1.6212918
24	0x3ed5b461	0.4173918
25	0x3ef98baf	0.48739383
26	0xbe16099b	-0.14652102
27	0xbfeed798	-1.8659544
28	0xbf6ab749	-0.9168592
29	0xbf98cf3e	-1.1938245
30	0xbfa584a0	-1.2931099
31	0x3f130556	0.57430017

tfl.pseudo_qconst i1 [128, 1, 5, 64]
0	0x20	32
1	0x3d	61
2	0xef	-17
3	0xf7	-9
4	0x14	20
5	0xfc	-4
6	0xfe	-2
7	0xdb	-37
8	0x33	51
9	0xb4	-76
10	0xc2	-62
11	0x15	21
12	0x16	22
13	0xde	-34
14	0xfa	-6
15	0xe1	-31
16	0xd8	-40
17	0xd9	-39
18	0x3f	63
19	0x43	67
20	0xe5	-27
21	0x2d	45
22	0xd2	-46
23	0x5b	91
24	0xff	-1
25	0x20	32
26	0xec	-20
27	0x02	2
28	0xb6	-74
29	0x35	53
30	0x19	25
31	0xf3	-13
32	0xef	-17
33	0x31	49
34	0x06	6
35	0x27	39
36	0x29	41
37	0x0d	13
38	0x32	50
39	0x36	54
40	0xcd	-51
41	0xf6	-10
42	0x09	9
43	0x20	32
44	0xcc	-52
45	0x22	34
46	0x32	50
47	0xdb	-37
48	0x09	9
49	0x1e	30
50	0xd7	-41
51	0x0e	14
52	0xc5	-59
53	0xd5	-43
54	0xee	-18
55	0xef	-17
56	0x32	50
57	0x04	4
58	0x15	21
59	0x26	38
60	0xf2	-14
61	0xd6	-42
62	0xe3	-29
63	0xe0	-32
64	0x22	34
65	0x41	65
66	0xda	-38
67	0x48	72
68	0x1b	27
69	0xf0	-16
70	0xf9	-7
71	0x7f	127
72	0x0f	15
73	0xea	-22
74	0x16	22
75	0xd3	-45
76	0xcb	-53
77	0x1e	30
78	0x19	25
79	0x2e	46
80	0x37	55
81	0xce	-50
82	0xc0	-64
83	0x31	49
84	0x06	6
85	0xd1	-47
86	0x12	18
87	0xe9	-23
88	0x1e	30
89	0x2b	43
90	0xef	-17
91	0xb3	-77
92	0x2c	44
93	0xdc	-36
94	0x15	21
95	0xbd	-67
96	0x28	40
97	0x1b	27
98	0xe0	-32
99	0xd3	-45
100	0xec	-20
101	0xe1	-31
102	0xd3	-45
103	0x3a	58
104	0x27	39
105	0xf4	-12
106	0x13	19
107	0xcd	-51
108	0xbc	-68
109	0x2e	46
110	0xdb	-37
111	0x26	38
112	0x21	33
113	0x09	9
114	0x32	50
115	0xd0	-48
116	0x27	39
117	0x1d	29
118	0xb9	-71
119	0x3e	62
120	0x2b	43
121	0x5c	92
122	0xdd	-35
123	0xf7	-9
124	0x0e	14
125	0x44	68
126	0x0e	14
127	0xd7	-41
128	0x01	1
129	0x11	17
130	0x2f	47
131	0xee	-18
132	0xf0	-16
133	0x05	5
134	0x39	57
135	0xfc	-4
136	0x0b	11
137	0xd5	-43
138	0x30	48
139	0x27	39
140	0xca	-54
141	0xae	-82
142	0x03	3
143	0xf1	-15
144	0xe8	-24
145	0x40	64
146	0xd6	-42
147	0xfb	-5
148	0xc6	-58
149	0xdb	-37
150	0xfa	-6
151	0x4d	77
152	0xfd	-3
153	0xd4	-44
154	0xc8	-56
155	0x24	36
156	0x46	70
157	0xfc	-4
158	0xd0	-48
159	0xd9	-39
160	0xf8	-8
161	0x43	67
162	0xb9	-71
163	0xc7	-57
164	0xf2	-14
165	0xd0	-48
166	0xed	-19
167	0xe9	-23
168	0x00	0
169	0xd0	-48
170	0x1d	29
171	0xca	-54
172	0xdb	-37
173	0x17	23
174	0x17	23
175	0x37	55
176	0x1b	27
177	0xe9	-23
178	0x0c	12
179	0x23	35
180	0xf7	-9
181	0x12	18
182	0x10	16
183	0xfc	-4
184	0xfa	-6
185	0xec	-20
186	0x2b	43
187	0x2e	46
188	0xd0	-48
189	0x28	40
190	0xc1	-63
191	0xf8	-8
192	0x03	3
193	0x10	16
194	0xd0	-48
195	0x30	48
196	0xd1	-47
197	0xfb	-5
198	0xd4	-44
199	0xd4	-44
200	0xde	-34
201	0xce	-50
202	0x21	33
203	0xca	-54
204	0x04	4
205	0xf1	-15
206	0xfa	-6
207	0xd8	-40
208	0xde	-34
209	0xd9	-39
210	0xe4	-28
211	0xce	-50
212	0xb0	-80
213	0x11	17
214	0x32	50
215	0xc5	-59
216	0x02	2
217	0xd2	-46
218	0x03	3
219	0xd6	-42
220	0x16	22
221	0xd2	-46
222	0xed	-19
223	0xad	-83
224	0xb4	-76
225	0xf3	-13
226	0xde	-34
227	0xc4	-60
228	0x07	7
229	0x07	7
230	0xe5	-27
231	0x09	9
232	0x0c	12
233	0xcd	-51
234	0x35	53
235	0x0b	11
236	0xda	-38
237	0x3c	60
238	0x33	51
239	0x07	7
240	0x31	49
241	0xbd	-67
242	0x26	38
243	0x06	6
244	0x00	0
245	0xfa	-6
246	0x45	69
247	0x19	25
248	0xe2	-30
249	0xcc	-52
250	0x34	52
251	0xf5	-11
252	0xd8	-40
253	0xc5	-59
254	0xf7	-9
255	0x38	56

tfl.pseudo_qconst1 i1 [64, 1, 7, 32]
0	0xc8	-56
1	0xd7	-41
2	0xe8	-24
3	0x08	8
4	0xe2	-30
5	0x11	17
6	0x09	9
7	0x32	50
8	0xd5	-43
9	0xf2	-14
10	0x21	33
11	0xb5	-75
12	0xbd	-67
13	0xdd	-35
14	0xcd	-51
15	0xc6	-58
16	0xbe	-66
17	0xc6	-58
18	0xf1	-15
19	0xe1	-31
20	0x34	52
21	0x34	52
22	0x20	32
23	0x21	33
24	0xcd	-51
25	0x0a	10
26	0xf4	-12
27	0xb1	-79
28	0xb4	-76
29	0xfa	-6
30	0x09	9
31	0xe3	-29
32	0x14	20
33	0xc9	-55
34	0x37	55
35	0xf3	-13
36	0x1e	30
37	0x01	1
38	0xef	-17
39	0xf7	-9
40	0x05	5
41	0xed	-19
42	0xc3	-61
43	0x9d	-99
44	0x30	48
45	0xec	-20
46	0x0c	12
47	0x15	21
48	0xd8	-40
49	0x00	0
50	0x3a	58
51	0x46	70
52	0xf8	-8
53	0xfe	-2
54	0xb2	-78
55	0xd4	-44
56	0xfb	-5
57	0x30	48
58	0xdd	-35
59	0x0b	11
60	0x1c	28
61	0xeb	-21
62	0xd8	-40
63	0xc6	-58
64	0xfe	-2
65	0xf6	-10
66	0x1d	29
67	0xe4	-28
68	0x23	35
69	0x2a	42
70	0xb0	-80
71	0xfa	-6
72	0xd9	-39
73	0x22	34
74	0xd1	-47
75	0xaf	-81
76	0xd5	-43
77	0x22	34
78	0xf6	-10
79	0xde	-34
80	0xec	-20
81	0xf0	-16
82	0xef	-17
83	0xfd	-3
84	0x05	5
85	0xcf	-49
86	0x05	5
87	0xd3	-45
88	0x07	7
89	0xc3	-61
90	0xfd	-3
91	0xa7	-89
92	0xed	-19
93	0x9d	-99
94	0xf3	-13
95	0x05	5
96	0x22	34
97	0xff	-1
98	0x27	39
99	0xc5	-59
100	0xdf	-33
101	0xd1	-47
102	0xc7	-57
103	0xcc	-52
104	0xea	-22
105	0xcd	-51
106	0xf6	-10
107	0xfe	-2
108	0xcd	-51
109	0x50	80
110	0x05	5
111	0x17	23
112	0x1b	27
113	0xde	-34
114	0xdc	-36
115	0x2e	46
116	0xc1	-63
117	0xe7	-25
118	0xd6	-42
119	0xee	-18
120	0xdc	-36
121	0x0b	11
122	0xe8	-24
123	0xfc	-4
124	0x1b	27
125	0xe6	-26
126	0xf2	-14
127	0xd7	-41
128	0x0b	11
129	0xe4	-28
130	0xd4	-44
131	0xe6	-26
132	0xc3	-61
133	0xec	-20
134	0xeb	-21
135	0xb5	-75
136	0xed	-19
137	0x1d	29
138	0xcb	-53
139	0xc1	-63
140	0x30	48
141	0x3a	58
142	0x0f	15
143	0xd6	-42
144	0x17	23
145	0x31	49
146	0xc6	-58
147	0x07	7
148	0x04	4
149	0xca	-54
150	0xdb	-37
151	0x2b	43
152	0x13	19
153	0x09	9
154	0xd9	-39
155	0xa7	-89
156	0xc7	-57
157	0x8e	-114
158	0xbc	-68
159	0xdd	-35
160	0xe8	-24
161	0xe7	-25
162	0xd6	-42
163	0x0f	15
164	0xb4	-76
165	0xc9	-55
166	0xae	-82
167	0x14	20
168	0xc2	-62
169	0x0f	15
170	0x05	5
171	0x85	-123
172	0xd3	-45
173	0x5c	92
174	0xd3	-45
175	0xd4	-44
176	0x02	2
177	0xf9	-7
178	0x1b	27
179	0xef	-17
180	0xff	-1
181	0x02	2
182	0xba	-70
183	0xea	-22
184	0xe5	-27
185	0x28	40
186	0xf5	-11
187	0xd9	-39
188	0xc2	-62
189	0xd1	-47
190	0x05	5
191	0x06	6
192	0x1a	26
193	0x93	-109
194	0xfe	-2
195	0x30	48
196	0xeb	-21
197	0x08	8
198	0x81	-127
199	0xcb	-53
200	0x0a	10
201	0x1c	28
202	0x12	18
203	0xe8	-24
204	0x44	68
205	0x1f	31
206	0xff	-1
207	0x2b	43
208	0xca	-54
209	0x34	52
210	0x0c	12
211	0x1a	26
212	0xf0	-16
213	0x34	52
214	0x10	16
215	0xff	-1
216	0xca	-54
217	0xcf	-49
218	0x30	48
219	0xa4	-92
220	0xa8	-88
221	0x84	-124
222	0xe1	-31
223	0x14	20
224	0x1c	28
225	0xbf	-65
226	0xc4	-60
227	0xb1	-79
228	0x20	32
229	0xfd	-3
230	0xd1	-47
231	0xc2	-62
232	0xa5	-91
233	0x65	101
234	0x35	53
235	0x9b	-101
236	0xe1	-31
237	0x38	56
238	0x0f	15
239	0xee	-18
240	0x35	53
241	0xd2	-46
242	0xa4	-92
243	0x1a	26
244	0x07	7
245	0xc8	-56
246	0xd4	-44
247	0xf2	-14
248	0xdd	-35
249	0x36	54
250	0x27	39
251	0x39	57
252	0x01	1
253	0xa7	-89
254	0xf3	-13
255	0xd5	-43

tfl.pseudo_qconst2 i1 [64, 128]
0	0x5b	91
1	0xd7	-41
2	0xdf	-33
3	0xea	-22
4	0xf6	-10
5	0x4b	75
6	0xb0	-80
7	0xfe	-2
8	0xa0	-96
9	0x0b	11
10	0xcf	-49
11	0x07	7
12	0x5f	95
13	0xbd	-67
14	0xa9	-87
15	0x9e	-98
16	0xb3	-77
17	0xe2	-30
18	0x16	22
19	0x71	113
20	0x08	8
21	0x56	86
22	0x95	-107
23	0x89	-119
24	0x1a	26
25	0x63	99
26	0x9c	-100
27	0xf2	-14
28	0xa3	-93
29	0xfb	-5
30	0xf1	-15
31	0x22	34
32	0x30	48
33	0x0b	11
34	0xb3	-77
35	0x12	18
36	0xed	-19
37	0xe6	-26
38	0x63	99
39	0xc3	-61
40	0x23	35
41	0x26	38
42	0xea	-22
43	0x2a	42
44	0x14	20
45	0x56	86
46	0x52	82
47	0x1e	30
48	0xb4	-76
49	0x19	25
50	0x35	53
51	0x3b	59
52	0xdd	-35
53	0x3f	63
54	0xdb	-37
55	0x1d	29
56	0xd9	-39
57	0x1e	30
58	0xe7	-25
59	0x10	16
60	0x9b	-101
61	0xee	-18
62	0xd6	-42
63	0x3a	58
64	0xc2	-62
65	0x0a	10
66	0x22	34
67	0x10	16
68	0xf1	-15
69	0x7f	127
70	0x3b	59
71	0xac	-84
72	0xba	-70
73	0x25	37
74	0x31	49
75	0x46	70
76	0xc2	-62
77	0xc8	-56
78	0xec	-20
79	0x12	18
80	0x70	112
81	0x54	84
82	0x32	50
83	0xe0	-32
84	0x6a	106
85	0x0c	12
86	0xfd	-3
87	0xdf	-33
88	0xfb	-5
89	0xff	-1
90	0xda	-38
91	0xf0	-16
92	0xdf	-33
93	0xb5	-75
94	0xaf	-81
95	0xea	-22
96	0x3a	58
97	0xc9	-55
98	0x0e	14
99	0x31	49
100	0xf9	-7
101	0x56	86
102	0xdc	-36
103	0xc3	-61
104	0x0d	13
105	0x3b	59
106	0xfb	-5
107	0x08	8
108	0x43	67
109	0xf5	-11
110	0x0d	13
111	0xd1	-47
112	0xf2	-14
113	0xe8	-24
114	0xc0	-64
115	0xd4	-44
116	0xeb	-21
117	0x69	105
118	0x1c	28
119	0xc6	-58
120	0xcb	-53
121	0x24	36
122	0x9b	-101
123	0xb9	-71
124	0xe2	-30
125	0xbe	-66
126	0xdf	-33
127	0x14	20
128	0x88	-120
129	0xe8	-24
130	0x3e	62
131	0xc4	-60
132	0xd3	-45
133	0xa2	-94
134	0xe8	-24
135	0xc7	-57
136	0xce	-50
137	0xbe	-66
138	0x8a	-118
139	0x87	-121
140	0xdd	-35
141	0x21	33
142	0xe1	-31
143	0xeb	-21
144	0xb7	-73
145	0xf4	-12
146	0x21	33
147	0x47	71
148	0x8c	-116
149	0xad	-83
150	0x6e	110
151	0x90	-112
152	0x04	4
153	0x45	69
154	0x75	117
155	0x60	96
156	0x38	56
157	0xa8	-88
158	0x65	101
159	0x61	97
160	0xd6	-42
161	0xe4	-28
162	0x29	41
163	0xcb	-53
164	0x76	118
165	0x15	21
166	0xcc	-52
167	0xef	-17
168	0xce	-50
169	0x7b	123
170	0xfb	-5
171	0x49	73
172	0xaf	-81
173	0x1e	30
174	0xdf	-33
175	0x08	8
176	0xa8	-88
177	0x08	8
178	0xa4	-92
179	0x6d	109
180	0x53	83
181	0xab	-85
182	0x9e	-98
183	0xfa	-6
184	0x2a	42
185	0x9d	-99
186	0x42	66
187	0xcd	-51
188	0x0b	11
189	0xb4	-76
190	0xa6	-90
191	0xae	-82
192	0x1c	28
193	0xa9	-87
194	0x81	-127
195	0xda	-38
196	0x4a	74
197	0xc2	-62
198	0xe4	-28
199	0x3c	60
200	0xfe	-2
201	0xdd	-35
202	0x0d	13
203	0x2d	45
204	0xe0	-32
205	0xf8	-8
206	0x4d	77
207	0xee	-18
208	0x15	21
209	0x25	37
210	0x05	5
211	0x84	-124
212	0x32	50
213	0x71	113
214	0xa2	-94
215	0x1e	30
216	0x2a	42
217	0xb9	-71
218	0x10	16
219	0x53	83
220	0xc5	-59
221	0x72	114
222	0xd8	-40
223	0x75	117
224	0xa2	-94
225	0xfe	-2
226	0xb7	-73
227	0x6e	110
228	0x55	85
229	0x92	-110
230	0x94	-108
231	0xcb	-53
232	0x0d	13
233	0x30	48
234	0x08	8
235	0x8e	-114
236	0xd8	-40
237	0xbe	-66
238	0xc5	-59
239	0xff	-1
240	0x27	39
241	0x4e	78
242	0xc9	-55
243	0xfb	-5
244	0x1b	27
245	0xd9	-39
246	0x0a	10
247	0x3f	63
248	0x66	102
249	0xfe	-2
250	0xb9	-71
251	0xd0	-48
252	0x6b	107
253	0xc2	-62
254	0xd3	-45
255	0xcf	-49

tfl.pseudo_qconst3 i1 [128, 128]
0	0xbf	-65
1	0x40	64
2	0x4c	76
3	0x9f	-97
4	0x99	-103
5	0xe8	-24
6	0x60	96
7	0xa2	-94
8	0x96	-106
9	0x5c	92
10	0x5e	94
11	0xa2	-94
12	0xa5	-91
13	0x46	70
14	0x9a	-102
15	0x8d	-115
16	0x25	37
17	0xce	-50
18	0x61	97
19	0x5a	90
20	0xda	-38
21	0xc8	-56
22	0xd3	-45
23	0x3a	58
24	0xb2	-78
25	0x19	25
26	0x2e	46
27	0x22	34
28	0xa8	-88
29	0xa8	-88
30	0xc8	-56
31	0xc6	-58
32	0x53	83
33	0x5b	91
34	0xcc	-52
35	0x1a	26
36	0x65	101
37	0xea	-22
38	0xd2	-46
39	0x34	52
40	0x0e	14
41	0xcf	-49
42	0x04	4
43	0x9c	-100
44	0x2f	47
45	0xe5	-27
46	0x5b	91
47	0x33	51
48	0xea	-22
49	0x36	54
50	0x5f	95
51	0xf7	-9
52	0xa2	-94
53	0x81	-127
54	0xb4	-76
55	0xf7	-9
56	0xb2	-78
57	0x00	0
58	0x1b	27
59	0x03	3
60	0xd3	-45
61	0x14	20
62	0xc9	-55
63	0x02	2
64	0xba	-70
65	0xb2	-78
66	0x6a	106
67	0x73	115
68	0xca	-54
69	0x87	-121
70	0x35	53
71	0x8d	-115
72	0xd9	-39
73	0xfa	-6
74	0xef	-17
75	0x43	67
76	0x10	16
77	0xcc	-52
78	0x9b	-101
79	0x0d	13
80	0xf7	-9
81	0xc5	-59
82	0xb4	-76
83	0x6f	111
84	0x52	82
85	0x19	25
86	0x12	18
87	0xbf	-65
88	0x37	55
89	0x8a	-118
90	0xd3	-45
91	0xe1	-31
92	0xa7	-89
93	0x4f	79
94	0x43	67
95	0xfb	-5
96	0xed	-19
97	0x94	-108
98	0x88	-120
99	0xca	-54
100	0x65	101
101	0xb7	-73
102	0x70	112
103	0x34	52
104	0x28	40
105	0x92	-110
106	0x01	1
107	0x1f	31
108	0x3a	58
109	0xed	-19
110	0x95	-107
111	0xc2	-62
112	0xc3	-61
113	0x0a	10
114	0x38	56
115	0xdb	-37
116	0xe3	-29
117	0xc1	-63
118	0x1d	29
119	0x6d	109
120	0x88	-120
121	0x63	99
122	0x49	73
123	0xc6	-58
124	0xc5	-59
125	0x66	102
126	0xc5	-59
127	0xcb	-53
128	0xe8	-24
129	0x92	-110
130	0xd4	-44
131	0xa2	-94
132	0xf2	-14
133	0x15	21
134	0x2e	46
135	0x60	96
136	0xe8	-24
137	0xdf	-33
138	0x8a	-118
139	0x98	-104
140	0xce	-50
141	0x3b	59
142	0xc2	-62
143	0x53	83
144	0xc2	-62
145	0xb2	-78
146	0xa7	-89
147	0x57	87
148	0xfc	-4
149	0x13	19
150	0x11	17
151	0x2f	47
152	0x1b	27
153	0x41	65
154	0x0b	11
155	0x37	55
156	0x3d	61
157	0xc7	-57
158	0x01	1
159	0xeb	-21
160	0xb3	-77
161	0xfe	-2
162	0x04	4
163	0x3c	60
164	0xcd	-51
165	0x8a	-118
166	0xca	-54
167	0xb1	-79
168	0xe4	-28
169	0xa9	-87
170	0x21	33
171	0xf7	-9
172	0xad	-83
173	0x21	33
174	0x93	-109
175	0x5f	95
176	0x4f	79
177	0x54	84
178	0x2f	47
179	0xfc	-4
180	0x42	66
181	0xc8	-56
182	0xd8	-40
183	0xac	-84
184	0x07	7
185	0x20	32
186	0x49	73
187	0x18	24
188	0x81	-127
189	0x17	23
190	0xa6	-90
191	0x9b	-101
192	0x29	41
193	0x15	21
194	0xaa	-86
195	0x39	57
196	0xea	-22
197	0x72	114
198	0x0f	15
199	0x02	2
200	0x2b	43
201	0x9b	-101
202	0x12	18
203	0x9a	-102
204	0x5d	93
205	0x25	37
206	0xf0	-16
207	0xd6	-42
208	0x5b	91
209	0xb7	-73
210	0x4c	76
211	0x07	7
212	0xa0	-96
213	0x71	113
214	0xaa	-86
215	0x0e	14
216	0xb6	-74
217	0x5b	91
218	0x9f	-97
219	0x2a	42
220	0xd0	-48
221	0xcf	-49
222	0x09	9
223	0x9c	-100
224	0xf4	-12
225	0x74	116
226	0xb3	-77
227	0x12	18
228	0xa5	-91
229	0x13	19
230	0x28	40
231	0xe5	-27
232	0xbf	-65
233	0x57	87
234	0x12	18
235	0xe3	-29
236	0x5d	93
237	0x61	97
238	0xca	-54
239	0x8d	-115
240	0xa3	-93
241	0x08	8
242	0xa3	-93
243	0x9e	-98
244	0xe1	-31
245	0xce	-50
246	0x50	80
247	0x5a	90
248	0x70	112
249	0xc1	-63
250	0x97	-105
251	0x9f	-97
252	0xad	-83
253	0xf8	-8
254	0x09	9
255	0x88	-120
